model-fold-7.pth (torch, 68239 bytes, 8 tensors)

layers.0.weight f4 [50, 302]
00000000: 3f83 b4bc 8fbc 683d 64e8 033c 128c 403d
00000010: a1e9 c93c 06be e83c ad3e 633d 8943 133d
00000020: 207b 60bb 120a c93c f870 fcbb bb79 3d3c
00000030: ecea 28bd 8f1a 393d 5668 973c e93e 02bd
00000040: 8fe6 173d 292d cebc 1d63 5e3d a738 32bd
00000050: d267 8d3c 6a50 58bd f958 48bd fda9 40bd
00000060: 4f05 5fbd 6b74 e73b 3790 2e3d deea 813c
00000070: c3ce 4a3d 9d58 8c3c 069f 57bd 498d 4e3d
00000080: 942e 2ebc fa77 c2bc c52b e93c 34fe 85bc
00000090: 14be 1f3c 57e9 e2bc 95f7 013c b735 33bd
000000a0: 81e7 223d b92c 68bd f758 49bb 61c6 b53c
000000b0: a0c7 ee3a 174a 53bb 66f4 32bd f2b4 2dbd
000000c0: 8cf8 6bbc 5bf2 0c3d 950d d93b 5a66 0abd
000000d0: 3ae9 81bc 764b 6d3c 0d5a a2bc 7552 50bd
000000e0: f4e1 2e3c 845a afbc 82aa 933c 0481 063d
000000f0: b4b4 5e3c 0b4b 05bd dc5a afbc 25dd be3c
00000100: ef6e 643d d364 3b3d f543 41bd 2820 e23b
00000110: fba7 423d 737b 2dbd 2745 58bd 3c2c d0bc
00000120: 2d26 0ebc e4e9 bbbc f302 2c3d 481b d7bc
00000130: efdd 653d b8de 4f3d 0fcd c43c 266c b2ba
00000140: d018 40bc 6e4c 37bd 9e94 d03c f12a 553d
00000150: fa98 823c 8a5e 1abd 90b1 29bd fd6b 293d
00000160: ff0b 57bc b440 553c c763 0b3d f898 8dbb
00000170: 6075 8aba 94ca 29bc 0800 edbc 7532 b63c
00000180: 4ee8 00bd b12f af3c 8e7d cd3c 1d3b aa3c
00000190: baac 4abd f2e4 30bd ddd5 0dbd 2df5 a93c
000001a0: 1821 1a3d 2094 96bc f83e e73b 60a1 6c3b
000001b0: ad97 26bc 7e7a 0cbd d0b8 313b cd78 9a3c
000001c0: 46d5 7c3b 0ad4 003d 80a5 6e3b 3ed3 553d
000001d0: cc18 eebc fd7a a23c 2566 1fbb f2fb b2bc
000001e0: f1cf 283d 05ff c63c 9d58 3ebd 291e dabc
000001f0: 66d4 4fbd 0e1b a53c e0bb e8bb ba58 4ebb
00000200: 6380 51bd d2b0 4bbd 4b31 3bbd aa1f 1fbd
00000210: 5434 52bd 8077 74ba 8954 76ba 420b 863c
00000220: 4cb3 333c 4721 253d 9607 91ba 2c67 ef3c
00000230: d995 e13c 246a 553c 42c0 d63c a70a d2bc
00000240: 0688 56bd 150f 393d 4ea1 f6bc 99f3 0d3d
00000250: 61ee 47bd 21d1 60bd a98b 113c 00ee 5fbd
00000260: d583 833c c00b 28bd 94a4 423d 0012 32bb
00000270: 494e aa3c c8c6 5b3d f497 4c3c 2ae1 0dbc
00000280: 8146 423d f741 ecbc 43fe febc 448e 18bd
00000290: fdff fc3c 8981 673d 622f 09bc 6a1c e0bc
000002a0: 64b7 553c 41f0 eaba da4d 12bd 5230 373c
000002b0: ba9d 35bd 40da 073b 7158 00bd c0a6 42ba
000002c0: 2471 6b3c 90fc 08bd 837c 923c a652 373d
000002d0: fa5e 2c3d fc62 12bd 6870 b9bc 9605 56bd
000002e0: 7f89 9abc e36a 573c fdc7 903c 52f0 553d
000002f0: 671f 2fbd ca72 43bb c1a8 b43c ee5f 4dbd
00000300: d127 4bbc f02b 2ebd 65cc 353d f52b c63c
00000310: d60a c1bc ff34 093d c156 163d 77fd 233d
00000320: 1f3f e2bc 8630 ab3c b4c7 7cbc 20f7 0abb
00000330: 8786 7dbb 1b1e efbc 53a6 1c3d 49da 1dbd
00000340: 9ebe 1bbd 0714 27bd 704c 303d 50b9 003d
00000350: ec9e 06bd 21bf 053d e364 173d e099 103b
00000360: 9ec3 1d3c 91b4 b03c 4787 653d c823 51bd
00000370: 4016 6dbc a580 25bd 192c 6c3d b2e6 d93c
00000380: d533 46bd 2dbd fcbb 165a f13c 0030 04bd
00000390: 7a25 81bc 0bee 373d d3e9 5dbd 1349 24bd
000003a0: 7078 7dbc 8275 c1bc 349c 28bd 917b 0d3d
000003b0: c2e3 43bc 1dfd 483c 25eb 8e3c 180f 0f3d
000003c0: e602 2a3d d6dd 523d 5e27 4cbd f185 44bd
000003d0: ed18 383d d9fc 1abc 933b 603d afd2 033c
000003e0: d0d3 45bb 4033 56ba 7b62 ac3a e64e 38bd
000003f0: de67 003d 84fe 003d 5d67 94bb 82fc 563d
-0.02203524 0.05682045 0.008051012 0.04700858 0.024647536 0.028410923 0.055479694 0.03595308
-0.0034253076 0.024540935 -0.0077038966 0.011564667 -0.041239664 0.045191344 0.018482368 -0.031798277
0.037085112 -0.025168018 0.05429374 -0.04351106 0.01726142 -0.052811064 -0.048912976 -0.047037113
-0.054448422 0.0070634387 0.042618003 0.015859064 0.04951359 0.017132098 -0.05264189 0.05042771
-0.010631222 -0.02373885 0.028463254 -0.016356565 0.009749908 -0.027699156 0.007932563 -0.0437524
0.03977156 -0.056683276 -0.0030723193 0.022189321 0.0018217452 -0.0032240206 -0.043690108 -0.04240889
-0.01440252 0.034410816 0.0066239336 -0.033789016 -0.015858281 0.014483323 -0.01981833 -0.050859887
0.010673989 -0.021405466 0.01802564 0.032837883 0.013592888 -0.03254227 -0.02140563 0.02329881
0.055769857 0.04575045 -0.04718395 0.006900806 0.04752348 -0.04235406 -0.052800324 -0.025411718
-0.008676094 -0.022938676 0.041995 -0.026258126 0.056119855 0.05074951 0.02402356 -0.0013612553
-0.011724666 -0.044750623 0.025461491 0.052042905 0.015942086 -0.037687816 -0.041429102 0.04136275
-0.013125419 0.013015915 0.034030702 -0.004321214 -0.0010563545 -0.01036324 -0.028930679 0.022240857
-0.031471543 0.021385046 0.025084283 0.02078014 -0.04948113 -0.04318709 -0.034627784 0.020746792
0.037629217 -0.018381178 0.007057067 0.003610693 -0.010167998 -0.034296505 0.0027118213 0.01885643
0.003857927 0.031452216 0.0036414564 0.05220341 -0.029064558 0.019834036 -0.0024322357 -0.021848653
0.041213933 0.024291525 -0.046471227 -0.02662571 -0.05073967 0.020154502 -0.0071024746 -0.003148599
-0.05114783 -0.049729176 -0.045701306 -0.038848557 -0.051319435 -0.0009325668 -0.0009396752 0.01636279
0.010968041 0.04031494 -0.0011064883 0.029224 0.027537273 0.013025794 0.026214723 -0.025639845
-0.052375816 0.0451804 -0.030106213 0.03465614 -0.04881132 -0.05488694 0.008883395 -0.054670334
0.016054073 -0.04102683 0.047520235 -0.0027171373 0.020789282 0.05365637 0.0124874 -0.00865964
0.04743052 -0.028840048 -0.0311271 -0.03724505 0.030883783 0.05652002 -0.008373113 -0.027357299
0.013044212 -0.0017924384 -0.035718776 0.011180954 -0.044339873 0.0020729452 -0.031334344 -0.00074253604
0.014370237 -0.033443987 0.017881637 0.044756554 0.042082764 -0.03573893 -0.022636607 -0.05225142
-0.018864391 0.013148042 0.017673487 0.05223114 -0.042754557 -0.0029823058 0.022053124 -0.050140314
-0.01239963 -0.04252237 0.04438438 0.024190882 -0.023564737 0.033497807 0.03670383 0.040036645
-0.02761799 0.020897161 -0.015428472 -0.0021204427 -0.003868492 -0.02918916 0.038244557 -0.03853825
-0.038023584 -0.040790584 0.043041646 0.031426728 -0.032866403 0.032652978 0.036961447 0.0022064373
0.009629158 0.021570476 0.056037214 -0.051059514 -0.014470637 -0.040405888 0.057659242 0.026599262
-0.048389275 -0.007712981 0.029461902 -0.03227234 -0.01576494 0.04490475 -0.05417807 -0.04010875
-0.015470609 -0.023615602 -0.041164592 0.03454167 -0.011956157 0.012267378 0.01744611 0.034926504
0.04150667 0.05148109 -0.04984223 -0.0479793 0.044945646 -0.009459698 0.054744314 0.008045836
-0.0030186065 -0.0008171089 0.0013151908 -0.04499712 0.031349055 0.031492725 -0.0045289234 0.052486904

layers.0.bias f4 [50]
00000000: b902 39bd 7e81 cf3c 00d2 6f3b 2091 ce3c
00000010: f0e9 963c fafc 0fbd 22fa 1cbd 3207 d3bc
00000020: d8a3 fbbc abe5 6fbc 74bc 28bd 92d1 c23c
00000030: a074 36bd 0673 cdbc 0ce5 a7bc b1f5 22bb
00000040: f5ab 0a3b fe0e d5bc 8fe8 febc 6ef3 65bd
00000050: 9305 063d 343c e43b a39d 193d 88c9 5e3d
00000060: 532d 3dbd db88 3fbc d95b 25bd e4ec 203c
00000070: 93b4 473d 4510 a23b 0f20 e83b 37f1 e3bc
00000080: 9f1e 243d 6c97 923c 14dc 1b3c 8f89 6dbc
00000090: ac33 48bc 0c4a 0a3d 8190 3c3d 20c9 ce3b
000000a0: 9954 b93c 000b 103d 4b57 6a3d 9bac 17bd
000000b0: 695e ca3b 00f5 a6bc 5fe0 863c 6711 0ebc
000000c0: 8ff5 f23c 90f7 6a3c
-0.045168612 0.025330301 0.0036593676 0.025215685 0.018422097 -0.035153367 -0.038324483 -0.025760267
-0.030717775 -0.014642159 -0.041195348 0.023781572 -0.044544816 -0.025079262 -0.02049496 -0.0024865682
0.0021159623 -0.026008125 -0.031116752 -0.056140356 0.03272016 0.0069651846 0.03750385 0.054391414
-0.046185803 -0.011690344 -0.040370796 0.009822104 0.048756193 0.004945787 0.0070839 -0.027824981
0.040068265 0.01789447 0.00951292 -0.014498129 -0.012219351 0.033762023 0.046036247 0.006310597
0.022623347 0.03516674 0.057212155 -0.037029844 0.0061758053 -0.020380497 0.01646441 -0.008671141
0.029658107 0.01434125

layers.2.weight f4 [20, 50]
00000000: 816e c23c 47ad 083e e212 cdbd d9bc e4bd
00000010: 9ebe 9b3d f4ec 803d b83f 893d 1cf2 a8bd
00000020: 4934 a9bd 1c50 8fbb c9f2 9cbd 00b1 b93a
00000030: 3e8d 58bd e056 eabd bfd6 89bd a17f 0dbe
00000040: bf09 e63d 0e05 d43d 9eca 1a3d c6bd a0bd
00000050: 3d81 fbbd af3b a0bc 9444 b9bd 9409 6a3d
00000060: 6cf7 d33d 2004 ac3d 3cd3 ec3b c5b6 dabd
00000070: e431 b33d 2746 3dba 6dcb b8bd 0cc7 0cbc
00000080: c5f5 af3d cc0d 003e 12ed b5bd ae8c 58bd
00000090: c01f 753d 62f0 30bd e614 c43c 67e3 9bbd
000000a0: efd0 dfbc c9df 803c adca 8abd e151 c23d
000000b0: c04f babd 2204 dc3c 8f61 2ebd e111 d93b
000000c0: bd93 be3d 3066 46bd 5601 e0bd 7478 8e3d
000000d0: 0ea2 eb3d dac4 81bd 28b6 c33c dd11 0c3e
000000e0: 4fe7 f2bd 58b1 d33d 7721 04be 60db 533c
000000f0: 7c0a b9bd 9002 3c3c 982d 12bd 5c05 f9bc
00000100: 8093 63bd 42c2 9e3d 3a9c e1bd 6e9b a53d
00000110: b3f6 053e 3e2c b03d 48f8 883d 1822 1ebd
00000120: df84 f1bd 80c0 313b 50d5 a73d 8200 ee3d
00000130: fad2 cdbd 68f2 5d3d 0e5b e93d 2099 d23c
00000140: 4e4d ecbd c0d6 5a3b 7606 d93d 2f4c 01be
00000150: 4c6a c4bc f8b8 fbbd 60e0 9e3c d454 4c3d
00000160: f62e a93d 6002 b13b f2eb aebd 3da6 0fbe
00000170: 7437 1e3d d84b 7d3d 6ac8 8bbd 8065 5e3c
00000180: a2a9 e93d 46eb f53d e05a 6d3c 4c26 e1bc
00000190: 9f67 c3bd ac49 da3d 38a1 f53c 7703 513b
000001a0: bc3c 743d 23cc 843d 7fcf 4c3d 3910 91bd
000001b0: 224c e53d 65eb 453c 6716 e73d e412 e9bd
000001c0: 70ca 683c 926f 9a3b 694f b2bd 6c8f f6bd
000001d0: 511a 0bbe 9062 94bc 5dbb 2e3d fa43 d3bd
000001e0: 0ce9 b2bd d307 0fbe 6adc c93d 61fe 1d3d
000001f0: e103 db3d 2706 d4bd a63c cd3d 6ad1 e13d
00000200: b0af c23c fbc6 7cbd 7b9a 08be f8c7 7d3d
00000210: 64da 51bd 4004 05be 96a7 d7bd 40e1 59bb
00000220: 2c76 0bbe 3c77 a13d 2476 fe3d e8d2 ce3d
00000230: 3fc2 1fbd c417 67bd 705e 813c 74f1 023d
00000240: 17d0 19bd bf5b 6f3d 4072 bbbd 44d1 9abd
00000250: 81b3 da3d 5f84 e93d 5e85 4f3d 2c05 523d
00000260: 3679 f6bd 4120 e3bd 4983 013c d7d1 03bd
00000270: 663b c43d 2725 10be a8a0 aabd 84a4 fcbd
00000280: 3f35 debd 7449 d63d c777 8abd 0c5a e8bd
00000290: 612f d6bd 521f 85bd be95 9b3d 77f2 cf3c
000002a0: 6041 333d bc34 2a3d b97e 0e3e b066 31bd
000002b0: a7b9 dd3d b949 c5bd 4666 f33b b3a3 ed3d
000002c0: e96c 30bd ccec af3d 095f c73d 7c8e edbd
000002d0: 9b99 fc3d 0597 e5bc 4078 003e 2477 e73d
000002e0: a648 11bd 7918 5fbd 6667 e83d d6fb 093e
000002f0: 1343 083e eca6 1fbd 614b d13d 7a80 0d3d
00000300: 7037 70bc 58a3 843c 30d6 bdbb ac3c bc3c
00000310: 8287 e8bd 8ec0 c13c 375d 84bb 801a 9b3d
00000320: 5ad7 bebd 1ea7 c23d 9a6e e03d 595c b63d
00000330: 5202 d6bd e755 9e3d c9dc bf3d ecbd da3d
00000340: df97 073e 2405 0e3e 842f b43d 3d65 ce3d
00000350: dedf babd 85d5 b73d 9f8b 0fbe a125 5c3c
00000360: 8197 65bd 7b97 1cbd 3bde 343d 4081 88bc
00000370: bade dbbd 0340 d4bd 1e0a 063e 4372 0c3e
00000380: 5ec4 833d 5b14 c6bd 49c9 aebd 48c7 6ebd
00000390: 8822 bc3c 1031 9cba 9203 0bbe 80b3 073e
000003a0: 14bb abbc 0b64 0d3d 48ef 203d 92ea 3ebd
000003b0: aa79 d93d f960 913d 9151 49bd 08c3 ae3d
000003c0: 6097 c3bd e6e3 8ebc e028 513d c3a3 c63d
000003d0: 6469 a3bd 9100 973d 4a1d c0bd b345 a2bd
000003e0: d18e 303d e0b4 133d 4a0b f93d bafb e23d
000003f0: 861e 883d befa a3bd ce36 a03d 0089 e13c
0.023734333 0.1334735 -0.10013367 -0.11168832 0.07604717 0.06295195 0.067016065 -0.08249304
-0.08261926 -0.0043735635 -0.07663495 0.001416713 -0.052869074 -0.11442351 -0.06730413 -0.13818218
0.11232328 0.103525266 0.037790887 -0.078486964 -0.122805096 -0.01955971 -0.09046283 0.05713804
0.10349926 0.08399224 0.0072273295 -0.10679392 0.0874975 -0.00072202313 -0.090231754 -0.008592378
0.08591799 0.12505263 -0.08883108 -0.052868538 0.059844732 -0.043197997 0.023935746 -0.07611733
-0.027321307 0.01573171 -0.067769386 0.094882734 -0.09097242 0.02685744 -0.042573508 0.006624446
0.093055226 -0.048437297 -0.10937755 0.06956568 0.11505519 -0.063363746 0.02389057 0.1367869
-0.11860525 0.1033656 -0.12903391 0.012930721 -0.09035203 0.01147522 -0.035688013 -0.030398063
-0.05556059 0.077518955 -0.11016126 0.080862865 0.1308239 0.086021885 0.06687981 -0.038606733
-0.11792921 0.0027122796 0.08194983 0.116211906 -0.10050006 0.054186255 0.113943204 0.025707781
-0.11538182 0.003339216 0.105969355 -0.12626718 -0.023976468 -0.12291139 0.0193941 0.049885586
0.0826091 0.0054018945 -0.08541097 -0.14028259 0.038627103 0.06183991 -0.06825335 0.013574004
0.11409308 0.120077655 0.014486998 -0.027484082 -0.095412485 0.10658583 0.029984102 0.0031892934
0.059628233 0.064842485 0.05000257 -0.07083172 0.11196162 0.012080048 0.1128357 -0.11380556
0.014208421 0.0047130072 -0.087065525 -0.12039074 -0.13584258 -0.018113405 0.042659152 -0.103157
-0.087358564 -0.13967828 0.09856494 0.038572673 0.10694099 -0.10352736 0.100213334 0.11026271
0.023765415 -0.0617132 -0.1334018 0.061958283 -0.051233664 -0.12989902 -0.10530011 -0.0033245832
-0.13619298 0.0788407 0.12424877 0.10098821 -0.039003607 -0.05641915 0.015792102 0.03196855
-0.037551966 0.058437105 -0.09152651 -0.075594455 0.10678769 0.11402201 0.0506643 0.051274464
-0.12034838 -0.11090136 0.007904836 -0.03218254 0.09581642 -0.14076672 -0.08331424 -0.12336066
-0.1085 0.10463229 -0.06761127 -0.113453 -0.104582556 -0.065001145 0.075969204 0.025384171
0.04376352 0.041554198 0.13915528 -0.04331082 0.10826426 -0.09633202 0.0074279634 0.11603489
-0.043072615 0.08590087 0.097349234 -0.11599442 0.123339854 -0.028026113 0.12545872 0.11302021
-0.035469674 -0.0544667 0.11347847 0.13474974 0.13306837 -0.03897755 0.102194555 0.034546353
-0.014661655 0.01619117 -0.0057933554 0.02297815 -0.11353971 0.023651388 -0.0040394324 0.07573414
-0.09318419 0.09504531 0.109585956 0.08904333 -0.10449661 0.07731228 0.09368283 0.10680756
0.13241528 0.13869148 0.087981254 0.100779034 -0.091247305 0.089762725 -0.14018105 0.013436706
-0.05605269 -0.0382304 0.044157248 -0.016663194 -0.10735841 -0.10363772 0.13089797 0.13715462
0.064339384 -0.09671851 -0.08534486 -0.05829552 0.022965685 -0.0011916477 -0.1357558 0.13252068
-0.02096323 0.034519237 0.039290696 -0.046610422 0.10618909 0.07098574 -0.049150053 0.08533293
-0.09550357 -0.017442655 0.051064372 0.09699204 -0.07979086 0.07373155 -0.093805864 -0.0792345
0.04310495 0.036061168 0.12160356 0.11083169 0.06646447 -0.0800681 0.07822953 0.027531147

layers.2.bias f4 [20]
00000000: f422 9d3d 3d4a 9fbd 5b2a 49bd f611 043e
00000010: 66d1 923d 4044 8dbb c1d8 8dbd 808c 423d
00000020: 55cb 89bc a08c d13d 87ad ccba 774f 293a
00000030: 94f7 5e3d 8256 143b d747 353d 18a8 b83c
00000040: 3c09 03be c96f bf3d ac53 3b3d f320 363b
0.076726824 -0.07777832 -0.04911266 0.12897477 0.07168846 -0.0043111145 -0.06926108 0.047497272
-0.01682059 0.102319 -0.001561568 0.00064586796 0.054435328 0.002263457 0.044257965 0.02254109
-0.12796491 0.09347493 0.045734093 0.0027790635

layers.4.weight f4 [10, 20]
00000000: d959 d03d 3109 39be acee b0bd 9df9 92bd
00000010: 3253 f83c 9624 573e 0481 2ebe 80c8 13bc
00000020: ebef 18bc 58b4 573d 923e 513e adf3 063e
00000030: 759a 153b d8d6 0fbe a9d2 c8bd 80b9 a8ba
00000040: bdc6 aa3d ecc8 a5bc c7ce 5fbe d3aa b5bc
00000050: 33aa 9c3d 9627 8cbd 5623 383e 5c32 513e
00000060: 9235 183e 9fcf 0bbe 29d6 07be 58d1 e1bc
00000070: 3a5c 4cbd 33b2 293e 48e2 38be 17c0 26be
00000080: c588 56be 5d2a 913d b332 b2bd 2658 473e
00000090: a2db e3bd deb8 5fbe f388 0abd 0dc9 94bd
000000a0: 8002 b53d 2655 bcbd 3cf0 f0bd b6a6 933c
000000b0: 669e 50be eb9f 2ebe 90de f33d 66a6 063e
000000c0: bc44 8b3d 375a f53c fb0f bd3d fc20 1f3e
000000d0: bd8b d13d 007e dc39 ea62 62be 294d 39be
000000e0: 8fb4 a43d 5459 3dbe 822b 2dbc 2e85 f5bd
000000f0: f01b 033c 2048 9c3c a8ab 6e3d be83 3b3e
00000100: 3c3a 22be a08c da3c 3e7f 443e 7ca3 ec3d
00000110: 48cb 223d fc31 09be c008 e03d b47d 303e
00000120: 50de 4d3d f400 dfbd 0167 33be c8bb 1fbd
00000130: c0c8 423b a8ee cb3d b07e b9bd 80a1 a3ba
00000140: 4349 ac3d a006 08bd 24b8 a63d d42c 12be
00000150: 6b00 353c d911 fdbd 6c4c ab3d 7050 bd3d
00000160: b8d1 9fbc 75be 12be adc9 593d 1a30 ed3d
00000170: 9154 553e 36aa 6939 df31 653d 6465 02be
00000180: b81b 123e 1ba7 50be 5900 83bd 2ed1 76bd
00000190: f199 e7bc f824 53be 6ccd 9ebd 6d48 9e3d
000001a0: 64ea 163d b2ba 9dbd e8de 573e c84b 993d
000001b0: 2607 653e 5baa 433e ad7f 5bbe 6aaf 313e
000001c0: 4f3a 1cbe 416d f53d 6c0a 373d 2207 b3bd
000001d0: 5be1 003e a9fe 0ebe 9df9 febd e7de f63d
000001e0: a478 513e 70c5 15bd b81c 0ebe f775 573d
000001f0: 26f2 f7bc ba9f 89bd 5523 573e 60c1 e53d
00000200: d802 f33d c6bd 2cbe 8009 5b3e b381 ba3d
00000210: d173 03be 6f7f c2bd 9432 57bc 54cf 3d3e
00000220: 118e 75bc 74f9 273e 1b21 ab3d dda4 4dbd
00000230: 1075 cd3c 0027 bebb 48e9 1d3d 74ac 3e3e
00000240: f28f 393e 40c1 87bd a8bc 43be 08b7 8b3d
00000250: 94e1 523e dadd 1a3e c40f 48bd ecbb f43d
00000260: ca48 613e 74ab 2b3e 70a0 0f3c 38ee d43d
00000270: 600d 97bd 3a68 253e ba22 41be 04d2 b5bd
00000280: aef5 3bbd 42d1 283e cfe9 11be e582 3a3d
00000290: 40e5 2ebe 540b 5ebe cbf5 3b3e 086a 433d
000002a0: aadc 403e e493 18be 500a 5f3e 49ff 4c3d
000002b0: df5a db3d c243 bebd c7da 5dbe aa37 4f3e
000002c0: 2e18 613e f4c7 fc3d 40d5 0f3d 56f8 1cbc
000002d0: e807 653d 668f 413e d8a2 4bbe 72c3 20be
000002e0: 6237 10be 804e d6ba b2bb a4bd 4873 5dbd
000002f0: d1c2 46be 16b1 50be b4e0 be3d 44a6 133e
00000300: 1878 a13d b02e 8f3c dc79 50bd b0c0 233e
00000310: 3c0f a0bd 18c2 fcbc 62b2 403e 781b 413d
0.10173387 -0.18069912 -0.08639273 -0.07176516 0.030313108 0.2101005 -0.17041403 -0.009019971
-0.009334545 0.052662224 0.20434025 0.13178892 0.002282766 -0.140468 -0.09805805 -0.0012872666
0.083386876 -0.020237409 -0.21856223 -0.022176182 0.076496504 -0.06843488 0.1798223 0.20429367
0.14864185 -0.1365342 -0.1326529 -0.027565643 -0.04989264 0.16571884 -0.1805507 -0.16284214
-0.20950611 0.07088158 -0.08701076 0.1946722 -0.11125876 -0.21847865 -0.03382201 -0.0726491
0.088383675 -0.09195928 -0.11764571 0.01802383 -0.20372924 -0.17053191 0.11907685 0.13149413
0.068002194 0.029950244 0.09231564 0.15539926 0.10231731 0.00042055547 -0.22108045 -0.1809584
0.08042251 -0.18491107 -0.010569455 -0.11988293 0.008002266 0.01907736 0.058269173 0.18311974
-0.15842527 0.026678383 0.19189164 0.1155462 0.039744645 -0.13397974 0.10939169 0.17235452
0.05026084 -0.10888854 -0.17519762 -0.03899744 0.0029721707 0.099576294 -0.09057367 -0.0012484044
0.08412411 -0.033209443 0.08140591 -0.14274913 0.011047463 -0.1235692 0.08364186 0.09243858
-0.019509181 -0.14330466 0.05317085 0.1158144 0.20833041 0.0002228402 0.055955764 -0.1273399
0.14268386 -0.20376246 -0.06396551 -0.060258083 -0.028271647 -0.20619571 -0.07754025 0.07728658
0.036844626 -0.07701625 0.21081126 0.07485157 0.22366008 0.19107954 -0.21435423 0.17352071
-0.15256618 0.11983729 0.044687673 -0.08741595 0.12585966 -0.13964333 -0.12449954 0.12054234
0.20456177 -0.036565244 -0.13878143 0.052602734 -0.030266833 -0.067199185 0.21009572 0.11218524
0.11865777 -0.16869268 0.21390343 0.091067694 -0.12837149 -0.09496962 -0.013134617 0.1853612
-0.014987485 0.16403753 0.08355924 -0.050206054 0.025080234 -0.005802989 0.038552552 0.18620473
0.18121317 -0.066286564 -0.19114935 0.0682202 0.20593864 0.15123692 -0.04884316 0.11949906
0.22000423 0.16764623 0.008766279 0.10396999 -0.07375598 0.1615304 -0.18860903 -0.08877948
-0.045888595 0.16486076 -0.14249347 0.045534987 -0.1707964 -0.21684009 0.18355481 0.04770854
0.18834177 -0.14900166 0.21781278 0.050048146 0.10710692 -0.092902675 -0.21665488 0.20236078
0.2198188 0.123428255 0.03511548 -0.009580692 0.055915743 0.18902358 -0.19886339 -0.15699556
-0.14083627 -0.0016350299 -0.080436125 -0.05406502 -0.19410254 -0.20380053 0.093202025 0.14418894
0.07884234 0.017478317 -0.050897464 0.15991473 -0.07815406 -0.03085427 0.18818048 0.047145337

layers.4.bias f4 [10]
00000000: 0825 4c3e 0808 693d 5dc5 acbc 6446 53be
00000010: bb7b 443d 33a9 e83d 262e d93d 067d 3fbe
00000020: 2d90 e53d 0640 a0bd
0.19936001 0.056892425 -0.021090204 -0.2063232 0.04796956 0.11360397 0.10604505 -0.18700036
0.1120914 -0.078247115

layers.6.weight f4 [2, 10]
00000000: fc08 db3d 8f73 86be 36af 993d 9337 42be
00000010: e020 f23d 280b 6cbe 9c49 49be ba24 62be
00000020: 9836 ab3d 6089 55bc e81f 8bbe f81e 87bc
00000030: 6012 6fbe b8b0 4c3d 26b6 9c3e 9438 37be
00000040: 23f3 a4bd 07e0 9d3e 05ad 56bd 63f1 32be
0.10695073 -0.2626004 0.07504122 -0.18966512 0.11822677 -0.23051131 -0.19656986 -0.22084323
0.08360022 -0.013033241 -0.2717278 -0.01649426 -0.23346853 0.04997322 0.30607718 -0.17892677
-0.08054187 0.30834982 -0.052411098 -0.17474894

layers.6.bias f4 [2]
00000000: dc8d 97bd d0f3 433e
-0.074001044 0.19135976
