model-fold-6.pth (torch, 68239 bytes, 8 tensors)

layers.0.weight f4 [50, 302]
000000 83 4f 17 bd 4b 9f 30 3d 51 54 9f 3b d9 26 68 bd
       -0.036941063 0.043120664 0.004862346 -0.056677673
000010 a4 a9 25 3d d8 76 e5 bc c6 41 2f 3c f6 86 fc bc
       0.040444985 -0.02801077 0.010696834 -0.030826073
000020 df ae 41 bd 65 a4 c3 bc f4 60 1d 3d 4f dd 69 bb
       -0.04728591 -0.0238821 0.03842254 -0.0035684889
000030 87 ed bf 3b ca 41 8b bc ce e3 38 bc 05 60 ce bc
       0.005857173 -0.016999144 -0.011284782 -0.02519227
000040 62 78 46 bd 8d 45 54 3d ae aa 39 bc a0 05 df bc
       -0.04845465 0.05182414 -0.011332197 -0.027224362
000050 46 cd 29 bd 1e 78 b1 bc ef b3 52 3a 1d 0b d4 3c
       -0.04145553 -0.021663722 0.00080376765 0.025884205
000060 39 0f 26 3c 5d 76 b7 3c a9 fe e5 bc fe 7c c6 3c
       0.010135465 0.022395307 -0.028075533 0.024229523
000070 25 b0 39 bc 0d 03 13 3d b8 9b 44 bb 08 0c 16 3d
       -0.0113335 0.03589158 -0.0030000042 0.036632568
000080 3f 8c 74 3c 1e 71 34 bd 8c 82 0c bd ce 4f f3 3c
       0.014926015 -0.04405319 -0.034304187 0.02970114
000090 9b 34 9b ba 7b f6 e6 bc 97 4b 5f 3d fa 5c 68 3c
       -0.0011841239 -0.028193703 0.054515447 0.014182324
0000a0 ee 0a 8e 3c 59 f9 f5 3a 43 18 57 3c 7e e0 ab 3c
       0.017339196 0.0018766328 0.013128343 0.02098107
0000b0 b8 42 6b bb ff 83 2d bd bc de 65 3d c7 7f 70 3c
       -0.0035897922 -0.04236221 0.05612062 0.014678902
0000c0 8c 4a 14 3c 2c d5 ea 3c a6 d5 57 bd 37 13 09 3c
       0.0090509765 0.028666101 -0.052693985 0.008366398
0000d0 0e 78 56 3c ee 5e ea 3c ae 1b 0d bd fc b4 40 3d
       0.013090147 0.02860972 -0.034450226 0.0470476
0000e0 b5 3d 0d 3d 35 8e 92 bc 80 e1 13 3d 29 c2 1c 3d
       0.034482677 -0.017890075 0.036103725 0.038271103
0000f0 1b 3f e7 3c 70 5f 92 3b 7f d5 60 bd 73 90 8b 3c
       0.028228333 0.0044669434 -0.054891106 0.017036652
000100 89 69 37 bc 63 29 c0 bb 13 56 46 bd 57 a8 45 3d
       -0.011194595 -0.0058643087 -0.04842193 0.048256245
000110 ed 68 df 3a 6c 78 2c 3d 41 2e 64 3d 1b 81 25 bd
       0.001704482 0.04210703 0.055708174 -0.040406328
000120 33 9f 7b bc 77 bb 2b bd 09 94 00 bc dd db 14 3d
       -0.01535778 -0.041926827 -0.007847794 0.03634249
000130 98 25 2e bd d9 da 55 bd ed 79 4e 3c f0 17 22 3d
       -0.04251632 -0.052210663 0.012602312 0.03957361
000140 80 fd 2e 3d 8a 75 af 3c 3c ef e6 bc 5d a5 19 bd
       0.042722225 0.021418352 -0.028190248 -0.03751122
000150 7d f3 3e bd a9 f5 fc bc 89 a5 89 3b f8 ba 96 3c
       -0.046618927 -0.030878859 0.0042006415 0.0183997
000160 57 77 14 3c 99 bc 31 bd 3d 0c 00 bd 81 28 1f bd
       0.009061656 -0.04339275 -0.03126167 -0.038856987
000170 d1 23 93 3c 37 51 fb bc 55 65 65 3d 1a e7 15 3d
       0.017961415 -0.030678375 0.05600484 0.03659735
000180 95 c3 2d bd d5 36 4f bd 9e 12 4c bd 75 66 f5 bc
       -0.04242285 -0.0505894 -0.049822442 -0.029956082
000190 e3 a0 3a bd 68 1e a1 bc da ce 2f bd 6d 10 7e bc
       -0.04556359 -0.01966782 -0.04292188 -0.015506846
0001a0 5f 5b 55 bd f7 f3 cd 3b ad 21 8c 3c 39 b1 15 bd
       -0.05208909 0.0062851864 0.017105902 -0.036545966
0001b0 6f 87 fc 3c d5 25 1a bd 29 4b 62 bc 0d 9a 61 3d
       0.030826299 -0.037633736 -0.013811865 0.055078555
0001c0 d8 1b eb 3c b8 a1 88 3b ae fc 29 bd a3 56 66 3d
       0.0286998 0.004169669 -0.04150074 0.056234967
0001d0 6d fd 36 bd 8e f8 b9 ba 9b 0c 43 3d 71 5b c3 3c
       -0.04467528 -0.0014188455 0.047619443 0.023847314
0001e0 d5 00 7b 3c 20 e2 1e 3d 31 84 a9 bc 86 1a ca bc
       0.015320023 0.03878987 -0.020692917 -0.02467085
0001f0 d9 4e 10 bd df fc cd 3c 2c bd 00 3d ee 83 d0 3c
       -0.035231445 0.025144992 0.03143041 0.025453534
000200 76 dc 1d bd e5 4f 8a 3c 26 6d 5f 3d 84 fb 47 bd
       -0.038540326 0.0168838 0.05454745 -0.04882385
000210 2a 09 3d bd 3b 8c 8d 3c 42 38 a4 3c ff 9e b6 bc
       -0.046151318 0.017278781 0.020046357 -0.022292612
000220 36 41 0b 3d bb 6a ca bb 90 c7 1f bd af d5 b4 3c
       0.033997737 -0.006177274 -0.039008677 0.022074549
000230 01 a4 58 ba 46 84 02 bc 17 ea b0 bc d8 5c f2 3b
       -0.00082641846 -0.007966107 -0.021595998 0.0073963217
000240 da 32 19 3d 4d b8 81 3c 70 f5 19 b9 11 d8 4c bb
       0.03740201 0.015834952 -0.0001468265 -0.0031256715
000250 64 e0 3b bd 7e 30 96 3c e4 b5 9e bc 56 c2 0e bb
       -0.045868292 0.01833367 -0.019373842 -0.0021783314
000260 be 18 f0 3c f4 dd 68 bc ba 1c 05 3d 10 9a 33 bd
       0.029308673 -0.014213074 0.0324981 -0.043848097
000270 53 fe 3b 3d 43 d5 29 bd 71 3d 86 3c b9 41 47 bd
       0.04589684 -0.041463148 0.01638672 -0.048646662
000280 31 15 17 bc d0 3e 17 3c 11 4a f3 bb 2d 37 3a bd
       -0.009221361 0.009231284 -0.007424601 -0.045462776
000290 48 c3 24 3d 89 a6 f7 3c 25 f9 9f bc ae 5c 26 3d
       0.040225297 0.030230777 -0.019527981 0.04061573
0002a0 85 f4 5a 3d 7a a6 f1 3c 61 14 c9 3c bc 4a 3d 3d
       0.05345585 0.029498328 0.02454585 0.04621385
0002b0 96 0a 09 bc 33 5a 3c 3d 9d 47 0d bd 1b 03 17 3d
       -0.00836434 0.04598446 -0.034492124 0.036868196
0002c0 83 d0 23 3d 1a dc 36 3d 88 cb aa bb aa 56 63 bd
       0.039993774 0.0446435 -0.005212251 -0.05550257
0002d0 56 89 b3 bc 05 84 b2 3c 10 90 0b bd bd 2e 65 bd
       -0.021916073 0.021791467 -0.034072936 -0.055952776
0002e0 87 20 0e 3d b2 15 2a 3d 0f 30 2c 3d 66 4a b8 3c
       0.03469899 0.041524597 0.04203802 0.022496413
0002f0 6b 9c 2b 3d 88 c2 61 3d 12 8f 63 3c 74 00 44 3d
       0.04189722 0.05511716 0.013889091 0.047851995
000300 c9 be d9 3b 2f 16 2e 3c 26 02 16 bc 00 aa 43 3d
       0.006645058 0.010625406 -0.009155786 0.047769547
000310 17 60 a0 bc 34 2f 5d bd af 11 55 bd 6f 37 9c bb
       -0.01957707 -0.054000095 -0.052018818 -0.0047673504
000320 bc 0f ef bc db 89 dd 3c 47 dc 63 bc 02 e4 0b bd
       -0.029182307 0.027043274 -0.013907499 -0.034152992
000330 05 37 dd 3c ba c1 e8 bb ed 3a 95 3c 2d f4 77 3c
       0.027003774 -0.007103172 0.018216575 0.0151339
000340 40 5c 1c bd 26 f2 dc 3b 0b 38 14 3c f6 fd 0b 3d
       -0.038173914 0.0067427335 0.009046565 0.034177743
000350 a8 43 b0 bb 10 68 2f 3d 08 2e 20 3d b8 8d e6 bc
       -0.005379159 0.04282385 0.0391064 -0.028143749
000360 9e 66 6b bd 70 59 43 3d 84 8d 5b bd 3d df 68 bc
       -0.05747091 0.047692716 -0.053601757 -0.01421338
000370 46 1c dd 3c ba f6 64 3d 4a 59 63 bd f7 99 62 bb
       0.02699102 0.05589936 -0.055505075 -0.0034576633
000380 f4 d8 5e 3d 12 8b ff 3c 17 c1 8c 3b ab ba 0c 3d
       0.05440612 0.031194244 0.004295479 0.034357708
000390 1b 7a 1d bd d8 b3 01 3d a3 0f 6d 3d b0 b0 54 bd
       -0.038446527 0.031665653 0.05787624 -0.051926315
0003a0 5c 9e fb bc f6 ec 3f 3d 6e f9 83 bb 1b 92 f8 bc
       -0.03071516 0.046856843 -0.004027537 -0.030343106
0003b0 14 77 f5 3c 0c 8a e0 bc b5 f8 92 bc 87 d1 b1 bc
       0.029964007 -0.027409576 -0.017940858 -0.021706356
0003c0 2c 0d 3d 3d 4c 17 dc bc 22 ab 39 3d 02 b8 12 bd
       0.04615514 -0.026866578 0.04532922 -0.035820015
0003d0 3f de f6 bc 87 a0 63 3b da 13 0a bd 16 2e 47 bc
       -0.030135272 0.0034733133 -0.03371034 -0.012156984
0003e0 54 bc ec bc ef d5 52 bd 50 46 b6 3c de 2c ee bc
       -0.028898396 -0.051473554 0.022250324 -0.029074129
0003f0 c8 cc cf bc 3c 87 c3 bc 60 dd 11 3d 27 77 cd bc
       -0.025366202 -0.023868196 0.03561151 -0.02508123

layers.0.bias f4 [50]
000000 33 d0 3d bd c0 93 4a 3d c9 c5 d6 bc 5e e2 de bc
       -0.046341132 0.04945731 -0.026217358 -0.02720755
000010 f3 d9 2f 3d b4 90 0d bd ed 47 24 3d dc 93 40 3d
       0.042932462 -0.034561828 0.040107656 0.04701601
000020 d9 7c 55 bd 0c ca 0a 3d d8 8a 00 bd 62 45 a5 bc
       -0.052121017 0.033884093 -0.03138241 -0.020174686
000030 a4 00 67 bd be f9 26 bd 76 3f 65 3d 7d fd b9 bc
       -0.056397095 -0.040765516 0.055968724 -0.02270388
000040 46 a8 0a bc e3 00 3d 3d 3b 45 fb bc c5 11 69 bc
       -0.008462971 0.046143424 -0.03067266 -0.014225428
000050 28 03 fa bb 83 c4 2d 3a d0 f5 e8 b9 0b 6f 58 3d
       -0.007629771 0.0006628709 -0.00044433633 0.052840274
000060 68 d7 6f 3c 62 b0 58 3b d0 da d1 3c b1 2d 5b bd
       0.014638759 0.0033064117 0.025617033 -0.05351037
000070 1b 1f 6f bb d4 cf 4d bc 58 f6 d4 bc 8f 62 b2 bc
       -0.0036487046 -0.012561757 -0.025996372 -0.021775512
000080 6f dc 6c bd 5f ae 93 3c 90 40 5f bd 54 d2 1d bd
       -0.05782741 0.018027483 -0.05450493 -0.038530663
000090 99 45 1c bd 1a 8e c6 3c 4f d0 bb bb 6b 8b 6c 3d
       -0.03815231 0.024237681 -0.0057316194 0.057750147
0000a0 e6 b6 03 bd 4e 62 5e 3b 55 c1 df 3c 1a e8 37 bd
       -0.032156847 0.0033933106 0.027313868 -0.044899084
0000b0 1a c5 31 bd 70 0e 1b bc 20 67 a4 3b ba 5b 11 bd
       -0.04340086 -0.009463891 0.0050171763 -0.035487868
0000c0 64 62 d8 bc 1d 66 5d 3d
       -0.026414104 0.05405246

layers.2.weight f4 [20, 50]
000000 25 74 ac bc a6 0e f3 3d ca 9a 2c 3d 2c 58 4b bd
       -0.021051476 0.11868028 0.042139806 -0.049644634
000010 66 9b 62 bd 20 00 4d 3d 40 7f 7b bc 62 79 9b bd
       -0.05532398 0.050048947 -0.015350163 -0.07591511
000020 52 6c cd bd 22 01 aa 3d 63 ca da bb 4e 27 d0 bd
       -0.10030426 0.08300997 -0.0066769584 -0.10163747
000030 63 53 8d bd 67 36 8f 3c a1 60 da ba 1e a0 9f bd
       -0.069006704 0.017481996 -0.0016660878 -0.07794212
000040 43 32 b5 bd fd 1f 8e bd 98 63 8e bd f8 bc d0 3c
       -0.08847477 -0.06939695 -0.0695259 0.025480732
000050 90 21 a5 3d ea d8 b7 3d ae a5 ca bd d5 10 59 bb
       0.08063042 0.0897692 -0.09894882 -0.0033121605
000060 97 65 f1 3d f9 d1 1d 3b c7 20 97 3b 38 4b b4 3b
       0.11786955 0.0024081452 0.0046120617 0.005502131
000070 7b d6 d4 3c b7 4d bc bc 7b 5e 30 bd b8 0c 0e 3e
       0.025981179 -0.022986276 -0.043058854 0.1387204
000080 f9 3e f4 3d 80 37 84 3b de 01 ce bd 32 20 54 bd
       0.119260736 0.0040349364 -0.1005895 -0.051788516
000090 2e d4 38 bd 5f ac e7 3d 53 87 bc 3c 38 73 03 be
       -0.045124225 0.11312174 0.023013746 -0.12836921
0000a0 be 6e f0 bd e4 c5 0d 3e 43 76 33 3d 6d c0 cd 3d
       -0.117398724 0.1384502 0.043813955 0.10046468
0000b0 b2 e4 fa bd 41 b7 db 3d 35 54 d2 3c 61 79 03 3e
       -0.122506514 0.10728312 0.025674919 0.12839271
0000c0 80 26 36 3d 6f 62 0e be d4 0f 6d bc 76 65 98 3c
       0.04447031 -0.13904737 -0.014469106 0.018603068
0000d0 47 6e e3 bc 3b 93 76 bd 91 c5 03 be 63 12 fa 3d
       -0.027762545 -0.060199004 -0.12868334 0.12210538
0000e0 f4 0c 11 3c 1a 3d cd bd 06 e8 f8 bd aa 4a b1 bd
       0.008853186 -0.1002142 -0.1215363 -0.08656819
0000f0 26 8f 10 3d 42 04 a2 bd 9e 8a 39 3d 84 3f 58 bc
       0.035292767 -0.07910968 0.04529821 -0.013198737
000100 e6 eb 1b 3d 5d 70 05 be 07 af 12 3e e2 a6 d1 3d
       0.038066767 -0.13031144 0.1432458 0.102369085
000110 da 86 33 3d b2 95 e6 3d c1 7b de bc 9a 1f 80 3d
       0.043829776 0.11259021 -0.02715862 0.062560275
000120 33 d2 ee bd 72 6e 87 3d f0 28 bd 3c ec 4e 07 3e
       -0.11661186 0.06612863 0.02309081 0.132137
000130 e3 44 eb bc 2f 41 80 3d 2e 4f b9 bd 95 9c 4c bd
       -0.028719371 0.06262433 -0.090483055 -0.049954016
000140 61 62 24 bd b4 85 eb bd 90 cf a6 3d a2 53 b2 bd
       -0.040132884 -0.11500111 0.08145058 -0.08707358
000150 c0 dc 8c bd 1e 03 f1 bd 2c 75 a4 3d ac 6e f2 bc
       -0.06878042 -0.11768173 0.08030161 -0.029593788
000160 f7 7d 5e bc 0b 21 e2 3d 3f 91 d7 3d 7c 03 3f 3d
       -0.013579837 0.11041459 0.1052575 0.046634182
000170 be ba ab 3c 12 f4 ec bd 1c 88 eb 3d 1f 5f 03 3e
       0.020963069 -0.1156999 0.1150057 0.12829255
000180 0f 2c 06 be 18 71 b8 bc c0 79 b3 bd 35 3e eb bb
       -0.13102745 -0.022514865 -0.08763456 -0.0071790465
000190 08 74 da 3c 6e 60 fa bd 72 6e 0a be f0 26 6e 3c
       0.026666656 -0.12225424 -0.13518694 0.014535651
0001a0 a5 c7 ac bd 0b fe 85 bd ba 02 10 be f7 ce 02 be
       -0.08436517 -0.065425955 -0.1406354 -0.12774263
0001b0 1c 36 a6 bd 0e 25 f9 bd f0 80 63 3d 5e a3 73 bd
       -0.08115789 -0.12165271 0.055542886 -0.05948197
0001c0 3a 37 e6 3d d0 28 9b bc 42 92 c1 bd 44 82 f4 bc
       0.112410024 -0.01894036 -0.094517246 -0.029847272
0001d0 32 16 a1 3d b0 cf d4 3c 4f 0d 0e be 04 bb 30 3d
       0.078655615 0.02597794 -0.13872264 0.043147102
0001e0 b9 22 07 3e 7c f6 9b 3d 0a c8 cd 3d a8 f7 d2 bc
       0.1319684 0.076153725 0.1004792 -0.025752857
0001f0 a5 c3 02 be d0 12 77 bd 5d 8f e5 bd a9 ec 0d 3e
       -0.12769945 -0.060320675 -0.11208985 0.1385981
000200 b8 4d a4 bc 84 59 a2 bc 09 a0 07 be 05 7d 08 3e
       -0.02005659 -0.019818075 -0.13244642 0.13328941
000210 e0 d0 a9 bb f0 31 d2 bc 2a 1c 89 3d 56 9f 98 bd
       -0.0051823705 -0.025658578 0.06694825 -0.07452266
000220 28 d8 e8 bc a6 cf 88 3d a4 ca a1 3d 00 40 69 bc
       -0.028423384 0.06680231 0.07899979 -0.01423645
000230 0c b6 fb bc 90 c5 a7 bc da 7f cd bd 0e e7 ae bd
       -0.030726455 -0.020479947 -0.100341514 -0.08540164
000240 e8 03 8e bd 9f 00 07 3e 5a fb ef 3d 18 ac 6c 3d
       -0.06934339 0.1318383 0.117178634 0.05778131
000250 c5 cd e2 bd a2 2a 0f bd 4e 27 94 bc 93 54 11 3d
       -0.11074404 -0.034952767 -0.018085148 0.035481047
000260 65 7f 9c bd a0 cb c7 3d a1 cd fc 3d 29 4a d0 bd
       -0.07641486 0.09755635 0.12343908 -0.10170395
000270 0b 4c d1 3d bb 0f d7 3d 51 07 cf 3d 89 83 8b 3d
       0.10219582 0.10501047 0.10108817 0.06812198
000280 4e 4e 73 bc ba 66 c6 bc 9e fc e7 bd 5c bd 0d be
       -0.014850212 -0.024218906 -0.1132748 -0.13841766
000290 ea 26 4d bd 36 31 07 3e 34 30 df bd 29 d0 f5 3c
       -0.05008594 0.13202366 -0.10897866 0.030006485
0002a0 03 11 3d bd bf 73 22 bc 39 52 90 3d f3 2a a0 3d
       -0.0461588 -0.009915291 0.07046933 0.07820692
0002b0 2f 71 1c bd 92 38 88 3d 58 83 1a bc c7 cc 8a bc
       -0.038193878 0.06651415 -0.009430729 -0.016943349
0002c0 11 47 35 3d d2 f8 c5 3c 11 ab 8e bd 85 65 87 3c
       0.044257227 0.024166498 -0.06966222 0.0165279
0002d0 e8 7d 90 bd 92 cd 17 bc 7f 0d 02 3e aa 64 f8 bd
       -0.07055265 -0.00926532 0.12700461 -0.12128575
0002e0 f2 f8 69 bd a0 a6 89 bc 65 61 cc bd cc 6b c8 bd
       -0.05712218 -0.016803086 -0.09979514 -0.097861856
0002f0 ea 21 04 3e d4 c1 f7 bd c0 98 76 bd f1 c1 be 3d
       0.12903562 -0.12097517 -0.060204268 0.09314335
000300 33 5e 7a 3d 7f 35 ec 3d f7 98 39 3d 27 03 c6 bc
       0.06112499 0.11533641 0.045311894 -0.024171425
000310 b3 4a 0a be d1 7b c1 3d 97 a5 ff bd 4c 80 88 bd
       -0.13505058 0.09447444 -0.12482756 -0.06665096
000320 84 ad 6a 3d 28 6b f3 3d 3c 86 59 bd 9e f1 6c bd
       0.057294384 0.11885673 -0.05310653 -0.05784761
000330 e9 80 0e be cc 4e 09 3e 75 eb a3 bd 20 c2 cb bb
       -0.13916363 0.13408965 -0.08003894 -0.00621821
000340 61 32 1e 3d 1c c4 25 3d 0e bf 98 3d 80 46 9e 3b
       0.038622264 0.040470228 0.07458316 0.0048301816
000350 b0 c6 d6 bd a0 f0 f3 bb c2 61 ad 3d 24 e8 4a 3d
       -0.104871154 -0.007444456 0.084659114 0.049537793
000360 2c 0b 3f 3d db 6c 22 bd 40 ad 64 bc fa f1 f4 3d
       0.046641514 -0.039654594 -0.013957322 0.11960216
000370 11 01 d3 3d e5 1c d5 bd 62 1b e7 bd fa 6a 0e 3e
       0.10302938 -0.10405902 -0.1128452 0.13907996
000380 ea 94 4d bd 06 5f a1 3d 2e 68 fd bd 18 91 c5 3c
       -0.050190844 0.078794524 -0.12373386 0.024117038
000390 60 e5 06 3d 94 06 d3 bd d4 0b 69 3d f8 54 b0 3d
       0.032933593 -0.10303989 0.056896046 0.086099565
0003a0 dc fc c7 3d a4 a7 dc bc 30 16 03 3c 4a 2a ef 3d
       0.09765026 -0.026935406 0.008000895 0.11677988
0003b0 6a c5 b3 3d 75 7c b7 bd d8 5b bc 3d 35 07 92 bd
       0.08777888 -0.08959285 0.09197205 -0.07130281
0003c0 cb 8a df 3d dd 43 ce bd ac e7 de bd c0 b7 54 3c
       0.109151445 -0.10071538 -0.10884032 0.012983263
0003d0 8a 93 77 bd 4f 7b 3b bd c6 5f 16 bd 0a df 6e bd
       -0.06044344 -0.045771893 -0.03671243 -0.058318175
0003e0 3d 8b e0 3d 88 1d 17 bd 54 3e 2d ba 00 b1 32 3d
       0.109640576 -0.036893398 -0.0006608714 0.04362583
0003f0 58 89 e1 3d b7 86 eb bd 2b 62 fa 3d 7a b4 09 bd
       0.11012524 -0.11500304 0.12225755 -0.03361938

layers.2.bias f4 [20]
000000 0e cb 50 bb 88 8c 06 3e b2 97 c9 bd 6e b3 10 be
       -0.0031859311 0.13139546 -0.09843387 -0.14130947
000010 c3 8c 88 bd 46 07 2b 3c a5 09 c3 3d fa 99 9f 3c
       -0.06667473 0.010438746 0.09523324 0.019482601
000020 26 34 af bd de eb bb 3b 1c 74 7f bd 98 4d 09 3e
       -0.085548684 0.0057349047 -0.06236659 0.13408506
000030 51 19 74 3c e6 a2 fc bd 8c 36 03 3e 11 77 90 bd
       0.014898614 -0.12335758 0.12813777 -0.0705396
000040 6c 95 cf bd a6 d8 cc bd 46 32 ec 3d bc 7d 03 be
       -0.10135922 -0.1000226 0.115330264 -0.12840933

layers.4.weight f4 [10, 20]
000000 30 d7 0b 3e 47 e2 18 be 53 f7 fc bd e6 f3 24 3e
       0.13656306 -0.14930068 -0.12351861 0.16108665
000010 fd fd 27 be 85 8a 40 be e5 56 e9 bd 48 fa 41 3e
       -0.16405483 -0.18802841 -0.11393527 0.18943131
000020 20 17 73 bc 15 49 47 3e 6e 17 12 3e c7 dd be bd
       -0.014837056 0.19461472 0.1426675 -0.093196444
000030 c2 5f c5 bd 2a 6c a3 bd c4 ee d4 3d 36 1c e8 3d
       -0.09637405 -0.07979615 0.103971034 0.11333506
000040 50 79 a4 3c c0 24 e6 bc 7c 04 13 bd cd c5 ca bd
       0.020077378 -0.028093696 -0.03589295 -0.09901009
000050 ea 08 9e bd d2 1b b1 bd d0 79 6e bc 1f b9 ba 3c
       -0.07716544 -0.086478844 -0.01455541 0.02279335
000060 92 7b eb 3d ff 03 9c 3d d1 df c6 3c e1 df 4f be
       0.114981785 0.0761795 0.024276646 -0.20300247
000070 14 06 c8 bd 0f 14 33 bc 32 b7 0d 3e 24 55 1a 3e
       -0.09766784 -0.010930075 0.13839415 0.15071541
000080 ef 34 87 3d d4 c2 49 be c8 95 fe bc 49 5b 4b bc
       0.06601893 -0.19703227 -0.03107728 -0.012411901
000090 04 86 36 be 9c 97 de 3d 3f af 52 be 50 4f 5c 3c
       -0.1782456 0.10868761 -0.20574664 0.013446644
0000a0 74 b7 22 be 6e 3d 42 3e b0 30 33 bc 90 8e 32 3e
       -0.15890294 0.18968746 -0.010936901 0.17437196
0000b0 4d 67 3f 3e de 95 44 3e 6a 80 d2 bd dd 76 9a 3d
       0.1869175 0.19197795 -0.10278399 0.075422026
0000c0 c8 e5 e6 3d 76 cb d8 bb 83 70 14 be 45 90 1d be
       0.11274296 -0.0066160513 -0.14496045 -0.15387066
0000d0 b8 3d 91 3d b7 7e 06 be 65 a6 b2 3d ac 9e b6 bc
       0.0709185 -0.13134275 0.087231435 -0.022292458
0000e0 19 be ac 3d 5c d5 fb 3d f7 ab 88 3d 48 ec 20 3e
       0.08434696 0.122965544 0.06673425 0.15715134
0000f0 6d e6 2a bd db 31 c0 bd 00 1d f2 bc d0 e5 55 3e
       -0.041723657 -0.09384509 -0.029554844 0.20888448
000100 77 92 4b 3e f6 2f 0d be c4 76 ac bd c0 f3 86 bd
       0.1988009 -0.13787827 -0.0842109 -0.065894604
000110 08 ef 0b 3d a4 0b 3b be d3 e9 62 3e 6f c3 7b 3d
       0.034163505 -0.1826616 0.2215951 0.061465677
000120 e7 a1 f9 3d 97 2f fd bd 58 a5 1a 3e 88 3e 94 bd
       0.121890835 -0.12362593 0.15102136 -0.072384894
000130 8e 69 1c be 1a 65 3c be 89 b8 72 3d 3c 08 5d bd
       -0.15274641 -0.18397942 0.059258018 -0.05396293
000140 bb 8a 9e bd 90 4c 5c be b2 76 02 3e e0 66 53 3e
       -0.077413045 -0.21513581 0.12740591 0.20644712
000150 4a f6 10 be 38 29 35 bc 7d 70 15 3e 19 94 ba bd
       -0.14156452 -0.011057191 0.14593692 -0.09110279
000160 97 3f d0 bd e5 0e 1a bc fa b0 b3 bd 79 e0 0a be
       -0.10168379 -0.009402965 -0.0877399 -0.13562192
000170 3d c1 20 be 7a 62 10 be e0 98 1f 3d 7e 3a b7 bd
       -0.15698715 -0.14100066 0.038964152 -0.089467034
000180 26 96 a7 bd 30 94 b8 bc 90 50 19 bc b0 90 63 3e
       -0.081829354 -0.022531599 -0.0093575865 0.22223163
000190 48 7f 44 3d 50 51 e2 3d e4 e0 c3 3d 4c 45 53 3e
       0.047972947 0.110506654 0.09564379 0.20631903
0001a0 8e ef 57 be f4 e1 36 be c6 d9 80 bd a6 b3 80 bd
       -0.21087477 -0.17859632 -0.06291537 -0.06284265
0001b0 10 44 61 3e 10 ce 8f 3c 12 73 52 3e d0 19 b0 bd
       0.2199862 0.017554313 0.20551708 -0.08598673
0001c0 5c d7 9c 3d 23 91 df bd b8 f6 d5 bd d4 32 bd bd
       0.07658264 -0.109163545 -0.104474485 -0.0923821
0001d0 00 e6 3b 3a 44 33 07 be 7a 1d 25 be b8 bc 53 3e
       0.00071677566 -0.1320315 -0.16124526 0.20677459
0001e0 bc 35 e1 3d 7d 03 56 be c0 9b 04 3c b4 ed 11 be
       0.10996577 -0.20899768 0.008093774 -0.14250833
0001f0 58 0c 9b 3d 47 dd 23 be c0 a7 f6 bc 54 e3 3a 3e
       0.07570714 -0.1600238 -0.030109286 0.18250781
000200 00 22 32 3b 38 2c ca 3d f4 05 bd 3d 38 7a 70 3d
       0.002718091 0.09871715 0.09229651 0.058710307
000210 08 f7 66 3d da 62 32 be c4 92 af bd 45 58 21 be
       0.05638793 -0.17420521 -0.08572915 -0.15756328
000220 78 69 55 3d e4 df 2d be c6 d7 42 be 38 7f 45 3e
       0.052102536 -0.16979939 -0.19027624 0.19286811
000230 eb 10 e8 bd cd cd 6b bd 7a cc d8 bd 91 56 1f 3e
       -0.11331352 -0.057569314 -0.10585876 0.15560366
000240 8d b6 11 be 4d 69 14 3d 0a bb f2 bd e0 01 3c 3e
       -0.14229794 0.036233235 -0.11852081 0.1836009
000250 f8 ac ba 3c 69 39 5f bd 00 64 dc bb ef 90 2d 3d
       0.022787556 -0.05449811 -0.006725788 0.042374548
000260 a7 84 e4 bd 84 7d b9 3d b5 02 64 3e 78 1e 46 3c
       -0.11158114 0.09057143 0.22266658 0.012092225
000270 8d d2 cb 3d 1b 98 4d be 37 6e e7 bd 22 92 57 3e
       0.09952269 -0.20077555 -0.11300319 0.21051839
000280 e8 1e 65 be 4c 26 39 be bc 95 d7 3d 6e 9a f2 3d
       -0.22375071 -0.18081015 0.105266064 0.118458614
000290 a4 95 b0 bb 3f 0c 0d 3e 46 82 25 3e 46 55 7f bd
       -0.0053889323 0.13774203 0.16162977 -0.062337182
0002a0 70 e1 c1 bc 3f 69 63 be d7 5a 4d bd 48 78 57 3e
       -0.023667067 -0.22208117 -0.05013546 0.21041977
0002b0 4c 3b ae 3d 90 ee 1a bc 45 67 51 be 1f dc af bd
       0.08507404 -0.009456292 -0.2044955 -0.08586907
0002c0 89 df 4f be fc 4b f6 3d b9 9f fd 3c c2 d0 2c be
       -0.20300116 0.120262116 0.03095995 -0.1687651
0002d0 57 61 0b 3d 03 33 3b be f0 4f 33 3e dc 82 85 3d
       0.034028377 -0.18281178 0.17510962 0.065191
0002e0 b9 8b 49 3d df 2f 26 3e b5 56 97 bd 16 b8 7c bc
       0.049205516 0.16229199 -0.07389585 -0.015424749
0002f0 2a 3b 0d be 29 31 62 be 5e ae 2d 3e da e7 c7 3d
       -0.137921 -0.22089066 0.16961047 0.09761019
000300 02 a6 0f be 18 79 13 be f4 31 4b 3e 5a 8d 52 3e
       -0.1402817 -0.14401662 0.19843274 0.20561734
000310 e0 17 7e bc 84 dd 59 3e cd a3 31 3e 82 d3 63 3e
       -0.015508622 0.21275908 0.17347641 0.22248653

layers.4.bias f4 [10]
000000 0c fd 5b be 9b 13 09 3d 9b 26 bd 3d 61 2f dd 3d
       -0.21483248 0.033465963 0.09235879 0.108000524
000010 8d 2b a6 bd 59 f9 09 be 10 b5 0a bd 1d 61 1f 3d
       -0.081137754 -0.13474025 -0.03386408 0.038910974
000020 6a 84 93 3d 43 84 97 bc
       0.0720299 -0.018495684

layers.6.weight f4 [2, 10]
000000 47 5b 9e be 2e 7e 42 3d 80 a2 87 be 4b d8 c8 3b
       -0.30929014 0.047483616 -0.26491165 0.0061292998
000010 e2 f1 40 3e 22 cd 9e bd d3 c7 9a be 26 73 00 3d
       0.18842271 -0.0775397 -0.3023058 0.031359814
000020 f9 dc 80 be 47 0b a7 bd db b0 08 be 9f b4 79 3e
       -0.2516859 -0.08156448 -0.13348715 0.24385308
000030 a1 16 05 3e a1 d7 dc 3d 85 6d 68 bd b0 43 15 3e
       0.12996913 0.107833154 -0.05674507 0.14576602
000040 40 f7 36 be 6d f7 00 3e d9 46 cb 3d ad f9 7f 3e
       -0.17867756 0.12594385 0.099256225 0.24997588

layers.6.bias f4 [2]
000000 c0 85 95 be c1 e3 6c be
       -0.29203606 -0.23133756
