model-fold-8.pth (torch, 68239 bytes, 8 tensors)

layers.0.weight f4 [50, 302]
0	0x3d23da3f	0.040003058
1	0xbd238756	-0.03992399
2	0x3d5e01f9	0.0542011
3	0x3d5c2a73	0.05375142
4	0xbd0679f7	-0.03283116
5	0x3b04a343	0.0020238913
6	0xbc8ab440	-0.016931653
7	0xbd4b7da3	-0.049680363
8	0xbd0f1fac	-0.034942314
9	0xbcb88fa8	-0.022529438
10	0x3cad758a	0.021174211
11	0x3d2a18ef	0.041527685
12	0xbd19519a	-0.037431337
13	0xbc822d7a	-0.015890826
14	0xbcc4133e	-0.023934957
15	0xbcab76dd	-0.020930702
16	0xbce051a8	-0.027382687
17	0x3ce8c12a	0.02841242
18	0xbcff59a1	-0.031170668
19	0x3d5c281b	0.053749185
20	0xbd3ae614	-0.045629576
21	0xbd5d0b11	-0.053965632
22	0x3c92c95e	0.017918285
23	0xbd4e2e38	-0.050337046
24	0xbcdff33e	-0.027337667
25	0xbc2aad30	-0.010417268
26	0xbcc44565	-0.023958871
27	0xbd1771ad	-0.036973644
28	0x3d232c4f	0.039837178
29	0x3bf1d728	0.007380385
30	0x3d0c4e49	0.034254346
31	0x3cc1e786	0.02366997
32	0x3cb41fce	0.021987822
33	0x3d443637	0.047903266
34	0x3d143d4b	0.036191266
35	0xbc17851b	-0.009248043
36	0xbd4c8c31	-0.049938384
37	0xbc7bf6b7	-0.015378646
38	0x3b94c636	0.00454023
39	0x3d3a5d44	0.0454991
40	0x3c3a9c94	0.01138987
41	0x3c55a92e	0.013040824
42	0xbbaf3a12	-0.0053474987
43	0x3d1a6ad9	0.037699554
44	0x3c49bb54	0.012312729
45	0x3d1c1652	0.038107224
46	0xbc1726c8	-0.009225555
47	0xbd659582	-0.056050785
48	0xbcc8d0f6	-0.024513703
49	0x3c70cb64	0.01469693
50	0xbd4c0755	-0.04981168
51	0xbc7445dc	-0.014909234
52	0xbcdb189e	-0.026745137
53	0x3c4ef1a4	0.012630854
54	0x3b7a91fa	0.0038233981
55	0x3bf5c0b8	0.0074997805
56	0x3d115ea5	0.03549065
57	0x3c62d6e6	0.013845181
58	0xbc8c05d4	-0.017092623
59	0xbc673438	-0.014111571
60	0xbd38c842	-0.045112856
61	0x3d0ca1f1	0.034334127
62	0xbc942a40	-0.018086553
63	0x3d4c1495	0.049824316
64	0xbd05d897	-0.03267726
65	0x3c106d96	0.00881519
66	0x3d57c71e	0.052680127
67	0xbd1164c3	-0.035496484
68	0x3d5be4f7	0.053685155
69	0xbcaf4b3a	-0.021398176
70	0x3d2a18fd	0.041527737
71	0xbcb3b768	-0.02193804
72	0xbd421318	-0.04738149
73	0xbd4bb04b	-0.049728673
74	0x3d1957b5	0.03743716
75	0xbd225a9a	-0.039637186
76	0x3d1fd499	0.03902111
77	0x3d02f4f1	0.031971876
78	0xbc218158	-0.009857498
79	0x3c459b2c	0.012060922
80	0x3c1cd5e6	0.009572482
81	0x3cf27196	0.029595178
82	0xbd57aff6	-0.052658044
83	0x3d37c55b	0.044865947
84	0xbc48f734	-0.012265969
85	0xbd08a9e4	-0.033365145
86	0x3b74f5ea	0.0037378022
87	0x3d170ac3	0.036875498
88	0x3d6972b8	0.05699417
89	0x3d089223	0.03334249
90	0xbd24ce1e	-0.04023563
91	0xbca95b78	-0.020673499
92	0xbd570bfc	-0.052501664
93	0xbbdb5418	-0.0066933744
94	0xbca37ce6	-0.019957017
95	0x3cfa442a	0.030550081
96	0xbc71b694	-0.014753003
97	0xbbff5fd8	-0.007793408
98	0xbcc2ad82	-0.023764376
99	0x3cdcf592	0.026972566
100	0xbccd7fa6	-0.025085282
101	0x3b358630	0.002769839
102	0x3d43b0b5	0.047775943
103	0xbc2ff2a8	-0.010739006
104	0xbd64d43e	-0.055866472
105	0x3cd9f65b	0.02660673
106	0x3d001815	0.031272966
107	0xbc9f1f32	-0.019424055
108	0xbd242562	-0.040074714
109	0x3cbc7c1a	0.023008395
110	0xbd25fe74	-0.04052587
111	0xba78da40	-0.0009492971
112	0x3d4eae4f	0.050459202
113	0x3c4ea0f9	0.012611621
114	0x3cccd472	0.025003646
115	0xbcb47b48	-0.022031441
116	0xbc8037cc	-0.015651606
117	0xbc481b3c	-0.012213524
118	0x3cae9252	0.021310005
119	0xbd35eac8	-0.044413358
120	0x3c89cd66	0.016821574
121	0xbc478ec0	-0.01218003
122	0xbcd86a4a	-0.02641787
123	0x3a9c16e0	0.0011908673
124	0x3ce84fea	0.028358418
125	0x3d10141f	0.03517544
126	0x3d5aee61	0.053449992
127	0x3b0d1b63	0.0021531216
128	0xbd1d58de	-0.03841483
129	0xbd66fe92	-0.05639512
130	0x3d170ef7	0.036879506
131	0x3d398107	0.045289066
132	0xbc11e03c	-0.008903559
133	0x3d479295	0.048723776
134	0xbd557700	-0.05211544
135	0x3bd7bce1	0.0065837954
136	0x3b1eef50	0.0024251528
137	0x3c4c300c	0.012462627
138	0xbcffba03	-0.031216627
139	0xbaf96000	-0.0019025803
140	0x3d2f24cb	0.042759698
141	0x3ced41da	0.028962065
142	0xbd382c66	-0.044964217
143	0x3d4dd59b	0.05025254
144	0xbc56e788	-0.013116725
145	0x3d20309f	0.03910887
146	0x3bf33d66	0.0074230907
147	0xbce7201e	-0.028213557
148	0xbd17a4bc	-0.037022337
149	0x3ce80628	0.028323248
150	0xbbe7ab30	-0.0070699677
151	0x3d04e8f3	0.03244872
152	0xbbd4f5ea	-0.006499042
153	0x3c702d54	0.014659245
154	0x3c9172f2	0.017755006
155	0x3c8bf6ba	0.017085422
156	0xbd2b712c	-0.041855976
157	0x3c7b61f4	0.015343178
158	0x3d31f7e9	0.043449316
159	0xbc6e3efc	-0.014541384
160	0x3d60d8f3	0.0548944
161	0xbc85298e	-0.016255166
162	0x3c85d4b8	0.016336784
163	0x3c34df0c	0.011039507
164	0xba563680	-0.0008171573
165	0x3ce808e2	0.028324548
166	0x3cb19f1f	0.02168232
167	0x3d1add2b	0.03780858
168	0x3bd0d2b8	0.006372776
169	0xbb0d6130	-0.002157282
170	0xbd37a660	-0.044836402
171	0x3c85f97a	0.016354311
172	0x3c852e6f	0.016257493
173	0xbbc89b98	-0.006122064
174	0x3d16dc0b	0.036830943
175	0x3d466a1d	0.04844104
176	0xbcf2841f	-0.029604016
177	0x3ca56a2a	0.020192225
178	0xbcf72f0f	-0.030173806
179	0xbd434bd2	-0.04767973
180	0xbcdbe0ca	-0.026840586
181	0x3cc28a06	0.023747455
182	0xbd4e2776	-0.0503306
183	0xbb92a576	-0.004475291
184	0xbd2aaf76	-0.04167124
185	0x3d2a9f25	0.04165568
186	0x3c194f34	0.009357262
187	0x3b5d2e93	0.0033749684
188	0x3cd14f12	0.025550399
189	0x3ce2dcce	0.027693179
190	0x3cc3346b	0.023828706
191	0xbd492333	-0.049105834
192	0xbd6adfb3	-0.057342242
193	0x3d2af2ed	0.04173558
194	0xbd148f3a	-0.036269404
195	0x3d1a1d3f	0.037625547
196	0x3c7d4f0c	0.015460741
197	0x3d0a1e11	0.03372008
198	0x3cef4b56	0.029210728
199	0xbcefa266	-0.029252242
200	0xbcd6f5dc	-0.026240282
201	0xbc3eeb18	-0.01165273
202	0xbcead53a	-0.028666127
203	0xbd5680d3	-0.05236895
204	0xbcd4bd56	-0.025969189
205	0xbd6198b6	-0.055077277
206	0xbc175b20	-0.0092380345
207	0xbd5a2f49	-0.05326775
208	0x3c841bbb	0.016126504
209	0x3b410940	0.0029454976
210	0xbcc67790	-0.024226934
211	0xbd33d762	-0.043906577
212	0x3d5652f9	0.052325223
213	0x3b81e371	0.0039638807
214	0x3d4e6d1f	0.050397035
215	0x3d39ec35	0.04539128
216	0x3cda2432	0.026628587
217	0x3d575691	0.05257279
218	0xbd04e2e2	-0.032442935
219	0x3c77fffc	0.015136715
220	0x3d5b1069	0.053482447
221	0x3d5bd615	0.05367096
222	0xbb66b19a	-0.0035201074
223	0xbc55a7cc	-0.013040494
224	0x3d1e9a87	0.038721588
225	0xbbf97d20	-0.007613793
226	0x3d2f47bd	0.042793024
227	0x3c40fa9e	0.011778502
228	0x3c62ba2c	0.013838332
229	0xbcc9e88e	-0.024647024
230	0xbd3a4d04	-0.045483604
231	0xbcc3dc34	-0.023908712
232	0xbc020b20	-0.007937223
233	0xbd6248b9	-0.055245135
234	0x3d23edaf	0.040021595
235	0xbd0a0c56	-0.03370317
236	0x3d545989	0.0518432
237	0xbd06c6a4	-0.032904282
238	0xbd0a3233	-0.03373928
239	0xbb3062ec	-0.002691443
240	0xbd5eab79	-0.054362748
241	0x3b54ad74	0.003245202
242	0xbd28d33a	-0.041217066
243	0x3d01eeed	0.031721998
244	0xbd4f0fc0	-0.05055213
245	0x3d25f905	0.040520687
246	0x3d2dc21f	0.042421456
247	0x3bca71c8	0.0061781146
248	0xbd2af346	-0.04173591
249	0xbba5345e	-0.005041643
250	0x3d5ba14f	0.053620633
251	0x3b7abb30	0.0038258545
252	0xbc84b9ce	-0.01620188
253	0x3d122a61	0.035684947
254	0xbd3a6838	-0.045509547
255	0xbb96d3b6	-0.0046028746

layers.0.bias f4 [50]
0	0xbbed8b47	-0.007249269
1	0x3d47424e	0.048647217
2	0xbb428947	-0.0029683874
3	0x3cf3fa4c	0.029782437
4	0x3b4d6cf8	0.0031345468
5	0x3c9087f5	0.017642954
6	0x3cfc1c42	0.030775193
7	0x3bcfa2b9	0.0063365367
8	0xbc862381	-0.016374351
9	0x3d3c85c0	0.04602599
10	0x3d258565	0.040410418
11	0xbd0e2e15	-0.034711916
12	0x3d1ab0b3	0.03776617
13	0x395c7bb9	0.00021026925
14	0xbd28fbe7	-0.041255858
15	0xbd55c86e	-0.052193098
16	0x3c8136df	0.015773235
17	0x3d57bfa3	0.052672993
18	0xbbf7593d	-0.00754848
19	0x3d2e294a	0.042519845
20	0xbd67829e	-0.05652105
21	0x3ceebb6c	0.029142104
22	0xbcca67c5	-0.024707684
23	0xbc0fafdf	-0.008769958
24	0x39a05a44	0.0003058483
25	0xbc22bf07	-0.00993324
26	0x3ca0ec5d	0.019643957
27	0x3d21d897	0.039513197
28	0xbd3a13d5	-0.04542907
29	0xbcc96903	-0.024586206
30	0xbcc007b6	-0.023441177
31	0x3c2ff524	0.010739598
32	0x3c12713f	0.008938133
33	0x3c714dc0	0.01472801
34	0x3d2aa6bb	0.041662913
35	0x3cc70f7d	0.024299378
36	0xbc976fed	-0.018485988
37	0x3ca35e6d	0.019942487
38	0xbc805d20	-0.015669405
39	0x3d011b65	0.031520266
40	0x3c984431	0.018587204
41	0xbbad79ab	-0.005294045
42	0x3ce40076	0.027832251
43	0xbc6ba4a9	-0.01438252
44	0xbcd6cf40	-0.026221871
45	0xbb6494ea	-0.0034878799
46	0xbd42862d	-0.04749124
47	0x3d2d93a8	0.042377144
48	0xbc758ca2	-0.014987143
49	0xbd2c48ba	-0.042061545

layers.2.weight f4 [20, 50]
0	0x3ca994ce	0.020700838
1	0xbbda93d2	-0.0066704536
2	0x3ca87e83	0.020568138
3	0x3e06ec2d	0.13176031
4	0x3d4de6ee	0.05026906
5	0xbe04b649	-0.12960161
6	0x3bff607a	0.0077934833
7	0xbd87bf7c	-0.066283196
8	0x3e09dca3	0.13463072
9	0xbde4d132	-0.11172713
10	0x3c0be760	0.008539051
11	0x3df0d5de	0.11759542
12	0x3d839ab4	0.06425992
13	0x3dafaa64	0.08577421
14	0x3d497218	0.049181074
15	0xbe03d7c9	-0.12875284
16	0xbddbad6b	-0.10726436
17	0xbe095ae9	-0.13413586
18	0xbdd156e8	-0.10221654
19	0x3c6f3930	0.014601037
20	0x3d9feb0a	0.07808502
21	0x3e0d1482	0.13777354
22	0x3dccfabc	0.10008761
23	0xbdd8559d	-0.105632044
24	0xbc0e5276	-0.008686652
25	0xbd48a126	-0.048981808
26	0x3d32cf28	0.04365459
27	0x3dcccbf5	0.09999839
28	0x3de0d798	0.10978621
29	0xbdc88380	-0.09790707
30	0x3d997b82	0.0749426
31	0x3d5b3beb	0.05352394
32	0xbcf36fd6	-0.029716413
33	0xbcd9519c	-0.026528172
34	0x3da6501f	0.08120751
35	0x3dc66604	0.09687427
36	0x3da84c35	0.0821766
37	0xbe047b49	-0.12937655
38	0xbe0a7e7e	-0.13524815
39	0xbe049ba9	-0.12950005
40	0xbd16ded6	-0.036833607
41	0x3d57c70b	0.052680057
42	0xbda140c8	-0.07873684
43	0x3e01c529	0.12672867
44	0x3dc72b38	0.0972504
45	0x3ddb0cb7	0.106957845
46	0xbdcd8246	-0.10034613
47	0x3d4ab9a0	0.049493432
48	0x3d1b96f0	0.037985742
49	0x3da4071b	0.08009168
50	0x3aa5e7d1	0.0012657588
51	0xbdc441cf	-0.095828645
52	0x3d29fc4a	0.041500367
53	0x3d015db9	0.03158352
54	0xbd8c539b	-0.06851884
55	0x3b79577c	0.003804653
56	0xbddb9c39	-0.107231565
57	0x3dc2cde9	0.095119305
58	0x3cbf738a	0.023370523
59	0x3de7ffcd	0.11328087
60	0xbd85940c	-0.06522378
61	0xbe0dd057	-0.13849007
62	0x3d01d1b5	0.031694133
63	0xbe0f13c9	-0.13972391
64	0x3e0b464b	0.13601033
65	0xbd94c7fa	-0.07264705
66	0xbdf57aca	-0.11986311
67	0x3d59436a	0.053042807
68	0xbddac84d	-0.106827356
69	0xbdb1e813	-0.08686843
70	0x3c556b9c	0.013026144
71	0x3dd2e17d	0.10296915
72	0xbd1f3c9f	-0.038876172
73	0x3cc8d278	0.024514422
74	0x3d91e857	0.071243934
75	0xbdf9a7cd	-0.121902086
76	0xbd94dfe7	-0.072692685
77	0xbd9d20d4	-0.07672277
78	0x3d6cb3c9	0.057788644
79	0xbdcccdb3	-0.100001715
80	0xbe0e5594	-0.13899833
81	0xbdc44c53	-0.0958487
82	0x3c12d1a9	0.00896112
83	0x3c7abc5b	0.0153036965
84	0x3d82704c	0.06369075
85	0xbcca5732	-0.024699781
86	0xbced1c96	-0.028944295
87	0xbd12bc36	-0.035824023
88	0xbdf24c20	-0.11830926
89	0xbb3e5365	-0.0029041406
90	0x3db75bb9	0.089530416
91	0x3d3e0efe	0.046401016
92	0xbbee355b	-0.007269544
93	0xbdfc6045	-0.123230495
94	0xbd545757	-0.051841106
95	0xbdfe63d9	-0.12421388
96	0x3d2482b0	0.040163696
97	0xbd1223e0	-0.035678744
98	0xbcb0cdb0	-0.021582454
99	0xbbb8a4ec	-0.0056348946
100	0x3d94adc3	0.07259705
101	0x3d04cab2	0.032419868
102	0xbd52fef8	-0.05151269
103	0xbb840660	-0.0040290803
104	0xb8f9cedf	-0.00011911778
105	0x3de6ce5b	0.11269828
106	0x3d898e4c	0.06716594
107	0xbe05ce94	-0.13067085
108	0x3df094f5	0.11747161
109	0xbd8c6af5	-0.06856338
110	0x3ddc4f7e	0.107573494
111	0xbd8fe0ac	-0.07025275
112	0x3d0d3f10	0.03448397
113	0x3dfecaa0	0.124409914
114	0x3cd7c921	0.026341023
115	0x3de6f2f6	0.1127681
116	0x3cd38133	0.025818443
117	0xbde82dec	-0.11336884
118	0x3df8e28c	0.121525854
119	0xbd78cd2e	-0.06074255
120	0x3cce72b7	0.025201185
121	0xbcf2179f	-0.029552279
122	0x3da66372	0.081244364
123	0x3dbcc9ff	0.09218215
124	0xbdd5621e	-0.10419105
125	0x3d233584	0.03984596
126	0xbdba2f18	-0.09091014
127	0xbce1a8fe	-0.027546402
128	0x3bfc913c	0.007707743
129	0x3e025ff5	0.12731917
130	0x3d311486	0.043232463
131	0xbdfd8af6	-0.1238002
132	0xbd412eb2	-0.047163673
133	0xbdfe41d6	-0.12414901
134	0xbe0b7bd9	-0.13621463
135	0xbd430c30	-0.047619045
136	0x3d6fe84f	0.058571156
137	0x3de5e582	0.11225416
138	0x3df8aa42	0.12141849
139	0x3bd4cd1a	0.0064941766
140	0xbdecccf6	-0.11562531
141	0x3d8e359b	0.06943818
142	0x3c540edc	0.012942996
143	0x3d56a30c	0.052401587
144	0x3cc2e700	0.02379179
145	0xbd004e1c	-0.03132449
146	0x3df0a1aa	0.11749585
147	0xbd452020	-0.04812634
148	0x3cf75408	0.030191436
149	0x3dfa362e	0.12217365
150	0x3d9c6bb9	0.07637734
151	0x3c550b20	0.013003141
152	0x3d66f6f6	0.056387864
153	0xbe0c14b8	-0.13679779
154	0xbde28030	-0.11059606
155	0x3d769441	0.06019998
156	0xbd55dac7	-0.052210595
157	0xbd6e2eb7	-0.05815002
158	0xbd70f6ca	-0.058829106
159	0x3d2983d6	0.041385494
160	0x3d16ccd8	0.036816448
161	0xbd076f78	-0.03306529
162	0xbdd5a668	-0.1043213
163	0x3d478797	0.048713293
164	0xbddd9d8c	-0.10821065
165	0x3d1f87af	0.038947757
166	0xbc3491e8	-0.011021115
167	0x3c93ad51	0.01802698
168	0x3da1da0c	0.07902917
169	0x3d687d05	0.056759853
170	0x3de105f6	0.10987465
171	0xbd15a899	-0.03653774
172	0x3d7c64bb	0.0616195
173	0xbdeb1d51	-0.11480201
174	0xbc43143b	-0.011906679
175	0x3dadd49e	0.08487819
176	0xbd9c5cda	-0.076348975
177	0x3d5bf83c	0.05370353
178	0x3d78b313	0.060717653
179	0x3d9a4bcf	0.075339906
180	0x3de4e472	0.11176385
181	0xbe0561fc	-0.1302566
182	0x3cb196dd	0.021678383
183	0x3d511135	0.0510418
184	0xbda90167	-0.082522206
185	0xbd1d558d	-0.038411666
186	0xbd963c27	-0.07335692
187	0x3c14fafb	0.0090930415
188	0x3de2b8e3	0.110704206
189	0x3dfdf3c9	0.12400014
190	0xbd19831d	-0.037478555
191	0x3cafff17	0.021483941
192	0xbcd641b4	-0.026154377
193	0x3d63308f	0.05546623
194	0x3df64e46	0.12026648
195	0x3d7563ec	0.059909746
196	0xbddb7c6c	-0.10717091
197	0xbd57ae3f	-0.05265641
198	0xbdebf9c2	-0.11522247
199	0x3c83dc78	0.016096339
200	0x3dac51d6	0.084140465
201	0xbe0bb3fb	-0.13642876
202	0xbe05eaf8	-0.13077915
203	0x3d5eb90f	0.054375704
204	0xbde98ef4	-0.11404219
205	0x3dc0efb4	0.0942072
206	0xbd1ca9f4	-0.038248017
207	0xbaff8736	-0.0019495252
208	0xbe09aa75	-0.1344393
209	0xbdac2b21	-0.08406664
210	0xbd9ecca8	-0.07753879
211	0x3b8d7b79	0.0043176976
212	0xbe06a100	-0.13147354
213	0xbd89967a	-0.06718154
214	0x3cf67280	0.030083895
215	0xbd5cf387	-0.053943183
216	0xbb31f1e2	-0.002715223
217	0xbce7f762	-0.028316204
218	0xbdb513e4	-0.088416845
219	0x3db25375	0.087073244
220	0x3d858980	0.06520367
221	0x3d50d99b	0.050988775
222	0xbddf5f26	-0.1090682
223	0x3dca8a8e	0.098897085
224	0x3ba84e8e	0.0051363176
225	0xbcf6e7fa	-0.030139912
226	0xbd782bb1	-0.060588542
227	0xbd664874	-0.05622144
228	0xbcb698f4	-0.02228973
229	0x3d21fefe	0.03954982
230	0xbdf090f9	-0.11746401
231	0x3d44e314	0.04806812
232	0x3d137590	0.03600079
233	0xbe0536f2	-0.13009241
234	0x3dec2f96	0.11532514
235	0x3dabe63e	0.083935246
236	0x3c9777d8	0.018489763
237	0xbdf5a73b	-0.11994787
238	0x3cca7700	0.024714947
239	0x3cf02330	0.029313654
240	0x3d8bc576	0.06824772
241	0xbdf9002d	-0.12158237
242	0x3d1f3b8d	0.03887515
243	0x3da1cc0a	0.079002455
244	0xbcef9a16	-0.029248279
245	0x3d28b880	0.041191578
246	0xbdd3b5a0	-0.103373766
247	0xbd25a4de	-0.040440433
248	0xbd0356b1	-0.032065097
249	0xbe07dd39	-0.13267983
250	0x3d9756fb	0.07389637
251	0xbdeb6f74	-0.11495867
252	0x3d94314e	0.072359666
253	0xbdbb632e	-0.091497764
254	0xbc54870d	-0.012971652
255	0x3d84712b	0.064668976

layers.2.bias f4 [20]
0	0xbda10350	-0.0786196
1	0x3da571a8	0.08078319
2	0xbd3267bc	-0.04355596
3	0x3e122ea0	0.14275599
4	0x3dc45680	0.09586811
5	0x3d11e61c	0.03561984
6	0xbc859b09	-0.016309278
7	0xbcc31ec4	-0.023818381
8	0xbd7e6b10	-0.06211382
9	0xbddd1444	-0.10794881
10	0x3d066aea	0.032816805
11	0x3d4cf6de	0.05004012
12	0xbdccc786	-0.099989936
13	0x3d8e5d86	0.06951432
14	0x3d7c32e7	0.06157198
15	0xbdeb18df	-0.11479353
16	0xbdd74015	-0.105102696
17	0xbe077405	-0.13227852
18	0x3dbd94f2	0.09256925
19	0xbc1d2d70	-0.009593353

layers.4.weight f4 [10, 20]
0	0x3e1ae691	0.15127017
1	0x3daaaf74	0.08334246
2	0x3da4474c	0.08021411
3	0xbdbfb203	-0.09360125
4	0xbe60b5b3	-0.21944313
5	0x3dd9ca11	0.10634244
6	0xbe37fc7e	-0.17967412
7	0x3cf8aa1a	0.030354548
8	0xbde824f8	-0.11335176
9	0x3df8ea00	0.12154007
10	0xbe3828ff	-0.17984389
11	0xbdeebbc7	-0.116569094
12	0x3e1a6b8f	0.15080093
13	0x3de68162	0.112551466
14	0x3dba16e8	0.090864
15	0x3e5e1eff	0.21691512
16	0x3e3a62c4	0.18201739
17	0xbcd4d4d1	-0.025980385
18	0x3e08ca51	0.13358428
19	0x3ddc06b7	0.10743468
20	0xbd7148f4	-0.058907464
21	0x3cda8cb0	0.026678413
22	0xbca85658	-0.020548984
23	0xbe337cbc	-0.17528051
24	0xbd29c8b0	-0.041451156
25	0xbd8c72c2	-0.06857826
26	0x3e2cc9ee	0.16873905
27	0xbe3b0dcb	-0.1826698
28	0xbd9275d4	-0.0715138
29	0xbdf0372b	-0.117292725
30	0x3df8a9d0	0.12141764
31	0x3e34eb1e	0.17667815
32	0xbe649868	-0.22323763
33	0xbd9ebd7e	-0.077509865
34	0xbd0872c4	-0.033312574
35	0xbd20f244	-0.039293543
36	0x3b4cd100	0.0031252503
37	0xbc25a240	-0.010109484
38	0xbe606980	-0.21915245
39	0xbdf533c8	-0.11972767
40	0x3c6bdaa0	0.014395386
41	0x3e150478	0.14552486
42	0xbd227028	-0.03965774
43	0xbc4bd2a0	-0.012440354
44	0x3cf635c0	0.030054927
45	0x3b16b940	0.0022998601
46	0x3e4b058a	0.19826332
47	0xbe59cf36	-0.21270451
48	0xbe3f3bbd	-0.18675132
49	0xbe0e707f	-0.13910101
50	0x3e32b71e	0.17452666
51	0x3cbb7068	0.022880748
52	0xbdb33fea	-0.08752425
53	0xbe1c52aa	-0.15265909
54	0x3c6e1f60	0.014533848
55	0xbd769024	-0.060196057
56	0x3d7f6f40	0.062361956
57	0x3e414cd8	0.1887697
58	0xbd9d14e0	-0.07669997
59	0x3d4649c8	0.048410207
60	0x3d616f80	0.055037975
61	0x3e1a09b6	0.15042767
62	0xbdae1cf0	-0.08501613
63	0x3be28f60	0.0069140643
64	0x3e29d06a	0.1658341
65	0xbd2bc270	-0.041933477
66	0xba856380	-0.0010176748
67	0x3e073d44	0.13206965
68	0x3d07a9f0	0.03312105
69	0x3e1cd64e	0.15316126
70	0x3d7ee498	0.062229723
71	0x3dddce78	0.108303964
72	0x3cb8a5d0	0.022540003
73	0xbe0c9655	-0.13729222
74	0x3e5270ae	0.20550796
75	0x3e0b6878	0.1361407
76	0x3deb12e0	0.114782095
77	0x3daf3b3c	0.0855622
78	0xbd8e9e6c	-0.0696381
79	0xbe38d802	-0.1805115
80	0x3d343311	0.043994013
81	0x3e44f9dc	0.19235939
82	0xbd1da987	-0.038491752
83	0x3e409a77	0.18808924
84	0xbe167b29	-0.1469542
85	0x3d81049b	0.062997065
86	0xbe3b62d6	-0.18299422
87	0xbe214574	-0.1574915
88	0x3e2715b4	0.16316873
89	0x3d065550	0.032796204
90	0x3d1e6c45	0.038677473
91	0xbb532ac0	-0.0032221526
92	0xbdfc5bc2	-0.12322189
93	0x3d8cfbc2	0.068839565
94	0xbe2b5a40	-0.16733646
95	0xbd8cdde4	-0.0687826
96	0x3daa3354	0.08310571
97	0x3c011564	0.007878635
98	0xbe420fbf	-0.18951319
99	0xbdc0cb34	-0.09413758
100	0x3e24789c	0.16061634
101	0x3d322140	0.04348874
102	0xbdc5d187	-0.09659105
103	0x3e4e66b5	0.20156367
104	0x3e0b1ce4	0.1358524
105	0xbd0424c7	-0.032261636
106	0x3dba38f7	0.090928964
107	0xbdfeb2e1	-0.12436462
108	0xbe39a5a2	-0.1812959
109	0xbd83403c	-0.06408736
110	0xbe0affab	-0.13574092
111	0xbe13baa5	-0.14426668
112	0x3cf4c9e6	0.029881429
113	0xbd4d4fa6	-0.050124787
114	0x3e00cf1c	0.12579006
115	0x3d821194	0.06351009
116	0xbe1572fa	-0.14594641
117	0xbe0f60f0	-0.14001822
118	0xbcb1c021	-0.02169806
119	0x3d8722b3	0.06598415
120	0x3d5a7b1e	0.05334007
121	0x3e24ded0	0.16100621
122	0x3dc36956	0.095415756
123	0xbdd2ae76	-0.10287182
124	0x3e51afc0	0.204772
125	0xbe501c3c	-0.2032327
126	0x3e1a57d1	0.15072562
127	0x3e3a3c78	0.1818713
128	0x3dbdd488	0.09269053
129	0xbd74460a	-0.059637107
130	0x3def5233	0.116856
131	0x3cf1814c	0.029480599
132	0x3b736ad0	0.0037142523
133	0x3e29357c	0.16524309
134	0x3d0841d1	0.033265892
135	0x3e2faacd	0.17154999
136	0x3e2289d8	0.15872896
137	0x3c71715b	0.014736499
138	0x3e092ad0	0.13395238
139	0x3c530ea7	0.012881911
140	0x3ddf4f11	0.109037526
141	0x3d58377d	0.052787293
142	0x3d8bd9e0	0.06828666
143	0xbe22da93	-0.15903692
144	0xbd7bc098	-0.06146297
145	0xbe0d73e0	-0.13813734
146	0x3e4796d7	0.19491135
147	0xbdaaf102	-0.0834675
148	0x3de45824	0.11149624
149	0x3d96c9a2	0.07362677
150	0x3daed2f5	0.085363306
151	0x3dfb532d	0.12271724
152	0xbd82e7a7	-0.063918404
153	0xbe27fae6	-0.16404304
154	0xbe19c74a	-0.15017429
155	0x3d6eadc8	0.0582712
156	0xbd223b64	-0.03960742
157	0xbcb3db41	-0.021955134
158	0xbdf45d04	-0.11931804
159	0xbcd561b8	-0.026047572
160	0x3e244669	0.16042484
161	0xbdc461b4	-0.09588948
162	0x3e097eaa	0.13427225
163	0xbdbfe690	-0.09370148
164	0xbd910a12	-0.07081999
165	0x3d67596d	0.056481767
166	0x3e0068fb	0.12540047
167	0x3cff0f5e	0.031135257
168	0xbe5f9ece	-0.21837923
169	0x3dac5666	0.08414917
170	0xbdd8f8e3	-0.105943464
171	0x3e07c87c	0.13260072
172	0x3de9ad91	0.11410058
173	0xbdce2051	-0.100647576
174	0xbc81c465	-0.015840719
175	0xbe2470ff	-0.1605873
176	0x3e25e6d4	0.16201335
177	0x3d8fdf92	0.070250645
178	0x3e06a1e9	0.13147701
179	0xbe31215b	-0.1729788
180	0x3dbab21e	0.091160044
181	0x3dbf8098	0.09350699
182	0x3e49fbbb	0.19724934
183	0xbd368eb0	-0.04456967
184	0xbdd70154	-0.104983
185	0xbd5d78f4	-0.054070428
186	0xbe2bd559	-0.16780604
187	0xbdd4ff68	-0.104002774
188	0x3b235680	0.0024923384
189	0xbe21dcd2	-0.15806893
190	0x3dbe58df	0.092942946
191	0x3e5e8e3a	0.21733943
192	0x3dbcd402	0.09220125
193	0x3dc17b0c	0.094472975
194	0x3de6b7d4	0.11265531
195	0xbd8b0662	-0.06788327
196	0xbcc84d80	-0.024451017
197	0xbe168032	-0.1469734
198	0x3e4deaff	0.20109175
199	0xbdf819c8	-0.121142924

layers.4.bias f4 [10]
0	0xbde5d192	-0.11221613
1	0xbc84e198	-0.016220853
2	0xbd755088	-0.059891254
3	0xbdd42dcf	-0.103603
4	0xbe4b655e	-0.19862887
5	0xbe123b66	-0.14280471
6	0x3dc49a5f	0.095997564
7	0x3e5f4f04	0.21807486
8	0x3e081492	0.13289097
9	0xbe17ad20	-0.14812136

layers.6.weight f4 [2, 10]
0	0xbe8b7564	-0.27238
1	0x3dc94580	0.09827709
2	0xbc6470c0	-0.013942897
3	0xbe9c5919	-0.30536726
4	0xbda3d009	-0.07998664
5	0x3e9d1cb5	0.30685964
6	0xbe11a0c6	-0.14221486
7	0xbe9c3350	-0.30507898
8	0xbe9fe1b3	-0.31226882
9	0xbd89b0b9	-0.0672316
10	0x3dbbc052	0.091675416
11	0x3d88cb60	0.06679416
12	0x3d743c50	0.05962783
13	0xbe9e6a9f	-0.3094072
14	0xbe85393e	-0.26020235
15	0x3cf9ae18	0.030478522
16	0xbce6132c	-0.028085314
17	0x3b92381d	0.0044622556
18	0x3e8c9b7c	0.27462375
19	0xbdd94ac5	-0.10609964

layers.6.bias f4 [2]
0	0xbdb8d784	-0.09025481
1	0x3d1cde2c	0.038297817
