model-fold-3.pth (torch, 68239 bytes, 8 tensors)

layers.0.weight f4 [50, 302]
00000000: 2094 6e3b fc49 bd3c c052 413a 570c 153d
00000010: 6993 fcbc 8ae7 86bc 200f 91ba 02ee c03c
00000020: f28a a43c 106d 7e3b bc07 85bc 8960 66bd
00000030: aad5 803c e2e3 ce3c da36 c6bc 1bfd 633d
00000040: d60a aebc b25e d2bc 08ba 0fbc 4e1c bf3c
00000050: f98b 553d f197 15bd e69f 38bd e83a 38bc
00000060: 1e53 5cbd b351 673d b87f 56bc a956 4c3d
00000070: 13ac 043d c504 253d 42c6 c9bc 6712 573d
00000080: 8b54 5bbd fe7a 9b3c 8841 b7bc 5342 013d
00000090: e6af dd3c b068 10bd 2772 2dbd 4dd4 df3a
000000a0: c22e 16bd 01a3 603d 26b8 e33c 8de9 0b3d
000000b0: 64d1 603c 1bcf 7cba bcee 5ebc a481 283c
000000c0: ab53 253d be5b b2bc a0a8 613b 9071 2abd
000000d0: cd55 5bbd 68e1 ecbb 267e a53c aa45 5cbd
000000e0: f24b b53c 00e3 3ab9 a062 7e3b 4a1d 963c
000000f0: 5416 d3bc c0d9 37bb ac9c 4abd 0c81 35bc
00000100: 083e 19bb 1ec0 d03c 72f7 a93b 0048 95bc
00000110: a9cc 513d 8f6f 4a3d 604f 14bc 3016 77bc
00000120: e381 103d ad11 653d 8b88 4d3d 92d6 9dbc
00000130: 60c5 b9ba 8a4b a3bc 3a9c e33c 0a05 02bd
00000140: 3cd6 cbbc 674d 29bd c80d e4bc 5e36 1abd
00000150: 5fbf 31bd 2ee8 27bd dcd8 97bc 3387 55bd
00000160: b85e 0e3b 96d8 be3c d66a 27bd 1adf d33c
00000170: fe3d a2bc 7a4d 8ebc 1cd9 52bd fe89 d7bc
00000180: 38b9 24bd 1bbe 1d3d 24c6 313c fb12 103d
00000190: 5423 6d3c c2c7 d73c a69f 2fbd 52a4 edbc
000001a0: e479 0abd f41b 1e3c 8835 61bc 9033 713b
000001b0: a474 88bc 60a4 d5ba 9070 febc 36d1 03bd
000001c0: 60d8 d63a 3ba6 1f3d b886 0fbd 2584 213a
000001d0: 4faa 0e3d c0d3 403b 96e9 b13c 7994 553d
000001e0: e9b2 513d 8b1a 5f3d 3357 f43b dc25 763c
000001f0: 6604 26bd 2437 54bd f997 253d 0d7c 433d
00000200: ae66 0bbd 286b b6bb d834 a23b 1398 1fbd
00000210: d88d 90bb 6e44 b1bc 0074 84bb 8443 dc3c
00000220: 0701 5d3d d95b 313d f61b b53c e266 dd3c
00000230: da9d a13c a70e 493d aa19 20bd 68b8 843b
00000240: e83b 8abb cec5 d93c e6af c13c f900 683d
00000250: 5c9b 0f3c f93f 133d bc82 6a3c 98e7 2dbc
00000260: 88e2 b43b 6c44 53bd 004e 0eba 4ef6 f63c
00000270: 05fd 1e3d 964a e23c ebf5 edbc 00c4 7dba
00000280: 852c 1d3d c080 b1bc ca3b 85bc 2770 463d
00000290: 8e19 42bd 23c4 083d ac1c 0ebd 533d 0c3d
000002a0: 3aea 863c 7ac1 f83c 3fc5 12bd e4ff 1b3c
000002b0: 2497 593c 86b3 37bd 84aa 4a3c d418 013c
000002c0: deba f73c 20c5 85bb 087e c9bb 56b0 c23c
000002d0: 2b5a 5c3d 9c2e 03bd 39cb 533d 310a 07bd
000002e0: e87b ca3b c2c3 fb3c a474 363c b7ef 303d
000002f0: 3d83 343d 1617 c6bc cc1c 05bd cd4a 163d
00000300: 525e cebc 9a69 2cbd 8ef6 96bc 9074 7e3b
00000310: 011b 4ebd fd48 5e3d 4fa2 093d 97cd 393d
00000320: 7c5e 593c f2db 28bd e107 483d ddb3 4bbd
00000330: 34ab 16bd 14ee 05bd 9ac3 3ebd 9c3d 00bd
00000340: 9170 33bd 75fc 2bbd c0fb 34ba f4c9 423c
00000350: 5727 14bd da45 013c 17c6 633d dfbb 3e3d
00000360: 27e9 133d a0af 1fbc 5c17 9bbc c044 383a
00000370: 91a5 32bd 00d5 90bc 5cf8 08bc f1c1 1a3d
00000380: fcb5 08bd 02c8 923c 68e2 ae3b a2bd fcbc
00000390: c464 55bd 4b12 debc 28ca e93b b689 1dbd
000003a0: 683b e33b 1c5d 173c 2046 02bd 6a5a aa3c
000003b0: 7903 053d 4a42 cf3c 4994 533d f144 4ebd
000003c0: aafd 1f3c a045 b0bb 2cbb 52bd f6f5 6abd
000003d0: 7005 c5bc 5330 3cbd ecb2 763c c9f0 38bd
000003e0: c567 443d 2fb3 5d3d 9846 f1bb 30d9 5ebd
000003f0: 8476 213c ac0c 4b3c 73ae 693d e95c 233d
0.0036404207 0.023106568 0.00073746964 0.03638872 -0.03083201 -0.016467828 -0.001106713 0.023550991
0.020085786 0.003882233 -0.01623904 -0.056244407 0.015726883 0.025255147 -0.024196077 0.055661302
-0.021245401 -0.02567992 -0.008772381 0.023328926 0.05213544 -0.036521856 -0.045074366 -0.011244513
-0.053790204 0.0564744 -0.013091974 0.049887333 0.032390665 0.04028775 -0.02463067 0.052507784
-0.053547423 0.018979546 -0.022370115 0.031557392 0.027061414 -0.035256088 -0.042345192 0.001707682
-0.036665685 0.054842953 0.02779777 0.03415828 0.013721798 -0.0009643898 -0.013606723 0.010284815
0.040362995 -0.021772262 0.0034432784 -0.041612208 -0.053548623 -0.007229019 0.020201754 -0.053777374
0.02213094 -0.00017822906 0.003881611 0.018324513 -0.025767483 -0.0028053373 -0.04946582 -0.01107813
-0.002338292 0.025482234 0.0051869685 -0.018222809 0.05122057 0.049422797 -0.009052128 -0.0150809735
0.03528012 0.05592506 0.050179046 -0.019267354 -0.0014173202 -0.01993348 0.027784456 -0.031743087
-0.024882428 -0.041333582 -0.027838603 -0.037649505 -0.043395396 -0.04099291 -0.018536024 -0.05213089
0.0021723937 0.023296636 -0.04087337 0.025863219 -0.01980495 -0.017370928 -0.051476583 -0.026310917
-0.0402157 0.038511377 0.010850463 0.03517435 0.014473755 0.02634037 -0.042876862 -0.029009018
-0.03380765 0.009650219 -0.013745673 0.0036804415 -0.016657181 -0.0016299598 -0.031059533 -0.03218194
0.0016391389 0.03897689 -0.035040587 0.00061613537 0.034830388 0.0029423088 0.021717828 0.052143548
0.051196013 0.054468673 0.007456684 0.015023675 -0.04053154 -0.0518104 0.040428136 0.047725726
-0.03403347 -0.0055669732 0.004950147 -0.03896339 -0.0044114403 -0.021639075 -0.0040421486 0.026887663
0.053956058 0.043300483 0.02210806 0.027026597 0.01972859 0.04908624 -0.039086975 0.0040503033
-0.004218567 0.026583578 0.023643445 0.056641553 0.008765068 0.03594968 0.014313396 -0.010614298
0.0055201687 -0.051578924 -0.0005428493 0.030146744 0.038815517 0.027623456 -0.029047927 -0.00096803904
0.038372535 -0.021667838 -0.016263861 0.0484468 -0.047387652 0.033390176 -0.034695312 0.03423817
0.01646911 0.030365694 -0.03583264 0.009521458 0.013280664 -0.04484894 0.012369756 0.007879455
0.030240472 -0.004082337 -0.0061490573 0.023765724 0.05379693 -0.032026872 0.05170748 -0.032968704
0.0061793216 0.030732993 0.011136208 0.04319736 0.04407047 -0.02418093 -0.032498166 0.03669243
-0.02519146 -0.042092897 -0.018428113 0.00388268 -0.05031872 0.054268826 0.033602055 0.04536208
0.013267156 -0.04122538 0.04883564 -0.049732078 -0.036784366 -0.032697752 -0.04657326 -0.031308755
-0.043808524 -0.04198881 -0.0006903969 0.01188897 -0.03617033 0.007890189 0.055608835 0.046565887
0.036111023 -0.009746462 -0.018932037 0.00070292875 -0.043614928 -0.017679691 -0.008359995 0.037782613
-0.03337668 0.017917637 0.0053370483 -0.030852143 -0.05209805 -0.027108332 0.0071346946 -0.03846141
0.006934572 0.009238508 -0.031805158 0.020795066 0.032474015 0.025300164 0.051655088 -0.050358716
0.009765068 -0.0053793937 -0.051448032 -0.057363473 -0.024050444 -0.045944523 0.015057307 -0.045151506
0.047950525 0.05412596 -0.0073631518 -0.054406345 0.0098549165 0.012393158 0.057051133 0.039883528

layers.0.bias f4 [50]
00000000: b184 2e3d f8e2 0e3d 4cb0 763a a533 2bbd
00000010: 91ac e4bc 1d50 5cbd 0b3d 3cbd 09a5 073d
00000020: c568 00bd f8c1 c2bc 043c 6c3d d19a 47bd
00000030: f7dd 4ebd 24a8 debc 094d c03c 210e 863c
00000040: 36a2 f6b9 db9c 0abd abff 053d 1d97 413d
00000050: 39e6 493c dde9 18bb 7cee afbc fe3f a8bc
00000060: e6ee 053c d7d1 dc3c da3b 593d 9a86 31bd
00000070: 2afe 61bb e2e2 a23c ed57 b6bc 074a 813c
00000080: b88b e23c 2613 883c ebb4 9bbc 36e8 54bd
00000090: 101a c5bc 1bf6 253d 304f 263d 5a49 8f3c
000000a0: a344 c83c ecf0 9cbc fc74 cebc fc53 25bd
000000b0: 7bcf 8bbc 79bd 533d 5f54 1e3d 408e 38bd
000000c0: d10a 3fbc 8833 f9bb
0.042607013 0.034884423 0.00094104256 -0.0417973 -0.027914317 -0.05378734 -0.045956653 0.033116374
-0.031349916 -0.023774132 0.057674423 -0.04873163 -0.05050465 -0.027179785 0.023474233 0.016364159
-0.00047041633 -0.033840995 0.032714527 0.047263253 0.012322956 -0.0023332753 -0.021476023 -0.020538326
0.008174634 0.026955528 0.053035595 -0.043341257 -0.003448377 0.019883577 -0.022258723 0.01578237
0.027654514 0.016610693 -0.019007167 -0.051979266 -0.02406028 0.040517908 0.040602863 0.017491031
0.024446791 -0.01915785 -0.025202267 -0.040363297 -0.017066708 0.051694367 0.03865468 -0.045057535
-0.011660294 -0.00760502

layers.2.weight f4 [20, 50]
00000000: 443e ccbc d05e 293d c162 9bbd 422a 81bd
00000010: 234c 04be b5bf 1dbd 30b5 263d 0028 4a39
00000020: 3b11 d2bd 54c2 febd 8d30 0dbe a87c 2f3d
00000030: 9975 e13d 65a8 613c fe1b 26bd eebe 823d
00000040: 19ac 393d f095 92bd a29a 803d 9620 863d
00000050: 668d 02be 4205 48bd 0210 c3bd 04ed d43d
00000060: 1f4f 91bd 2dd4 ff3c db61 1f3c 6e0f 113e
00000070: b4e9 9cbd 78f9 82bd c4d9 e2bd 5153 62bd
00000080: 3e4f c43c 53ec e43b b778 3ebd a213 0a3e
00000090: c8d7 99bd 8682 38bd 8e1d e93d 379c e53d
000000a0: 0cbe 543d 6ee4 1abd 18ab 813d f81b 89bc
000000b0: f6cb 51bd d70d 00be 4267 053e f135 a8bd
000000c0: dd43 aebd 18bb a63d 4232 9f3d fadb f8bd
000000d0: be10 63bd 3383 dcbd 3c54 0b3e 7820 4e3c
000000e0: fbd4 58bb 83dc 8bbd 1365 b93d a1b1 053e
000000f0: 2af3 a93d 5f2a fabd ce44 f0bd 90f3 0c3e
00000100: 136d b93d 7146 d93d 02f6 3b3c e013 10be
00000110: d14b 9f3d 24d3 003e b473 953d e1e2 03bd
00000120: 0f43 0fba 7641 0cbe 899a babd cc21 df3d
00000130: cccb 453b bef4 cabd d0f5 053e 4c81 0f3e
00000140: bc47 6cbd 4d9c c03d e24d bebc 7cf3 73bd
00000150: c490 ec3d d440 bf3d dc23 873b d66f a03d
00000160: 306e 923c 5b3f 00be bcf4 963b 7b5a 0c3e
00000170: 4c87 95bd 23b2 523d 24db c9bd 85b4 7cbc
00000180: 5e81 723d d3f5 a5bc 71a3 cb3d acbb dfbc
00000190: a457 48bd 4de0 42bd 8088 24bc 5413 f53d
000001a0: b1c6 bfbd 00c5 103d 4887 8d3d c849 dcbc
000001b0: 3a2f 0bbe 7405 0f3d da62 93bd 5efd b9bd
000001c0: 1375 e9bd b0da 90bd ecc0 d23d 0d32 9dbd
000001d0: 2a87 fe3d c83c d3bd 7c7c d3bc 508b 8c3d
000001e0: 4c2d cf3d 4e54 0bbe 6c41 bbbc 6bf4 0c3e
000001f0: 82ba 853d 823d 003e 45e6 0ebe f0c0 8cbc
00000200: 74dd 00bd 20ad 7f3c a4f9 753d 548f af3d
00000210: ee85 64bc da5b 933d fe62 29bd a413 833d
00000220: 0eb5 943d 1a3b febd 90c0 633c f026 343c
00000230: 7566 8d3d e6bc 91bd 17ef 03be 8c1f 1b3d
00000240: 8896 bd3d 7868 abbd 17dd 82bd 366b 2c3d
00000250: e007 31bc 02c6 63bd 880d 10bd 46c5 91bd
00000260: f6c4 77bd ce43 c43d 6d66 fe3d d17e c03d
00000270: 68cc eebd c0f2 8ebb 3065 a83d d2a3 b2b9
00000280: 8999 05be 4aa5 d53d c718 1f3d 0c22 f53c
00000290: 9176 833d 421d 3f3d 5dd6 363d ccfe 543d
000002a0: 20b5 683d ca16 6b3d fa31 d63d 4961 d43d
000002b0: 5273 f43d 9c7e c33d 81f5 b53c d49f b43c
000002c0: 19eb dd3d 0d2a 083d e25a e1bd a49f 4e3d
000002d0: b836 f3bd a027 613b c8b7 bcbd 812b 113e
000002e0: 0fab f03d 072c f6bc d2a5 ca3d bc79 8b3c
000002f0: e266 32bc 7243 a1bd 34ab 32bd c0d0 51bb
00000300: faa1 4cbc d67b ffbd aba3 04bd cd7b 013e
00000310: 707d dbbd a06e 18bd 9d8e 47bc 680c 323d
00000320: 8ab3 f73d eb26 b8bd 59be 043e bd69 fbbd
00000330: 5085 0d3d dc65 c43d d6f0 bbbd 60f3 e5bd
00000340: 0c28 45bd 6ac8 e9bd bfb6 eabd e8b8 573d
00000350: c8d3 9fbd e0a3 e8bb 0664 973d c4a5 623d
00000360: 847e b03d 68c4 a53c d4b0 b7bd 5342 0cbe
00000370: 8015 f13c d251 d9bd 731e 083e 44a4 2d3d
00000380: b6af d1bd 70da e9bd 80cd 5e3d 7c31 35bd
00000390: a855 2bbd 5045 12bc d48f 2cbd d4cb 07be
000003a0: 7faa debd bc42 b93d 4094 9abc b4c0 72bd
000003b0: e81b 823c deda fc3d 6c0e 1abd 703a 213c
000003c0: d808 683d 59c4 82bd 31eb 0e3e 7496 0ebe
000003d0: b099 1dbc 1093 4cbc d4a9 a5bd fe4f e73d
000003e0: 4052 713d 8253 4dbd acd8 3dbd 2d8f 723c
000003f0: 3039 133c a18b 903c 0047 37ba 3ed3 583c
-0.024932034 0.041350186 -0.07587195 -0.06306888 -0.12919669 -0.038512904 0.040700138 0.00019279122
-0.10257193 -0.12439409 -0.13788052 0.04284349 0.11008758 0.013773059 -0.04055404 0.06384073
0.04533014 -0.071575046 0.06279494 0.06549184 -0.12749252 -0.04883314 -0.095245376 0.1039677
-0.07095169 0.031229103 0.00972792 0.14166042 -0.07661763 -0.06395239 -0.11076692 -0.055255238
0.023963567 0.00698618 -0.04650184 0.13484052 -0.0751186 -0.04504635 0.1138259 0.11211436
0.051939055 -0.037815504 0.06331462 -0.01673697 -0.051219903 -0.1250528 0.13027671 -0.082134135
-0.08509038 0.08141154 0.07773258 -0.12151332 -0.05543589 -0.10767212 0.13606352 0.012580983
-0.003308593 -0.06829169 0.090524815 0.13056041 0.08298333 -0.12215113 -0.117318735 0.13764787
0.090540074 0.10609139 0.011472227 -0.14070082 0.07778133 0.12580544 0.07297459 -0.03219879
-0.00054650096 -0.13696846 -0.091115065 0.10895118 0.0030181287 -0.09909962 0.13082051 0.14014167
-0.0576856 0.09404812 -0.023230497 -0.059558377 0.11551049 0.09338537 0.004124148 0.07833831
0.017874807 -0.12524168 0.0046068113 0.1370639 -0.073011965 0.051439416 -0.09856251 -0.015423899
0.059205405 -0.02025882 0.09943283 -0.027311169 -0.048911706 -0.04757719 -0.01004231 0.11966577
-0.09364069 0.035344124 0.069105685 -0.02689065 -0.13592234 0.03491731 -0.07196589 -0.09081529
-0.11399283 -0.07072961 0.10290703 -0.07675562 0.12428124 -0.103143275 -0.025816195 0.06862509
0.101160616 -0.13606378 -0.022858344 0.13765113 0.06529714 0.12523463 -0.13955028 -0.017181844
-0.031461194 0.015605241 0.06005253 0.085722595 -0.013947947 0.07195254 -0.041354172 0.064002305
0.07261096 -0.124136165 0.013900891 0.010995612 0.06904308 -0.07116108 -0.12884174 0.037871882
0.09257227 -0.08369535 -0.06389826 0.04209443 -0.0108051 -0.055608757 -0.035169154 -0.07117705
-0.06049057 0.09583245 0.1242188 0.09399188 -0.11660081 -0.004362434 0.08222425 -0.0003407286
-0.1304685 0.10431917 0.03884199 0.029923461 0.06419099 0.04665876 0.044638027 0.052000806
0.05681336 0.05739478 0.10458751 0.10370118 0.11936058 0.09545633 0.022211792 0.022048868
0.10835857 0.033243228 -0.11003663 0.050445214 -0.11875671 0.0034355894 -0.09214741 0.14176752
0.11751377 -0.03005029 0.09894909 0.01702582 -0.010888787 -0.07874192 -0.043620303 -0.0032015294
-0.01248979 -0.12474792 -0.03238265 0.12644883 -0.10717285 -0.037214875 -0.012179998 0.043468863
0.12094791 -0.08991798 0.12963237 -0.12276027 0.034550965 0.09589741 -0.09176795 -0.11228061
-0.048133895 -0.11415179 -0.11460637 0.052666575 -0.07804066 -0.0070996135 0.07392125 0.055333868
0.08617881 0.020235255 -0.08969274 -0.13697176 0.029429197 -0.10611309 0.13292865 0.042392984
-0.10238592 -0.11418617 0.0543952 -0.044236645 -0.041829735 -0.008927658 -0.042129353 -0.13261348
-0.10872363 0.09045932 -0.01886952 -0.059265807 0.015882447 0.12346433 -0.03761141 0.009840593
0.05664906 -0.063851066 0.13956906 -0.13924581 -0.0096191615 -0.012486234 -0.08089033 0.11294554
0.05891633 -0.050128467 -0.046349213 0.014804644 0.0089858025 0.017644705 -0.0006991476 0.013233958

layers.2.bias f4 [20]
00000000: 898d 89bd d330 c53c 40ad 03be df8a 6fbc
00000010: e043 b9bd c70b ecbd 92df e13d 1ecd ddbc
00000020: 4ee7 9fbd 595a a8bd c699 97bc 0b00 173d
00000030: 6091 023e 56d6 5c3d 948d cd3c 12ee e03d
00000040: 8d32 ebbd 34bd 183d c8ff a9bd 7c4e 6c3d
-0.06716449 0.024071133 -0.12859058 -0.014620512 -0.09046149 -0.11525684 0.11028971 -0.027075347
-0.0780779 -0.082203574 -0.018505942 0.036865275 0.12750769 0.053915344 0.025091924 0.10982908
-0.11484251 0.037289813 -0.083007395 0.057692036

layers.4.weight f4 [10, 20]
00000000: 9479 023e 643e 9ebd db0d 1ebe ab30 26be
00000010: b83d d43d 6657 1c3d c850 283e 915b 24be
00000020: 9f95 8d3d 5684 753d a195 093e 5dde a3bc
00000030: 060a 5c3e ed65 1dbd 75e2 283e b374 ea3d
00000040: 8294 1e3d bb7e 3abc bdfa a53d 062f 8dbd
00000050: 7e9a 2abc 3c36 a3bd c3a8 ea3d 1d63 193e
00000060: f243 49be 4f43 f7bd bc5c 833c 90c6 903c
00000070: f612 ca3d 688a 963c 9c2c 4abd 1cd4 473e
00000080: 78b0 44be bfee 623e 3a8d bdbd d6b1 e4bd
00000090: 9af5 16bd 91d5 003e 1da2 7cbd d9d8 2bbe
000000a0: 0792 303c c2f1 d13d 6835 2d3e 392a 4cbd
000000b0: d024 413e 5e10 eb3d 80d2 1bbd 58fe c9bc
000000c0: 187b 9dbd ed30 263e a657 333e 7902 053e
000000d0: 70cd 2f3d 8c04 043e 0b4f 15bd 3ec2 543e
000000e0: 14e1 5b3e a699 82bc 44a0 31be 0067 f53d
000000f0: 7377 debd 92a4 3abe 149f b6bd 4869 11be
00000100: eda6 5fbe e01e 153e 1a5c 94bd e4a5 0cbd
00000110: 50e9 073e 9074 80bd 1839 18be 7c66 7dbd
00000120: bc8a 283e 3cc3 2bbe aaa9 3e3e 43a2 02be
00000130: b0bd 5b3d 2067 dabb 8023 cdbc 941e 8d3d
00000140: 0825 a1bd 86ba 5f3e a143 b23d 2f2e e63d
00000150: d6f4 84bd 9cd6 af3d 52e7 a13d 9e4b bf3d
00000160: f58d 46be c337 2ebd abf9 4cbd 53ab 00be
00000170: eeff 533e 00de 093e a14a bf3d 8091 43be
00000180: 8623 78bb 714d 07be 09ca 323e 5be5 05be
00000190: e484 943d f088 263e 4cee 3fbd d095 21be
000001a0: 28cf 11bd 909e e13c 0cf9 a03d 4466 2c3e
000001b0: e085 c23b 19f6 0cbe 8855 3d3d 9a8d 363e
000001c0: 1b42 d6bd 16b2 a7bd c52b 55be 2875 683d
000001d0: ac13 0abd da1d 01be b4dd 50be c414 cebd
000001e0: cf93 1bbe f200 debd ac03 133e 9bf1 cd3d
000001f0: 165e 1ebe d570 7fbd ebe8 963d 4677 c43d
00000200: 4cd0 503d fb5d 193e 4c55 213d c8a3 72bc
00000210: b145 a9bd 4b28 ab3d bcd0 ccbd 960e 5b3e
00000220: b2d2 22bd eb40 d7bd 1a57 503e 4eb3 01be
00000230: ea63 9c3d 0f00 1f3b 53ae 5a3d 3d14 3cbe
00000240: 003a 19bb be74 2fbe 900a 8dbc 3c53 de3d
00000250: 34be 58be 5429 fbbc 0ac0 56be e762 df3d
00000260: e25c 8a3d 0ed5 23bd 1fb2 0d3e abe1 8e3c
00000270: 82c4 50bd 64aa 2d3e 36c3 e73d 240b ad3d
00000280: 18d5 91bc ca0b 403d 76d8 37be 9c22 3e3e
00000290: 5c47 28bd 30a3 cbbb e5c8 1d3d 5f29 49be
000002a0: ded8 9c3c 1329 39bd 0799 12be 3920 0ebc
000002b0: 90bb 05bd 0cbf 94bd ca5b bebd b361 10be
000002c0: d88b 073e a012 a83d c27c 5e3e 1acb 88bd
000002d0: 702e 073e bf2a 7d3d f64c f2bc 2312 743d
000002e0: ec0a 07bd 1769 04be 749f 923d e075 dabd
000002f0: fb33 ec3d 7bd6 e83d 7c0c 593e 57b0 b8bd
00000300: 2238 28bd ea22 973d 9370 61bd 99f9 dcbd
00000310: f605 ec3d f97b eebc 69ad ce3c cc5e e43d
0.12741691 -0.07726744 -0.15434973 -0.16229503 0.103633344 0.038169287 0.16437066 -0.16050555
0.069133036 0.05994066 0.13435985 -0.020003492 0.21488199 -0.038427282 0.16492637 0.1144804
0.038715847 -0.011382754 0.08104465 -0.06893735 -0.01041281 -0.07969329 0.1145797 0.14979215
-0.19654825 -0.12073385 0.01603543 0.017672807 0.09866898 0.018376544 -0.04935895 0.19514507
-0.19207942 0.22161387 -0.092554525 -0.11166732 -0.036855318 0.12581469 -0.06167804 -0.1678194
0.010777003 0.1025119 0.16914904 -0.049844954 0.18861699 0.11477731 -0.038042545 -0.024657413
-0.07689494 0.16229601 0.17513904 0.12989224 0.04292053 0.1289236 -0.036452334 0.20777223
0.21472579 -0.015942406 -0.17346293 0.11982536 -0.10862627 -0.18226841 -0.089170605 -0.14200318
-0.21841021 0.14562559 -0.072441295 -0.034337893 0.13272595 -0.062722325 -0.1486553 -0.061865315
0.16459173 -0.16773695 0.18619409 -0.1275721 0.053647697 -0.0066651255 -0.025041342 0.06890598
-0.07868391 0.21848497 0.087043054 0.112392776 -0.06492011 0.08585855 0.07905449 0.09340595
-0.1939009 -0.042533647 -0.05004279 -0.12565355 0.20703098 0.13463593 0.09340406 -0.19098473
-0.003786297 -0.13213135 0.17459883 -0.13075773 0.072519094 0.16263175 -0.046858117 -0.15779805
-0.03559795 0.027541429 0.07860002 0.16835886 0.0059363693 -0.13765754 0.046224147 0.17827454
-0.10461827 -0.08188264 -0.20817478 0.056752354 -0.033710167 -0.12609044 -0.20397073 -0.100625545
-0.15193103 -0.10840024 0.1435687 0.10055848 -0.15465578 -0.062363464 0.07368644 0.09593062
0.050979897 0.14977257 0.039387986 -0.014809556 -0.08265246 0.08357295 -0.100007504 0.21392283
-0.039751716 -0.10510429 0.20345727 -0.12666056 0.076362446 0.002426151 0.053388905 -0.18367095
-0.0023380518 -0.17134377 -0.01721695 0.108557194 -0.21166307 -0.030659355 -0.20971695 0.10907536
0.06755997 -0.039998107 0.13837479 0.017441591 -0.050968654 0.1695953 0.113165304 0.084493905
-0.017801806 0.046886243 -0.17953667 0.1856789 -0.04108368 -0.006214522 0.038521666 -0.19644688
0.01914638 -0.045205187 -0.14316188 -0.008674675 -0.032649577 -0.07263002 -0.09294851 -0.1409977
0.1323694 0.082066774 0.21727279 -0.066793635 0.13201308 0.061808344 -0.029577713 0.05958761
-0.0329694 -0.12930714 0.071593195 -0.10667014 0.11533352 0.11369034 0.21196169 -0.09018009
-0.041069157 0.07379706 -0.055039 -0.107897945 0.115245745 -0.02911185 0.025229173 0.111508936

layers.4.bias f4 [10]
00000000: 6d02 903d ffd4 73bb 5601 d7bb e8a9 18be
00000010: 36f5 d43d 162b aebd 6a38 523e 4525 613e
00000020: 3bf3 52be 6be1 933d
0.07031713 -0.0037205813 -0.0065614386 -0.14908564 0.10398333 -0.08504312 0.20529333 0.21986873
-0.20600598 0.072207294

layers.6.weight f4 [2, 10]
00000000: 00d5 ec3d 8ec4 0f3e 183b 123e 2f31 8cbe
00000010: f075 79be 7afe 1ebe 7963 0ebd b935 4cbd
00000020: 1ea8 b53d dd8a 89be ed82 303e b30b af3d
00000030: bc37 923b 6048 723d 6a79 54bd 3460 e43d
00000040: 11cc 433d 3878 88be 1571 353e e612 9bbc
0.11564064 0.14039823 0.14280355 -0.27381274 -0.24361396 -0.15526763 -0.034762833 -0.04985592
0.088699564 -0.26863757 0.17237444 0.08547153 0.0044622105 0.059151053 -0.051873602 0.11151162
0.047802035 -0.2665422 0.17718919 -0.01892991

layers.6.bias f4 [2]
00000000: db94 97bd 305f 42bd
-0.07401439 -0.04745406
