model-fold-9.pth (torch, 68239 bytes, 8 tensors)

layers.0.weight f4 [50, 302]
-0.0136127025 -0.0363465 -0.014130227 -0.01304251 -0.05383446 0.019046646 0.028144378 0.048357684
0.014045525 0.011226039 0.050262924 0.02962831 -0.02478828 -0.0130020045 -0.037316103 0.03744073
0.030491184 0.05310898 0.038707327 0.024844427 -0.038673252 0.009307127 0.03274812 0.0540278
-0.007225655 0.03134496 0.04530276 -0.007408336 0.028542254 -0.021428172 0.037341285 0.0032958724
-0.020293389 -0.019516505 0.0024804138 0.04865947 0.025568191 0.015219796 -0.007876974 -0.050036423
-0.04536092 0.054185126 0.056762855 -0.013596699 0.053920563 -0.019390352 0.019457545 -0.02845622
-0.045758825 0.018608753 -0.05551766 0.002817385 0.027841974 0.03223342 0.03765892 0.056733783
-0.009714734 -0.007221047 -0.0262575 -0.02455357 0.02111568 -0.041131433 -0.01473086 0.008576702
-0.005426805 0.053486306 0.0417932 -0.054078538 0.05073492 0.029395472 -0.012114156 0.012322482
0.024503525 0.01570804 -0.049698617 0.037891712 0.014283959 -0.0070996583 -0.025589205 0.0008184202
-0.022071633 -0.0013515912 -0.005003772 0.04348774 -0.013955396 0.041024905 -0.03884434 -0.004499182
-0.054958474 -0.05450312 0.010033872 0.03916822 -0.008420523 0.019024674 -0.052940853 0.03888387
0.0092509575 0.012080867 -0.013040975 0.042440746 0.014012296 0.01958898 -0.0026637688 -0.027845452
0.055717174 -0.0027865358 0.0160623 0.020189937 0.050122146 0.029315371 -0.022094298 -0.050150994
0.021927666 -0.013397687 -0.016618099 0.042421218 -0.042051338 -0.0018484704 0.042250697 -0.016284484
0.0013204627 0.025435057 -0.02700551 -0.005667791 0.02680384 -0.049006306 0.0326575 0.016483556
-0.009129491 -0.004862983 -0.0025160983 -0.038818464 -0.028563704 -0.00069449097 -0.053174328 0.056580056
-0.024357412 -0.047064424 -0.032252185 0.018940236 0.02199683 0.034289967 -0.048217148 -0.054360595
0.026959103 0.04248407 -0.030082941 -0.04951827 -0.049827952 0.029661123 -0.04714743 0.054217998
-0.055877138 0.015233938 -0.007464718 0.010824483 0.008517023 -0.04427025 0.04829349 0.056280743
0.039703097 0.036650356 0.00050952664 0.022928398 -0.055692945 -0.014187676 -0.03852904 -0.035702378
0.019776125 0.04668873 -0.04570903 -0.046703998 -0.006178513 0.049241927 -0.0046244822 -0.02160436
0.038887557 0.05681217 0.045759257 -0.0056085438 -0.04495231 0.046917584 -0.028362617 -0.045553252
-0.03522449 0.054323602 -0.02348812 -0.018403333 -0.046455156 0.013066507 -0.011005241 -0.030830363
-0.03175581 0.03924695 -0.0008710623 0.026619215 0.023168828 -0.03368081 -0.017510366 -0.0074693337
0.04077472 -0.034438957 0.012217451 -0.041585304 0.00053299963 -0.044036143 -0.042254955 -0.018669087
0.04589844 -0.004496433 0.011028539 0.012771655 -0.024629112 -0.025174774 -0.04392366 -0.019170176
-0.045831338 -0.025433887 0.018679146 0.035829928 0.045066398 -0.01577403 -0.051800974 0.010860596
-0.042938128 0.014265496 0.03506433 -0.035987042 0.04570956 0.019991662 -0.025564216 0.0042616464
-0.048614815 -0.021400884 -0.0138383545 -0.047909547 0.01595315 -0.030872565 -0.03247098 0.008215692
-0.042459153 -0.038731202 0.017263282 0.05409913 0.032404725 -0.042463303 -0.054237112 -0.012737203
-0.028224045 0.027441252 -0.03813237 -0.014819108 -0.04461617 0.03600427 0.031656977 -0.008932747
00000000: d007 5fbc 11e0 14bd 7882 67bc 40b0 55bc
00000010: 8681 5cbd b607 9c3c 0a8f e63c b512 463d
00000020: 341f 663c 6ced 373c 7fe0 4d3d 12b7 f23c
00000030: ca10 cbbc 5c06 55bc c5d8 18bd 735b 193d
00000040: a6c8 f93c cd88 593d 938b 1e3d 8a86 cb3c
00000050: d867 1ebd ec7c 183c e522 063d 414c 5d3d
00000060: 30c5 ecbb 9363 003d 638f 393d a0c1 f2bb
00000070: 72d1 e93c 228a afbc 2df3 183d 90ff 573b
00000080: 523e a6bc 14e1 9fbc 708e 223b 274f 473d
00000090: 6274 d13c 745c 793c 6c0e 01bc fef2 4cbd
000000a0: 5fcc 39bd 39f1 5d3d 2b80 683d b0c4 5ebc
000000b0: cfdb 5c3d 84d8 9ebc 6e65 9f3c 051d e9bc
000000c0: 9b6d 3bbd 6271 983c 7c66 63bd e0a3 383b
000000d0: da14 e43c 3107 043d 3d40 1a3d af61 683d
000000e0: 8c2a 1fbc 889e ecbb f819 d7bc 9224 c9bc
000000f0: cafa ac3c 6f79 28bd b459 71bc 4c85 0c3c
00000100: 57d3 b1bb 7514 5b3d 592f 2b3d 7581 5dbd
00000110: 6bcf 4f3d c6ce f03c 747a 46bc 3ce4 493c
00000120: 9ebb c83c 26ae 803c c790 4bbd 5734 1b3d
00000130: 4407 6a3c 40a4 e8bb 74a0 d1bc 408b 563a
00000140: 92cf b4bc e027 b1ba aff6 a3bb 3320 323d
00000150: 2ca5 64bc bb09 283d 3e1b 1fbd e06d 93bb
00000160: 231c 61bd aa3e 5fbd 1c65 243c db6e 203d
00000170: 3cf6 09bc a2d9 9b3c 82d8 58bd b144 1f3d
00000180: 5491 173c d4ee 453c d0a9 55bc 59d6 2d3d
00000190: d493 653c 1279 a03c a092 2ebb 251c e4bc
000001a0: b137 643d 509e 36bb 1695 833c 5e65 a53c
000001b0: e14c 4d3d ca26 f03c 1aff b4bc 216b 4dbd
000001c0: a6a1 b33c f981 5bbc ae22 88bc dfc1 2d3d
000001d0: 063e 2cbd 6048 f2ba 110f 2d3d 0a67 85bc
000001e0: 6013 ad3a 2e5d d03c a93a ddbc e0b8 b9bb
000001f0: ba93 db3c d6ba 48bd dfc3 053d 8608 873c
00000200: dc93 15bc a859 9fbb 20e5 24bb 1c00 1fbd
00000210: 6efe e9bc 800e 36ba 53cd 59bd 7dc0 673d
00000220: 3289 c7bc a0c6 40bd de1a 04bd 8e28 9b3c
00000230: b232 b43c a373 0c3d 587f 45bd 37a9 5ebd
00000240: 56d9 dc3c c703 2e3d 8070 f6bc abd3 4abd
00000250: 6518 4cbd e2fb f23c aa1d 41bd b113 5e3d
00000260: 6ddf 64bd c497 793c 989a f4bb 2c59 313c
00000270: fc8a 0b3c b954 35bd 65cf 453d a386 663d
00000280: b79f 223d af1e 163d c191 053a 56d4 bb3c
00000290: 491e 64bd 6d73 68bc a0d0 1dbd a83c 12bd
000002a0: 8a01 a23c af3c 3f3d 6439 3bbd b14c 3fbd
000002b0: 2075 cabb e7b1 493d f888 97bb a0fb b0bc
000002c0: 8f48 1f3d e1b3 683d 0f6e 3b3d e0c7 b7bb
000002d0: ea1f 38bd a72c 403d b858 e8bc 0c96 3abd
000002e0: 8e47 10bd 6d82 5e3d 286a c0bc 96c2 96bc
000002f0: c347 3ebd e714 563c 544f 34bc f58f fcbc
00000300: 6112 02bd 69c1 203d 0058 64ba 8a10 da3c
00000310: 8ecc bd3c e4f4 09bd e671 8fbc 50c1 f4bb
00000320: 6503 273d dd0f 0dbd b42b 483c 5a55 2abd
00000330: 00b9 0b3a 3e5f 34bd 8813 2dbd eaef 98bc
00000340: 0100 3c3d d056 93bb 0cb1 343c 3440 513c
00000350: fec2 c9bc 543b cebc 4ce9 33bd c60a 9dbc
00000360: a4b9 3bbd ba5a d0bc 0205 993c 67c2 123d
00000370: 8b97 383d 8a38 81bc 422d 54bd a4f0 313c
00000380: e4df 2fbd d4b9 693c 9d9f 0f3d 2667 13bd
00000390: f339 3b3d 8ec5 a33c 0c6c d1bc 48a5 8b3b
000003a0: 5420 47bd e850 afbc 44ba 62bc cd3c 44bd
000003b0: 2eb0 823c 76e8 fcbc 4a00 05bd 1c9b 063c
000003c0: a6e9 2dbd 9ca4 1ebd ba6b 8d3c 0d97 5d3d
000003d0: d1ba 043d 00ee 2dbd bc27 5ebd b4af 50bc
000003e0: 1d36 e7bc 7acc e03c b030 1cbd d8cb 72bc
000003f0: 72bf 36bd 3779 133d bfaa 013d a85a 12bc

layers.0.bias f4 [50]
0.006010488 -0.010541976 -0.022444282 -0.056773357 -0.037467875 0.023446275 -0.014873111 -0.031465393
0.03178091 0.031891868 -0.015746357 -0.016415559 0.005283918 -0.04028303 -0.01969253 0.013653304
0.007532531 0.05468747 -0.0466796 -0.045933682 0.026738819 -0.02223056 0.004826704 -0.015827555
0.034804102 -0.010078872 0.016860217 -0.05322855 -0.05021939 0.029715547 0.020579996 0.04843263
0.045161225 0.0174628 0.032591306 -0.03255319 -0.007194765 0.04817601 0.045240857 0.0069142696
-0.027025674 0.018684829 -0.007296431 -0.057943948 0.004250115 0.047892366 0.024627382 0.04158001
-0.022143023 -0.04411226
00000000: a1f3 c43b 41b8 2cbc 12dd b7bc 2e8b 68bd
00000010: ea77 19bd 6712 c03c 59ae 73bc dbe1 00bd
00000020: b32c 023d 0ca1 023d 81fe 80bc ec79 86bc
00000030: b824 ad3b d2ff 24bd 3b52 a1bc 1cb2 5f3c
00000040: 73d3 f63b f8ff 5f3d 1c33 3fbd f524 3cbd
00000050: 5e0b db3c dd1c b6bc 5429 9e3b caa8 81bc
00000060: bf8e 0e3d da21 25bc 701e 8a3c 2e06 5abd
00000070: d9b2 4dbd 056e f33c 6197 a83c 4b61 463d
00000080: fafa 383d 250e 8f3c 767e 053d 7e56 05bd
00000090: 10c2 ebbb 3554 453d 7a4e 393d 1991 e23b
000000a0: f264 ddbc ed10 993c e616 efbb a256 6dbd
000000b0: 8c44 8b3b c92a 443d 5dbf c93c cd4f 2a3d
000000c0: 4965 b5bc 0faf 34bd

layers.2.weight f4 [20, 50]
-0.06673211 -0.1205516 -0.03307715 0.041471533 -0.014778747 0.027562412 0.098098755 -0.07541572
-0.12869498 0.11260509 -0.0320733 -0.06822385 0.09685108 -0.0393452 0.09922033 -0.10103228
-0.14087515 0.08618717 -0.117467195 0.03344886 -0.12316895 0.018702019 0.06478129 0.04065446
-0.047233593 0.063953154 0.112026915 -0.13549188 0.016369347 -0.10841727 -0.023559054 -0.1043867
0.076995865 0.07332425 -0.033154085 0.06331421 0.13813107 0.068211235 0.10363716 -0.104401335
-0.10008333 -0.1329514 0.017325187 -0.052228115 0.08419864 0.08094812 0.03177041 0.044950828
0.05957393 0.024938552 0.09544647 -0.109144844 -0.032496262 -0.084028326 0.020931635 -0.015297277
-0.06750317 -0.044615023 0.06466814 0.13784024 0.12753183 -0.07618128 -0.093027666 0.08228269
0.08412966 -0.045204706 -0.03348887 -0.08649138 0.11669105 -0.008948457 -0.12944673 -0.08816621
0.04897006 -0.06297517 0.049341366 -0.024973135 -0.023640888 -0.08055069 0.13106224 0.14119016
-0.12149151 -0.09572748 -0.11205315 -0.13831092 -0.06064703 -0.072835386 0.017620817 -0.04103247
-0.0055489987 -0.10041609 -0.075775236 -0.09239133 0.13109021 0.1362014 0.081881024 0.054736283
-0.022141712 0.098114215 0.036924932 0.104973555 -0.047244966 -0.022040173 0.03663133 -0.09925671
-0.13736062 -0.027533546 -0.13238843 -0.05206023 -0.12439901 0.09882884 -0.01791612 0.0033676475
0.10570374 -0.08728112 -0.007037565 -0.040778577 0.105451584 -0.032902397 -0.12422471 -0.007460147
0.086989105 0.05455555 0.117058024 0.011612639 -0.08762099 -0.11720862 0.07101019 0.04998155
-0.04802814 0.03869438 0.11408804 -0.081964344 -0.054973118 -0.08487091 -0.02740629 0.13749953
0.050988287 -0.112263195 -0.08608049 -0.14104842 -0.12754746 -0.13919038 -0.11941887 -0.016871773
-0.10116358 0.0757319 -0.0985803 -0.022420675 0.12033452 -0.02112075 -0.13815027 -0.0493529
0.014303603 0.07468398 0.05473198 0.094808035 0.04992813 0.08938391 0.029255128 0.031746026
-0.06714163 -0.024006337 0.005778179 -0.025273794 0.09301041 0.12239266 -0.13621457 -0.07880094
0.11925302 -0.061545912 0.06802272 -0.011170327 -0.06532926 -0.04027001 0.023985809 0.12137991
0.09091857 -0.052584715 0.1281938 -0.04893404 0.07822768 0.06075047 0.049647138 -0.005167954
-0.052545074 0.02714776 0.10923522 -0.10283448 0.13976753 0.0924232 -0.10211408 0.10674079
-0.09253483 -0.038066186 -0.032352258 -0.10115906 -0.005325869 -0.11546222 0.022692151 -0.11539722
-0.02147407 -0.11388333 0.030463057 0.11177684 -0.047885705 0.025280153 0.06575471 -0.016944705
-0.119776726 -0.095556185 -0.030736733 -0.096559644 -0.07845741 0.06321449 -0.04782643 0.09751366
-0.10663286 -0.014030182 0.14189388 -0.02487632 0.072524816 0.13884363 -0.13697547 -0.04444444
-0.028728843 0.058525823 -0.021452852 0.13049443 0.01478107 0.09105265 0.009150852 0.028566588
-0.086461686 0.01821576 -0.10902483 0.0043999255 0.12108351 -0.071831465 -0.09459062 0.07012847
0.09657483 -0.03280116 -0.0746572 0.11425866 0.10077779 0.05983416 -0.064603016 -0.11488422
0.064084165 0.08538273 0.038063884 -0.007537678 -0.031212628 -0.13648048 -0.022148505 0.09938632
00000000: d8aa 88bd c2e3 f6bd e87b 07bd 0ede 293d
00000010: 8f22 72bc 91ca e13c 00e8 c83d 8f73 9abd
00000020: 9ec8 03be 7f9d e63d 4b5f 03bd f2b8 8bbd
00000030: dc59 c63d 6f28 21bd 0734 cb3d 03ea cebd
00000040: 9341 10be e682 b03d a492 f0bd ac01 093d
00000050: 0140 fcbd fa34 993c 0eac 843d 4b85 263d
00000060: 0378 41bd dff9 823d 5e6e e53d 62be 0abe
00000070: 0219 863c e009 debd ebfe c0bc b2c8 d5bd
00000080: 02b0 9d3d 062b 963d 94cc 07bd e1aa 813d
00000090: 3b72 0d3e 55b2 8b3d b83f d43d 5ed0 d5bd
000000a0: 7df8 ccbd 6924 08be 8ded 8d3c 26ed 55bd
000000b0: 5670 ac3d 21c8 a53d b021 023d 5c1e 383d
000000c0: cb03 743d ef4b cc3c 7079 c33d 5587 dfbd
000000d0: cd1a 05bd 0b17 acbd d278 ab3c 6ea1 7abc
000000e0: 1a3f 8abd 3ebe 36bd bb70 843d fe25 0d3e
000000f0: b497 023e ee04 9cbd 4a85 bebd d483 a83d
00000100: 2c4c ac3d 9228 39bd a02b 09bd 6522 b1bd
00000110: b8fb ee3d 8d9c 12bc af8d 04be 7c90 b4bd
00000120: d494 483d 20f9 80bd 2c1a 4a3d 7694 ccbc
00000130: 89aa c1bc c3f7 a4bd 2e35 063e 2794 103e
00000140: 8ad0 f8bd c50c c4bd 1f7c e5bd 61a1 0dbe
00000150: 0569 78bd b82a 95bd 8859 903c aa11 28bd
00000160: 60d4 b5bb f3a6 cdbd 0c30 9bbd aa37 bdbd
00000170: 833c 063e 6178 0b3e 3db1 a73d 2733 603d
00000180: 8962 b5bc 1bf0 c83d 993e 173d 60fc d63d
00000190: f083 41bd 988d b4bc bc0a 163d 1a47 cbbd
000001a0: 43a8 0cbe 088e e1bc d590 07be 1c3d 55bd
000001b0: e8c4 febd c666 ca3d d4c4 92bc c0b3 5c3b
000001c0: 347b d83d 72c0 b2bd 609b e6bb 7007 27bd
000001d0: 00f7 d73d aac4 06bd 8669 febd 4074 f4bb
000001e0: 5827 b23d a475 5f3d 1ebc ef3d f042 3e3c
000001f0: a272 b3bd 130b f0bd ca6d 913d 74b9 4c3d
00000200: 28b9 44bd 007e 1e3d fea6 e93d ecdc a7bd
00000210: 7e2b 61bd cdd0 adbd 2883 e0bc adcc 0c3e
00000220: 18d9 503d 3fea e5bd f84a b0bd ff6e 10be
00000230: cd9b 02be ec87 0ebe e191 f4bd ac36 8abc
00000240: da2e cfbd 5419 9b3d 78e4 c9bd 90ab b7bc
00000250: f271 f63d 6c05 adbc 4477 0dbe 4426 4abd
00000260: a959 6a3c eaf3 983d a42e 603d b72a c23d
00000270: 7081 4c3d e90e b73d 73a8 ef3c 1f08 023d
00000280: 8d81 89bd f0a8 c4bc e156 bd3b fd0a cfbc
00000290: 3e7c be3d 01a9 fa3d d57b 0bbe 6362 a1bd
000002a0: ed3a f43d 9117 7cbd 7f4f 8b3d bf03 37bc
000002b0: 59cb 85bd 2af2 24bd e37d c43c 0896 f83d
000002c0: 8433 ba3d 1263 57bd 3c45 033e 0f6f 48bd
000002d0: d535 a03d 7cd5 783d cc5a 4b3d f157 a9bb
000002e0: 8139 57bd fb64 de3c b7b6 df3d e29a d2bd
000002f0: 381f 0f3e 6048 bd3d 3021 d1bd ea9a da3d
00000300: e782 bdbd 4aeb 1bbd cd83 04bd 7b2c cfbd
00000310: a184 aebb 7577 ecbd e4e4 b93c 6155 ecbd
00000320: 64ea afbc aa3b e9bd a98d f93c 42eb e43d
00000330: cd23 44bd 5318 cf3c 68aa 863d 9fcf 8abc
00000340: 804d f5bd f6b2 c3bd 9acb fbbc 10c1 c5bd
00000350: 47ae a0bd 9976 813d a6e5 43bd 3eb5 c73d
00000360: 5462 dabd d9de 65bc a14c 113e 6dc9 cbbc
00000370: e487 943d 062d 0e3e 4c43 0cbe 600b 36bd
00000380: c058 ebbc c6b8 6f3d e4bd afbc 55a0 053e
00000390: 4d2c 723c d079 ba3d 75ed 153c 7a04 ea3c
000003a0: d312 b1bd 3839 953c 6948 dfbd 402d 903b
000003b0: a2fa f73d 601c 93bd bab8 c1bd 849f 8f3d
000003c0: 06c9 c53d 825a 06bd e0e5 98bd 7200 ea3d
000003d0: 9664 ce3d aa14 753d 964e 84bd 6b48 ebbd
000003e0: 8f3e 833d 24dd ae3d e0e8 1b3d a0fe f6bb
000003f0: a0b1 ffbc 8ac1 0bbe c870 b5bc 0e8b cb3d

layers.2.bias f4 [20]
-0.07688222 -0.044220652 0.002042517 0.110353775 0.009527652 -0.12810706 0.07335116 -0.1271872
0.08196236 0.04057133 0.050974287 0.043670952 -0.09191592 -0.0037808951 0.008141253 -0.08607381
0.063182965 0.063209936 -0.1276215 -0.007852157
00000000: 6d74 9dbd b720 35bd c0db 053b 2901 e23d
00000010: de19 1c3c 7f2e 03be 2239 963d 5d3d 02be
00000020: e2db a73d 1f2e 263d 6aca 503d 50e0 323d
00000030: 6a3e bcbd e5c8 77bb e462 053c 7747 b0bd
00000040: 1266 813d 3674 813d 36af 02be 55a6 00bc

layers.4.weight f4 [10, 20]
-0.09403831 0.18104523 0.060496926 -0.048172165 -0.056435622 -0.18971474 -0.10136841 -0.054155745
0.044714127 0.1760374 -0.12793113 -0.20916803 0.14179966 0.002703236 0.14083122 -0.060599145
0.039632767 0.0155980745 -0.099072434 0.1380401 -0.09230034 0.14728251 -0.108198546 -0.120940834
-0.16654028 0.07295251 0.19841751 -0.14289291 -0.20849764 -0.016391411 0.10011413 0.03427428
-0.123320185 -0.20762546 -0.21807641 0.05170021 0.12690052 0.13050401 0.19536236 -0.1754958
0.14332782 -0.11078467 -0.033717215 -0.034578294 -0.2213804 -0.13375428 0.10209492 0.012043104
-0.05096257 0.1835558 -0.0132349795 -0.03979121 -0.043434937 0.053970482 -0.09163225 -0.05481059
0.20661198 -0.1743242 0.16817811 0.1740667 -0.20363018 -0.089758396 -0.15181243 -0.03215431
0.080879994 -0.18168628 0.039896697 -0.19592986 -0.14629178 -0.020375872 -0.050238412 -0.16862372
-0.08914476 -0.08378945 -0.07806593 -0.10090726 0.2118796 -0.1767915 -0.10353417 0.18468301
0.2035358 -0.22350702 -0.068580836 -0.14548668 -0.14993694 0.0019193441 -0.13202858 0.12271699
0.11003938 -0.22335687 0.057365417 0.21617568 -0.18801916 0.096337795 0.12205243 0.17780218
-0.101247296 -0.20185174 -0.016644865 -0.1551547 -0.18995059 0.09600071 -0.07883805 -0.13611507
-0.20831932 0.17158034 0.044260062 0.19059914 0.16119426 0.13208301 -0.19436246 -0.074959725
0.11849995 -0.032690763 0.025318684 0.08812183 -0.07900082 0.078105725 0.047094554 0.065284595
-0.16529995 -0.14161298 0.007816881 -0.21058184 -0.16654786 0.13048336 -0.18258026 0.2154038
0.063947015 0.08819554 -0.071909614 -0.112334706 0.12729327 -0.013061913 0.039857794 -0.21461178
-0.17674996 -0.14618385 0.068772405 -0.18130513 -0.15457374 0.066894375 -0.14718789 0.07815823
0.17452657 0.06231296 0.21925448 -0.10501168 0.14150836 -0.2117832 0.19656488 0.08660847
-0.016642438 0.01018704 0.07737403 -0.026845716 -0.083065085 -0.074609324 0.20181698 -0.11065364
-0.08874196 0.008490188 -0.012872025 0.058432728 0.10150098 -0.1438187 0.21541832 -0.22088303
0.18121313 -0.22070381 -0.069965854 -0.054930463 0.05034072 0.031655475 -0.04289034 -0.17661934
-0.15175909 -0.06873811 0.19957414 -0.19144611 -0.051998243 0.15179342 -0.19179887 -0.061020106
0.122998774 0.11425194 0.10528809 -0.1250929 -0.21078975 -0.122865826 0.09224075 0.053222567
-0.105894424 0.17758617 0.03317073 0.013136581 -0.10604487 -0.13087393 0.030843228 0.09931451
00000000: 2897 c0bd ec63 393e a0cb 773d 2d50 45bd
00000010: 0a29 67bd 9544 42be 3e9a cfbd 6ad2 5dbd
00000020: 2926 373d 2643 343e 6100 03be 2530 56be
00000030: ee33 113e c628 313b 0f36 103e cf36 78bd
00000040: f855 223d 118f 7f3c 7de6 cabd 625a 0d3e
00000050: f607 bdbd 3ad1 163e 3397 ddbd d4af f7bd
00000060: 8989 2abe 2068 953d f62d 4b3e 8552 12be
00000070: 6880 55be 4847 86bc a308 cd3d 3063 0c3d
00000080: 4b8f fcbd c59b 54be 6c4f 5fbe 99c3 533d
00000090: 36f2 013e d8a2 053e 120d 483e 2cb5 33be
000000a0: 87c4 123e 13e3 e2bd 101b 0abd f8a1 0dbd
000000b0: 8bb1 62be e2f6 08be 2417 d13d 7050 453c
000000c0: 21be 50bd 0df6 3b3e 87d7 58bc 1cfc 22bd
000000d0: d5e8 31bd 2710 5d3d b0a9 bbbd 1281 60bd
000000e0: 1792 533e 0b82 32be e236 2c3e 8a3e 323e
000000f0: 6e84 50be 40d3 b7bd b874 1bbe 3db4 03bd
00000100: 69a4 a53d f80b 3abe b86a 233d d6a1 48be
00000110: 83cd 15be 4deb a6bc cbc6 4dbd b2ab 2cbe
00000120: 8791 b6bd ce99 abbd 08e1 9fbd 77a8 cebd
00000130: f7f6 583e d508 35be b909 d4bd 8b1d 3d3e
00000140: b06b 503e 06df 64be 1c74 8cbd 76fa 14be
00000150: 1289 19be 8092 fb3a 8032 07be 0c53 fb3d
00000160: 545c e13d aab7 64be 00f8 6a3d 285d 5d3e
00000170: 1888 40be c04c c53d a0f6 f93d c611 363e
00000180: be5a cfbd 39b2 4ebe d05a 88bc e0e0 1ebe
00000190: 6882 42be 059c c43d d875 a1bd c061 0bbe
000001a0: a951 55be c2b2 2f3e 0a4a 353d 6c2c 433e
000001b0: 1c10 253e c540 073e f406 47be 7c84 99bd
000001c0: 1ab0 f23d c0e6 05bd 2169 cf3c 3879 b43d
000001d0: 2fcb a1bd e5f5 9f3d 38e6 403d eeb3 853d
000001e0: 6444 29be fe02 11be 6012 003c c4a2 57be
000001f0: 868b 2abe 6e9d 053e 52f6 3abe d092 5c3e
00000200: a7f6 823d dd9f b43d 5945 93bd bd0f e6bd
00000210: 2b59 023e a201 56bc ed41 233d 31c3 5bbe
00000220: f1fd 34be 38b1 15be 8cd8 8c3d 0da8 39be
00000230: 9448 1ebe ebff 883d 6cb8 16be 6c11 a03d
00000240: 18b7 323e e03b 7f3d 3f84 603e 5d10 d7bd
00000250: 91e7 103e b2dd 58be 4e48 493e c85f b13d
00000260: b955 88bc 8be7 263c 4776 9e3d 8ceb dbbc
00000270: 071e aabd c6cc 98bd 1ca9 4e3e 609e e2bd
00000280: 58be b5bd 6e1a 0b3c 30e5 52bc 2857 6f3d
00000290: bfdf cf3d 3645 13be 9f96 5c3e 292f 62be
000002a0: ef8f 393e 2e00 62be 424a 8fbd c4fe 60bd
000002b0: 1232 4e3d 2ca9 013d c8ad 2fbd b3db 34be
000002c0: bc66 1bbe 91c6 8cbd 2a5d 4c3e 730a 44be
000002d0: 1cfc 54bd bc6f 1b3e ec66 44be 38f0 79bd
000002e0: c8e6 fb3d ecfc e93d 48a1 d73d 5a18 00be
000002f0: 45d9 57be 14a1 fbbd b8e8 bc3d e8ff 593d
00000300: 2ddf d8bd 26d9 353e 08de 073d d03a 573c
00000310: 0e2e d9bd d103 06be f0aa fc3c 6865 cb3d

layers.4.bias f4 [10]
0.07140265 0.19376257 0.06187231 0.10431766 -0.2114955 0.09892348 0.1963605 -0.15751792
0.16665514 -0.07262328
00000000: 8d3b 923d b269 463e d26d 7d3d 7fa4 d53d
00000010: 4792 58be 6598 ca3d ba12 493e 614c 21be
00000020: a5a7 2a3e 84bb 94bd

layers.6.weight f4 [2, 10]
0.09485124 0.1691598 0.21294577 0.26014346 0.16587311 -0.26568466 0.11687922 -0.17799264
-0.09684902 0.29376283 -0.08530834 0.15867676 -0.26346684 -0.17547019 -0.020938307 0.0074795205
0.2828014 0.058956884 -0.24532028 -0.28330353
00000000: 5e41 c23d 3a38 2d3e 750e 5a3e 8631 853e
00000010: a4da 293e d207 88be 5f5e ef3d b443 36be
00000020: c758 c6bd 1568 963e 24b6 aebd 297c 223e
00000030: 20e5 86be 75ae 33be d086 abbc c416 f53b
00000040: 58cb 903e c67c 713d 3d35 7bbe 290d 91be

layers.6.bias f4 [2]
-0.27494627 -0.28604874
00000000: c2c5 8cbe fb74 92be
