model-fold-2.pth (torch, 68239 bytes, 8 tensors)

layers.0.weight f4 [50, 302]
0	0xbc99b910	-0.018765002
1	0x3cfd1152	0.030892048
2	0x3d1aa035	0.03775044
3	0xbd04c75c	-0.032416686
4	0x3d54f95a	0.051995613
5	0x39140f6b	0.00014120124
6	0x3d3a6907	0.045510318
7	0x3d064297	0.03277835
8	0xbcd729f8	-0.02626513
9	0xbb24d010	-0.002514843
10	0xbd342321	-0.043978814
11	0x3cabd012	0.02097324
12	0x3a72ce80	0.0009262338
13	0xbc6cb7b4	-0.014448095
14	0x3c24ca34	0.010057975
15	0x3d4049c5	0.046945352
16	0xbcfbebb7	-0.030752046
17	0xbd4a7b25	-0.049433846
18	0xbd1266be	-0.035742514
19	0xbd678d77	-0.056531396
20	0xbd4382a8	-0.047732025
21	0x3d260473	0.040531587
22	0x3ca7886e	0.020450797
23	0x3c819b9e	0.015821274
24	0xbb7db7b0	-0.0038714223
25	0xbc10f104	-0.008846525
26	0x3d05b7ef	0.032646116
27	0xbd039b39	-0.032130454
28	0xbc91e00e	-0.017807033
29	0x3d162825	0.03665938
30	0xbc56307c	-0.013073083
31	0x3d45e757	0.048316326
32	0x3d3108fd	0.043221463
33	0x3d011377	0.031512704
34	0x3d6a8b41	0.05726171
35	0xbd5d4b4d	-0.05402689
36	0x3d3ad4ef	0.045613226
37	0x3d62d41d	0.05537807
38	0xbd10bc6f	-0.035335954
39	0x3d381d20	0.04494965
40	0xbd04d5c1	-0.032430414
41	0xbd302b5f	-0.043010112
42	0xbc8782c4	-0.016541846
43	0x3c9d93c6	0.019235503
44	0xbc7173cc	-0.014737081
45	0xbd2a91e1	-0.041643027
46	0x3c0a3a94	0.008436818
47	0x3d052ea1	0.032515172
48	0x3d2c699b	0.0420929
49	0xbd56e213	-0.052461695
50	0x3d1504e5	0.03638162
51	0x3cfcde92	0.030867849
52	0xbb5a3830	-0.003329765
53	0x3d5022cb	0.05081443
54	0x3b71ca90	0.0036894418
55	0xbd617748	-0.055045396
56	0xbd115459	-0.03548083
57	0xbd0c004e	-0.034179978
58	0x3d2ec305	0.042666454
59	0xbd5fa622	-0.054601796
60	0xbcff7a36	-0.031186204
61	0x3aec59e0	0.0018032156
62	0x3ade9180	0.0016980618
63	0xbbdefc48	-0.0068049766
64	0xbca328da	-0.01991694
65	0x3b573890	0.003284011
66	0xbc22b586	-0.009930974
67	0x3d214af5	0.039378125
68	0xbd427b10	-0.047480643
69	0xbd5a9c95	-0.053371985
70	0xbd13fc6f	-0.03612941
71	0x3d01128d	0.031511832
72	0x3cf95fc2	0.030441169
73	0x3d2e3364	0.04252948
74	0x3cce83ea	0.025209386
75	0xbc8083a0	-0.015687764
76	0xbc9f300e	-0.019432094
77	0x3cc25756	0.023723286
78	0x3d1aa39d	0.03775369
79	0xbd58503b	-0.05281089
80	0xbb95c448	-0.0045705177
81	0xbc96d514	-0.01841215
82	0xbb2ab337	-0.0026046762
83	0x3d51a069	0.05117837
84	0xbcbf3182	-0.023339037
85	0x3cb12ca6	0.021627735
86	0xbd5b8730	-0.05359572
87	0x3d014b6d	0.031566072
88	0xbd56faab	-0.05248515
89	0x3d54c2e3	0.05194367
90	0xbd3993ec	-0.045307085
91	0xbd6723a8	-0.05643049
92	0x3c7d7164	0.015468929
93	0x3ce765f6	0.028246861
94	0x3c9cfb76	0.019162875
95	0x3ccb120e	0.024788883
96	0x3cbfd97a	0.02341913
97	0x3d3d424f	0.046205815
98	0x3cca3326	0.024682593
99	0x3b1b7cf0	0.0023725592
100	0x3b8553e0	0.0040688366
101	0x3c8a4ff2	0.016883824
102	0x3a767080	0.0009400919
103	0xbc0d200c	-0.008613598
104	0xbd223e74	-0.03961034
105	0xbc725db0	-0.014792845
106	0xbd0b75fc	-0.034048066
107	0x3a36cf80	0.0006973669
108	0x3d36c30f	0.044619616
109	0xbb1fb840	-0.0024371296
110	0x3c0dbc04	0.008650783
111	0xbcd06384	-0.025438078
112	0xbd2dd007	-0.04243472
113	0x3ba8c54c	0.0051504727
114	0xbd24a47b	-0.040195923
115	0x3c9f201e	0.019424494
116	0x3bc4d9c8	0.006007407
117	0xbd37663d	-0.044775236
118	0xbd1af4f0	-0.037831247
119	0x3bdd8cf8	0.0067611896
120	0xbd3933ff	-0.045215603
121	0x3d605851	0.054771725
122	0x3d5f9b32	0.054591365
123	0xbc85855c	-0.016298942
124	0x3d46f40d	0.04857259
125	0xbd166242	-0.0367148
126	0x3d47b723	0.048758637
127	0x3d49705e	0.049179427
128	0x3d1b6493	0.037937712
129	0xbd66895e	-0.056283347
130	0x3d154f57	0.036452617
131	0x3b07d570	0.0020726584
132	0xbcdff0b6	-0.02733646
133	0x3d5771df	0.05259883
134	0x3c94093a	0.018070806
135	0xbb5cfef8	-0.003372131
136	0x3d33dab1	0.043909732
137	0xbd167496	-0.03673228
138	0xbd4b2670	-0.049597204
139	0x3cf9317e	0.030419108
140	0xbb03f140	-0.002013281
141	0xbd00be5e	-0.03143155
142	0xba20eb24	-0.00061385543
143	0x3d3a053d	0.045415152
144	0x3bc8cbc8	0.0061278082
145	0x3c9e3296	0.01931123
146	0x3cd7bf6e	0.026336398
147	0x3c8c4b72	0.017125819
148	0xbd6418fc	-0.05568789
149	0xbd4cf4b9	-0.050038073
150	0x3d30652d	0.04306524
151	0x3c884e4e	0.016638901
152	0x3d2898af	0.041161235
153	0xbc6bec94	-0.014399666
154	0xbc95c50e	-0.01828244
155	0x37139000	8.79541e-06
156	0x3cf7a2d2	0.030229006
157	0x3c06904c	0.008213114
158	0x3c0f1c14	0.008734722
159	0x3cb5b29e	0.022179898
160	0xba2a46c0	-0.0006495528
161	0xbc0f2104	-0.008735899
162	0xbc46c796	-0.012132546
163	0x3d20dc7d	0.039272774
164	0x3c1b0ea4	0.00946394
165	0xbba5e8d4	-0.0050631557
166	0x3d449d43	0.04800154
167	0x3c2de89c	0.01061454
168	0xbc77580c	-0.015096676
169	0xbd2d1713	-0.042258333
170	0x3d186249	0.037203107
171	0x3ca64542	0.020296697
172	0x3cc439da	0.023953367
173	0xbb540f40	-0.0032357723
174	0x3c69df4c	0.0142744295
175	0xbb0b9910	-0.002130095
176	0xbb4626f0	-0.003023561
177	0x3d03028b	0.031984847
178	0x3b7b9980	0.0038391054
179	0x3d2962ed	0.04135411
180	0x378eb800	1.70134e-05
181	0xbd308511	-0.043095652
182	0x3c3e2d5a	0.011607492
183	0x3d39ec03	0.045391094
184	0xbd53eb9b	-0.051738363
185	0xbd2e6251	-0.04257423
186	0xbc038580	-0.008027434
187	0x3d387d98	0.04504165
188	0x3bc4a498	0.0060010664
189	0xbc575892	-0.013143675
190	0x3d13f58b	0.03612284
191	0x3d5ee31b	0.054415803
192	0xbb946d50	-0.0045296326
193	0xbc98c5b6	-0.018648963
194	0x3cd9a656	0.026568573
195	0x3bc9d2e8	0.006159175
196	0xbc5026d0	-0.012704566
197	0x3cc21162	0.02368993
198	0x3d42fdc3	0.047605287
199	0x3d1a0dd7	0.037610855
200	0x3d55a345	0.05215766
201	0x3c75734c	0.014981102
202	0x3b0124d0	0.001970578
203	0x3d0526c9	0.03250769
204	0xbca31dbc	-0.01991164
205	0xbd1d5427	-0.038410332
206	0xbd40f459	-0.047108028
207	0xbd1907b0	-0.037360847
208	0xbc3878a0	-0.011259228
209	0x3cd3f18e	0.025872018
210	0xbd427979	-0.047479127
211	0xbd2b3207	-0.041795757
212	0x3d123fa5	0.035705227
213	0x3d6b82a6	0.057497643
214	0x3ba78488	0.0051122345
215	0x3c9bd24a	0.019021172
216	0xbcf453b5	-0.02982507
217	0xbcc5da08	-0.024151817
218	0x3d5dc813	0.054145884
219	0xbd2612dc	-0.04054533
220	0x3c18858c	0.009309184
221	0x3d3e0507	0.046391513
222	0xbb728360	-0.0037004575
223	0x3d4b3dc9	0.04961947
224	0x3bf828a8	0.007573206
225	0x3c13fb84	0.009032134
226	0x3d34f995	0.044183332
227	0x38d2d600	0.00010053441
228	0x3c17ecec	0.009272795
229	0x3c2d1afc	0.010565516
230	0xbd6b7e76	-0.05749365
231	0xbd45c028	-0.048278958
232	0x3d2b5765	0.041831393
233	0x3d5db66b	0.054129045
234	0x3d216ab9	0.03940842
235	0x3d4422d5	0.04788478
236	0xbc7665ac	-0.015038889
237	0xbcafa6fe	-0.021441933
238	0x3b98289c	0.004643513
239	0x3c24b444	0.010052744
240	0xbc9eae74	-0.019370295
241	0x3cd0393a	0.025417913
242	0x3d04e9d0	0.032449543
243	0xbd5bfc4c	-0.053707406
244	0x3d612909	0.054970775
245	0x3cf406ee	0.02978846
246	0x3d1f5035	0.03889485
247	0xbbab7028	-0.005231876
248	0xbca76bc6	-0.020437133
249	0xbd320149	-0.043458257
250	0x3d37a1f5	0.04483219
251	0x3d43465f	0.047674533
252	0x3ad4d2a0	0.0016237088
253	0x3d01d461	0.03169668
254	0xbb6e8c70	-0.0036399625
255	0x3d0fb247	0.035082128

layers.0.bias f4 [50]
0	0xbd2c5994	-0.042077616
1	0x3cde507e	0.027137991
2	0x3d5ef0a3	0.054428708
3	0x3d64507b	0.055740815
4	0xbb955eb0	-0.004558407
5	0xbc0a5014	-0.008441944
6	0x3c8b18c3	0.01697958
7	0x3d178a4a	0.036997117
8	0x3d48cc63	0.049023043
9	0xbd14dd20	-0.036343694
10	0xbc9ff60c	-0.019526504
11	0x3d0d1a13	0.034448694
12	0xbc82ab97	-0.015950961
13	0x3cd53014	0.026023902
14	0x3c4db05d	0.012554255
15	0xbd50ad3a	-0.05094645
16	0x3c9c9116	0.019112151
17	0xbd1fa649	-0.03897694
18	0x3c9a7da9	0.018858748
19	0xbd6763f0	-0.056491792
20	0x3cef29a3	0.029194659
21	0x3d383187	0.044969108
22	0x3cbe9a61	0.023266973
23	0x3c69aeaa	0.014262835
24	0x3c4c9010	0.012485519
25	0xbbb96c70	-0.0056586787
26	0xbbb218d6	-0.0054350896
27	0xbcdfa10b	-0.027298471
28	0xbc57d7fd	-0.013174054
29	0x3d438c71	0.047741357
30	0xbbc59bb6	-0.006030525
31	0xbd252dd2	-0.0403269
32	0x3d3fe39d	0.04684793
33	0xbd482d25	-0.04887118
34	0xbd1cb163	-0.038255107
35	0x3d2da404	0.042392746
36	0xbc053328	-0.008129872
37	0x3c1b25f3	0.009469497
38	0x3b89b85e	0.0042028865
39	0x3c74c211	0.014938847
40	0x3d18facc	0.037348554
41	0x3d06856b	0.03284208
42	0x3cf464c4	0.029833205
43	0x3d3f49a9	0.046701107
44	0xbd682cee	-0.056683473
45	0xbd010766	-0.031501196
46	0xbd10c36e	-0.035342626
47	0xbc5e3f21	-0.013564856
48	0xbd21895d	-0.03943764
49	0x3d066478	0.03281066

layers.2.weight f4 [20, 50]
0	0x3d4fdacf	0.05074578
1	0x3c03e6eb	0.008050661
2	0x3d89cfb4	0.06729069
3	0x3b929b7a	0.0044741007
4	0xbdbebd73	-0.09313478
5	0x3d91343c	0.07090041
6	0x3dec2491	0.11530412
7	0x3d8bea06	0.06831746
8	0xbd1646f9	-0.03668878
9	0xbd25a6bc	-0.040442213
10	0xbdf44ab2	-0.119283095
11	0x3d8e4760	0.069472075
12	0xbdfcd303	-0.12344935
13	0x3dad4dad	0.08462081
14	0x3d5ea907	0.054360416
15	0xbd924813	-0.07142653
16	0x3d9df3b0	0.07712495
17	0x3cc259fa	0.023724545
18	0x3da33596	0.07969205
19	0x3e06416f	0.13110898
20	0x3be7fd21	0.007079736
21	0x3c49b3ea	0.012310961
22	0xbe04dae9	-0.12974133
23	0xbcb60e78	-0.022223696
24	0x3dc52203	0.09625628
25	0x3d86c807	0.06581121
26	0xbcaad958	-0.02085559
27	0x3df31e2e	0.11870991
28	0x3df79450	0.12088835
29	0x3e02d41e	0.12776229
30	0xbcdf835c	-0.027284317
31	0xbd7a3040	-0.06108117
32	0xbd5b441d	-0.053531755
33	0x3d027160	0.031846404
34	0xbde36e39	-0.11105008
35	0xbd6a58f0	-0.057213724
36	0xbdf8ed61	-0.121546514
37	0xbd91057b	-0.070811234
38	0x3e0bfc41	0.13670446
39	0x3db59566	0.08866386
40	0x3de9d057	0.11416691
41	0xbd6928f5	-0.056923825
42	0x3d2b84d3	0.041874718
43	0x3d8c6f63	0.06857183
44	0xbbe43f13	-0.006965527
45	0xbdbe7b8a	-0.09300907
46	0xbd66533b	-0.05623172
47	0x3c935801	0.0179863
48	0xbcbca647	-0.023028506
49	0x3dd2f260	0.103001356
50	0xbe077725	-0.13229044
51	0xbd553b16	-0.052058302
52	0xbd303c42	-0.043026216
53	0x3e0fa2f2	0.14027002
54	0x3c146444	0.009057108
55	0xbdbe9446	-0.09305625
56	0x3a46a5ac	0.00075777876
57	0xbcaf0569	-0.021364884
58	0xbcad2e7e	-0.021140333
59	0xbd9686e3	-0.07349946
60	0x3d33b521	0.04387391
61	0x3de0248a	0.10944469
62	0xbdf889f5	-0.12135688
63	0xbda54624	-0.08070019
64	0xbda6283a	-0.08113141
65	0x3d4c6a81	0.049906258
66	0xbdfdaaad	-0.123860694
67	0xbe0a402d	-0.13501044
68	0xbce7f7b8	-0.028316364
69	0x3cde0328	0.027101114
70	0x3cfdc3fb	0.03097724
71	0xbdbcd8bc	-0.09221026
72	0x3d3e4cc4	0.04645993
73	0x3da33dbf	0.079707615
74	0xbdf7fca5	-0.12108735
75	0x3df96c1e	0.12178825
76	0xbd9e35e1	-0.0772512
77	0xbc94ca0c	-0.01816275
78	0xbcbd561e	-0.023112353
79	0x3d497fc8	0.049194127
80	0xbd744018	-0.059631437
81	0x3db3224c	0.08746776
82	0xbd7dc56f	-0.061955865
83	0xbe0847ca	-0.13308635
84	0xbd948936	-0.072527334
85	0x3de1a749	0.11018235
86	0x3ddbf0a3	0.10739257
87	0xb8eff880	-0.00011442695
88	0x3e1042b5	0.14087947
89	0x3d929997	0.07158201
90	0xbaf32a57	-0.0018552047
91	0xbdc8c213	-0.09802642
92	0xbdadd312	-0.08487524
93	0x3c2ed524	0.010670934
94	0x39c4707f	0.0003746785
95	0x3dacb6c2	0.08433296
96	0xbcb180f9	-0.021667944
97	0xbdce3031	-0.100677855
98	0xbe078cca	-0.132373
99	0x3c13871e	0.009004382
100	0xbd8232e1	-0.06357361
101	0x3deafa07	0.1147347
102	0x3cce84b0	0.025209755
103	0xbdf8ded2	-0.121518746
104	0xbdb005c5	-0.085948505
105	0x3dbfead1	0.093709596
106	0x3dbd023e	0.09228943
107	0x3de91af6	0.113820955
108	0xbcaefff4	-0.021362282
109	0xbc2ccc02	-0.010546686
110	0xbdeb47cd	-0.11488304
111	0xbdf1ee7f	-0.11813068
112	0xbe0b0b3d	-0.13578506
113	0xbd6b4f56	-0.057448708
114	0x3a98469c	0.0011617723
115	0xbd2755e0	-0.04085338
116	0x3db92744	0.090406924
117	0xbc438971	-0.011934624
118	0x3d65530d	0.055987407
119	0x3daa01f5	0.083011545
120	0xbe0b6d94	-0.1361602
121	0xbc40efe3	-0.011775943
122	0xbd47226e	-0.04861682
123	0xbdb22fb5	-0.08700506
124	0xbdf50fd6	-0.11965911
125	0xbb751d00	-0.0037401319
126	0x3d455183	0.04817344
127	0xbcfe5cf8	-0.03105019
128	0xbc5b8c4e	-0.01340015
129	0xbd9bf6c9	-0.0761543
130	0xbd1e3b39	-0.038630698
131	0xbd2cc5d0	-0.042180836
132	0x3d9bd6f8	0.076093614
133	0xbcc87950	-0.024471909
134	0xbc492d45	-0.0122788595
135	0xbdcce344	-0.10004285
136	0xbd11145c	-0.035419807
137	0x3d97d69a	0.07413979
138	0x3de6909f	0.11258053
139	0x3cc33fd0	0.02383414
140	0xbcefc758	-0.02926986
141	0xbd78821a	-0.06067095
142	0xbd9d5c0d	-0.07683573
143	0x3d2e1ed1	0.042509858
144	0x3be82240	0.007084161
145	0xbc5d8f89	-0.013522991
146	0xbd80864f	-0.06275617
147	0x3cb5fa57	0.022214098
148	0x3dda72b2	0.10666408
149	0xbd3e9e79	-0.04653785
150	0x3db5a4d3	0.08869328
151	0x3dc7344a	0.0972677
152	0xbda6a112	-0.081361905
153	0x3be283fb	0.006912706
154	0xbe133772	-0.1437662
155	0xbccf8f50	-0.025336891
156	0x3d5c3a8c	0.053766772
157	0x3de97eff	0.11401176
158	0xbd8161be	-0.06317471
159	0xbc60f6ae	-0.013730688
160	0x3d0927ac	0.0334851
161	0xbd5d8515	-0.054081995
162	0x3dc5a847	0.09651237
163	0x3c6ba3b3	0.014382291
164	0xbd31fb4f	-0.043452557
165	0x3e0a5e51	0.13512541
166	0xbdc44c73	-0.09584894
167	0xbe03760f	-0.12838005
168	0xbad2102b	-0.0016026547
169	0x3d924da4	0.07143715
170	0x3d820c7a	0.06350036
171	0x3d8927ad	0.06697021
172	0x3dbb40e4	0.09143236
173	0x3e0b7803	0.1362
174	0xbdcde153	-0.10052743
175	0xbddce31e	-0.10785507
176	0x3dce779a	0.10081406
177	0x3d8e2e36	0.06942408
178	0x3d95f444	0.073219806
179	0x3d0b0a3a	0.0339453
180	0x3d019162	0.03163279
181	0x398e4870	0.0002713832
182	0xbd18e7e5	-0.037330527
183	0x3d9f3577	0.077738695
184	0xbdac5789	-0.084151335
185	0x3dc898d2	0.09794773
186	0xbde41e99	-0.111386485
187	0x3b245ec4	0.0025080899
188	0x3dfae905	0.12251476
189	0xbbdc93fc	-0.0067315083
190	0xbe0445d6	-0.12917265
191	0xbd3179aa	-0.04332892
192	0x3dacead4	0.084432274
193	0x3dfa793a	0.122301534
194	0xbddcd964	-0.107836515
195	0xbe0acc13	-0.1355441
196	0xbd11a6b1	-0.03555936
197	0x3d947486	0.072487876
198	0x3dbafbf8	0.091300905
199	0x3d963e0b	0.073360525
200	0xbdf377bc	-0.11888072
201	0x3d975fc0	0.0739131
202	0x3d8387a1	0.064223535
203	0x3dbeb20a	0.09311302
204	0xbca1d6aa	-0.01975568
205	0xbcd63527	-0.026148392
206	0x3db908d1	0.09034885
207	0xbccd251e	-0.025042113
208	0xbd3ce80a	-0.046119727
209	0x3bc3b34b	0.005972301
210	0x3c25b74f	0.010114505
211	0x3dd020e6	0.10162525
212	0x3c914498	0.017732903
213	0xbd29cd89	-0.04145578
214	0x3df15749	0.117842264
215	0xbd737e04	-0.05944635
216	0x3cf20a7f	0.02954602
217	0x3d36ccf3	0.04462905
218	0x3e0f90a0	0.14020014
219	0xbe023a75	-0.12717612
220	0x3d6ad89e	0.05733549
221	0x3d6b116a	0.057389654
222	0x3e03ac6a	0.1285874
223	0xbdad7c25	-0.08470944
224	0xbd5ee2c0	-0.054415464
225	0x3c8aaa46	0.016926896
226	0x3e0db2a3	0.13837676
227	0xbb2eda41	-0.0026680382
228	0xbdea7783	-0.11448576
229	0x3d01d3a9	0.031695995
230	0x3d6b3832	0.05742664
231	0x3de2b23e	0.11069153
232	0xbd323439	-0.043506835
233	0xbdf8f9d5	-0.12157027
234	0xbe002763	-0.12515025
235	0x3e009fc9	0.12560953
236	0xbd8265f2	-0.06367101
237	0xbd6b3ea1	-0.057432774
238	0xbd760d3a	-0.060071208
239	0xbd938f60	-0.07205081
240	0x3e00e7f3	0.12588482
241	0xbcff6d3e	-0.03118002
242	0x3c81d9fc	0.015851013
243	0xbd8497a6	-0.06474237
244	0x3e03652d	0.12831564
245	0xbdd67097	-0.104706936
246	0xbcc38e63	-0.023871606
247	0xbe0e919c	-0.13922733
248	0x3dfe52a5	0.12418107
249	0x3d8a39d8	0.06749314
250	0xbd315082	-0.04328967
251	0x3dd71690	0.1050235
252	0x3d8574a2	0.065163866
253	0x3d3748c8	0.044747144
254	0x3cd46ebd	0.02593171
255	0x3ddee5aa	0.10883649

layers.2.bias f4 [20]
0	0xbbeac093	-0.00716407
1	0x3dc30acc	0.09523544
2	0x3d2695be	0.04067015
3	0xbd930180	-0.071780205
4	0xbd0263f4	-0.031833604
5	0x3c93ad8e	0.018027093
6	0x3e10930d	0.14118595
7	0x3dd195f6	0.10233681
8	0x3c08e2c6	0.008354848
9	0x3cd5b108	0.026085392
10	0xbde4071c	-0.111341685
11	0x3da4a993	0.08040156
12	0x3dc09d35	0.09404985
13	0x3ddbc11d	0.10730193
14	0xbd31110c	-0.043229148
15	0x3dbfc1ed	0.0936316
16	0xbd5cd55c	-0.053914413
17	0xbdd7437e	-0.1051092
18	0x3d836d8e	0.0641738
19	0xbdd0689f	-0.10176205

layers.4.weight f4 [10, 20]
0	0xbdc0c37f	-0.09412288
1	0xbd17a327	-0.03702083
2	0x3e15c295	0.14625008
3	0xbd0f04cc	-0.034916684
4	0xbd59cb93	-0.05317266
5	0xbe4156ee	-0.18880817
6	0xbe524750	-0.20535016
7	0xbe0a7be6	-0.13523826
8	0x3e4766d2	0.19472817
9	0x3e56f984	0.2099362
10	0x3d14fd65	0.03637447
11	0xbcd33151	-0.025780352
12	0x3e302057	0.17199837
13	0x3de116e1	0.10990692
14	0x3daabe83	0.083371185
15	0x3e20d082	0.1570454
16	0x3ce536b6	0.02798019
17	0x3dd803dc	0.10547611
18	0x3da5f951	0.08104194
19	0xbe3f5b23	-0.1868711
20	0x3c704b60	0.014666408
21	0xbe3f4946	-0.18680295
22	0x3d6c65d0	0.057714283
23	0x3e556120	0.20837831
24	0xbd8c179c	-0.06840441
25	0xbe4d7a4c	-0.20066184
26	0xbe136482	-0.1439381
27	0xbd0eea10	-0.03489119
28	0xbe3c9e44	-0.18419749
29	0x3df9e8fc	0.12202641
30	0xbd58bf68	-0.052916914
31	0x3e03d716	0.12875018
32	0xbdb1ede0	-0.08687949
33	0xbe3e8758	-0.18606317
34	0x3dbca40c	0.09210977
35	0xbe326985	-0.17423065
36	0xbdbe9ea2	-0.093076006
37	0xbe4b7a86	-0.19870958
38	0xbde4f0bd	-0.1117873
39	0xbe33a713	-0.17544203
40	0xbdd0f870	-0.10203636
41	0x3e5581d4	0.20850307
42	0xbe28f74c	-0.16500586
43	0x3da50536	0.080576345
44	0xbe171312	-0.14753368
45	0x3da0f2b0	0.07858789
46	0xbe5adfca	-0.21374431
47	0xbdd9f39d	-0.10642169
48	0x3c9554b6	0.01822887
49	0x3dae247a	0.08503051
50	0xbe29c960	-0.16580725
51	0xbe1bde2f	-0.15221475
52	0xbe0a433e	-0.13502213
53	0x3e45af39	0.19305123
54	0xbe2dc9f4	-0.1697157
55	0x3dad3007	0.08456426
56	0x3dd55f14	0.10418525
57	0x39374c00	0.00017480552
58	0xbd4f7b59	-0.050654743
59	0xbe032b1b	-0.12809412
60	0xbbe1e5ea	-0.006893863
61	0x3dc4ed40	0.09615564
62	0x3a8278bd	0.0009954196
63	0x3e2a6e52	0.16643646
64	0x3d54de67	0.051969912
65	0x3e288295	0.16456063
66	0x3e12d7d7	0.14340149
67	0x3e264a67	0.1623932
68	0xbab59229	-0.0013852763
69	0x3ce9b674	0.028529383
70	0xbd892e49	-0.06698281
71	0x3e0d60a7	0.13806401
72	0xbe0baf80	-0.13641167
73	0xbb26a490	-0.0025427677
74	0xbdbd3537	-0.092386656
75	0x3c601723	0.013677391
76	0x3e540be4	0.20707661
77	0x3e4657b6	0.19369397
78	0xbe50ed09	-0.20402922
79	0x3dbbbf8e	0.091673955
80	0x3d0f09bc	0.034921393
81	0x3d916a1f	0.07100319
82	0x3c616661	0.013757319
83	0xbe3c0dc6	-0.18364629
84	0x3e3a2e93	0.18181829
85	0xbe03a7d1	-0.12856986
86	0x3e08bf51	0.13354231
87	0xbe3f7e2b	-0.18700473
88	0x3db72fd7	0.089446716
89	0x3e16a9aa	0.14713159
90	0x3df5df60	0.12005496
91	0xbe3cee80	-0.18450356
92	0x3d5250a2	0.05134643
93	0x3e5d0c64	0.21586758
94	0x3da7e65b	0.08198234
95	0xbe2fd137	-0.17169653
96	0xbda15c17	-0.07878893
97	0x3cc1d248	0.02365984
98	0xbe053bda	-0.13011113
99	0x3df79c76	0.120903894
100	0xbce9d1a7	-0.028542353
101	0x3e60a3ae	0.21937439
102	0x3e45c0a8	0.19311774
103	0x3d533a99	0.051569555
104	0x3e3d80c6	0.18506154
105	0x3e5bc933	0.2146347
106	0x3e52de10	0.20592523
107	0x3dbf7b50	0.09349692
108	0x3e2fb2c9	0.17158045
109	0xbdbbf4dc	-0.091775626
110	0xbda2bfab	-0.07946714
111	0x3e4a7173	0.1976984
112	0xbe5c35df	-0.21504925
113	0xbd9f575c	-0.07780334
114	0x3d498981	0.0492034
115	0x3e28ff71	0.16503693
116	0x3dacfe6d	0.08446965
117	0x3e01e7f0	0.12686133
118	0xbe130ee7	-0.14361154
119	0xbd88c72e	-0.066786155
120	0xbe1172c3	-0.14203934
121	0xbe6251f8	-0.22101581
122	0x3da9ba20	0.08287454
123	0xbe3f8fc9	-0.18707193
124	0xbe1eef70	-0.15521026
125	0xbcec8e58	-0.028876469
126	0xbe2989f2	-0.16556528
127	0x3e3efb84	0.18650633
128	0x3da5a5fa	0.08088298
129	0x3da68f85	0.08132843
130	0x3e1fe9fa	0.15616599
131	0xbdbe192d	-0.09282146
132	0xbe3dceec	-0.18535966
133	0xbe0e67d2	-0.13906792
134	0x3dfe5bcb	0.12419852
135	0x3d93d77c	0.07218835
136	0xbe363c83	-0.17796521
137	0x3dde3f9c	0.10851976
138	0x3b6af15e	0.0035849432
139	0xbe57a22d	-0.21057959
140	0xbe3e492c	-0.185826
141	0x3c3a5070	0.011371717
142	0x3d266510	0.040623724
143	0x3cad03f0	0.021120042
144	0x3e3a8fdc	0.1821894
145	0xbc9cf5c0	-0.019160151
146	0xbd502d94	-0.050824717
147	0x3c7452f0	0.014912352
148	0x3e45b688	0.19307911
149	0x3e1ce972	0.15323427
150	0xbe50e1f0	-0.20398688
151	0x3e5713a6	0.21003589
152	0xbe5986a0	-0.21242762
153	0xbdf2a8c7	-0.11848598
154	0xbda6c5f2	-0.08143224
155	0x3d942cfc	0.072351426
156	0xbc2602b0	-0.010132477
157	0xbe328cc9	-0.17436518
158	0xbdb3b122	-0.0877402
159	0xbcb7b5c0	-0.022425532
160	0x3c83c075	0.016082982
161	0xbde63e91	-0.11242402
162	0xbdcac13f	-0.0990014
163	0x3ceabfcc	0.028655909
164	0xbc09fa14	-0.00842144
165	0x3d63801e	0.055542104
166	0x3ddef846	0.10887198
167	0x3cccbaac	0.024991356
168	0xbbd67121	-0.0065442477
169	0x3e295362	0.16535714
170	0x3e1b0ef0	0.15142417
171	0x3cb8235c	0.022477798
172	0xbe53909d	-0.20660634
173	0x3e0a5d11	0.13512065
174	0x3e564702	0.20925525
175	0xbd5dd137	-0.0541546
176	0xbd538afd	-0.05164622
177	0xbd1973a4	-0.0374638
178	0xbc184c63	-0.009295556
179	0x3e5916c3	0.21200089
180	0x3dbdd255	0.09268633
181	0xbe456aa5	-0.19278963
182	0xbdf2564f	-0.11832868
183	0xbc95e86f	-0.01829931
184	0xbdf17f61	-0.11791874
185	0xbe4a8c8e	-0.1978018
186	0x3d860f57	0.065458946
187	0x3e3b12dc	0.18268913
188	0x3d306d48	0.04307297
189	0xbcd31a14	-0.025769271
190	0x3e6430a6	0.22284183
191	0xbdb4f799	-0.08836288
192	0xbe0de710	-0.13857675
193	0xbd07a96c	-0.033120558
194	0xbe1fb49a	-0.15596238
195	0xbb9bc0bb	-0.0047532
196	0xbe641e47	-0.22277175
197	0xbe539a82	-0.20664409
198	0xbc8d6c38	-0.017263517
199	0x3e0cb207	0.13739787

layers.4.bias f4 [10]
0	0x3ce410b7	0.027840002
1	0xbe5bc5ae	-0.21462128
2	0x3e3f8f77	0.18707071
3	0x3e43e3e9	0.1912991
4	0x3ad0c3eb	0.0015927529
5	0x3e05216b	0.13001029
6	0x3d565df6	0.052335702
7	0xbdb81198	-0.08987731
8	0x3d97665b	0.0739257
9	0xbd1709dd	-0.03687464

layers.6.weight f4 [2, 10]
0	0xbe0b0a7b	-0.13578217
1	0x3e8cb7e5	0.2748405
2	0xbe4aabf8	-0.19792163
3	0x3da98718	0.0827772
4	0x3e2b7c72	0.16746691
5	0xbdbfef4f	-0.09371816
6	0xbd997d89	-0.07494647
7	0xbe51e9be	-0.20499322
8	0x3e2cedd4	0.16887599
9	0xbdb3e830	-0.087845206
10	0xbe8acd6a	-0.27109843
11	0x3e2bcdb0	0.16777682
12	0xbe5a65cb	-0.21327893
13	0xbc5a1a65	-0.013311957
14	0xbe03ec08	-0.12883008
15	0x3e664922	0.22488835
16	0x3e35ecb2	0.17766073
17	0xbe1b2d92	-0.15154102
18	0x3e549068	0.20758212
19	0xbc1396f6	-0.00900816

layers.6.bias f4 [2]
0	0x3c51266d	0.012765509
1	0x3e461ab1	0.1934612
