model-fold-4.pth (torch, 68239 bytes, 8 tensors)

layers.0.weight f4 [50, 302]
0	0xbce91e96	-0.028456967
1	0x3d1e0848	0.038582116
2	0xbcfed989	-0.031109588
3	0xbd3778ff	-0.044793125
4	0x3d0f1eec	0.0349416
5	0x3ce8d810	0.02842334
6	0x3d66d463	0.05635489
7	0x394fc500	0.00019814447
8	0xbc088d60	-0.008334488
9	0xbd2c87ac	-0.042121574
10	0xbc27788c	-0.010221612
11	0x3d1c85ad	0.03821342
12	0x3cc94a16	0.02457146
13	0x3cd31d66	0.025770854
14	0xbd435bca	-0.04769496
15	0xbd48449a	-0.04889355
16	0x3c249ad4	0.0100466795
17	0x3cead176	0.028664332
18	0x3b837220	0.0040114075
19	0x3d675215	0.056474764
20	0xbb6b86b0	-0.0035938434
21	0x3d23e6b3	0.040014934
22	0xbd12b760	-0.03581941
23	0x3bfb7d98	0.007674884
24	0xba532e00	-0.0008055866
25	0xbd4ef3c7	-0.050525453
26	0x3c60a41c	0.013711002
27	0x3c9daa12	0.019246135
28	0xbcc49f76	-0.024001818
29	0xbc15de94	-0.009147305
30	0xbcc6dc9c	-0.024275117
31	0x3d5e6999	0.054299925
32	0x3d4b5f65	0.049651522
33	0xbb7494c0	-0.0037320107
34	0x3d2b9dad	0.04189842
35	0xbc853606	-0.016261112
36	0x3d371c97	0.044705
37	0x3d2ea3c5	0.04263665
38	0x3ce3232e	0.027726736
39	0xbc982848	-0.018573895
40	0x3d57a81b	0.052650552
41	0xbc650740	-0.013978779
42	0x3cf90eca	0.03040256
43	0xbd41b144	-0.047288194
44	0xbd644b8f	-0.05573612
45	0x3cf75418	0.030191466
46	0xbd038166	-0.032105826
47	0xbd568fd6	-0.052383266
48	0x3c99c356	0.018769901
49	0xbc9d0d52	-0.01917139
50	0x3cc86c4e	0.024465706
51	0xbd13675a	-0.035987236
52	0xbc966af4	-0.018361546
53	0xbcbe15d2	-0.023203764
54	0x3c9eabfa	0.019369114
55	0x3d227375	0.03966089
56	0xbd5aee64	-0.053450003
57	0x3d079a6b	0.03310625
58	0xbd629dcd	-0.05532627
59	0xbd64623f	-0.055757757
60	0xbcf298da	-0.0296139
61	0x3c189ad4	0.009314258
62	0xbba59130	-0.005052708
63	0x3cb38dd6	0.021918219
64	0xbd3f6cf2	-0.046734758
65	0xbbdeceb8	-0.006799545
66	0xbcfd11ae	-0.03089222
67	0x3d56178d	0.052268554
68	0xbd37041c	-0.044681653
69	0x3c8e848a	0.017397184
70	0xbd326132	-0.043549724
71	0xbd6361e7	-0.05551329
72	0xbd1cdd76	-0.03829714
73	0x3c9841d4	0.018586077
74	0x3c80fad6	0.015744608
75	0x3b4aaec0	0.0030926913
76	0xbc5d8b64	-0.013522003
77	0xbcfe61fa	-0.031052578
78	0xbd218011	-0.039428774
79	0xbbc7f4f0	-0.006102197
80	0xbcca943c	-0.024728887
81	0x3cd925d2	0.026507292
82	0x3d2cd824	0.042198315
83	0x3bf99988	0.0076171793
84	0xbd5aece3	-0.05344857
85	0x3aeb9000	0.0017971992
86	0xbd3c3a8e	-0.04595428
87	0xbd5a9bb5	-0.05337115
88	0x3d5e7b98	0.054317087
89	0xbd649b1b	-0.055811983
90	0xbce41944	-0.027844079
91	0xbd16653e	-0.036717646
92	0xbd64d604	-0.055868164
93	0x3c81eafa	0.015859116
94	0xbd2c7790	-0.04210621
95	0x3cc0fd22	0.023558203
96	0x3d56d775	0.05245157
97	0x3d6682f3	0.056277227
98	0x3c819cba	0.015821803
99	0x3d27bfb3	0.040954303
100	0x3c5f6b44	0.013636414
101	0x3ac88180	0.0015297383
102	0xbc6bb130	-0.0143855065
103	0xbce46b56	-0.027883213
104	0xbcbdd60c	-0.023173355
105	0x3cc65a3a	0.024212945
106	0x3d33b711	0.043875758
107	0x3c9208b2	0.017826412
108	0xbd3ee512	-0.046605177
109	0x3d2f64f7	0.042820897
110	0xbce66b90	-0.028127462
111	0xbb39eec0	-0.0028371066
112	0xbb839f20	-0.004016772
113	0xbd2b20d2	-0.041779347
114	0xbcc91bac	-0.024549328
115	0xbbba1e91	-0.0056799133
116	0x3c269f14	0.010169763
117	0xbd1e7894	-0.03868921
118	0xbcaddb5e	-0.021222766
119	0x3d2d89a7	0.042367604
120	0xbc9a674e	-0.018848088
121	0xbc5a26c0	-0.013314903
122	0x3d68c124	0.05682482
123	0x3c2ba7d4	0.010477025
124	0x3b3c1660	0.002869986
125	0x3cb0ec06	0.02159692
126	0x3c0a69bc	0.008448061
127	0x3d02876a	0.031867422
128	0x3cb19dee	0.021681752
129	0xbc6dc1e0	-0.014511555
130	0x3b6350e0	0.0034685656
131	0x3cbb54b6	0.022867542
132	0x3ce6c11a	0.02816825
133	0x3ce5f4f2	0.0280709
134	0x3d30f63b	0.043203574
135	0xbd1d44b7	-0.03839561
136	0x3d4bc931	0.049752418
137	0x3886cc00	6.427616e-05
138	0x3c880c72	0.016607497
139	0x3afc12c0	0.0019231662
140	0xbd4d5979	-0.050134156
141	0x3cb4f636	0.022090059
142	0x3bd3700f	0.0064525674
143	0x3c647654	0.013944227
144	0xbcb2f44e	-0.02184501
145	0xbc6f12a4	-0.014591847
146	0xbb956788	-0.004559461
147	0xbd52370d	-0.05132203
148	0x3d0d7d53	0.034543347
149	0x3d6dabb4	0.058025077
150	0x3c97598e	0.01847532
151	0xbc9278c6	-0.017879855
152	0xbc8774ee	-0.016535249
153	0x3bcac578	0.006188091
154	0xbc020a70	-0.007937059
155	0x3d4734e7	0.048634436
156	0x3cee1756	0.029063862
157	0x3d698e65	0.057020564
158	0xbb51aef0	-0.003199514
159	0x3d32f3ff	0.043689724
160	0xbcf76b29	-0.030202465
161	0x3d1fc975	0.039010484
162	0xbd248e19	-0.040174577
163	0x3bdb5d48	0.0066944696
164	0x3cd0daa6	0.025494885
165	0xbd25e847	-0.04050472
166	0xbce88daa	-0.028387863
167	0x3cf8f362	0.030389491
168	0x3d266391	0.040622298
169	0x3d4e7505	0.050404567
170	0x3c2e5914	0.010641355
171	0xbcc57756	-0.024104755
172	0xbd5b8011	-0.05358893
173	0xbcb9c8c0	-0.022678733
174	0x3d680717	0.056647386
175	0x3c601b14	0.013678331
176	0xbca06070	-0.019577235
177	0x3bca9aa8	0.0061829872
178	0x3c3b9d84	0.011451129
179	0xbbbb67f0	-0.0057191774
180	0xbd0fd183	-0.035111915
181	0x3cd931aa	0.02651294
182	0x3c90c910	0.017674
183	0x3d560935	0.052254874
184	0x3bc564c8	0.006023977
185	0x3c9ab17a	0.018883456
186	0xbb8fbf70	-0.004386835
187	0xbc3a77a3	-0.011381063
188	0x3b71fd10	0.0036924519
189	0x3d3e55ba	0.046468474
190	0xbcdf7fd3	-0.027282631
191	0x3d457017	0.0482026
192	0x3d55cc05	0.05219652
193	0x3a855440	0.0010172203
194	0xbd171854	-0.036888435
195	0xbd163a48	-0.036676675
196	0xbcd60bfe	-0.026128765
197	0xbd07ffe0	-0.033203006
198	0xbb27aa70	-0.0025583766
199	0x3d52a923	0.051430833
200	0xbd690a78	-0.05689475
201	0xbd48ffcf	-0.049072083
202	0x3c460f8c	0.012088668
203	0xbcb24d80	-0.02176547
204	0x3b360370	0.0027773045
205	0xbba7b0a0	-0.005117491
206	0xbd3492c2	-0.04408527
207	0xbd59fde8	-0.05322066
208	0x3a787140	0.0009477325
209	0xbd1036e4	-0.035208598
210	0xbc88bef8	-0.016692623
211	0xbd0d14a4	-0.034443513
212	0xbd536c66	-0.05161705
213	0xbc528d6f	-0.012851103
214	0xbd54c546	-0.051945947
215	0x3d449f19	0.04800329
216	0xbce531bc	-0.027977817
217	0x3d519549	0.05116776
218	0x3d420451	0.047367398
219	0x3c3a378c	0.0113657825
220	0x3c0cce14	0.008594055
221	0x3ca546ae	0.020175304
222	0xbd574a62	-0.05256117
223	0xbab83360	-0.0014053397
224	0xbccfa6b0	-0.025348037
225	0x3cb04736	0.021518331
226	0x3c761404	0.015019421
227	0x3bb95b98	0.005656671
228	0xbc3c2c34	-0.011485148
229	0x3bdc6638	0.0067260526
230	0xbd0fbea7	-0.03509393
231	0xbd462ca4	-0.048382416
232	0x3c6b5d2c	0.014365476
233	0x3bcc9708	0.0062435903
234	0xbd51b1d7	-0.051194992
235	0xbd3611e4	-0.044450656
236	0xba7e1480	-0.0009692386
237	0x3d03343f	0.032032248
238	0xbd143ed3	-0.036192726
239	0xbca7aa1c	-0.020466857
240	0xba36c986	-0.00069727784
241	0xbc80df2e	-0.01573142
242	0xbd467800	-0.048454285
243	0xbb9883f8	-0.004654404
244	0x3d577701	0.052603725
245	0xbccb9c58	-0.024854824
246	0xbcc4218e	-0.023941781
247	0x3cde82f6	0.027162056
248	0xbcced53a	-0.025248159
249	0xbd08dee2	-0.033415683
250	0xbcd00870	-0.025394648
251	0xbd1f0d1e	-0.03883087
252	0x3bfa6d98	0.007642459
253	0xbc505648	-0.012715884
254	0xbd6a777f	-0.057242867
255	0xbd28cb18	-0.04120931

layers.0.bias f4 [50]
0	0x3c4d7139	0.012539201
1	0xbcc5d7f1	-0.02415082
2	0xbc737c3d	-0.014861164
3	0xbcea35ad	-0.028590048
4	0xbc8d1cab	-0.017225584
5	0x3c8f58ff	0.017498491
6	0x3d05caf0	0.03266424
7	0x3ca1c445	0.019746909
8	0xbc47ac4c	-0.012187075
9	0x3d4c45de	0.049871318
10	0xbd31e044	-0.043426767
11	0xbc9069c5	-0.01762856
12	0x3d158de6	0.036512278
13	0x3d76898b	0.060189765
14	0xbd2cd758	-0.042197555
15	0xbcb26af0	-0.021779507
16	0x3d5ceaa0	0.053934693
17	0xbd053186	-0.032517932
18	0x3c3e099c	0.011598971
19	0xbd36523b	-0.044512015
20	0xbd301be4	-0.04299535
21	0x3d1e0961	0.038583163
22	0xbc93e084	-0.018051393
23	0x3cdff4f6	0.027338486
24	0x3b079bd8	0.0020692255
25	0xbd25c771	-0.040473405
26	0x3cd34f47	0.025794638
27	0x3d0c6bcb	0.034282487
28	0x3d4f3d75	0.05059572
29	0x3d1ca188	0.038239986
30	0x3c81cf03	0.015845781
31	0xbc8a41f4	-0.016877152
32	0x3cf8c1b6	0.030365806
33	0x3d57c996	0.05268248
34	0xbd0274dc	-0.031849727
35	0xbc6aec25	-0.014338528
36	0x3932b6ed	0.00017043548
37	0x3cbab247	0.022790087
38	0xbcb54917	-0.022129579
39	0xbcb57c7a	-0.022154082
40	0x3cd87213	0.026421582
41	0xbd5a0321	-0.05322564
42	0xbd3860ec	-0.045014307
43	0xbd09bd1d	-0.033627618
44	0x3c919504	0.017771251
45	0xbd4c16a1	-0.049826268
46	0x3ceb204e	0.028701928
47	0x3bba4ba0	0.0056852847
48	0x3d502ec8	0.050825864
49	0xbcf37dca	-0.029723067

layers.2.weight f4 [20, 50]
0	0x3d98c262	0.074589506
1	0x3d3df760	0.046378493
2	0xbd87888d	-0.06617842
3	0x3d0aad27	0.033856537
4	0xbd9b85ad	-0.07593856
5	0xbdf65116	-0.12027185
6	0x3cc766ed	0.024341071
7	0xbdeca244	-0.11554387
8	0x3c542d6e	0.012950284
9	0xbd814256	-0.06311481
10	0xbe0ea12f	-0.13928674
11	0xbe08df52	-0.1336644
12	0xbd1fc6ae	-0.039007835
13	0x3d8ca2f8	0.06867021
14	0xbc276ffa	-0.010219568
15	0xbe04c509	-0.12965788
16	0xbd14c4c3	-0.03632046
17	0x3ded43cc	0.11585197
18	0xbdc7137c	-0.09720513
19	0xbdaa4f11	-0.08315862
20	0xbdae681a	-0.085159495
21	0x3e0a1cb2	0.13487509
22	0xbd8f3905	-0.069932975
23	0xbda558bb	-0.080735646
24	0x3df01541	0.11722804
25	0x3d845454	0.06461397
26	0xbdd8cb32	-0.105856314
27	0xbdb64cb0	-0.08901346
28	0x3d117715	0.035513956
29	0xbcec9950	-0.028881699
30	0x3e0d8a8e	0.13822386
31	0x3c5a0072	0.01330577
32	0x3ca15fa0	0.019698918
33	0x3dccef83	0.10006621
34	0x3d8c9b67	0.06865578
35	0xbc177c68	-0.009245969
36	0x3d3111cd	0.043229867
37	0xbd9fdf6b	-0.078062855
38	0xbda45360	-0.08023715
39	0x3e02e8b5	0.12784083
40	0x3dd5275a	0.10407896
41	0xbd8a8c90	-0.067650914
42	0xbdde49e0	-0.10853934
43	0x3d961a72	0.07329263
44	0x3c409d39	0.011756235
45	0xbd6390bd	-0.055557955
46	0x3d5856b2	0.052817054
47	0xbbccef9a	-0.0062541487
48	0x3af1fa07	0.0018461355
49	0x3e06648c	0.13124293
50	0x3daac858	0.08338994
51	0x3d8e146c	0.06937489
52	0xbdcc5a36	-0.09978144
53	0x3dde0736	0.10841219
54	0x3d08597c	0.033288464
55	0x3daf32a6	0.08554582
56	0xbe0adb6f	-0.1356027
57	0xbdfc4ffb	-0.123199426
58	0x3d5367f4	0.05161281
59	0x3d9e98ae	0.07743965
60	0x3d9832d0	0.07431567
61	0xbcb00f08	-0.021491542
62	0x3c8a7f30	0.01690635
63	0x3dbc53c8	0.091956675
64	0xbd9360fe	-0.07196234
65	0xbc478660	-0.012178034
66	0xbb8a6700	-0.0042237043
67	0x3de265c6	0.11054568
68	0x3bdfaa60	0.00682573
69	0x3daa90b8	0.08328384
70	0xbdcd871c	-0.10035536
71	0xbd938c6f	-0.0720452
72	0x3da18928	0.078874886
73	0xbda3baa6	-0.07994585
74	0xbd097e8e	-0.033567958
75	0xbdca043f	-0.09864091
76	0xbc30fc60	-0.010802358
77	0x3d8d77b4	0.06907597
78	0xbda29784	-0.079390556
79	0x3dd72254	0.105045944
80	0xbb836aa0	-0.0040105134
81	0x3d3b58f8	0.045739144
82	0x3c04bff0	0.008102402
83	0xbbbbccc0	-0.005731195
84	0xbdd654ea	-0.10465415
85	0xbdd6ff00	-0.10497856
86	0xbddea5de	-0.108714804
87	0xbe06d997	-0.13168941
88	0xbd384fc6	-0.044997953
89	0xbded565b	-0.115887366
90	0xbd8551b2	-0.06509723
91	0x3d3935d0	0.045217335
92	0xbc3f9ad0	-0.011694625
93	0x3e061753	0.13094835
94	0xbdfcc95d	-0.123430945
95	0xbddabce0	-0.10680556
96	0x3d9e429c	0.077275485
97	0xbdebf9c1	-0.11522246
98	0x3dec1332	0.11527099
99	0xbe03f09d	-0.12884755
100	0xbd1700f2	-0.036866136
101	0x3e15f906	0.14645776
102	0xbd7c8b05	-0.061656017
103	0xbb7373bf	-0.0037147847
104	0xbd8eabee	-0.06966387
105	0xbd588ea8	-0.052870423
106	0x3d7be7ab	0.061500233
107	0xbdb30633	-0.08741417
108	0xbca19f51	-0.019729288
109	0x3d7f3e9e	0.062315576
110	0x3dd3b4a4	0.10337189
111	0x3d2fe274	0.042940572
112	0x3dea1043	0.11428883
113	0x3d44e4e0	0.048069835
114	0x3cee1f75	0.029067734
115	0xbde0e0e6	-0.10980396
116	0xbd436fc9	-0.04771403
117	0xbde71e4a	-0.11285074
118	0x3dc7658c	0.097361654
119	0xbd442265	-0.047884364
120	0xbbeadbb3	-0.0071673035
121	0x3dfd364e	0.123638734
122	0xbd7e405f	-0.062073108
123	0x3d4598be	0.04824137
124	0xbc239772	-0.009984838
125	0xbe0e325e	-0.13886401
126	0x3e0ef3f5	0.1396025
127	0xbdbc7f92	-0.092040196
128	0xbe00d9e7	-0.12583123
129	0xbcb6534c	-0.022256516
130	0xbcc6bd4c	-0.024260186
131	0x3db83163	0.08993795
132	0xbd944d55	-0.072413124
133	0xbdbcfd94	-0.09228054
134	0x3e0bdf8c	0.13659495
135	0x3db11792	0.08647074
136	0xbd071c13	-0.032985758
137	0xbcb1d073	-0.021705842
138	0x3e14a710	0.14516854
139	0xbe0c0d6e	-0.13676998
140	0xbd9f03f2	-0.077644244
141	0xbcf8c7ef	-0.030368773
142	0xbddea5cc	-0.10871467
143	0xbda796c5	-0.08183054
144	0xbb9b9eec	-0.0047491696
145	0x3e119509	0.14217009
146	0x3dc8025f	0.09766077
147	0xbc8fd8d8	-0.017559454
148	0xbe0bc11d	-0.13647886
149	0xbe02c86f	-0.12771772
150	0x3dff5f52	0.12469353
151	0xbc0ba310	-0.008522764
152	0xbdac85e0	-0.08423972
153	0x3de16b52	0.11006798
154	0xbe097f18	-0.13427389
155	0xbe06599e	-0.13120124
156	0xbd6a2082	-0.057159908
157	0x3d92016c	0.071291775
158	0xbde8709a	-0.11349602
159	0x3da75348	0.081701815
160	0xbdd03c1b	-0.10167714
161	0xbdfbef3b	-0.12301489
162	0xbd3f899e	-0.0467621
163	0xbd4869ba	-0.048928954
164	0xbda44e94	-0.080228
165	0x3d4b2624	0.04959692
166	0xbdfcdd3e	-0.12346886
167	0xbdf11614	-0.11771789
168	0x3e0493a1	0.12946941
169	0xbdeb27a0	-0.11482167
170	0xbdb396ba	-0.08768983
171	0xbdee27c0	-0.116286755
172	0xbcbc1f06	-0.022964012
173	0x3c479d20	0.012183458
174	0x3d85e49a	0.06537743
175	0xbcde3252	-0.027123604
176	0x3c97bb23	0.01852185
177	0xbd856850	-0.06514037
178	0xb940fe36	-0.00018405248
179	0x3d8a19f6	0.06743233
180	0xbdedf303	-0.116186164
181	0xbe07524a	-0.13214985
182	0x3d8746cc	0.066053
183	0xbad73e80	-0.0016421825
184	0xbd3a869a	-0.045538522
185	0xbcea9e38	-0.028639898
186	0x3c935da0	0.01798898
187	0x3ddaaa1a	0.106769755
188	0xbb26e480	-0.0025465786
189	0x3d8706d6	0.06593101
190	0x3bf9d500	0.0076242685
191	0x3db3f297	0.08786505
192	0x3e0e32d7	0.13886581
193	0x3dd9543b	0.10611769
194	0x3d1e4000	0.038635254
195	0x3d4e90d0	0.050431073
196	0x3d50c524	0.050969258
197	0x3df88a76	0.12135784
198	0x3c3a1974	0.011358608
199	0x3d8a7762	0.06761052
200	0xbd24deb6	-0.040251456
201	0xbd94039a	-0.072272494
202	0x3dc07468	0.09397203
203	0xbd848fde	-0.06472753
204	0xbd5aafe0	-0.053390384
205	0x3de2f2f6	0.11081497
206	0xbdf0a67c	-0.117505044
207	0xbd25dc70	-0.04049343
208	0xbe088f1c	-0.13335842
209	0xbd8e6e48	-0.06954628
210	0x3d548164	0.05188121
211	0xbcbb2c80	-0.022848368
212	0xbdcc1208	-0.09964377
213	0x3dda4a34	0.106586844
214	0xbcd7b020	-0.0263291
215	0x3dbcf4f4	0.092264086
216	0xbd7285be	-0.059209578
217	0x3d2b51ec	0.041826174
218	0xbd5f48f2	-0.054512925
219	0xbde2db62	-0.11077
220	0xbcb8ddec	-0.022566758
221	0xbddea31c	-0.108709544
222	0xbd09e98a	-0.033669986
223	0x3df4ba9a	0.11949654
224	0xbcdf871c	-0.027286105
225	0x3d57c5a4	0.05267872
226	0xbd887cd6	-0.066644356
227	0xbdd587f2	-0.1042632
228	0xbdc788a0	-0.09742856
229	0x3d31e38c	0.043429896
230	0xbdebcb1a	-0.11513348
231	0xbd6f7a5a	-0.058466293
232	0xbdcd52a2	-0.100255266
233	0xbdeb18b3	-0.114793204
234	0x3d0e6b08	0.03477004
235	0x3caa9c48	0.020826474
236	0xbdf2a790	-0.11848366
237	0xbe059900	-0.13046646
238	0xbdb65010	-0.089019895
239	0x3da03c5c	0.07824013
240	0xbdbc961c	-0.092083186
241	0xbc22a470	-0.0099269
242	0x3d076044	0.03305079
243	0xbdf77400	-0.12082672
244	0xbd7532bc	-0.059862837
245	0x3d471e34	0.04861279
246	0x3d5e4b24	0.05427088
247	0x3db18762	0.086684
248	0xbe0477ae	-0.12936279
249	0x3cf87850	0.030330807
250	0xbc9310e6	-0.017952394
251	0xbd680d7e	-0.056653492
252	0x3abd7580	0.0014454573
253	0x3e01b0f5	0.1266516
254	0xbb11df80	-0.002225846
255	0xbd9507d1	-0.072768815

layers.2.bias f4 [20]
0	0x3de69c7d	0.112603165
1	0xbdba660b	-0.091014944
2	0x3d8973c8	0.06711537
3	0xbcb786ac	-0.022403084
4	0xbd2d9884	-0.04238178
5	0x3d792b18	0.060832113
6	0xbd007f91	-0.031371657
7	0x3e0acd4b	0.13554876
8	0xbd1b86b8	-0.037970275
9	0xbc50cb4e	-0.012743784
10	0xbcfac42d	-0.030611122
11	0x3dd59766	0.104292676
12	0xbc6b0270	-0.014343843
13	0x3c8a509e	0.016884144
14	0x3c9015f1	0.017588587
15	0x3d2805be	0.0410211
16	0x3e0c8f51	0.13726546
17	0xbdd9a3cd	-0.10626946
18	0x3d10cb51	0.035350148
19	0x3d012508	0.031529456

layers.4.weight f4 [10, 20]
0	0xbd9883a7	-0.07446986
1	0xbe5f85fe	-0.21828458
2	0x3deed4ad	0.116616584
3	0xbe10f142	-0.14154533
4	0x3d37ae90	0.04484421
5	0x3dad8656	0.08472888
6	0x3ddae97a	0.10689063
7	0x3d83406e	0.06408773
8	0xbdcfcb0f	-0.10146152
9	0xbe182890	-0.14859223
10	0xbbd4c515	-0.0064932206
11	0xbdb70f81	-0.08938504
12	0x3e455ed0	0.1927445
13	0xbd38e6f8	-0.045142144
14	0xbcd64b23	-0.026158875
15	0xbd0879f4	-0.03331943
16	0x3dd46a91	0.103718884
17	0x3e39075c	0.18069214
18	0x3d7edce9	0.062222395
19	0x3e32893c	0.17435163
20	0xbe092c66	-0.13395843
21	0xbc821c88	-0.015882745
22	0x3d439048	0.04774502
23	0x3dfbc7b0	0.12293947
24	0x3e4852d0	0.1956284
25	0xbd1749b4	-0.036935523
26	0xbe4bf247	-0.1991664
27	0xbda14f3a	-0.078764394
28	0x3e379788	0.17928898
29	0x3e3f6084	0.18689162
30	0x3dacefe8	0.08444196
31	0xbdb72570	-0.089426875
32	0xbe4a140a	-0.19734207
33	0xbd834156	-0.06408946
34	0xbe1fb2c6	-0.1559554
35	0xbe3dad1c	-0.18523067
36	0xbde78419	-0.113044925
37	0xbe371fbe	-0.17883202
38	0xbe1365da	-0.14394322
39	0x3dea926c	0.11453709
40	0xbdc60421	-0.09668756
41	0x3e537b0c	0.20652407
42	0x3e12b12e	0.14325401
43	0x3d734c86	0.05939915
44	0xbdf2d8fe	-0.11857794
45	0x3e2a764a	0.16646686
46	0xbdaa966a	-0.083294705
47	0xbc4a436d	-0.012345177
48	0xbdd8f16d	-0.10592923
49	0xbdf92a70	-0.121662974
50	0x3d6c1948	0.057641298
51	0xbe2debcc	-0.1698448
52	0x3e376562	0.17909768
53	0xbdec5ec2	-0.11541511
54	0xbd96dae4	-0.07365969
55	0x3ded24d6	0.115792915
56	0x3e510434	0.2041176
57	0x3d0033a0	0.031299233
58	0xbe0efe96	-0.13964304
59	0x3e131bf0	0.14366126
60	0x3e4b51b4	0.19855386
61	0xbd4ee3e4	-0.050510302
62	0x3dad8509	0.0847264
63	0x3e1e25c4	0.15444094
64	0x3de7f904	0.11326793
65	0x3d82811c	0.06372282
66	0x3da6ee0d	0.08150873
67	0xbdb990b6	-0.090608045
68	0x3e2956b4	0.16536981
69	0x3d99e55c	0.0751445
70	0xbd98dc55	-0.074639
71	0xbdbe897e	-0.09303568
72	0xbcb71590	-0.022349149
73	0x3d1f89d2	0.038949795
74	0xbdd73547	-0.10508209
75	0xba832600	-0.0010005832
76	0xbe19b213	-0.15009336
77	0xbe5a51c9	-0.21320261
78	0xbd3a91cc	-0.0455492
79	0xbd05fa74	-0.032709554
80	0x3dad3b14	0.08458534
81	0xbd5d3878	-0.05400893
82	0x3d3fcc70	0.046825826
83	0xbd004004	-0.03131105
84	0x3da93a54	0.08263078
85	0xbc145350	-0.009053066
86	0xbc426de0	-0.011867017
87	0x3c52adf0	0.012858853
88	0x3d5d13b8	0.053973883
89	0xbe3ab2a2	-0.18232206
90	0x3cb9b340	0.02266848
91	0xbe05055a	-0.12990323
92	0xbb882480	-0.0041547418
93	0xbe4f5c3d	-0.2025003
94	0x3dc79ffc	0.097473115
95	0xbbc69bc0	-0.0060610473
96	0x3d5f6830	0.05454272
97	0xbe4e596c	-0.20151299
98	0xbc3c7d40	-0.011504471
99	0x3c6a7870	0.014310941
100	0x3cb3a365	0.021928499
101	0x3e2908c4	0.1650725
102	0x3e618c56	0.2202619
103	0x3e58c6d6	0.211696
104	0x3d284638	0.04108259
105	0x3da55010	0.08071911
106	0x3e11fc18	0.14256322
107	0xbe1b0304	-0.15137869
108	0x3e0a00c0	0.13476849
109	0xbc911394	-0.01770953
110	0xbd45cbc7	-0.04829004
111	0xbd99792b	-0.07493814
112	0xbe248753	-0.16067247
113	0x3e2a91b3	0.16657142
114	0xbd84a071	-0.06475914
115	0xbe172259	-0.14759196
116	0xbe4ec91d	-0.20193906
117	0xbdc9cbcc	-0.09853324
118	0x3d06c470	0.03290218
119	0xbe0806b1	-0.13283803
120	0x3e02b6a6	0.12764987
121	0xbddea489	-0.10871226
122	0x3e4c1aa5	0.19932039
123	0xbd126228	-0.03573814
124	0xbe592dce	-0.2120888
125	0xbe12cd88	-0.14336216
126	0xbd8ad67d	-0.06779192
127	0xbd7742bd	-0.06036638
128	0xbe13f218	-0.1444782
129	0x3e567da4	0.20946366
130	0xbd74c2f9	-0.059756253
131	0x3d26e9e2	0.04075039
132	0x3e639a86	0.22226915
133	0xbe10ff66	-0.14159927
134	0xbd36df22	-0.04464639
135	0xba73b200	-0.00092962384
136	0x3d85a989	0.06526477
137	0xbe2a8358	-0.16651666
138	0x3dde3120	0.108492136
139	0xbd708f14	-0.0587302
140	0xbc321410	-0.010869041
141	0xbd0b6274	-0.03402944
142	0x3d884870	0.06654441
143	0x396a3c00	0.00022338331
144	0xbe316896	-0.17325053
145	0xbe2a5a90	-0.1663611
146	0xbe487900	-0.19577408
147	0xbd5bf438	-0.053699702
148	0xbe27b574	-0.16377813
149	0xbdd6b02d	-0.104828216
150	0xbe60a60e	-0.21938345
151	0x3e144e6e	0.14483044
152	0x3cd3b860	0.025844753
153	0xbc44b610	-0.012006298
154	0x3cef9b70	0.029248923
155	0x3e195b98	0.14976346
156	0xbde6bbb5	-0.11266271
157	0x3e25baca	0.16184536
158	0xb971cc00	-0.00023059547
159	0x3dac4978	0.084124506
160	0x3d72f210	0.05931288
161	0xbcb7c728	-0.022433832
162	0x3cb991b9	0.022652494
163	0xbe05551c	-0.13020748
164	0xbc7d4ea0	-0.01546064
165	0x3e1eee34	0.15520555
166	0xbe0dc97d	-0.13846393
167	0xbdf418b9	-0.11918778
168	0x3d1d7f90	0.03845173
169	0x3e34067e	0.17580602
170	0xbe4c0101	-0.19922258
171	0x3e0dc55c	0.13844818
172	0x3e2fb79c	0.17159885
173	0xbdd160d2	-0.10223545
174	0xbe5a19a7	-0.21298848
175	0xbe3a5464	-0.18196255
176	0x3de5a942	0.11213924
177	0x3d0e3e48	0.034727365
178	0xbe015ea8	-0.12633765
179	0xbd95072a	-0.07276757
180	0x3e6272ff	0.2211418
181	0x3e064ede	0.13116023
182	0x3e527424	0.20552117
183	0x3e39fbdd	0.18162484
184	0x3e24bd14	0.16087753
185	0x3de8b1a8	0.1136201
186	0x3e38ccf3	0.18046932
187	0xbb561a0b	-0.0032669331
188	0xbe46662e	-0.19374916
189	0xbe255297	-0.16144787
190	0x3e46387b	0.19357483
191	0x3e5f9015	0.21832307
192	0xbdce7446	-0.10080771
193	0xbcc701e8	-0.024292901
194	0x3e00499f	0.12528084
195	0xbe3823ff	-0.17982481
196	0xbdc15f93	-0.094420575
197	0x3e125d34	0.14293367
198	0x3df4e390	0.119574666
199	0x3dfa96c4	0.122357875

layers.4.bias f4 [10]
0	0xbbed4477	-0.0072408277
1	0x3ca8b1c8	0.020592585
2	0xbd3a0595	-0.04541548
3	0xbe2df459	-0.16987742
4	0xbe5dc0e7	-0.21655618
5	0x3dbc2c26	0.09188108
6	0xbd9719f2	-0.073779956
7	0xbb234e80	-0.0024918616
8	0x3d183e1c	0.037168607
9	0x3e2b5653	0.16732149

layers.6.weight f4 [2, 10]
0	0x3d911304	0.07083705
1	0x3e190190	0.14942002
2	0x3e2d13e6	0.16902122
3	0x3d86cf44	0.065825015
4	0x3d8b7d3c	0.06810996
5	0xbe952557	-0.2913005
6	0x3e827e6c	0.25487077
7	0xbe900bda	-0.28134042
8	0x3e82b561	0.25529006
9	0x3e9136d9	0.28362158
10	0x3e9ff7a5	0.31243625
11	0xbdf0e3ea	-0.11762221
12	0xbe3eca3e	-0.18631837
13	0xbe9a5675	-0.30144086
14	0x3e440886	0.19143876
15	0xbc91f07b	-0.017814865
16	0x3e656cfa	0.22404853
17	0x3e053dc8	0.13011849
18	0x3d888f47	0.06667953
19	0xbd633489	-0.055470023

layers.6.bias f4 [2]
0	0x3e69c9c7	0.22830878
1	0xbd26b3e8	-0.040698916
