model-fold-5.pth (torch, 68239 bytes, 8 tensors)

layers.0.weight f4 [50, 302]
0	0x3d10a2ac	0.035311386
1	0xbd10409c	-0.035217866
2	0x3cf39d7a	0.029738177
3	0x3d0b0e2d	0.033949066
4	0xbd4c32e8	-0.049853235
5	0x3c444c46	0.011981076
6	0x3cdc2a59	0.026875662
7	0x3c7c7330	0.015408322
8	0xbd60d9ed	-0.05489533
9	0x3c976c0a	0.018484134
10	0x3cd13763	0.025539106
11	0x3c295c22	0.010336908
12	0x3cb50840	0.02209866
13	0x3b1656c0	0.002293989
14	0xbd180801	-0.037117008
15	0x3bc7549c	0.0060830843
16	0x3c94a9cb	0.01814737
17	0x3d177016	0.036972128
18	0xbc2122d5	-0.009834965
19	0xbd0266aa	-0.03183619
20	0x3d09019c	0.0334488
21	0xbd3ea05d	-0.046539653
22	0x3c932b1c	0.017964892
23	0xbc874a65	-0.016514966
24	0x3c2e704d	0.010646892
25	0x3bab7dca	0.005233501
26	0x3b66ced5	0.0035218496
27	0x3d478010	0.048706114
28	0xbb54b512	-0.003245656
29	0x3d65cbd1	0.056102578
30	0x3c07d5ac	0.008290689
31	0xbd5413d1	-0.05177671
32	0x3d61605f	0.055023547
33	0xbd3ac0b3	-0.04559393
34	0xbb364852	-0.0027814102
35	0x3cdd33e5	0.027002284
36	0xbb4f9281	-0.0031673016
37	0xbcc02433	-0.023454761
38	0x3d02b8b3	0.031914424
39	0xbd3b3b68	-0.04571095
40	0x3cf6247a	0.03004669
41	0x3d5d3955	0.054009754
42	0xbd4bf382	-0.049792774
43	0xbd2a3732	-0.041556545
44	0x3d64acb1	0.055828754
45	0xbbd5ce5a	-0.006524843
46	0x3cf17e1f	0.029479085
47	0xbd419730	-0.047263324
48	0x3c97e209	0.0185404
49	0x3d06bcb0	0.03289479
50	0xbc839b09	-0.016065137
51	0x3bbb39c1	0.005713672
52	0x3d0a173f	0.033713575
53	0xbcede5bc	-0.02904021
54	0xbcf19870	-0.029491633
55	0xbc17896d	-0.009249073
56	0xbd4e752a	-0.050404705
57	0xbcf0e4e3	-0.029406017
58	0xbd43bc22	-0.04778684
59	0x3c997c78	0.01873611
60	0x3d3b767d	0.045767296
61	0xbd589bd9	-0.052883003
62	0xb9b215b0	-0.00033966964
63	0x3ce68f38	0.028144464
64	0xbd32292c	-0.043496296
65	0xbccd2534	-0.025042154
66	0x3d2b16dc	0.041769847
67	0xbcf1667b	-0.029467812
68	0x3d3d821d	0.046266664
69	0xbd054070	-0.032532156
70	0xbd3ae7c1	-0.045631174
71	0x3d5425e8	0.051793963
72	0x3cd4cc24	0.025976248
73	0x3d3c091e	0.045907132
74	0x3c7a9c32	0.015296029
75	0xbc8ec2b9	-0.017426835
76	0x3d64b093	0.055832457
77	0xbd571017	-0.05250558
78	0xbca17bda	-0.019712377
79	0x3ba9cc1e	0.0051818034
80	0xbc4fdada	-0.012686456
81	0x3c9c8fe5	0.019111583
82	0xbd6693e9	-0.056293402
83	0xbd38c552	-0.045110054
84	0xbd2e3461	-0.04253042
85	0x3d09cda8	0.033643395
86	0x3d4d9f52	0.050200768
87	0xbd5fc9df	-0.05463588
88	0x3c262c0c	0.0101423375
89	0x3d12b184	0.035813823
90	0x3b2a03a1	0.0025942104
91	0xbb9bc830	-0.004754089
92	0xbc7bf6af	-0.015378638
93	0xbc3a4dd8	-0.011371098
94	0xbd0854d0	-0.03328401
95	0xbbf81700	-0.007571101
96	0x3cbaceb6	0.022803646
97	0xbca02713	-0.019549882
98	0x3cc220f9	0.023697363
99	0xbd38c1d6	-0.04510673
100	0x3b96565d	0.004587932
101	0x3cffddd4	0.031233706
102	0x3c088f6c	0.008334976
103	0xbca11965	-0.01966543
104	0xbcd84b81	-0.02640319
105	0x3d0c5c1b	0.034267526
106	0xbcee5784	-0.029094465
107	0x3d25e03f	0.04049706
108	0xbd2a1d60	-0.04153192
109	0x3d14cbb5	0.036327083
110	0xbd1703e8	-0.03686896
111	0x3cc8ad80	0.024496794
112	0xbd591c1d	-0.053005327
113	0xbd24ee8a	-0.04026655
114	0xbd60ec01	-0.05491257
115	0x3cd7da6d	0.02634927
116	0xbd0a6e36	-0.03379651
117	0x3d288b8f	0.04114872
118	0x3d5e6b97	0.054301824
119	0xbd19679a	-0.037452318
120	0x3c5f044c	0.013611864
121	0xbd2f8880	-0.042854786
122	0x3cd53393	0.026025569
123	0x3d47ff8f	0.048827704
124	0xba502cc1	-0.0007941239
125	0xbc3b0b4c	-0.011416268
126	0xbca2913b	-0.019844642
127	0xbcc18085	-0.023620853
128	0xbd00c3cc	-0.031436726
129	0x3d02243d	0.03177284
130	0x3d087287	0.033312347
131	0x3c926ec6	0.017875087
132	0x3d1ade22	0.0378095
133	0xbd275a7e	-0.040857784
134	0x3d411d49	0.04714707
135	0x3ca0c551	0.019625338
136	0x3ca7695e	0.020435985
137	0xbd229308	-0.039691
138	0x3c06e22a	0.008232633
139	0xbc23bf69	-0.009994366
140	0x3d43ac8d	0.04777198
141	0x3d55e93f	0.052224394
142	0x3d2ea76f	0.042640146
143	0xbd240994	-0.040048197
144	0x3cf20a84	0.02954603
145	0xbbb2607b	-0.0054436303
146	0x3ab0ec04	0.0013498073
147	0xbbff1735	-0.007784749
148	0x3d65e2de	0.05612456
149	0xbbc7503a	-0.006082562
150	0x3d43cad7	0.047800865
151	0xbc8a583c	-0.016887777
152	0x3d49cc54	0.049267128
153	0x3d2d83f3	0.042362165
154	0xbcb26c3f	-0.021780131
155	0xbc14a3f7	-0.009072295
156	0xbcf97573	-0.030451512
157	0xbd005cd6	-0.031338535
158	0x3d47ff80	0.04882765
159	0xbc94f301	-0.01818228
160	0xbce74a32	-0.028233621
161	0x3d388b59	0.045054767
162	0x3c2d7392	0.010586636
163	0xbba2eb50	-0.004971899
164	0x3c9ebfed	0.019378627
165	0x3d0875ea	0.033315577
166	0x3c8271eb	0.015923461
167	0xbd4d7dbe	-0.050168745
168	0xbd130a04	-0.035898224
169	0xbb2dcd96	-0.0026520244
170	0x3c7f421e	0.015579728
171	0x3d14f6b2	0.03636808
172	0x3b47fc60	0.0030515417
173	0x3d370943	0.044686567
174	0x3d08a492	0.03336007
175	0x3cdd8649	0.027041571
176	0xbd45c3ad	-0.048282314
177	0xbc378b43	-0.011202636
178	0xbc8a0042	-0.016845826
179	0x3c025aed	0.007956249
180	0xbd4b58c5	-0.049645204
181	0xbc0caea2	-0.008586558
182	0xbcadbdef	-0.021208731
183	0x3ce3ebfb	0.027822485
184	0xbd0428af	-0.03226536
185	0xbc24d36a	-0.010060171
186	0x3bed12ea	0.0072349207
187	0x3b9560ad	0.004558644
188	0xbd1c3938	-0.038140506
189	0xbcbcb8ac	-0.023037277
190	0xbc92bb2a	-0.017911512
191	0xbc2a0418	-0.010376953
192	0xbb90a3dc	-0.004414065
193	0xbcc987db	-0.024600914
194	0xbceeecc9	-0.029165642
195	0x3d17dbae	0.037074737
196	0xbbca31d6	-0.0061704917
197	0x3d2a5ef9	0.04159448
198	0x3c63e9a3	0.013910684
199	0xbd5d037c	-0.0539584
200	0xbd58fbe5	-0.0529746
201	0xbc08fd7c	-0.008361217
202	0x3d255451	0.040363614
203	0xbad2af64	-0.0016073999
204	0xbd17045d	-0.036869396
205	0x3d4e689a	0.050392725
206	0xbd3e3047	-0.04643276
207	0x3a4d8ac0	0.0007840805
208	0x3ae34f2d	0.0017342322
209	0xbd21c016	-0.039489828
210	0xbce39f58	-0.027785942
211	0x3cda9a27	0.026684834
212	0x3d3d87be	0.046272032
213	0xbd39b640	-0.045339823
214	0x3d2fa7b2	0.042884536
215	0xbd4c4220	-0.04986775
216	0xbd494e8e	-0.04914718
217	0x3d187f4c	0.037230775
218	0xbd211216	-0.03932389
219	0x3d245708	0.040122062
220	0x3c1e8fa8	0.009677805
221	0xbd53ece7	-0.0517396
222	0x3d48c0b0	0.049011886
223	0xbd3baa69	-0.045816813
224	0x3d3e2d96	0.046430193
225	0xbb9b5baf	-0.004741154
226	0x3abbcda8	0.0014328258
227	0x3d69a755	0.057044346
228	0xbd46a93a	-0.04850123
229	0xbb5ef600	-0.003402114
230	0x3d1d6d74	0.03843446
231	0xbbeac48d	-0.007164544
232	0xb8e229c5	-0.000107843
233	0x3b9a0789	0.0047006053
234	0xbcf00e41	-0.029303672
235	0x3d24b033	0.0402071
236	0x3d4c764c	0.049917504
237	0x3b907669	0.004408647
238	0xbb08ad46	-0.0020855232
239	0xbd3cd31f	-0.04609978
240	0x3ce8100c	0.028327964
241	0x3d295f7c	0.041350827
242	0x3c1bc95d	0.009508458
243	0xbca5e691	-0.020251544
244	0xbcba9cfb	-0.022779932
245	0xbd1d2506	-0.038365386
246	0x3c5a858a	0.013337502
247	0xbd35cd67	-0.04438534
248	0xbd194624	-0.037420407
249	0xbd3234c8	-0.043507367
250	0xbc2a8b8a	-0.010409245
251	0xbd436b9a	-0.04771004
252	0x3cfa2206	0.030533802
253	0x3c051892	0.008123534
254	0xbb808960	-0.0039226264
255	0x3d01271c	0.03153144

layers.0.bias f4 [50]
0	0xbba84902	-0.0051356563
1	0x3cbb9b04	0.022901066
2	0xbd0e624f	-0.034761723
3	0xbcf3e607	-0.029772772
4	0x3c8278b2	0.015926693
5	0x3b234ccf	0.0024917608
6	0x3ccfec64	0.025381275
7	0xbc1c18aa	-0.009527365
8	0xbc936f76	-0.017997485
9	0x3cbb796c	0.022885047
10	0xbd3a11fe	-0.045427315
11	0x3c220c2d	0.009890598
12	0x3d3442d8	0.04400906
13	0xbbbd9c9a	-0.0057864906
14	0xbcad862a	-0.021182138
15	0xbc4ff9b8	-0.012693815
16	0xbc68836a	-0.014191488
17	0x3d5999e5	0.05312528
18	0x3d467a77	0.048456635
19	0xbcec427a	-0.028840292
20	0x3d5714fa	0.05251024
21	0xbd5c33ad	-0.05376022
22	0xbd2b281c	-0.0417863
23	0x3aef5970	0.0018260907
24	0xbd5f9741	-0.054587606
25	0xbd3aed5c	-0.04563652
26	0xbd445e8c	-0.04794173
27	0x3c79e339	0.015251928
28	0x3d375ca5	0.044766087
29	0x3d67ccce	0.0565918
30	0x3bcd96e9	0.0062740934
31	0x3d0e7e70	0.03478855
32	0x3cec4e71	0.028845998
33	0x3cbdd373	0.023172116
34	0xbd35990f	-0.04433542
35	0x3c90274e	0.017596867
36	0xbd0e93eb	-0.034809034
37	0xbd31d6a0	-0.043417573
38	0xbd64e986	-0.055886768
39	0x3cb08825	0.021549294
40	0x3c9d4ab5	0.019200662
41	0xbd3d0049	-0.04614285
42	0xbc4e589c	-0.012594368
43	0x3bc728ac	0.0060778465
44	0xbd30fe4c	-0.043211266
45	0x3d5d427b	0.05401848
46	0xbd62023c	-0.055177912
47	0x3d39126c	0.045183584
48	0x3c5d531e	0.013508586
49	0x3d50ad4f	0.05094653

layers.2.weight f4 [20, 50]
0	0x3dd5db15	0.10442177
1	0x3e0096e7	0.12557565
2	0xbc6c86d8	-0.014436446
3	0xbdb0b260	-0.08627772
4	0x3e00d56f	0.12581418
5	0x3d738bc0	0.059459448
6	0xbdef19cd	-0.11674843
7	0x3dac7a10	0.08421719
8	0xbde0589f	-0.10954403
9	0xbd947082	-0.07248022
10	0xba14ecfb	-0.0005681065
11	0xbde71ca0	-0.11284757
12	0x3dcb05f5	0.099132456
13	0xbdfa4b45	-0.12221388
14	0x3d7c82a4	0.061648026
15	0xbdd9ffe2	-0.10644509
16	0x3df0c977	0.11757176
17	0x3de58475	0.11206905
18	0xbddb9533	-0.10721817
19	0xbd95ceb6	-0.073148176
20	0xbd06b4a2	-0.03288711
21	0x3d35e6c3	0.044409525
22	0x3de73101	0.11288644
23	0x3e02040b	0.12696855
24	0x3d9ceaee	0.07661997
25	0x3c8a5c46	0.016889703
26	0x3dcf88aa	0.101334885
27	0xbe0a6d2e	-0.13518211
28	0xbde56fec	-0.11202988
29	0xbd928e1d	-0.07156012
30	0x3d6d773c	0.05797504
31	0x3d8547aa	0.065078095
32	0x3cfc2780	0.030780554
33	0x3cbd5ae0	0.023114622
34	0xbdf64397	-0.120246105
35	0xbcfaec9a	-0.030630399
36	0x3dfd842e	0.12378727
37	0xbda81b25	-0.082083024
38	0xbdae3864	-0.085068494
39	0x3d4fc003	0.050720226
40	0xbda50f04	-0.08059505
41	0x3da82153	0.08209481
42	0x3b360b86	0.0027777865
43	0x3e08e21e	0.13367507
44	0xbdb54cbb	-0.08852526
45	0x3d8f6dd9	0.07003374
46	0xbe10ee4a	-0.141534
47	0xbe13326e	-0.14374706
48	0x3d0c2e04	0.03422357
49	0xbe04a0a1	-0.129519
50	0xbd7f42df	-0.062319633
51	0x3e0ee196	0.13953242
52	0x3e083dd9	0.13304843
53	0x3ddda014	0.10821548
54	0x3e001820	0.12509203
55	0x3e066447	0.1312419
56	0xbcfc58fa	-0.030804146
57	0xbe085431	-0.13313366
58	0x3deda2f3	0.11603346
59	0x3e042c21	0.12907459
60	0xbdbac271	-0.09119118
61	0x3d3cc5b5	0.046086986
62	0x3ccb4a8f	0.024815826
63	0xbd332098	-0.043732256
64	0x3d81ca66	0.063374326
65	0x3c8d4a11	0.017247232
66	0xbe10cec8	-0.14141381
67	0x3cab79e5	0.020932147
68	0x3d1979ef	0.0374698
69	0xbd643dc4	-0.055722967
70	0x3c6e80f1	0.014557109
71	0xbd83d43b	-0.06436964
72	0x3d0ef697	0.034903135
73	0x3b6f8bb9	0.0036551787
74	0xbd548d47	-0.051892545
75	0x3c30a8c1	0.010782422
76	0x3e0a5116	0.13507494
77	0x3dbf430a	0.093389586
78	0xbddc7846	-0.10765128
79	0x3dfea94e	0.12434636
80	0xbd9c2dbd	-0.076259114
81	0x3df54c54	0.11977449
82	0x3db9fb6c	0.09081158
83	0xbd2961b0	-0.041352928
84	0x3e09e2a6	0.13465366
85	0x3cac21f6	0.021012288
86	0xbdb18454	-0.08667818
87	0xbde2cd8c	-0.11074361
88	0xbda06e0b	-0.07833489
89	0x3d111788	0.03542283
90	0x3d42605e	0.047455184
91	0x3d770957	0.06031164
92	0x3da04a8c	0.07826719
93	0xbd86dc3e	-0.065849766
94	0xbc27cf77	-0.010242335
95	0x3dc23bc4	0.09484056
96	0xbdc25e73	-0.09490671
97	0xbd6d851b	-0.057988267
98	0xbe11377d	-0.14181323
99	0x3d5495c8	0.051900655
100	0x3b399ee0	0.0028323457
101	0x3dde4f2e	0.10854946
102	0xbcf3760a	-0.029719371
103	0x3dd351e0	0.10318351
104	0x3d96d7ce	0.0736538
105	0x3dfc6b3f	0.12325143
106	0x3de0b930	0.10972822
107	0xbcefd75c	-0.029277496
108	0xbe05f0dc	-0.13080162
109	0xbdf19d6f	-0.11797606
110	0xbd846e45	-0.06466345
111	0x3db6a5b5	0.08918325
112	0xbc22f34b	-0.009945701
113	0x3b6bf100	0.0036001801
114	0x3db6eafe	0.0893154
115	0xbded47e1	-0.115859754
116	0xbdff59db	-0.124683104
117	0x3e06014a	0.13086429
118	0x3c1b7d40	0.009490311
119	0xbdcffd92	-0.101557866
120	0xbd67fb37	-0.05663606
121	0xbdeecdfc	-0.11660382
122	0x3da8a814	0.08235183
123	0xbd1dd016	-0.038528524
124	0x3dc757de	0.09733556
125	0x3c9fc0d9	0.019501137
126	0xbdd1004c	-0.10205135
127	0xbd879663	-0.06620481
128	0xbdb03731	-0.08604277
129	0xbe0b75f7	-0.13619219
130	0xbd09452c	-0.033513233
131	0x3dcf4586	0.101206824
132	0xbdff985c	-0.12480232
133	0xbc838573	-0.016054844
134	0x3d425a2e	0.047449283
135	0x3d802573	0.06257143
136	0x3e00c82b	0.12576358
137	0xbdc9eb40	-0.098593235
138	0x3b6659bd	0.0035148703
139	0x3cc4fc59	0.02404611
140	0x3e084e4f	0.13311122
141	0xbd9bec59	-0.07613439
142	0x3de2da5b	0.11076804
143	0x3dfd06a9	0.12354786
144	0x3d69b12a	0.057053722
145	0x3da50063	0.080567144
146	0xbd693ddd	-0.056943763
147	0x3d597251	0.053087536
148	0x3d0230cf	0.03178483
149	0x3df956d0	0.12174761
150	0xbc863ce9	-0.016386466
151	0x3c325e54	0.010886747
152	0x3dbdb1ed	0.09262452
153	0xbc899670	-0.016795367
154	0xbdba725f	-0.09103846
155	0x3d9c7ac4	0.07640603
156	0xbe05d95a	-0.13071194
157	0x3df824e3	0.121164106
158	0xbdabed2f	-0.083948486
159	0x3e06cc84	0.13163954
160	0xbde9f615	-0.114238895
161	0x3dadfee3	0.084958814
162	0x3d850880	0.06495762
163	0x3de3de42	0.11126377
164	0x3d827290	0.06369507
165	0x3df5565c	0.11979362
166	0x3d350662	0.04419554
167	0xbdb08773	-0.08619585
168	0x3e0bd257	0.13654457
169	0x3df869b7	0.121295385
170	0xbdf8f1da	-0.121555045
171	0x3c965d45	0.018355021
172	0xbb4ecf40	-0.0031556636
173	0x3df43659	0.119244285
174	0x3dced610	0.10099423
175	0x3dd0ca0e	0.10194789
176	0xbd5b557a	-0.053548314
177	0x3df54373	0.119757555
178	0x3a0b862e	0.00053224235
179	0x3dbaf35d	0.09128449
180	0x3d7bdb9c	0.061488733
181	0xbe01bf89	-0.12670721
182	0x3d63d7d9	0.05562577
183	0x3d0ea047	0.03482082
184	0xbd23f1be	-0.040025465
185	0xbdf09b09	-0.117483206
186	0xbc93dac1	-0.018048646
187	0x3c5f1b35	0.0136173265
188	0xbd967d5e	-0.07348131
189	0x3b8a54ab	0.004221519
190	0x3cad88a6	0.021183323
191	0xbc4dde3c	-0.012565192
192	0x3cf82af7	0.030293925
193	0xbdbbc163	-0.09167745
194	0x3df9bd01	0.12194253
195	0x3dde5918	0.10856837
196	0xbdc9cabb	-0.09853121
197	0x3c516f72	0.012782918
198	0x3cd20be3	0.025640434
199	0xbd2eec1e	-0.042705648
200	0xbdc1e6ab	-0.094678245
201	0xbdbaae86	-0.09115319
202	0xbdef1ff8	-0.116760194
203	0x3ce29f68	0.027663901
204	0x3cf41bd5	0.029798428
205	0x3de83ad1	0.11339343
206	0xbdebfc20	-0.115226984
207	0x3d75c8ec	0.060006067
208	0xbd9ba816	-0.07600419
209	0xbe09b44c	-0.13447684
210	0x3d6170a3	0.05503906
211	0x3d9cfbff	0.07665252
212	0x3dcf7ab4	0.10130826
213	0xbd99ade9	-0.07503874
214	0x3d609060	0.054825187
215	0xbd972634	-0.073803335
216	0x3d81c4f9	0.06336398
217	0xbdaf586d	-0.08561788
218	0xbe1026ce	-0.14077303
219	0x3e0dbadf	0.13840817
220	0xbda5d7ec	-0.080978245
221	0x3c31f420	0.010861427
222	0x3df0dcd8	0.117608726
223	0xbdb91c93	-0.09038653
224	0xbdc82fc6	-0.09774737
225	0x3d9ae986	0.07564072
226	0xbd24acca	-0.040203847
227	0xbda48faf	-0.08035218
228	0xbd3ebd6c	-0.046567366
229	0xbdf1d0a6	-0.11807375
230	0xbd0124ba	-0.031529166
231	0xbc91cb54	-0.01779715
232	0xbdf342b3	-0.11877956
233	0xbd52c865	-0.051460642
234	0x3dafda2f	0.08586537
235	0xbdba7b4c	-0.09105548
236	0xbd8643f4	-0.0655593
237	0x3d679e49	0.056547437
238	0xbd8bf768	-0.06834298
239	0xbe0789c4	-0.13236147
240	0xbd862bc2	-0.06551315
241	0xbc108875	-0.008821596
242	0x3db27efa	0.08715625
243	0x3d739336	0.059466563
244	0x3e10f110	0.14154458
245	0xbd85767c	-0.0651674
246	0xbd1e612c	-0.03866689
247	0x3df40dd9	0.11916704
248	0xbd8685fa	-0.06568523
249	0x3db4fcdc	0.088372916
250	0x3dc51adf	0.09624266
251	0xbe0d9851	-0.13827635
252	0xbc19f5a0	-0.0093969405
253	0x3dee9bc6	0.11650805
254	0x3e0184bf	0.12648295
255	0xbddb4726	-0.1070693

layers.2.bias f4 [20]
0	0x3d0c7238	0.034288615
1	0xbb825d10	-0.003978379
2	0xbe10b606	-0.14131936
3	0xbdd01ebb	-0.10162111
4	0x3b7f731f	0.003897853
5	0xbcb61a0e	-0.02222922
6	0xbd397a6f	-0.045282777
7	0xbd056087	-0.03256276
8	0xbc646086	-0.013939029
9	0xbdc80a92	-0.09767641
10	0xbd2b953d	-0.04189037
11	0x3dda812b	0.10669168
12	0xbdeb97a1	-0.1150353
13	0x3d34ea84	0.044168964
14	0xbbc2bbbe	-0.005942791
15	0x3df8f8f1	0.12156857
16	0x3e02005a	0.12695447
17	0xbd747f44	-0.059691682
18	0x3dcadbfc	0.0990524
19	0x3d8aea7c	0.067830056

layers.4.weight f4 [10, 20]
0	0xbd80a590	-0.062815785
1	0x3ddf6849	0.10908563
2	0x3cd8b17e	0.026451822
3	0x3e38d1c4	0.18048769
4	0x3cab0f8c	0.020881437
5	0x3e4a795f	0.19772862
6	0xbc17468c	-0.009233128
7	0xbdceeff3	-0.101043604
8	0x3d876b76	0.066122934
9	0xbde6db01	-0.112722404
10	0x3da9ff92	0.08300699
11	0x3dc2a248	0.09503609
12	0xbc3f5dab	-0.011680047
13	0xbe3bdcf6	-0.18346009
14	0xbd2ef55c	-0.04271446
15	0xbdbde8a4	-0.09272888
16	0x3ce0c828	0.027439192
17	0xbe16b25b	-0.14716475
18	0xbda338b0	-0.07969797
19	0x3e2e9195	0.17047723
20	0xbe10d758	-0.14144647
21	0x3dc3fa0b	0.09569176
22	0x3d4bee33	0.04978771
23	0x3e0a00fe	0.13476941
24	0x3e0e5784	0.13900572
25	0xbc105cca	-0.008811185
26	0x3d52576b	0.0513529
27	0x3e16e745	0.1473666
28	0x3a92557a	0.001116439
29	0xbe18ad3b	-0.14909832
30	0xbe541a97	-0.20713268
31	0xbe34bac6	-0.17649373
32	0x3e4a2045	0.19738872
33	0x3e2d1bce	0.16905138
34	0x3dafbea9	0.085812874
35	0xbd4268a0	-0.04746306
36	0x3e2f89df	0.17142437
37	0x3dc23afe	0.09483908
38	0x3e0848a9	0.13308968
39	0xbe30982b	-0.17245547
40	0xbd1ab18c	-0.03776698
41	0xbd17f6c8	-0.037100583
42	0xbd22a7a4	-0.039710656
43	0xbd917be0	-0.071037054
44	0x3deff208	0.11716086
45	0xbdeab928	-0.11461097
46	0xbdc3ed00	-0.095666885
47	0xbdd74715	-0.10511605
48	0x3e150482	0.14552501
49	0xbda177c2	-0.0788417
50	0xbe459748	-0.1929599
51	0xbe274db4	-0.16338235
52	0xbdfb8a9f	-0.12282299
53	0x3d0a8d58	0.033826202
54	0xbd9c4694	-0.07630649
55	0x3e58eb42	0.21183494
56	0x3e24e100	0.16101456
57	0xbd1f0e58	-0.03883204
58	0xbe25c4e0	-0.16188383
59	0x3ddf1a6c	0.108937114
60	0xbe41b3fa	-0.18916312
61	0xbe2ec216	-0.17066225
62	0x3dc056ac	0.09391531
63	0x3e43def1	0.19128014
64	0xbe24f563	-0.16109233
65	0x3c0ba929	0.008524218
66	0x3e0afb71	0.1357248
67	0xbe5853ab	-0.21125667
68	0x3e4248eb	0.18973128
69	0xbe08a91d	-0.13345762
70	0xbe36adca	-0.17839733
71	0xbe3d7c10	-0.18504357
72	0x3e0e38bc	0.1388883
73	0xbdd4d664	-0.10392454
74	0xbdca6b53	-0.09883752
75	0xbe01caf2	-0.12675074
76	0xbe1b69c6	-0.15177068
77	0x3e1042e9	0.14088024
78	0x3e0a571d	0.13509794
79	0xbd6d4889	-0.057930503
80	0xbc986046	-0.018600594
81	0x3d87a328	0.066229165
82	0x3e01a86f	0.12661909
83	0x3c9f1f37	0.019424064
84	0x3e57e757	0.21084343
85	0x3e1ab654	0.15108615
86	0xbe5f9732	-0.2183502
87	0x3e5b76cf	0.2143204
88	0xbe5fe20c	-0.21863574
89	0x3e4fbb04	0.20286185
90	0xbd461227	-0.048357155
91	0x3d3258f6	0.04354187
92	0x3e0e42e7	0.13892709
93	0x3dbfb9ab	0.09361585
94	0x3dcc26e7	0.099683575
95	0xbe46832b	-0.19385974
96	0xbe4960f7	-0.19665895
97	0x3d01a6f5	0.031653363
98	0x3e33db19	0.17564048
99	0x3e161bcc	0.14659041
100	0xbdf1b64e	-0.1180235
101	0xbdf9568f	-0.12174713
102	0xbe2c8eba	-0.16851321
103	0xbde791f3	-0.113071345
104	0xbddc002a	-0.10742219
105	0x3e5aa8af	0.2135341
106	0x3c0f1251	0.008732394
107	0xbd8e0bce	-0.06935845
108	0xbdd426a1	-0.103589304
109	0xbe338d6e	-0.1753442
110	0x3b5d1580	0.0033734739
111	0xbe2353b5	-0.159499
112	0xbe416a04	-0.18888098
113	0x3e2c8f80	0.16851616
114	0x3d2c93a8	0.042133003
115	0x3e0163e4	0.12635761
116	0x3e53a7a0	0.20669413
117	0x3e14af4b	0.14519994
118	0xbd5612ab	-0.052263897
119	0x3e031d70	0.12804198
120	0xbe3505ac	-0.17677945
121	0xbdbd1cf3	-0.09234037
122	0xbcb313f8	-0.021860108
123	0xbe4b607e	-0.19861028
124	0xbe579c38	-0.21055686
125	0xbe4d81c1	-0.20069028
126	0xbe56a6fb	-0.20962135
127	0xbd9d95ac	-0.07694563
128	0x3e0e907d	0.13922305
129	0x3e20745e	0.1566939
130	0xbe5c7256	-0.2152799
131	0xbd8310d3	-0.06399693
132	0xbe40d534	-0.1883133
133	0x3e45856a	0.19289175
134	0x3e1f5d6c	0.15562981
135	0x3e26a95d	0.16275544
136	0x3db6896c	0.0891293
137	0xbddcd365	-0.10782508
138	0x3e36987b	0.17831604
139	0xbe44d39e	-0.1922135
140	0xbe30cc9a	-0.1726555
141	0xbe3b0ef4	-0.18267423
142	0xbc01dda0	-0.007926375
143	0xbdc1b018	-0.09457415
144	0xbd08ec18	-0.03342828
145	0xbd282303	-0.041049015
146	0xbdae5d3c	-0.08513877
147	0x3e3ad7b2	0.18246344
148	0x3d8535b4	0.06504384
149	0x3da5699c	0.08076784
150	0x3e42ebda	0.19035283
151	0xbe4cb93c	-0.19992536
152	0xbe335360	-0.17512274
153	0xbe6412d3	-0.22272806
154	0x3df2b738	0.118513525
155	0xbe2a8336	-0.16651616
156	0xbcf242c0	-0.029572845
157	0x3e1ef41f	0.15522812
158	0x3e5f9059	0.21832408
159	0xbe3746ac	-0.17898053
160	0x3e319450	0.17341733
161	0x3e174414	0.14772063
162	0x3de2a927	0.110674195
163	0xbe58e3e9	-0.21180691
164	0xbe156ae8	-0.14591563
165	0x3e1227ce	0.14272997
166	0xbe5c992f	-0.2154281
167	0xbc916408	-0.017747894
168	0x3d616b77	0.055034127
169	0x3d8dbc5c	0.06920692
170	0x3dd77ba8	0.105216324
171	0xbc8aa354	-0.016923584
172	0x3e2d1230	0.16901469
173	0x3e34a3f0	0.17640662
174	0xbd208fd8	-0.03919968
175	0xbdb92d08	-0.09041792
176	0xbe287a25	-0.16452844
177	0xbddcfa5a	-0.10789938
178	0xbdd352cd	-0.10318527
179	0xbe1f9058	-0.15582407
180	0x3c4f0120	0.012634546
181	0x3e621a7e	0.22080418
182	0xbe24af94	-0.16082603
183	0xbdf88ec4	-0.121366054
184	0xbcb408b8	-0.021976814
185	0xbde4c567	-0.11170464
186	0xbd906744	-0.07050946
187	0x3dbfbdc8	0.0936237
188	0xbe23ba30	-0.15988994
189	0x3d5e9840	0.054344416
190	0x3e3e6fc6	0.18597326
191	0xbc33e3d0	-0.010979608
192	0xbda60de0	-0.08108115
193	0xbe393ff8	-0.18090808
194	0x3d2e3548	0.04253128
195	0xbda626ca	-0.08112867
196	0x3d0cae20	0.034345746
197	0x3d777928	0.060418278
198	0xbe4c3a58	-0.19944131
199	0x3e64c6d6	0.22341475

layers.4.bias f4 [10]
0	0x3dbff9c3	0.0937381
1	0x3ca9a721	0.020709576
2	0xbe3627b7	-0.17788588
3	0x3e22c8b9	0.15896882
4	0x3db94bfd	0.09047697
5	0xbc6aef0c	-0.01433922
6	0xbcf6be6b	-0.030120095
7	0x3d256a14	0.040384367
8	0xbe19b75e	-0.15011355
9	0xbe20cade	-0.15702388

layers.6.weight f4 [2, 10]
0	0x3e8ee919	0.27912214
1	0xbe9a536b	-0.30141768
2	0x3dd4e020	0.10394311
3	0xbe838f5d	-0.25695315
4	0xbdb1bfc6	-0.08679156
5	0x3e78edc9	0.24309458
6	0xbe026897	-0.1273521
7	0x3e3e639d	0.18592687
8	0xbd5b0d7c	-0.053479657
9	0x3dcbb82c	0.09947237
10	0x3d8fb80b	0.07017525
11	0xbdf35abf	-0.11882543
12	0x3dce125c	0.100620955
13	0xbc8b09da	-0.016972471
14	0xbd80696c	-0.062701076
15	0xbcc2e9d3	-0.023793137
16	0x3d7fbb79	0.062434647
17	0x3e470cf7	0.1943854
18	0xbe4581a2	-0.19287732
19	0xbe8bc8d6	-0.27301663

layers.6.bias f4 [2]
0	0x3e0562d7	0.13025986
1	0x3e0df5a1	0.13863231
