model-fold-0.pth (torch, 68239 bytes, 8 tensors)

layers.0.weight f4 [50, 302]
00000000: faba b1bc 6ad4 afbc a6fd 283d 156d 56bc
00000010: aa05 043c 0681 693d 5e5e 6fbd ee1f 71bc
00000020: 6791 b2bc bf51 1abc d5b3 253b dd8d 49bc
00000030: 2cd5 663d 1410 ca3c a46e 19bd f503 643d
00000040: 9275 8abc 822e 173c 20af ab3b 5d58 2abd
00000050: f48f e63c e87a 0ebd e239 55bd 30c9 4a3d
00000060: de89 063d c99e c7bc ef4b 23bd ea7b 553d
00000070: 1ed4 aa3c b711 20bd e66c 44bd 0f03 cfbc
00000080: a467 04bd 04e0 9c3b 8bf2 873b 03ae 6abd
00000090: 9d15 da3c 8a6d f33c 950d 58bd 2ec1 3c3d
000000a0: 439c b2bc af4d ed3c 681e 683d 4776 033d
000000b0: a3c6 1a3d cba4 903a 23fa 073c 7ab7 4abd
000000c0: d7d2 25bd 8fec 3d3d c5ad 57bd ac39 d23c
000000d0: 4ccc 06bd f3bd 4c3d e3a8 283d 41e4 6cbc
000000e0: 98f4 06bc 3ef6 26bd cdb7 573d 74e3 08bd
000000f0: 4b9f a53c 3fe9 243d c92a 5ebd 6f79 6bbd
00000100: 864d 20bd 1143 1fbc 5128 133d e238 86bc
00000110: 8baf bebc 5079 1d3d 4137 3b3d 309b 003d
00000120: 496f 473d ade6 58bd aad1 48bd bae0 043c
00000130: faf7 40bd 60b4 80bc 7eda 103d 5a72 5f3d
00000140: 8c74 35bc d4f7 53bd 3a1b edbc 8257 613d
00000150: 22ec 13bc 5977 5ebd aea1 fcbc d965 0cbd
00000160: f131 62bc 7a3a 2ebd 3355 9cbc cc2b 563d
00000170: d3c9 d3bc 2121 52bc 603d 033d caf6 64bd
00000180: a8be f1bc 30f6 a3bb b326 343d a2ea 073c
00000190: 73e0 61ba bc42 9bbc f825 e53c 94ba d3bc
000001a0: 0a59 16bc 0365 c3bc ba21 b33c ceaa 6e3d
000001b0: 04d7 33bd 3d85 91bb 2910 89bb 4e48 f9bc
000001c0: 52f5 2abd df68 cdbc 775f 3ebd 2912 333d
000001d0: a484 2cbd dbd7 0c3d eb4d 413d aea0 20bc
000001e0: f964 5a3d 8fbc 2d3d 0dbf 24bd 4ad6 0a3d
000001f0: 5757 5b3c c0cf 3d3d ad76 34bd 1453 333d
00000200: e13c e83b 433a e23c ad95 00bd ffbd 163d
00000210: ccc1 27bb 61ef 403d 8818 b73b 4529 133d
00000220: e26d 17bd 287b 53bd 2425 b33c a590 ff3c
00000230: bfa6 843c d1a6 923c ea57 1b3d 5294 00bd
00000240: 6153 f23c 25b0 e23c 209d c6bc d8f0 0fbd
00000250: 393f 68bd 92c0 2f3d 8344 9eba 0c67 453c
00000260: 3263 26bd e134 38bd 185f 443d 1487 1f3d
00000270: b1b9 fe3c 1477 363d 1b24 353d e088 063d
00000280: 4c5c 263d e463 00bc f780 653c 1885 4bbd
00000290: adc8 b2bc 0877 cbbb 721d 9cbb b1f6 693d
000002a0: 3ac6 3e3d d982 993c 6faf 593d d526 e2bc
000002b0: 0147 1c3c 05b3 38bd 42e4 43bd 3f72 f23c
000002c0: cc94 a13c 4a17 70bb 9a92 10bd 3e2c 2b3d
000002d0: 61b2 97bb ec07 1c3d 8f9a 24bd c589 313d
000002e0: a631 6ebb 0aab a0bc bf54 b8bb 1354 39bd
000002f0: 0e96 2ebc 19dc 8a3b 96d3 2cbd c6d6 eb3c
00000300: bb83 5d3d 050f f73c 1f83 f4bc 607b 14bd
00000310: 634a 3dbd 047f 13bd b2e4 0e3d a462 cd3c
00000320: 1943 bcbc 0c31 e73a ede5 25bc c7f5 013a
00000330: 210e 70bd 6f83 453d 6c50 a5bc 5da5 52bd
00000340: 062d a1b9 9b87 863c 3a7f cd3c eba8 fdbc
00000350: 787e 97bb e794 33bd 183c 33bd 478d 1dbd
00000360: 5514 11bd f0ac 133d 16ec 53bd b955 4bbc
00000370: c958 c2bc d7fc 193d 7ab8 86bb 6429 00bd
00000380: 10fb 423d d9c7 38bd 4982 aabc 9740 59bd
00000390: 28c1 bbbb cc50 8d3c 3d72 513d 9bd2 29bd
000003a0: fe13 1cbd 9876 643d 8474 273c 29f1 19bd
000003b0: 6b5f cf3c 37ac 643d 3f9e 143b 9ff4 d3bc
000003c0: 8628 fbbc 938d abbc b8b6 ef3c 3131 27bd
000003d0: 3daf 4e3d d60c 18bd 3ff6 853c 468f 653d
000003e0: a605 c4bc 6b69 20bd 7312 f4bc 6cc6 c3bc
000003f0: 1772 0fbd 361d 70bd 8f14 f7bc bf2d 99bc
-0.021695603 -0.021463592 0.041257523 -0.013087531 0.008057991 0.057007812 -0.058439605 -0.014717085
-0.021797849 -0.009418904 0.002528419 -0.012301889 0.05635564 0.02466587 -0.03745903 0.055667836
-0.016901765 0.009227397 0.0052393824 -0.041588176 0.028144814 -0.03478518 -0.052057154 0.049508274
0.032846324 -0.024367707 -0.039867338 0.052120127 0.020853098 -0.039079394 -0.047955416 -0.025270013
-0.032325402 0.004787447 0.0041487864 -0.057294857 0.026621634 0.029715318 -0.052747328 0.046082668
-0.021803027 0.028967706 0.056669623 0.03209522 0.03778709 0.001103544 0.008299383 -0.049491383
-0.040484276 0.046368178 -0.052655954 0.025662266 -0.032909676 0.049985837 0.041176688 -0.014458717
-0.008237027 -0.04076218 0.05266552 -0.03342004 0.020217558 0.040261503 -0.05424002 -0.057488855
-0.039136432 -0.00972058 0.03592712 -0.016384546 -0.023277065 0.03844577 0.04570699 0.031398
0.048690114 -0.052954365 -0.049028076 0.00811022 -0.04711149 -0.01571101 0.03536462 0.054552414
-0.01107515 -0.05175002 -0.028943647 0.055015095 -0.009028466 -0.054313038 -0.030838814 -0.034276817
-0.013805852 -0.042536236 -0.019083595 0.05228786 -0.025853073 -0.012825281 0.032040954 -0.05589942
-0.029509857 -0.005003713 0.04398222 0.008295687 -0.00086165144 -0.01895272 0.027972206 -0.025845803
-0.009176502 -0.023851877 0.021866668 0.05826836 -0.043906227 -0.004440932 -0.0041828346 -0.030429985
-0.041737862 -0.02507442 -0.04647776 0.04371849 -0.042118683 0.034385543 0.04719345 -0.009803934
0.05331895 0.04241615 -0.040221263 0.03389577 0.013387523 0.046340704 -0.04405849 0.0437804
0.0070873355 0.027615672 -0.031392742 0.03680229 -0.002559769 0.04710329 0.005587641 0.03592803
-0.036970027 -0.051631123 0.021868296 0.031196902 0.016192792 0.01790181 0.03792564 -0.03139145
0.029580774 0.027671883 -0.024244845 -0.035141796 -0.05670092 0.04290826 -0.0012074861 0.012048494
-0.040621944 -0.044972304 0.04794225 0.03894718 0.031094404 0.044547155 0.044223886 0.032845378
0.040615365 -0.007836316 0.014007798 -0.049687475 -0.021824205 -0.006209258 -0.0047642523 0.05712003
0.046575762 0.01873915 0.053145822 -0.027606407 0.009538413 -0.0450926 -0.047825105 0.029595492
0.019724272 -0.0036634975 -0.03529606 0.04179024 -0.0046294187 0.038093492 -0.04018646 0.043344278
-0.003634551 -0.019612808 -0.005625337 -0.045246195 -0.010655893 0.0042376635 -0.04219397 0.028788935
0.054080706 0.030158529 -0.02984768 -0.036250472 -0.04621352 -0.036009803 0.03488607 0.02507145
-0.022981213 0.0017638518 -0.010125619 0.0004957583 -0.058607224 0.048221048 -0.02017995 -0.051427234
-0.00030741858 0.016422084 0.02508508 -0.030964335 -0.0046232305 -0.043843176 -0.04375848 -0.03846481
-0.03541978 0.036053598 -0.05173882 -0.012410575 -0.023723977 0.037594642 -0.004111347 -0.031289473
0.047602713 -0.045112465 -0.020814078 -0.053040113 -0.005729813 0.017250441 0.051134337 -0.041460615
-0.038105004 0.055777162 0.010220651 -0.037583504 0.025314054 0.0558283 0.002267733 -0.02587348
-0.030658972 -0.020941531 0.029261932 -0.040818397 0.05046009 -0.037121616 0.01635277 0.05604484
-0.023928475 -0.039163034 -0.029793954 -0.023898326 -0.035020914 -0.058621608 -0.03016117 -0.018698571

layers.0.bias f4 [50]
00000000: 73f5 28bc b5ab 14bd eeef 2fbd 8a66 a0bc
00000010: 8a0a 84bc 414a 99bb 67d5 163d 358f 10bd
00000020: 3314 f4bc 08a4 8bbc c8bc dfbc 2790 333c
00000030: 92cc afbc d29f cfbc 78b3 583d 1434 70bc
00000040: 8be0 30bd e768 043d dd1f 52bc 5c27 d2bc
00000050: 51d0 333d 488d 9cbc f66a eebc bee0 903c
00000060: f0c8 4fbc 1c05 493d 8154 2c3d a7a6 eaba
00000070: b97e 84bc 80a6 043d 4374 003d 82ac 19bd
00000080: 4cfe 573c f54f 873c 32de 703d e488 03bd
00000090: cafb 28bd 72cb 92bc 3b71 70bd e03b acba
000000a0: 8895 e53c 5361 e8bc 253a 643d ebec 083d
000000b0: 4de4 0d3d f9f3 14bd 1e6c 153d a6da 153d
000000c0: afcc 183d 757f 37bd
-0.010312426 -0.036296565 -0.042953424 -0.019580144 -0.016118307 -0.004678041 0.03682461 -0.035292823
-0.029794788 -0.01704599 -0.027311698 0.010959662 -0.021459851 -0.025344763 0.05290553 -0.014660854
-0.04318289 0.032326605 -0.01282498 -0.025653534 0.043899838 -0.019110337 -0.029103737 0.01768529
-0.012682185 0.04907714 0.042072777 -0.001790245 -0.016173707 0.03238535 0.031360876 -0.037518032
0.013183188 0.016517619 0.058805652 -0.03211297 -0.04125575 -0.017919276 -0.058701735 -0.0013140403
0.028025404 -0.02836672 0.055719513 0.033429068 0.034641553 -0.036365483 0.03648006 0.036585473
0.037304576 -0.044799287

layers.2.weight f4 [20, 50]
00000000: b2bb 6c3d 8450 003d 604a 423c d0d5 ff3d
00000010: 44dd 98ba e67f 4fbd e272 bebd 9766 cfbd
00000020: 10e0 42bd 50f7 d03d dc0f 933d 582d 763d
00000030: bcf3 823d 6554 f53c f40f 31bd d971 4e3d
00000040: 5c2d 23bd 21b4 6d3d ea76 8b3d 1175 c9bd
00000050: 4f0f d2bd d5c3 0ebe 8528 063d f6ef 56bd
00000060: 548d 93bc 3751 8d3c 96c7 c33c 4a3b fabd
00000070: 3836 85bc cc03 d8bc 98ff 03bd a083 11be
00000080: 1abd c9bd 233b 0bbd 025c 083d 52ea cd3d
00000090: b9c1 98bd 1154 67ba 7026 db3d 3e95 2fbd
000000a0: d40a 673d 8c3e b33d 269b 17bd 68f8 a4bd
000000b0: 7c82 893d 0aa3 343d f7d5 73bd 68b5 e4bd
000000c0: 56ba 4fbc 0a32 303a 8be1 953d f943 d5bd
000000d0: c7ca d13c e0c9 e13c 12e4 053d 43ab e2bd
000000e0: a269 2bbd ed26 10be ba28 423d f33a a0bd
000000f0: 8202 e3bd bace d53d e400 afbd 5734 203d
00000100: 43b0 a43d 17e3 593d ffb2 f5bd 1fdc a7bd
00000110: 44cc 02be 254d 55bb 2593 443d 3c50 c5bd
00000120: 497e 7e3d e0ed 02be 3872 d7bd 545d a7bd
00000130: 8a72 95bc 7051 0f3e 2ac0 0e3e 83ea 0bbe
00000140: ec02 833b b1d0 a23d 3d8d 83bc 8e1a 50bd
00000150: cbc6 ed3c 5597 0e3e 1788 9fbd 126d 5c3c
00000160: b973 483c ebd6 95bd 4f97 a8bd 8135 94bc
00000170: 27f6 e73d b19c ce3c f24a e4bd 1bdb b23d
00000180: b345 c7bc 7626 3ebd 0c6a 063e 686b f4bd
00000190: 0472 a6bd 9027 93bd ba12 833c ee8b 7f3d
000001a0: 7a4f 01be 21f6 883c 38e6 4d3d 915f d1bc
000001b0: b219 f6bd 4e45 da3d 118c 923c 9b26 053c
000001c0: 04ee b03d 8964 033e c6e4 553d 9ac6 5bbd
000001d0: 322c 51bc 7449 55bd 12f8 9f3d d55d d63d
000001e0: c874 ae3d 87c7 f43d c9bf c23d f827 6e3d
000001f0: 970e 10be 7507 b23c f287 57bd 9ba7 7abd
00000200: 8237 a03c 331f d03c 18c3 f7bd ef53 c2bc
00000210: 5d21 703d 3754 523d a8aa e83c 6532 bd3d
00000220: c72c 213d e6ef 06bd f84d c23d b89e da3c
00000230: 0b8c b53d ecb6 37bd 2ec2 0abe b114 37bd
00000240: e50b 2ebd 1e2a b03d c659 683d f4a2 9fbc
00000250: 4130 83bd 7550 1cbc fb4e 0a3a 53f0 f53d
00000260: 3021 85bc 8b0a bd3c fdd7 34bc 48c6 ae3c
00000270: dc83 04be 0aaf a93b 0058 e53c 00e0 eb3a
00000280: 2b2a c03d 8f09 a73d 76fb 1bbd a17c af3d
00000290: be9c cebd 5b4b b73c b2d1 083d f0c1 843d
000002a0: 04c7 253d 32d4 c4bc 7953 94bd 0f41 03bd
000002b0: 50c5 713c 8c1d 03be 97f2 443d e678 073e
000002c0: db89 5ebd 5077 4c3d 1631 493d 4fc7 68bd
000002d0: 8779 9b3d 3886 393b 7a84 dc3d a2b7 39bd
000002e0: 3f18 cd3d 9d8f d5bd b4bf 80bb ab0d 91bd
000002f0: 5360 f1bc 08c1 bc3c d9ec 0a3e 44a3 32bd
00000300: 2672 943d cc9a a33d e5af fa3d c940 5d3c
00000310: dbca cd3c 6814 e9bd 946e 2dbd 158c 82bd
00000320: 1daf 0b3e 48f6 7e3d 8a22 e0bb 5291 dcbb
00000330: 33b8 9e3d 2696 fe3d 3493 b7bd 1d2b 203d
00000340: 208f c33b fabd d7bd 274a 843d 5238 603d
00000350: c81e d7bc f026 7d3d 41b2 aabd d2b3 e9bd
00000360: 734b 0bbe adc3 93bd b4e5 39bd 6720 32bd
00000370: 0e4b 07be 5afa 2b3d 6a66 bebc a1d0 01be
00000380: 92bb 08be 7d15 cb3d b4e0 f5bd e863 a73d
00000390: 14d8 9c3c b340 e43d 15ea f6bd 547a 833d
000003a0: faad 893d 0cad edbb 2c77 f93b 345f d8bd
000003b0: 778a de3d 36d3 8b3d 3921 b43d 00a8 fdbb
000003c0: a94c cabd 610b d23d 38f5 02be 502f 823d
000003d0: b5f6 ac3b 0b6f 3b3d c1f7 50bd da1a 5ebd
000003e0: 9601 a2bd 1f9e 2cbd 0be4 d73c e87e 383d
000003f0: 81a2 b83d c2ce a9bd 6926 2a3d 4057 fabb
0.057796188 0.031326786 0.011858553 0.124919534 -0.0011662622 -0.050659083 -0.09299256 -0.10126989
-0.047576964 0.10203421 0.07180759 0.060101837 0.06394145 0.029947469 -0.043228105 0.050401542
-0.03983818 0.058033112 0.068097904 -0.09836782 -0.10256826 -0.13941891 0.032753486 -0.05247494
-0.018011726 0.01725064 0.02389888 -0.1221834 -0.016261205 -0.026368998 -0.032226175 -0.14210367
-0.098505214 -0.033991944 0.03329087 0.10054459 -0.07458825 -0.00088244776 0.10700691 -0.042866938
0.05640681 0.08752164 -0.037013195 -0.08055192 0.06714341 0.0441008 -0.059530225 -0.11167413
-0.012678703 0.00067213236 0.073184095 -0.104133554 0.025609387 0.027562082 0.032688208 -0.11067822
-0.041848786 -0.14077349 0.04740212 -0.07823744 -0.11084463 0.104398206 -0.08545092 0.039112415
0.08041432 0.053195085 -0.119970314 -0.08196282 -0.12773234 -0.0032547202 0.04799189 -0.09634444
0.062132154 -0.12786055 -0.105198324 -0.08172098 -0.018243093 0.1399591 0.13940492 -0.13663678
0.003998151 0.07949961 -0.016058559 -0.050806575 0.029025456 0.13924916 -0.07789629 0.013453739
0.012234622 -0.07316383 -0.08231985 -0.018091919 0.11326247 0.0252212 -0.11147107 0.08733197
-0.024325227 -0.046423398 0.13126391 -0.119345486 -0.081272155 -0.0718528 0.01600014 0.062389307
-0.12627974 0.016718926 0.05026838 -0.025558265 -0.1201662 0.1065775 0.017889054 0.00812688
0.08639148 0.1283132 0.05222013 -0.053656198 -0.012766885 -0.052072003 0.078109875 0.10467116
0.08518368 0.11952119 0.09509236 0.058143586 -0.14068066 0.021732071 -0.052619882 -0.061194997
0.019557718 0.025405502 -0.12097758 -0.023721663 0.058625568 0.051349845 0.028401688 0.092381276
0.039349344 -0.03294363 0.094875276 0.026687011 0.08864602 -0.044852182 -0.13550636 -0.044697467
-0.042491812 0.08601783 0.05672624 -0.019486882 -0.06405688 -0.009540667 0.0005276051 0.12008729
-0.016251177 0.023076316 -0.011037824 0.021334782 -0.12940925 0.005178337 0.027996063 0.0017995834
0.09383043 0.0815612 -0.03808161 0.08568693 -0.1008849 0.0223748 0.033403106 0.06482303
0.040473 -0.024026964 -0.07242484 -0.032044467 0.014756516 -0.1280424 0.048082914 0.13229713
-0.054330688 0.049918473 0.049119078 -0.0568307 0.07591539 0.002830876 0.107674554 -0.04534114
0.1001439 -0.10427783 -0.003929103 -0.07082685 -0.029464876 0.023041263 0.13566913 -0.043612733
0.072483346 0.079885095 0.122405805 0.0135042155 0.025121143 -0.11380845 -0.042341784 -0.06374375
0.13641019 0.06224659 -0.006840055 -0.0067311907 0.07749977 0.12430982 -0.08963624 0.039103616
0.0059679896 -0.10534282 0.06459456 0.05474121 -0.026259795 0.06180471 -0.083347805 -0.11411251
-0.13603 -0.072150566 -0.045385078 -0.043487933 -0.13212225 0.0419868 -0.023242194 -0.12677242
-0.13352802 0.09916208 -0.12005749 0.081733525 0.019146003 0.11145153 -0.12056366 0.064198166
0.067226365 -0.007253295 0.0076130833 -0.105650336 0.10866254 0.06827395 0.08795399 -0.0077409744
-0.09877903 0.102560766 -0.12788856 0.063566804 0.005278433 0.045760196 -0.051017527 -0.054224826
-0.07910459 -0.042142984 0.026353857 0.045042902 0.0901537 -0.08291389 0.041540537 -0.0076397955

layers.2.bias f4 [20]
00000000: b88a 8bbd bbd0 0a3e 34e7 aabd bf13 66bd
00000010: 9ac9 adbd 4d74 99bd 35c0 773c e7c9 923d
00000020: 6059 343d abaa 28bd 0db3 1a3d 4afb d4bd
00000030: 6b17 d73d 426e d0bd 10be 813d 23dd e2bd
00000040: 6ed4 7abd 0175 02be 408b a63c 8e0f 923d
-0.06813568 0.13556187 -0.0834488 -0.056171175 -0.08485718 -0.07492886 0.015121509 0.07167416
0.044030547 -0.041178387 0.037768412 -0.10399492 0.105025135 -0.1017728 0.0633508 -0.11077335
-0.061237745 -0.12739946 0.020330071 0.07131873

layers.4.weight f4 [10, 20]
00000000: 8cb0 1ebe c838 a83d d0d3 55bd 1835 3d3d
00000010: ad78 1cbe 9ab3 29be 703f 05bd 24b6 b63d
00000020: 7e2c 5fbe 02f1 15be 4fb8 2dbe 4483 1cbd
00000030: 805a 24be f7b3 f6bd bc6c d2bd c861 1bbe
00000040: 7c73 06be e40a c8bd b42c 77bd 3406 393e
00000050: 0601 0dbc b294 413e ffba 973c 4b2d d43d
00000060: 5023 a43d af1a 64bc 7bf9 563e 4dff 04be
00000070: 74c4 7dbd 7abb 1d3d 0c65 8f3c ced1 adbd
00000080: caca fe3d 0136 52be 8586 523e f52a 643d
00000090: b76a 0abd 5c46 4e3e cad5 aabd 9282 61be
000000a0: 3a6a 23be 8a7d 393e 4476 f7bd 8544 803d
000000b0: 6510 87bd c7c6 113e aad5 c2bd 9247 423e
000000c0: 917b 493e 65b0 443c ae4f 2ebe d800 063d
000000d0: 86d2 dbbd b6c3 2abe 265e 63bd 0648 19bd
000000e0: 6e05 213d d86c e9bc b00a 203d d47d 04bd
000000f0: 5bb6 62be d0bf 0b3c 628f 6c3d 938c 313e
00000100: dabe 49be 0cff c9bd 0308 0ebe 3ca4 79bd
00000110: abd1 d6bd df30 4d3e 6584 28be 2e38 1ebe
00000120: ea81 bebc ba8c 513d 0f39 513e 118c 3e3d
00000130: e31c 453e 3b8a 6b3d 2cb3 52be 7ea4 6f3d
00000140: a8dd 133d 1c18 53bd 4469 933d 2477 05be
00000150: 1810 4f3e 774a 1bbe 9020 613e aa23 273e
00000160: b2c6 223e 1078 79bd ad9d 4abe ec76 1e3e
00000170: b810 3abe d5ec 36be 5059 61bc da2d 2ebe
00000180: 983f 303d 8215 363e 64fa 3fbd 1cc0 82bd
00000190: a218 f0bd 0f80 983d d87d 0d3d ad84 2e3e
000001a0: 515d 5fbe 40f1 813d 03e8 14be 939c fd3d
000001b0: a7de 7abd acbd 493e 529f 98bd be33 60be
000001c0: 7749 e0bc a65f 543e e0bc f9bd 587d 093d
000001d0: 3946 a2bd f87c c1bd 3cc5 bc3d 16ce 9abd
000001e0: 81ce 1ebe ac61 513e 27d0 34be 79be 13bd
000001f0: e9eb 5d3e 7393 cbbc ad55 aa3d e530 363e
00000200: d4fb 66bb ba61 25bd 41da 2ebd 7059 ad3d
00000210: e912 eebc 2108 533e c1e7 243b 8abc 36be
00000220: 19bf 393e 60ce 553d 5867 8b3d baa9 3a3b
00000230: 1861 1e3e 0454 23be e812 4dbd 0e3e 56be
00000240: 4839 06bd 1d7c 63be 6f5b 463e 0d50 3cbe
00000250: d894 37bc 7fa0 fabd d1ba a93d 708e 313c
00000260: 8bd3 7b3c 3543 113e b65e 3b3e 5cac 573e
00000270: c366 acbd fa5c cfbd 22de 3c3e 0ac5 cc3d
00000280: 5dc5 cd3c af6d e7bd fcc6 2dbe 10f9 063e
00000290: 68ca 203d 6549 4f3e 5fbc 173c 12b7 2f3e
000002a0: 2bab c43c 3f9b 563c 416a 4e3d 106c 323e
000002b0: c566 0d3e 8beb 4f3e c8fd 0d3d e1fd ea3d
000002c0: fe3d 3c3d f9b1 203e 384e b43d d11c d6bc
000002d0: 54a6 2e3d 20dd 77bc 9a1d a8bd 3bcb cabd
000002e0: caa8 acbb 09cd 2f3e bc26 453e 2d83 143e
000002f0: 0056 e43d c181 d8bd d61c ec3c 3204 4e3e
00000300: cf4a 023e f101 25be 9d6d 1ebe a6c5 5b3e
00000310: a3b6 633c 6cd0 48be 18df 573d 9ca6 8e3d
-0.15497035 0.08213955 -0.052203953 0.046193212 -0.15280409 -0.16572419 -0.0325312 0.08921459
-0.21794316 -0.14642718 -0.1696484 -0.038211122 -0.16050148 -0.12046044 -0.10274646 -0.1517402
-0.13129991 -0.09767702 -0.060345367 0.18068773 -0.008606201 0.18904379 0.018521784 0.103602014
0.08014548 -0.0139223775 0.20993607 -0.12988015 -0.06195493 0.03850887 0.017504238 -0.08487283
0.12441023 -0.20528413 0.20559128 0.05570503 -0.033793177 0.20144027 -0.08341558 -0.22022465
-0.15958491 0.18114296 -0.12083104 0.06263069 -0.06594924 0.14235984 -0.095134094 0.18972614
0.19676043 0.012004946 -0.17022583 0.03271565 -0.107335135 -0.1667622 -0.05550971 -0.037422203
0.03931182 -0.028494284 0.039072692 -0.03234656 -0.22139876 0.008529618 0.057753928 0.17338781
-0.1970171 -0.098630995 -0.13870244 -0.06094764 -0.1048921 0.20038174 -0.16456755 -0.15451118
-0.023255307 0.051159598 0.20431922 0.046520296 0.192493 0.057504874 -0.20576161 0.05850648
0.03610006 -0.051536664 0.07197812 -0.1303373 0.20220983 -0.15165125 0.21985078 0.16322199
0.15896109 -0.060905516 -0.19786711 0.15475053 -0.1817044 -0.17863782 -0.013754204 -0.17009678
0.043029398 0.17781642 -0.04686965 -0.06384298 -0.11723448 0.074463 0.034543842 0.170428
-0.21812941 0.06344843 -0.1454163 0.1238338 -0.061247494 0.1970126 -0.07452263 -0.21894738
-0.02737878 0.20739612 -0.12194228 0.033566803 -0.0792355 -0.09447664 0.09217307 -0.07558839
-0.15508462 0.20447415 -0.17657529 -0.03607032 0.21672024 -0.024850583 0.083171226 0.1779209
-0.0035245316 -0.040376402 -0.042688612 0.084643245 -0.029061751 0.2060857 0.002516255 -0.1784536
0.18139304 0.052198768 0.06806821 0.0028482513 0.15466726 -0.15950018 -0.05006686 -0.2092211
-0.03276947 -0.22215314 0.19370817 -0.18389912 -0.011204921 -0.122376435 0.082875855 0.010837182
0.01537026 0.14185794 0.18297848 0.21061844 -0.08418038 -0.10125156 0.18444112 0.0999852
0.025118524 -0.11300217 -0.16970438 0.13180947 0.03925553 0.20242842 0.00926122 0.1715968
0.0240074 0.013098537 0.0503943 0.17424035 0.13808735 0.20304696 0.034665853 0.11474205
0.045957558 0.15692891 0.088039815 -0.026136788 0.04263909 -0.015128404 -0.08208771 -0.099020444
-0.0052691447 0.17168058 0.19253057 0.14503165 0.11149216 -0.105716236 0.028822344 0.20118788
0.1272385 -0.16114022 -0.15471502 0.21462116 0.013898524 -0.19610757 0.052702993 0.06965372

layers.4.bias f4 [10]
00000000: 404b e3bc 1d28 003e 3dae 37be dbc4 093d
00000010: d4e1 7fbd 9060 1fbc 19e7 fd3a 91f2 583e
00000020: d925 8bbd 2d1b 60be
-0.027745843 0.12515302 -0.1793756 0.033635 -0.062471226 -0.009727612 0.0019371241 0.21186282
-0.06794328 -0.21885367

layers.6.weight f4 [2, 10]
00000000: 2a49 4abe d639 f8bd 4c47 843e 4494 bd3d
00000010: c4f8 4dbe d671 253d 4ed5 1b3e 17eb 0dbd
00000020: 0daa f43b 7bd2 50be e0cb 273d 5db1 8abe
00000030: caf2 dabd 7410 843d b01a c13d 6af6 7abe
00000040: 98b9 03bd a593 3e3e 1fbb 9a3e 1c86 17bd
-0.19754472 -0.12120406 0.25835645 0.09256795 -0.20114428 0.040391766 0.15218088 -0.034648027
0.0074665607 -0.20392792 0.040965915 -0.27088442 -0.106908396 0.06448451 0.09428918 -0.24508062
-0.032159418 0.1861101 0.30220887 -0.03699313

layers.6.bias f4 [2]
00000000: f945 073e e7b6 8e3c
0.13210286 0.017421199
