model-fold-1.pth (torch, 68239 bytes, 8 tensors)

layers.0.weight f4 [50, 302]
00000000: 59b7 46bd 21ce 17bc 984b d93b 7041 f8bc
00000010: d701 d8bc 6980 cc3c bc6c 38bd f94c 003d
00000020: d09c 81bc 80ee 39bd 600a 08bb 9838 37bc
00000030: 20ce ce3a a2ca 88bc fc64 0d3c 5e6c a53c
00000040: bb36 1b3d 5d3e e5bc f2cb 8c3c 91c2 3a3d
00000050: 4048 79ba 9008 68bb 51f1 053d 69e3 56bd
00000060: ce85 26bd 9367 653d 4c75 0e3c 801d 5cba
00000070: 4760 65bd 6c0d 2abd e075 053b 38e6 5fbc
00000080: 469b c93c 2929 33bd fab5 b63c dd9f 00bd
00000090: 2a66 acbc ddde 2c3d 82b2 a03c e501 1abd
000000a0: 228c e43c 5230 8c3c b029 91bc 0697 68bd
000000b0: eecc e23c d436 083d 02de f93c 7e9a b33c
000000c0: b857 ea3b c48f 3cbd 2836 22bd a882 10bc
000000d0: c217 8b3c 20ec 43bb 3fcd e9bc 2e01 c53c
000000e0: 0418 2e3c 60e8 29bd dd9f 3a3d fae1 f93c
000000f0: a9bc 3b3d 5058 83bc fa3e e33c 9ce3 2b3c
00000100: 12f0 403d 3779 2c3d 419d 523b 1e8c fd3c
00000110: 822c 83bc a0b0 d1bc b223 803c 168e fa3c
00000120: 9b88 0a3d e112 fb3c b325 573d 65b8 0b3d
00000130: 7a39 f23c e036 4abd ce63 2fbd ca71 9a3c
00000140: 9f8d 243d 3ccb 353c 17cb 6e3c 16cf c23c
00000150: c018 f5bc 7883 d2bb ea82 11bd b7ac d8bc
00000160: 07b1 8dbc 9510 e7bc 60f1 8dbb f98e 56bd
00000170: 53db 173d c727 3dbd 3638 b2bc 84cc 22bc
00000180: 48dc 47bd 64e9 92bc ff5c 403d dace 4ebd
00000190: 034d 2d3d bceb 06bd 24b0 46bd 5ae8 bd3c
000001a0: eab0 843c eb4b 183d be24 d63c fbd6 0a3d
000001b0: 66a6 a53c c8bc 80bb e145 2c3d 37f2 34bd
000001c0: d2a9 67bd 3541 c2bc c0c5 28bd 14b7 403d
000001d0: e693 de3c 0b89 6a3d 0e92 fdbc 83cc 4e3d
000001e0: 2518 50bd 24a9 24bd 6cd2 5d3d 8096 ccb9
000001f0: f443 0c3c 06de ccbc 2695 903c 3d62 46bc
00000200: cfe1 3b3d 4a1f f43c 205d 83bb bc4d b6bc
00000210: fec4 1cbd ca6d c33c 4cc1 1d3c 5f74 33bd
00000220: 1e68 a9bc e0cf e0ba b5e8 2c3d 7a2c 04bd
00000230: 403d 033b 2533 08bd d250 4e3d 86f4 d1bc
00000240: 7874 83bc f3d7 1f3d 8fdb 2e3d 0a8d f53c
00000250: 5b50 633d cb7a 22bd 3c6a dabc 6f5c 673d
00000260: bd77 5c3d 9d50 593d 52c5 33bd 4269 b63c
00000270: 4969 5f3d 16f0 ef3c 7891 de3b 93a8 423d
00000280: 03d1 503d e5d3 0f3d a5e5 ac3c db33 53bd
00000290: 69d4 62bd 95c2 893c 6a22 45bd 00f8 cc38
000002a0: 7079 a5bc 20ac 8c3a 852b e4bc 79eb 0f3d
000002b0: 9542 493d 92d0 4bbd eb93 4d3d 6c3f 3abd
000002c0: 64f6 18bd ee2e c43c 90f9 7ebc 4d52 39bd
000002d0: 821e fdbc 4344 683d 0dc3 1ebd 1689 aabc
000002e0: 3cfc 0cbd fa6c c43c afd5 0b3d 6387 cfbc
000002f0: 8007 493b bf4b 62bb be17 29bd d87c ef3b
00000300: 366c 833c dbc8 2f3d 4b3f 623d 676b 01bd
00000310: c8bc 89bc 909d 89bc 7aa7 1dbd ea2c f93c
00000320: c29a 9d3c a44c 2ebc 438e 1a3d c05e 83bb
00000330: 8a54 e53c baad ec3c 1e0c 5cbd 686d 8bbb
00000340: 0e5e fb3c 0487 7ebc f8a4 19bc 6284 f43c
00000350: 8071 35ba 553e fcbc 3b97 2a3d 8edc f43c
00000360: 0cb6 1a3c 40dc 21bd da17 2bbd 6896 f5bb
00000370: 40fc 4f3b 8713 3c3d d8eb d43b 4071 01ba
00000380: e6e6 843c 768f 50bd 7094 31bb 8aae aa3c
00000390: 52ca acbc 2c07 693c 9679 87bc 5a10 69bd
000003a0: 8a90 3bbd e0b8 02bb 6cd0 4fbd 71b6 423d
000003b0: 5215 d03c f98d 6a3d c904 83bc d10a 203d
000003c0: b454 52bd 9255 a33c d51c d73c b89f e23b
000003d0: 1db7 d9bc aa98 cfbc 7807 a5bc 690c 403d
000003e0: 56eb 863c bada afbc 8431 94bc 807a f83a
000003f0: 1af0 aa3c e9a1 573d 3dd4 193d 93d5 473d
-0.048514698 -0.009265454 0.006631326 -0.03030464 -0.026368065 0.024963574 -0.045025572 0.031323407
-0.015821844 -0.045393467 -0.0020758137 -0.011182927 0.0015777983 -0.016698185 0.008630034 0.020193275
0.037893992 -0.027983839 0.017187092 0.04559571 -0.0009509362 -0.0035405494 0.03270084 -0.05246297
-0.04065495 0.05600698 0.008694958 -0.000839673 -0.05600002 -0.041516706 0.0020364448 -0.013665728
0.024610173 -0.043740425 0.02230357 -0.031402458 -0.02104481 0.042204726 0.01961637 -0.037599463
0.027898852 0.017112885 -0.017720073 -0.056784652 0.027685609 0.033255413 0.03050137 0.021924254
0.00715157 -0.046035543 -0.03960243 -0.008820213 0.016979102 -0.002989538 -0.028540252 0.024048414
0.010625843 -0.041481376 0.045562614 0.030503262 0.045834217 -0.016033322 0.02773999 0.010491278
0.04710395 0.042107787 0.0032137188 0.030950602 -0.016012434 -0.025596917 0.01564202 0.03058533
0.033821683 0.03064865 0.052526187 0.0341114 0.029568423 -0.04936874 -0.04281979 0.018853087
0.040174123 0.011095818 0.014574788 0.023780387 -0.029919028 -0.0064243637 -0.03552524 -0.026449544
-0.017296327 -0.02820615 -0.0043317527 -0.052382443 0.0370744 -0.046180513 -0.02175532 -0.009936456
-0.04879406 -0.017933555 0.046963688 -0.050490238 0.042309772 -0.032939658 -0.048507825 0.023182083
0.01619764 0.037181776 0.026140567 0.033896428 0.020220947 -0.0039287545 0.04205883 -0.044176307
-0.056558438 -0.023712734 -0.041204214 0.047049597 0.027170133 0.0572596 -0.030953433 0.050488006
-0.050804276 -0.040200368 0.054155752 -0.00039022043 0.008561123 -0.025008213 0.017649245 -0.012108383
0.045869645 0.029800076 -0.004008904 -0.022253864 -0.038273804 0.023856062 0.009628605 -0.043812152
-0.02067953 -0.0017151795 0.042214114 -0.03226898 0.0020025522 -0.0332519 0.050370045 -0.025629293
-0.016046748 0.039024305 0.042689856 0.02997448 0.055496555 -0.039667886 -0.026661985 0.056484636
0.05382513 0.053055394 -0.04388935 0.022266988 0.054543767 0.029289287 0.0067922436 0.047524046
0.05098058 0.035114188 0.021105597 -0.051563125 -0.05537835 0.016816417 -0.048128523 9.7736716e-05
-0.020199507 0.001073245 -0.027852783 0.035136674 0.049135763 -0.049759455 0.050189894 -0.04547064
-0.03734435 0.02394816 -0.01556243 -0.045244504 -0.030898336 0.056705724 -0.038760234 -0.02081732
-0.034420237 0.023977745 0.03413933 -0.025333112 0.0030674636 -0.0034530011 -0.041282408 0.0073085837
0.01604281 0.04291616 0.055236142 -0.031596567 -0.01681365 -0.016798764 -0.038489796 0.030416925
0.019238833 -0.01063839 0.037733328 -0.004009098 0.027994413 0.028891433 -0.053722493 -0.0042549856
0.030684497 -0.01553512 -0.0093777105 0.029848281 -0.0006921515 -0.030791441 0.04164813 0.029890325
0.009442817 -0.039516687 -0.041770793 -0.0074947365 0.0031736046 0.04591706 0.0064978413 -0.0004937835
0.016223382 -0.050918065 -0.0027096532 0.02083518 -0.021092568 0.014222901 -0.016537469 -0.05690036
-0.04579214 -0.001994662 -0.050735876 0.04753727 0.025400791 0.057264302 -0.015993493 0.039072815
-0.05135031 0.019938264 0.026258865 0.0069160126 -0.026576573 -0.02534135 -0.020145163 0.046886835
0.016469639 -0.021466602 -0.018090017 0.0018957406 0.020866442 0.052644644 0.03755592 0.048787665

layers.0.bias f4 [50]
00000000: 4100 a73b f89c 933c 4913 86bc 0773 11bd
00000010: b6ff 62bc 92b7 083d 2282 3e3d 978d aa3b
00000020: 0a4c 633d 1066 ce3c 7d67 393b 4a3c 0bbd
00000030: 2695 47bd 215b 14bd e337 2fbd 7ee1 ecbc
00000040: 6b44 f83c 57f5 823b fa34 cabc 4b28 613d
00000050: c1aa 033d 7da2 0fbc 0526 523d ea49 9c3c
00000060: 3280 1bbd 9247 373d c8d4 6d3d 309a 3a3d
00000070: 2bda 68bd 958e 303c d956 6abd 8d1f d7bc
00000080: d5ea 393d 158a 6d3d a8b7 d2bc 70e4 b83c
00000090: ab7f 94ba 7c86 97bc 9ed5 72bc 65b9 f53c
000000a0: 1546 d0bc f2fd 55bd 904b fa3c bd34 5f3d
000000b0: 2344 683d 1f77 18bc a59f f3bc 3bd0 8cbc
000000c0: 3e3a f03c 5896 68bd
0.005096466 0.018019184 -0.016366618 -0.03551009 -0.013854912 0.03337819 0.046510823 0.005204867
0.05549244 0.025195152 0.0028290444 -0.033993043 -0.048726223 -0.03621972 -0.042777907 -0.028916117
0.030306062 0.003996532 -0.024683464 0.054970067 0.032145265 -0.008766768 0.05130579 0.019078214
-0.037964053 0.04474599 0.058064252 0.0455572 -0.056848686 0.010776182 -0.05721173 -0.026260162
0.04538997 0.057993013 -0.02572234 0.022569865 -0.0011329552 -0.018496744 -0.014821438 0.02999563
-0.025424043 -0.052244134 0.03055361 0.054493655 0.056705605 -0.009305744 -0.02973921 -0.017189136
0.029324647 -0.056784004

layers.2.weight f4 [20, 50]
00000000: 144d 01be 7cbe 7e3d 4426 183d de3b d0bc
00000010: 95d3 4f3d 0a84 653b 444c c0bd 5c35 ab3d
00000020: 84bd cb3d f010 74bd 03e6 b4bd 255b 8c3d
00000030: e2b3 c93d 4b7e da3c 62aa e1bc 8cd1 6bbd
00000040: e8a3 5f3c 7193 d4bc 24fd 0cbe 6616 e2bd
00000050: 7ba2 a0bd d80b 9b3d add2 0c3e b42a e23d
00000060: 4ed1 08be d0bf 0e3d 0167 d6bd 5c5b 00be
00000070: 08ed d43d 1954 69bd a0ff df3c 2c86 88bc
00000080: f4e4 4cbd 4630 1abc aa4b c8bd 957e 4c3d
00000090: 9913 763d b9c1 47bd eb68 d53c c338 e93d
000000a0: 64d6 be3d b225 95bc 29d0 00be b1fb 2cbd
000000b0: d40f 5e3d 1e41 d8bb 1c4b f23b fde0 133c
000000c0: ae81 f33d acf2 023d 1436 0c3d 3733 153d
000000d0: f90e e6bd 8810 0c3d 900e 3dbc fe6d ef3d
000000e0: 0a65 b3bd 5541 033e 8fc9 463d 372c 863d
000000f0: 0ca6 bdbd 0679 a63d c0f3 883b c028 4c3d
00000100: a55a 413d a26c a6bd 844d 0dbe 6a41 083e
00000110: 987c d7bd d10f 4fbd e498 c5bd 1191 9abc
00000120: 2a1c ccbd fd02 67bd 4ace 73bc c23a a53d
00000130: 03d2 f8bd c909 87bd faa2 1dbd 37d2 083e
00000140: 2952 95bd cc8c 92bd 0808 a93d 7c36 023e
00000150: 6ed0 0bbd eb18 10be d503 7fbd d0ec 63bd
00000160: 50b2 223d fa1e f3bc 2571 c3bc ef9c 013e
00000170: 15c6 94bd 44a7 a2bd a0ec 5d3d 1abc bfbd
00000180: ce2a aebd d2e0 d63d 1023 ca3d ab2b b3bd
00000190: a128 ffbd a173 9bbd 3397 743c b97c 24bb
000001a0: 9b03 943c 3a32 aabd 502e 2b3d c05a b03d
000001b0: a220 013e ecaf 6f3d c2b5 cb3c af61 a63d
000001c0: bb7a c1bc f459 0c3e b5fd 14bc 6dd5 92ba
000001d0: eef6 45bd 4876 66bd 6b56 863d d7d7 5f3d
000001e0: 4648 b83d d880 9e3b 5ba6 01be c448 073e
000001f0: 188b 8a3d 0a88 4e3d ba22 013e ab65 f03d
00000200: 516f e9bc f34a 4a3d 4394 ebbc 31a7 c53d
00000210: 58fe c5bd 2fbc ebbd 01e8 0c3d 896b 8ebc
00000220: 7102 083c f8aa b0bd 2789 debd 9f01 10bc
00000230: f480 c9bd 1fb3 423c 1af1 05bd 7147 6ebc
00000240: d86b 333d dd78 14bd 4bec f13c addf cc3d
00000250: f789 673d ba8a c23d 3fa1 a5bd af8c 093e
00000260: b854 f0bd e79c 2e3d 306a 883c 4f61 073e
00000270: bb0b bc3d 3a02 e5bd 0d4a 673b bddc e6bd
00000280: 7eed a8bd ae92 ca3d 997a 463d ffa0 2cbd
00000290: eaff 02be 0c76 b1bc b95c 82bd 5df6 9cbc
000002a0: 8937 e9bd 58b8 e13d 8230 643d c565 8f3d
000002b0: f4c4 c23d 3858 30bc b9b2 4a3d 80be 02bd
000002c0: cc65 503d c105 2cbd cf36 8e3d a477 e73d
000002d0: f3bd fc3d 243d 153d b8d0 cabd dc0a ae3b
000002e0: 6388 613d 0ff4 efbd c967 c9bd cb98 063e
000002f0: 96be 5e3c 183f ce3c 5f3d a53c e15d 223d
00000300: ed3b 6ebc 1bba a5bd 14c9 f8bc aad2 573c
00000310: f761 be3c a112 6c3d 5a45 cf3c 0c21 3ebd
00000320: 6396 ab3d 94e3 c0bc 6af0 b83d fcfa c5bd
00000330: 6def b8bd 0450 f7bd 8108 863a 6cb1 fdbd
00000340: 5858 e63d 1d2a 873d 5954 35bd 558b 963d
00000350: dc85 ef3d 40af 04be fe22 843d fc91 ffbd
00000360: 6421 bd3d 9645 b53d 44e3 ba3d ae67 d4bc
00000370: c89a 813c 1609 e1bd c61a 9b3d 624c 07be
00000380: cd46 7abd ca11 1dbd 538c 3d3d 1c9a 913c
00000390: 7bc4 36bd a37c 31bd 6d43 3f3d 12ff 923d
000003a0: 84b6 383d 6f71 efbd fabd aebd ec90 0a3e
000003b0: b18e acbd 3aa3 70bd 92cc c53d 8073 513d
000003c0: 352e adbd 778f af3d 2bef 0f3d eaad cebc
000003d0: a800 1bbd afe2 14bb a1a0 dfbc 7d59 bebd
000003e0: 0d21 03be 401f c6bd 5dd5 0f3e 60ef ed3d
000003f0: 1e35 5a3d 162b 293d d53d e13d 3adc e53d
-0.12627059 0.06219338 0.037145868 -0.025419172 0.05073889 0.0035021328 -0.093895465 0.08359787
0.099482566 -0.059586465 -0.08832934 0.06853322 0.09848763 0.02667155 -0.027547065 -0.057572886
0.013649918 -0.025949212 -0.1376844 -0.110394284 -0.07843491 0.075706184 0.13752241 0.11043301
-0.13361093 0.034850895 -0.10468865 -0.12534851 0.103967726 -0.056964967 0.027343571 -0.01666554
-0.050023034 -0.009410923 -0.09780057 0.049925406 0.060077284 -0.048768733 0.026051005 0.113877796
0.093182355 -0.018206451 -0.12579407 -0.04223222 0.054214314 -0.0065995594 0.0073942076 0.009025809
0.11889969 0.03196971 0.03423126 0.036425795 -0.112333246 0.034195453 -0.0115391165 0.11690901
-0.08759506 0.12817891 0.048532065 0.06551402 -0.092601866 0.08128552 0.004179448 0.04984355
0.047205586 -0.08126189 -0.13799101 0.13306203 -0.10521811 -0.050552193 -0.09648302 -0.018868001
-0.09966309 -0.056399334 -0.014880726 0.08067848 -0.121494316 -0.06593663 -0.038485505 0.1336144
-0.072910614 -0.07155761 0.08253485 0.12716097 -0.03413432 -0.14072005 -0.062259514 -0.055645764
0.039720833 -0.029677857 -0.023857662 0.12657522 -0.07264344 -0.0794206 0.05418074 -0.093620494
-0.08504258 0.104921 0.09869969 -0.087485634 -0.12458921 -0.07590414 0.014928627 -0.0025098755
0.018068125 -0.08310361 0.041792214 0.08611059 0.12610105 0.05851738 0.024866942 0.081241004
-0.023618093 0.1370619 -0.009093692 -0.0011202522 -0.048331194 -0.056265146 0.06559452 0.0546492
0.0899816 0.0048371367 -0.12661116 0.13211352 0.06764811 0.050422706 0.12610903 0.117381416
-0.028495463 0.049387883 -0.02875722 0.0965103 -0.09667653 -0.115105025 0.034400944 -0.017385261
0.008301363 -0.0862636 -0.108660035 -0.008789449 -0.09839049 0.011883526 -0.032700635 -0.0145434
0.04380402 -0.036248077 0.029531619 0.100036 0.056528058 0.09499116 -0.08087396 0.13432573
-0.11734909 0.042630102 0.016652197 0.13220714 0.09181925 -0.11182065 0.003529194 -0.11272571
-0.08248423 0.09891258 0.048456762 -0.042145725 -0.12792936 -0.021662734 -0.06365342 -0.019160444
-0.113875456 0.11021489 0.055710323 0.07001833 0.09510222 -0.0107632205 0.04948685 -0.031919956
0.05087833 -0.041997675 0.06944048 0.113021165 0.123409174 0.03643526 -0.09903091 0.005311353
0.05506171 -0.11716472 -0.098342486 0.13144223 0.013595244 0.02517657 0.020170866 0.03964031
-0.014540655 -0.080921374 -0.030369319 0.013172785 0.023240073 0.057634953 0.025301624 -0.046418235
0.08378293 -0.023546018 0.0903023 -0.09667012 -0.09030042 -0.12075809 0.0010225923 -0.12387356
0.11247319 0.06599829 -0.044269893 0.07350794 0.116954535 -0.12957478 0.06451987 -0.12479016
0.092348844 0.08851163 0.09125379 -0.025928345 0.015820876 -0.10988061 0.07573466 -0.13212731
-0.061102677 -0.038347043 0.0462764 0.01777368 -0.044620972 -0.043331753 0.04669516 0.07177557
0.045095935 -0.116915576 -0.08532329 0.13531846 -0.08425654 -0.058749415 0.09658159 0.05113554
-0.08456079 0.085722856 0.035140198 -0.025229413 -0.037842423 -0.0022718122 -0.027298274 -0.09294412
-0.12805577 -0.09673929 0.14046235 0.11617923 0.053273313 0.041300856 0.10998122 0.112236455

layers.2.bias f4 [20]
00000000: 475e df3d 68d3 b63d 76d1 01bd 8af3 ac3d
00000010: 5719 4f3d c361 9b3d 8477 49bd b32d 01be
00000020: 7bfc cebd d1cf 02be ce63 153d e91d c03c
00000030: 22e1 7cbd f91c fcbd 869e 04bc 1c5b 283d
00000040: 3423 0dbe fe68 d1bd a56f 513c bcae e33d
0.10906654 0.08927041 -0.0316939 0.08444889 0.050561275 0.07587006 -0.049186245 -0.12615089
-0.101067506 -0.12774588 0.036472134 0.023451762 -0.06173814 -0.123102136 -0.008094436 0.041102514
-0.1378296 -0.10225104 0.012782966 0.11117312

layers.4.weight f4 [10, 20]
00000000: dbdc 603d 7899 60be ff68 d63d 025f 313d
00000010: 677e 06be 17aa d4bd f604 fa3d aab4 5a3e
00000020: db48 48ba 6bcc 48be 6287 1fbe 4190 61be
00000030: c02b 2dbe 80fc 0c3e c7ef 0a3e 649a fa3d
00000040: db75 53bd fcfe 2abe 15eb d0bd 58c1 76bd
00000050: 488f 4e3e 564f 563e e2eb 7f3d 7842 003c
00000060: 4ee3 4b3e ab18 403d ec1a 83bd 305d 0b3d
00000070: cc9f 133e 6e53 093e d0a0 973d eced 1abe
00000080: 5838 d23d 7ec2 463c 4f19 1f3c 9158 adbd
00000090: d2c3 183e 4455 bfbd bad2 58be 7eb0 0fbe
000000a0: 823a 1c3e ee0e 063e 1f5a 37be 8716 febd
000000b0: c8f0 b03d c1aa be3d e9e4 7bbd 4069 713d
000000c0: 54f1 2e3e b259 9c3c b2fb 28be 5783 dcbd
000000d0: eacb 3c3e 573e c8bd 16e0 193d c7f9 f7bc
000000e0: 19e6 663e 01f3 cbbd c125 043e fb6f 1abe
000000f0: 6342 473e 5a5d 44be fe7f 883d a91f 1d3e
00000100: e07c 85bd e4fc c53d 2a9d d8bd b659 4a3e
00000110: 53c0 143d 5d88 2d3e 7b5c 44be 0b5c 27be
00000120: 2624 593e 5807 1b3e 575f e33b 09ae 133e
00000130: 1a26 cc3d 4f63 5d3e c2c1 f2bd c223 073e
00000140: 9e2b 523e 800d 5d3d 4731 11be f0ec 513e
00000150: bee6 3b3e 5ae1 2b3e 648c de3d f473 ba3d
00000160: 8cc7 9b3d 3144 55be 1454 b2bd 00d1 233d
00000170: c1fa 09be a2b8 613e c201 91bd 7ee5 15be
00000180: 30a3 873d 4199 ecbd f761 60be 7086 40be
00000190: 5542 54be 95f8 21be 8b9b 0a3e 6c98 603e
000001a0: 22ac 5a3b 10a9 0c3e d108 c6bc 209f 2b3d
000001b0: cb39 363e 76fa ea3c 05c2 493d 1bf1 5f3e
000001c0: 9072 2c3d a575 31be 411b 073e 9d0b 383e
000001d0: 50bb 0dbe 48d7 133e f61d 14bd 7274 92bd
000001e0: 873d 9abd 3841 67bd a94c 633e c339 3c3e
000001f0: f6bf ca3d a0f5 603e fb9a 8f3d d0bb 153d
00000200: 8ac3 cbbd 90c3 6e3c 10c1 18bd cfd9 5abd
00000210: 80aa 2cbb 60c7 ac3b de1b 46be b7e9 3cbe
00000220: c007 303e ac44 63be 0769 cdba a3aa d13c
00000230: fa3c a9bd bd58 e0bd eea8 003e d7f3 293e
00000240: e6d2 5fbe a4ee 4a3d 5848 4bbe 89d5 f6bd
00000250: 6f80 913d ba3c 393d a3cf 603e 6bb7 db3d
00000260: bc8d 583e a428 23be 71de 2b3d 2d70 01be
00000270: a54e acbd b798 5abe 6700 393e 8e1a 443e
00000280: 0026 573e 16fb e0bd ae75 413e 569c 27be
00000290: 167d f7bd 9c39 a63d 6f25 59be 18a9 94bc
000002a0: 782c 833d a035 ee3c 604d 0c3e c822 473d
000002b0: fceb 0bbd d2f1 2e3e f874 1d3d 28d6 f6bc
000002c0: 5074 ee3c d972 e4bd 70f5 773d da0c 2e3e
000002d0: 3312 e2bc 5b97 45be 17f9 563e 2ac3 21be
000002e0: 40fa c4bc ec40 0f3e 44ff aebb 8071 083b
000002f0: 2a3d 483e f2e0 00bc 8e98 003e b696 33be
00000300: ae1c 17be f2a9 4cbe b831 593d ceab 053e
00000310: c4b2 c83d 989b d93d fab4 0e3d 845c e93d
0.054898124 -0.21933544 0.10469245 0.043303497 -0.13134156 -0.103840046 0.122079775 0.2135798
-0.0007640251 -0.1960923 -0.15578988 -0.22027685 -0.1691122 0.13768196 0.1356803 0.12236479
-0.051626068 -0.16698831 -0.10201088 -0.06024298 0.20171845 0.20928702 0.062480815 0.007828347
0.19910929 0.046898525 -0.06401619 0.034024417 0.14416426 0.13410732 0.074037194 -0.15129822
0.10264653 0.0121313315 0.009710624 -0.08464158 0.1491845 -0.09342435 -0.21174136 -0.1403217
0.15256694 0.13091633 -0.17905472 -0.124066405 0.086396754 0.093099125 -0.061497603 0.058938265
0.17084247 0.019085739 -0.16502264 -0.107672386 0.18437162 -0.097775154 0.03756722 -0.03027047
0.22548713 -0.09958459 0.12905027 -0.1508178 0.19458918 -0.19176236 0.066650376 0.15344109
-0.06517959 0.09667376 -0.10576852 0.19760785 0.036316227 0.1694655 -0.19175903 -0.16343705
0.21205196 0.1513952 0.0069388556 0.14421858 0.09968205 0.21619914 -0.118533626 0.13197234
0.20524451 0.053967953 -0.14178954 0.2050054 0.1834974 0.16785184 0.10866621 0.091041476
0.0760642 -0.20826794 -0.08707443 0.03999424 -0.13474561 0.22043088 -0.070804134 -0.14638326
0.066229224 -0.11552668 -0.2191237 -0.18801284 -0.20728429 -0.15817483 0.13535897 0.21933144
0.003336676 0.13736367 -0.024174126 0.0418998 0.17795484 0.028683882 0.049257297 0.21869318
0.042101443 -0.17330034 0.1319399 0.1797318 -0.13840985 0.14437592 -0.036161385 -0.071511164
-0.07531267 -0.05645868 0.22197212 0.1838141 0.09899895 0.21968699 0.07011982 0.036556065
-0.099494055 0.014572993 -0.037293494 -0.053430375 -0.0026346743 0.005272791 -0.19346568 -0.1844853
0.17190456 -0.22194165 -0.0015671559 0.025594061 -0.082635835 -0.109544255 0.12564442 0.16596924
-0.21857795 0.04954399 -0.19851816 -0.12052447 0.07104575 0.04522393 0.21954207 0.107283436
0.21147817 -0.15933472 0.041960184 -0.12640448 -0.08413438 -0.21347319 0.1806656 0.19150755
0.2101059 -0.10985391 0.18892547 -0.16368231 -0.12084405 0.08116457 -0.21205686 -0.018147036
0.06404966 0.029078305 0.13701391 0.048617154 -0.0341606 0.17084435 0.03844163 -0.030131415
0.029108196 -0.11154718 0.0605368 0.1699709 -0.027596569 -0.19296019 0.20993458 -0.15797105
-0.02404511 0.1398961 -0.0053404886 0.0020819604 0.19554582 -0.007866131 0.12558195 -0.1753796
-0.14757034 -0.19986704 0.05302593 0.1305382 0.09799722 0.1062538 0.03484056 0.11394599

layers.4.bias f4 [10]
00000000: bf75 9b3c c3bf c6bd f1f3 e7bc 3433 65bd
00000010: 76b9 51be cfd2 013e 135f 52bd aa8f 753d
00000020: 9db2 02be b167 12be
0.018977044 -0.097045444 -0.028314563 -0.055957034 -0.20480904 0.12678073 -0.0513602 0.05995146
-0.12763448 -0.14297368

layers.6.weight f4 [2, 10]
00000000: 5169 323e 7ac1 cd3d fa39 163c bac7 5b3d
00000010: e983 08be ff24 1bbd 71c0 263e 0472 a1be
00000020: 200f 5abd c2cc 833e 00fa 9bbc 44d1 79be
00000030: 7164 9a3e d1c0 883e cb03 61be 4b7c 87bb
00000040: 7fc7 7fbe d1c4 503e 7850 933d 8ac0 923e
0.17422988 0.10046668 0.009169096 0.05365727 -0.1333157 -0.03787708 0.16284348 -0.315323
-0.05323708 0.25742155 -0.019040108 -0.24396235 0.30154756 0.26709607 -0.21974103 -0.00413469
-0.24978445 0.2038758 0.071930826 0.2866252

layers.6.bias f4 [2]
00000000: bb3e 063e 9611 e73c
0.13109867 0.028206628
