DHH/model/fc/model-fold-7.pth (torch, 68239 bytes, 8 tensors)

layers.0.weight f4 [50, 302]
-0.02215337 0.057572138 0.007837908 0.04783746 0.025667327 0.029162621 0.055545546 0.03595308
-0.0034253076 0.024540935 -0.0077038966 0.012744996 -0.039689776 0.044933647 0.018482368 -0.031798277
0.036827415 -0.024652049 0.05429374 -0.043125946 0.01726142 -0.05350871 -0.047832925 -0.047037113
-0.054448422 0.0073605585 0.043149512 0.015859064 0.04998118 0.018004004 -0.05264189 0.05042771
-0.010631222 -0.023074485 0.028511472 -0.015604865 0.009749908 -0.027817287 0.007856301 -0.04380546
0.03977156 -0.056683276 -0.0028616241 0.023647685 0.0018217452 -0.0024775097 -0.043690108 -0.042527013
-0.01440252 0.0344018 0.0078019667 -0.033907138 -0.015858281 0.014435865 -0.018640295 -0.050682355
0.010673989 -0.021405466 0.01802564 0.032837845 0.013592888 -0.03254227 -0.02140563 0.023041116
0.056521546 0.04575045 -0.046665087 0.006900806 0.047479887 -0.041838087 -0.052752092 -0.025411718
-0.008933786 -0.022186978 0.041995 -0.026258126 0.056185707 0.05063139 0.025941726 -0.0016189503
-0.011724666 -0.044750623 0.02621319 0.052091137 0.015942086 -0.037687816 -0.041429102 0.04136275
-0.012663982 0.013015915 0.034030702 -0.004321214 -0.0010563545 -0.009185199 -0.028930679 0.022193393
-0.031471543 0.021127352 0.025008028 0.020082504 -0.04948113 -0.0427195 -0.034627784 0.020924304
0.03758176 -0.018381178 0.007057067 0.003610693 -0.00965203 -0.034248274 0.0027118213 0.0193724
0.0039061408 0.03167912 0.0036414564 0.053364016 -0.02872071 0.019576343 -0.0019897379 -0.021184288
0.041900188 0.025841417 -0.044584967 -0.02662571 -0.050691437 0.020154502 -0.0071024746 -0.0029676994
-0.05114783 -0.049729176 -0.045701306 -0.038800325 -0.0514358 -0.0009325668 -0.0007621557 0.017114488
0.010968041 0.040979303 -0.0010582735 0.028749334 0.028715309 0.013236487 0.026966421 -0.025462333
-0.052375816 0.0451804 -0.030079396 0.034704372 -0.04881132 -0.05413525 0.01034176 -0.054670334
0.01600661 -0.04102683 0.048698265 -0.0027171373 0.021377336 0.05417234 0.0124874 -0.008777767
0.048094884 -0.028840048 -0.030801704 -0.036580686 0.030932002 0.057271708 -0.0072771716 -0.027357299
0.013044212 -0.00033407766 -0.035718776 0.011180915 -0.04459757 0.0020729452 -0.031156821 -7.817433e-05
0.014370237 -0.033443987 0.017881604 0.045852493 0.04210956 -0.03573893 -0.021884909 -0.05225142
-0.01868688 0.01289035 0.018189456 0.05406527 -0.042238586 -0.002211017 0.021934994 -0.050140314
-0.012657322 -0.04299701 0.045048743 0.024368394 -0.023564737 0.033608153 0.03670383 0.039778948
-0.027440477 0.020897161 -0.015428472 -0.0021204427 -0.0037276077 -0.02918916 0.039015863 -0.03836072
-0.03828128 -0.039612554 0.04342676 0.032604758 -0.032984525 0.033229634 0.03700968 0.0022064373
0.009511031 0.021144016 0.05638106 -0.05131721 -0.014470637 -0.040265 0.05759934 0.026599262
-0.048389275 -0.0071970113 0.029461902 -0.03227234 -0.01576494 0.04490475 -0.05417807 -0.040226873
-0.014292568 -0.023615602 -0.041164592 0.03454167 -0.011398287 0.012444901 0.018147249 0.035427056
0.0433408 0.05136297 -0.04932337 -0.047463328 0.044945646 -0.008943729 0.055302165 0.0073481933
-0.0030186065 -0.0008171089 0.001057496 -0.044332754 0.032444995 0.032008696 -0.0040129535 0.05278403
00000000: fc7a b5bc c3d0 6b3d 926a 003c 36f1 433d
00000010: 4944 d23c 73e6 ee3c ba83 633d 8943 133d
00000020: 207b 60bb 120a c93c f870 fcbb 63d0 503c
00000030: bf91 22bd 580c 383d 5668 973c e93e 02bd
00000040: 58d8 163d 18f3 c9bc 1d63 5e3d d5a4 30bd
00000050: d267 8d3c f32b 5bbd 75ec 43bd fda9 40bd
00000060: 4f05 5fbd d730 f13b 8bbd 303d deea 813c
00000070: 11b9 4c3d 227d 933c 069f 57bd 498d 4e3d
00000080: 942e 2ebc b406 bdbc e490 e93c 8cab 7fbc
00000090: 14be 1f3c 14e1 e3bc b7b7 003c 5b6d 33bd
000000a0: 81e7 223d b92c 68bd 168a 3bbb cab8 c13c
000000b0: a0c7 ee3a b75d 22bb 66f4 32bd ce30 2ebd
000000c0: 8cf8 6bbc e7e8 0c3d a4a7 ff3b 36e2 0abd
000000d0: 3ae9 81bc 6884 6c3c 88b3 98bc 4d98 4fbd
000000e0: f4e1 2e3c 845a afbc 82aa 933c fa80 063d
000000f0: b4b4 5e3c 0b4b 05bd dc5a afbc b9c0 bc3c
00000100: 2383 673d d364 3b3d e423 3fbd 2820 e23b
00000110: 457a 423d 6a5e 2bbd 9412 58bd 3c2c d0bc
00000120: 045f 12bc 77c1 b5bc f302 2c3d 481b d7bc
00000130: fc22 663d dc62 4f3d be83 d43c f532 d4ba
00000140: d018 40bc 6e4c 37bd 0bbd d63c 845d 553d
00000150: fa98 823c 8a5e 1abd 90b1 29bd fd6b 293d
00000160: 977c 4fbc b440 553c c763 0b3d f898 8dbb
00000170: 6075 8aba 847d 16bc 0800 edbc ebce b53c
00000180: 4ee8 00bd 4513 ad3c a3dd cc3c 1084 a43c
00000190: baac 4abd a4fa 2ebd ddd5 0dbd 7269 ab3c
000001a0: 55ef 193d 2094 96bc f83e e73b 60a1 6c3b
000001b0: 8c23 1ebc eb47 0cbd d0b8 313b deb2 9e3c
000001c0: 2bfe 7f3b f7c1 013d 80a5 6e3b 3a94 5a3d
000001d0: b247 ebbc 915e a03c 4366 02bb ac8a adbc
000001e0: 889f 2b3d 61b1 d33c ba9e 36bd 291e dabc
000001f0: d3a1 4fbd 0e1b a53c e0bb e8bb bc7d 42bb
00000200: 6380 51bd d2b0 4bbd 4b31 3bbd 17ed 1ebd
00000210: 58ae 52bd 8077 74ba 67cb 47ba af33 8c3c
00000220: 4cb3 333c ead9 273d c4b5 8aba b983 eb3c
00000230: 5e3c eb3c dadd 583c afe8 dc3c 6296 d0bc
00000240: 0688 56bd 150f 393d 1169 f6bc 2c26 0e3d
00000250: 61ee 47bd edbc 5dbd 7c70 293c 00ee 5fbd
00000260: 4b20 833c c00b 28bd d577 473d 0012 32bb
00000270: 861f af3c d1e3 5d3d f497 4c3c a0d0 0fbc
00000280: 24ff 443d f741 ecbc db53 fcbc a1d5 15bd
00000290: 1c65 fd3c bd95 6a3d 5775 eebb 6a1c e0bc
000002a0: 64b7 553c 2527 afb9 da4d 12bd 2830 373c
000002b0: f1ab 36bd 40da 073b 973c ffbc 86f1 a3b8
000002c0: 2471 6b3c 90fc 08bd 717c 923c d3cf 3b3d
000002d0: 137b 2c3d fc62 12bd fb47 b3bc 9605 56bd
000002e0: 3a15 99bc 0c32 533c 0e02 953c 8b73 5d3d
000002f0: 5e02 2dbd b6e6 10bb 04b1 b33c ee5f 4dbd
00000300: a860 4fbc a21d 30bd 0885 383d 3aa0 c73c
00000310: d60a c1bc b4a8 093d c156 163d 40ef 223d
00000320: daca e0bc 8630 ab3c b4c7 7cbc 20f7 0abb
00000330: e14a 74bb 1b1e efbc 19cf 1f3d 2120 1dbd
00000340: d5cc 1cbd c640 22bd 42e0 313d 918c 053d
00000350: c81a 07bd cc1b 083d 7697 173d e099 103b
00000360: 28d4 1b3c 3736 ad3c d4ef 663d ff31 52bd
00000370: 4016 6dbc eaec 24bd 49ed 6b3d b2e6 d93c
00000380: d533 46bd e8d4 ebbb 165a f13c 0030 04bd
00000390: 7a25 81bc 0bee 373d d3e9 5dbd efc4 24bd
000003a0: 602b 6abc 8275 c1bc 349c 28bd 917b 0d3d
000003b0: e1bf 3abc b3e5 4b3c 8aa9 943c f61b 113d
000003c0: 1f86 313d fa61 523d 4d07 4abd e868 42bd
000003d0: ed18 383d b888 12bc 8684 623d 1dc9 f03b
000003e0: d0d3 45bb 4033 56ba ad9b 8a3a 4396 35bd
000003f0: 0be5 043d 8d1b 033d 187f 83bb 1134 583d

layers.0.bias f4 [50]
-0.043973126 0.026081357 0.0029079686 0.02369003 0.016548913 -0.033445302 -0.040408794 -0.025008805
-0.029971365 -0.011841694 -0.04228717 0.024710514 -0.043793447 -0.023487702 -0.02140082 -0.0031561116
0.0028909855 -0.026025008 -0.02930859 -0.05539544 0.033680916 0.0063766395 0.038800012 0.05497037
-0.047567774 -0.012834486 -0.040910546 0.008051025 0.048426595 0.0052763093 0.008525175 -0.025675809
0.039764415 0.014937618 0.010262449 -0.013699007 -0.012971067 0.03466631 0.046925876 0.0062931185
0.020651529 0.033173494 0.057963375 -0.03831954 0.006127052 -0.018079234 0.014658253 -0.009945508
0.027763693 0.012740617
00000000: 2a1d 34bd 92a8 d53c 9e93 3e3b 9811 c23c
00000010: 9691 873c f1fd 08bd b183 25bd 44df ccbc
00000020: 8286 f5bc aa03 42bc 5035 2dbd b46d ca3c
00000030: c260 33bd 4869 c0bc c650 afbc c4d6 4ebb
00000040: b076 3d3b 6632 d5bc 9118 f0bc 54e6 62bd
00000050: 00f5 093d 21f3 d03b c3ec 1e3d 9c28 613d
00000060: 6dd6 42bd bc47 52bc d191 27bd 72e8 033c
00000070: f75a 463d e4e4 ac3b 2dad 0b3c 1356 d2bc
00000080: 03e0 223d e9bc 743c d523 283c cd71 60bc
00000090: 9984 54bc 43fe 0d3d 5935 403d 8136 ce3b
000000a0: 652d a93c eee0 073d 016b 6d3d f3f4 1cbd
000000b0: 70c5 c83b e71a 94bc 2b29 703c 7cf2 22bc
000000c0: af70 e33c 05be 503c

layers.2.weight f4 [20, 50]
0.02385234 0.1334735 -0.10013367 -0.110172644 0.0770973 0.06389371 0.06792757 -0.08249304
-0.08261926 -0.0035564196 -0.07621411 0.001416713 -0.052869074 -0.1133039 -0.065932676 -0.13669679
0.11335677 0.10454954 0.038855396 -0.078486964 -0.122805096 -0.019442102 -0.09031787 0.058440626
0.104650825 0.08425072 0.008341314 -0.106050394 0.0874975 -0.00028405734 -0.088814184 -0.007459372
0.086374536 0.12626657 -0.08883108 -0.052868538 0.059844732 -0.042098682 0.024840875 -0.07549007
-0.02612538 0.01668306 -0.067769386 0.095875464 -0.09085456 0.02777858 -0.04165332 0.0080068465
0.0941793 -0.047326636 -0.11012842 0.06881437 0.11430396 -0.063363746 0.02389057 0.1367869
-0.11860525 0.1026141 -0.12978502 0.012930721 -0.09035203 0.010728135 -0.036438543 -0.030398063
-0.05556059 0.077518955 -0.11091226 0.080862865 0.1308239 0.085271284 0.06687981 -0.03935378
-0.1186805 0.0019620683 0.08194983 0.116211906 -0.10050006 0.05343541 0.11319182 0.024956824
-0.11538182 0.003339216 0.1052185 -0.12626718 -0.024727115 -0.123662055 0.01865139 0.049135394
0.0826091 0.0054018945 -0.08541097 -0.14028259 0.03787556 0.06183991 -0.069002785 0.013574004
0.11409308 0.120077655 0.014486998 -0.028235272 -0.09533316 0.10658583 0.029984102 0.002758081
0.059227463 0.06434792 0.049888328 -0.07083172 0.11196162 0.011457574 0.11229365 -0.11375756
0.014208421 0.0043537742 -0.08745747 -0.12074148 -0.13584258 -0.018113405 0.04235073 -0.103157
-0.087358564 -0.13961872 0.09913922 0.03828072 0.10748572 -0.10399802 0.099827856 0.11026271
0.023765415 -0.06101215 -0.13391133 0.06138143 -0.051233664 -0.130399 -0.10530011 -0.0033245832
-0.13619298 0.07864291 0.12427071 0.10173776 -0.03932411 -0.056706518 0.015792102 0.031486936
-0.037724666 0.058008004 -0.091787 -0.07604379 0.106309414 0.11378852 0.049358845 0.05052275
-0.12110007 -0.11153761 0.007271234 -0.033370167 0.09559321 -0.14151847 -0.08406593 -0.124961734
-0.108469434 0.10351312 -0.06836284 -0.11426402 -0.10550695 -0.06575246 0.075224 0.02573936
0.042619087 0.0408026 0.13862629 -0.043644752 0.10763755 -0.096351184 0.0061045787 0.114466585
-0.044592645 0.085126005 0.09663899 -0.11651994 0.12212805 -0.028966501 0.12466003 0.112511195
-0.036221277 -0.056166634 0.112728216 0.1348645 0.13217676 -0.040279746 0.10156509 0.033990182
-0.015413407 0.014561837 -0.0062806713 0.021978846 -0.11463148 0.022926725 -0.0045257877 0.07548194
-0.093689255 0.09429365 0.1088343 0.09036944 -0.103116326 0.07829168 0.095124975 0.10605585
0.1316637 0.1397757 0.08913383 0.10094284 -0.09199869 0.09110874 -0.13882755 0.014829387
-0.056776576 -0.037777055 0.045295052 -0.017414635 -0.107104085 -0.103117794 0.13268709 0.13841544
0.06310623 -0.09439345 -0.0841325 -0.05908427 0.022767616 -0.0014913385 -0.13446516 0.13384873
-0.021806879 0.035949424 0.03853923 -0.04774994 0.10543998 0.07281681 -0.04736379 0.085161164
-0.09430149 -0.015906457 0.050312653 0.09811464 -0.079332046 0.07499941 -0.092406064 -0.077972256
0.0443018 0.036757424 0.12235523 0.11158342 0.06721617 -0.0800681 0.07822953 0.027531147
00000000: fc65 c33c 47ad 083e e212 cdbd 32a2 e1bd
00000010: 30e5 9d3d b5da 823d 9c1d 8b3d 1cf2 a8bd
00000020: 4934 a9bd d212 69bb 2516 9cbd 00b1 b93a
00000030: 3e8d 58bd e00b e8bd b607 87bd 3efa 0bbe
00000040: 9827 e83d 121e d63d d626 1f3d c6bd a0bd
00000050: 3d81 fbbd 0b45 9fbc 93f8 b8bd 705f 6f3d
00000060: 2c53 d63d a48b ac3d 02aa 083c f330 d9bd
00000070: e431 b33d 88ed 94b9 36e4 b5bd bf6d f4bb
00000080: 22e5 b03d 064c 013e 12ed b5bd ae8c 58bd
00000090: c01f 753d ab6f 2cbd 177f cb3c 8a9a 9abd
000000a0: e504 d6bc eaaa 883c adca 8abd 5b5a c43d
000000b0: f511 babd e88f e33c ac9c 2abd 262f 033c
000000c0: 14e1 c03d 93d9 41bd 028b e1bd 8cee 8c3d
000000d0: 3218 ea3d dac4 81bd 28b6 c33c dd11 0c3e
000000e0: 4fe7 f2bd 5727 d23d 5de6 04be 60db 533c
000000f0: 7c0a b9bd 0fc5 2f3c 9540 15bd 5c05 f9bc
00000100: 8093 63bd 42c2 9e3d f825 e3bd 6e9b a53d
00000110: b3f6 053e b6a2 ae3d 48f8 883d 6e31 21bd
00000120: c30e f3bd 0b96 003b 50d5 a73d 8200 ee3d
00000130: fad2 cdbd 17df 5a3d 1dd1 e73d 4172 cc3c
00000140: 4e4d ecbd c0d6 5a3b cc7c d73d 2f4c 01be
00000150: 8590 cabc 8842 fdbd cdca 983c 3242 493d
00000160: f62e a93d 6002 b13b f2eb aebd 3da6 0fbe
00000170: 6723 1b3d d84b 7d3d 5551 8dbd 8065 5e3c
00000180: a2a9 e93d 46eb f53d e05a 6d3c a84d e7bc
00000190: 083e c3bd ac49 da3d 38a1 f53c ecc0 343b
000001a0: 7f98 723d d8c8 833d b457 4c3d 3910 91bd
000001b0: 224c e53d 8cb8 3b3c 37fa e53d b9f9 e8bd
000001c0: 70ca 683c 1baa 8e3b e71c b3bd 4f47 f7bd
000001d0: 511a 0bbe 9062 94bc f677 2d3d fa43 d3bd
000001e0: 0ce9 b2bd 36f8 0ebe 8109 cb3d 3fcc 1c3d
000001f0: 7921 dc3d eafc d4bd 8c72 cc3d 6ad1 e13d
00000200: b0af c23c e0e7 79bd 0d20 09be 186b 7b3d
00000210: 64da 51bd 5187 05be 96a7 d7bd 40e1 59bb
00000220: 2c76 0bbe 890f a13d a481 fe3d e35b d03d
00000230: 5112 21bd 1845 68bd 705e 813c 72f8 003d
00000240: 2e85 1abd cd99 6d3d d3fa bbbd d9bc 9bbd
00000250: c0b8 d93d f509 e93d 802c 4a3d f1f0 4e3d
00000260: 5003 f8bd d56d e4bd 8843 ee3b 28af 08bd
00000270: 5fc6 c33d 38ea 10be c22a acbd f0eb ffbd
00000280: 3925 debd b0fe d33d d101 8cbd 4103 eabd
00000290: 0714 d8bd 3aa9 86bd 0a0f 9a3d 5adb d23c
000002a0: 5a91 2e3d a120 273d 0df4 0d3e d7c4 32bd
000002b0: 1371 dc3d c553 c5bd eb08 c83b 756d ea3d
000002c0: c7a6 36bd 8b56 ae3d aaea c53d 02a2 eebd
000002d0: 451e fa3d 284b edbc c24d ff3d 456c e63d
000002e0: c35c 14bd fc0e 66bd 0dde e63d eb19 0a3e
000002f0: 5859 073e 60fc 24bd 5c01 d03d 4a39 0b3d
00000300: 8488 7cbc c594 6e3c 17ce cdbb fb0c b43c
00000310: e9c3 eabd d4d0 bb3c 0f4d 94bb 4696 9a3d
00000320: 27e0 bfbd 071d c13d 84e4 de3d 9d13 b93d
00000330: a72e d3bd 6357 a03d e2d0 c23d cf33 d93d
00000340: d9d2 063e 5c21 0f3e cc8b b63d 1fbb ce3d
00000350: cf69 bcbd 3897 ba3d cf28 0ebe f5f6 723c
00000360: 8e8e 68bd 1dbc 1abd 4e87 393d 23a9 8ebc
00000370: 6359 dbbd 6c2f d3bd 20df 073e c7bc 0d3e
00000380: d73d 813d 5a51 c1bd a94d acbd 5902 72bd
00000390: 2783 ba3c 0479 c3ba 3cb1 09be a40f 093e
000003a0: 57a4 b2bc b43f 133d 50db 1d3d 7195 43bd
000003b0: ebf0 d73d fb20 953d 8900 42bd fa68 ae3d
000003c0: 2421 c1bd 424e 82bc a414 4e3d 54f0 c83d
000003d0: d778 a2bd 4a99 993d 643f bdbd ebaf 9fbd
000003e0: ce75 353d f48e 163d 6195 fa3d d985 e43d
000003f0: a2a8 893d befa a3bd ce36 a03d 0089 e13c

layers.2.bias f4 [20]
0.07768109 -0.07852998 -0.049063068 0.12741503 0.07416804 -0.0035593454 -0.06914293 0.046745755
-0.015203558 0.10004665 -0.002614262 -0.0015892144 0.052441824 0.0018449669 0.042666372 0.021789357
-0.12985662 0.09686589 0.047133695 0.005588763
00000000: 4317 9f3d 53d4 a0bd 5bf6 48bd 1679 023e
00000010: 6ae5 973d e843 69bb cf9a 8dbd 7a78 3f3d
00000020: 5818 79bc 42e5 cc3d 0a54 2bbb 304d d0ba
00000030: 3dcd 563d d1d2 f13a efc2 2e3d 987f b23c
00000040: 22f9 04be a061 c63d 430f 413d f121 b73b

layers.4.weight f4 [10, 20]
0.101678655 -0.17994794 -0.08584961 -0.07311705 0.02909988 0.21085225 -0.1705321 -0.008268215
-0.009772973 0.051651385 0.20173837 0.13092016 0.0004982904 -0.13984816 -0.097626835 -0.0005355858
0.082496256 -0.021273438 -0.21989621 -0.023186913 0.07672863 -0.06918576 0.18025863 0.20370397
0.14803739 -0.13728593 -0.13253485 -0.028317377 -0.050407946 0.16542538 -0.17978705 -0.16281727
-0.20946111 0.07036561 -0.087281644 0.1939206 -0.11146584 -0.2202709 -0.035090897 -0.07325314
0.08920428 -0.09195928 -0.117812514 0.01653634 -0.2054651 -0.17053191 0.11907685 0.13149413
0.068002194 0.0285362 0.08855502 0.15426093 0.09966027 0.00042055547 -0.22012343 -0.1809584
0.07932072 -0.18711756 -0.0130493315 -0.12114147 0.008002266 0.01907736 0.058269173 0.18311974
-0.15842527 0.026678383 0.19189164 0.1155462 0.039744645 -0.13397974 0.10939169 0.17235452
0.05026084 -0.10888854 -0.17519762 -0.03899744 0.0029721707 0.099576294 -0.09057367 -0.0012484044
0.084179305 -0.033209443 0.080864824 -0.14114265 0.012350997 -0.1235692 0.08375979 0.09243858
-0.01924289 -0.14220294 0.055751216 0.11673952 0.21019246 0.00037057698 0.055556074 -0.1273399
0.14363 -0.20251054 -0.062405188 -0.059168886 -0.02821911 -0.20694336 -0.07808267 0.078635536
0.03805792 -0.07776762 0.2109286 0.07410005 0.22410119 0.19209066 -0.21176472 0.1743893
-0.15079479 0.11922129 0.044257764 -0.08816694 0.12674981 -0.13860734 -0.12316752 0.1215534
0.20462032 -0.037315216 -0.13930306 0.05394049 -0.028319174 -0.067950845 0.21021362 0.11143356
0.11909528 -0.16596738 0.21758243 0.09378642 -0.12570792 -0.09560039 -0.013549862 0.18460977
-0.012230107 0.16486908 0.08487516 -0.04730799 0.025080234 -0.005802989 0.038552552 0.18620473
0.18121317 -0.066286564 -0.19114935 0.0682202 0.20593864 0.15123692 -0.04884316 0.11949906
0.22000423 0.16764623 0.008766279 0.10396999 -0.07375598 0.1615304 -0.18860903 -0.08877948
-0.045943815 0.16561092 -0.1419498 0.04418173 -0.1720101 -0.21608846 0.18343692 0.048460227
0.18790327 -0.15001243 0.21520779 0.04917949 0.10531885 -0.09228311 -0.21622337 0.20311224
0.21892841 0.12239198 0.033779867 -0.010591084 0.055915743 0.18902358 -0.19886339 -0.15699556
-0.14083627 -0.0016350299 -0.080436125 -0.05406502 -0.19410254 -0.20380053 0.093202025 0.14418894
0.07884234 0.017478317 -0.050897464 0.15991473 -0.07815406 -0.03085427 0.18818048 0.047145337
00000000: e63c d03d 4644 38be ecd1 afbd 64be 95bd
00000010: df62 ee3c a7e9 573e f89f 2ebe 6877 07bc
00000020: d21e 20bc 6790 533d 8194 4e3e ef0f 063e
00000030: b49f 023a 5b34 0fbe 94f0 c7bd 8e66 0cba
00000040: ccf3 a83d a245 aebc 792c 61be 7bf2 bdbc
00000050: e623 9d3d 44b1 8dbd b895 383e c697 503e
00000060: 1d97 173e af94 0cbe 37b7 07be d8f9 e7bc
00000070: 9078 4ebd 4565 293e 191a 38be 92b9 26be
00000080: f97c 56be d81b 903d b8c0 b2bd 1f93 463e
00000090: 3448 e4bd b28e 61be 79bb 0fbd be05 96bd
000000a0: bcb0 b63d 2655 bcbd b047 f1bd 3877 873c
000000b0: 7165 52be eb9f 2ebe 90de f33d 66a6 063e
000000c0: bc44 8b3d c0c4 e93c 565c b53d 94f6 1d3e
000000d0: af1a cc3d 007e dc39 0968 61be 294d 39be
000000e0: e772 a23d bf9b 3fbe ddcc 55bc 0519 f8bd
000000f0: f01b 033c 2048 9c3c a8ab 6e3d be83 3b3e
00000100: 3c3a 22be a08c da3c 3e7f 443e 7ca3 ec3d
00000110: 48cb 223d fc31 09be c008 e03d b47d 303e
00000120: 50de 4d3d f400 dfbd 0167 33be c8bb 1fbd
00000130: c0c8 423b a8ee cb3d b07e b9bd 80a1 a3ba
00000140: 3366 ac3d a006 08bd 759c a53d b387 10be
00000150: d65b 4a3c d911 fdbd 418a ab3d 7050 bd3d
00000160: 44a3 9dbc a69d 11be 635b 643d 2115 ef3d
00000170: b13c 573e 004a c239 c48e 633d 6465 02be
00000180: be13 133e ec5e 4fbe 959c 7fbd 135b 72bd
00000190: c32b e7bc f6e8 53be cfe9 9fbd ab0b a13d
000001a0: 9fe2 1b3d a144 9fbd abfd 573e c4c1 973d
000001b0: c87a 653e 6ab3 443e dad8 58be 1c93 323e
000001c0: f369 1abe 4b2a f43d a147 353d de90 b4bd
000001d0: b4ca 013e 15ef 0dbe 413f fcbd fdf0 f83d
000001e0: fd87 513e d7d7 18bd 76a5 0ebe b4f0 5c3d
000001f0: 9dfd e7bc d029 8bbd 3d42 573e 4737 e43d
00000200: 3ae8 f33d 5af3 29be eecd 5e3e 1813 c03d
00000210: 94b9 00be 23ca c3bd 3e00 5ebc 580a 3d3e
00000220: c960 48bc 71d3 283e 07d3 ad3d 06c6 41bd
00000230: 1075 cd3c 0027 bebb 48e9 1d3d 74ac 3e3e
00000240: f28f 393e 40c1 87bd a8bc 43be 08b7 8b3d
00000250: 94e1 523e dadd 1a3e c40f 48bd ecbb f43d
00000260: ca48 613e 74ab 2b3e 70a0 0f3c 38ee d43d
00000270: 600d 97bd 3a68 253e ba22 41be 04d2 b5bd
00000280: 952f 3cbd e995 293e 4a5b 11be e7f7 343d
00000290: 6a23 30be 4b46 5dbe e3d6 3b3e 3b7e 463d
000002a0: b769 403e dc9c 19be 6e5f 5c3e 6f70 493d
000002b0: 69b1 d73d edfe bcbd a969 5dbe a8fc 4f3e
000002c0: c52e 603e a5a8 fa3d c25c 0a3d 3a86 2dbc
000002d0: e807 653d 668f 413e d8a2 4bbe 72c3 20be
000002e0: 6237 10be 804e d6ba b2bb a4bd 4873 5dbd
000002f0: d1c2 46be 16b1 50be b4e0 be3d 44a6 133e
00000300: 1878 a13d b02e 8f3c dc79 50bd b0c0 233e
00000310: 3c0f a0bd 18c2 fcbc 62b2 403e 781b 413d

layers.4.bias f4 [10]
0.19791065 0.05626128 -0.024047775 -0.2063232 0.049556337 0.11504774 0.10810317 -0.18700036
0.11063946 -0.078247115
00000000: 17a9 4a3e 3a72 663d d7ff c4bc 6446 53be
00000010: 96fb 4a3d 269e eb3d 3265 dd3d 067d 3fbe
00000020: f196 e23d 0640 a0bd

layers.6.weight f4 [2, 10]
0.105730094 -0.26118156 0.075060345 -0.18966512 0.11723276 -0.23148929 -0.1975472 -0.22084323
0.082390316 -0.013033241 -0.2705074 -0.017912934 -0.23348768 0.04997322 0.30707118 -0.17794879
-0.0795646 0.30834982 -0.05120121 -0.17474894
00000000: 0589 d83d 97b9 85be 3db9 993d 9337 42be
00000010: bb17 f03d 870b 6dbe d049 4abe ba24 62be
00000020: 41bc a83d 6089 55bc f27f 8abe 25be 92bc
00000030: 6517 6fbe b8b0 4c3d 6f38 9d3e 3538 36be
00000040: c4f2 a2bd 07e0 9d3e 5cb8 51bd 63f1 32be

layers.6.bias f4 [2]
-0.07544781 0.1928064
00000000: 6284 9abd 0a6f 453e
