DHH/model/fc/model-fold-0.pth (torch, 68239 bytes, 8 tensors)

layers.0.weight f4 [50, 302]
0	0xbcb0ff32	-0.021606062
1	0xbcab3f89	-0.02090432
2	0x3d2b51dc	0.041826114
3	0xbc4e0930	-0.012575433
4	0x3bec9db3	0.0072209476
5	0x3d630970	0.055428922
6	0xbd6f5498	-0.058430284
7	0xbc658b4e	-0.014010264
8	0xbcad935a	-0.021188427
9	0xbc1b96d7	-0.009496412
10	0x3b0f72f9	0.0021888597
11	0xbc46db37	-0.012137226
12	0x3d62e4ed	0.055394102
13	0x3ccc22fe	0.02491903
14	0xbd134df9	-0.035963032
15	0x3d5eaa58	0.05436167
16	0xbc8dbb8a	-0.01730134
17	0x3c0d0bb5	0.008608748
18	0x3bbdb3d2	0.0057892585
19	0xbd2a055e	-0.041509025
20	0x3ce9a3b1	0.028520437
21	0xbd11fb9b	-0.03564034
22	0xbd559fe5	-0.05215444
23	0x3d48cf53	0.049025845
24	0x3d04f8a4	0.032463685
25	0xbccf4782	-0.025302652
26	0xbd21cc66	-0.03950157
27	0x3d58cf61	0.052932147
28	0x3ca6991a	0.020336676
29	0xbd207683	-0.03917552
30	0xbd44be58	-0.04803309
31	0xbcc7f151	-0.02440706
32	0xbd00d36d	-0.03145163
33	0x3ba585dd	0.005051358
34	0x3b97f989	0.004637901
35	0xbd678215	-0.05652054
36	0x3ce23474	0.027612902
37	0x3cfa4e71	0.030554982
38	0xbd538100	-0.051636696
39	0x3d3d1b60	0.046168685
40	0xbcb26338	-0.021775827
41	0x3cf79742	0.030223493
42	0x3d6909e7	0.05689421
43	0x3d034f8f	0.032058295
44	0x3d1f9bc1	0.038966898
45	0x3aeba753	0.0017978944
46	0x3c0aa6fd	0.008462665
47	0xbd470912	-0.048592634
48	0xbd2b5883	-0.04183246
49	0x3d3e410e	0.04644876
50	0xbd5bbf90	-0.053649485
51	0x3cd6d445	0.026224265
52	0xbd041a3f	-0.032251593
53	0x3d49eba9	0.04929701
54	0x3d26a81b	0.04068766
55	0xbc696041	-0.01424414
56	0xbbf8c02f	-0.0075912694
57	0xbd216a26	-0.03940787
58	0x3d59a23a	0.053133227
59	0xbd07bfa9	-0.033141766
60	0x3ca0ef05	0.019645223
61	0x3d25a143	0.040436994
62	0xbd5acc2d	-0.053417373
63	0xbd6f5f09	-0.058440242
64	0xbd1ceb3c	-0.038310274
65	0xbc19c2a8	-0.009384789
66	0x3d101955	0.03518041
67	0xbc7d817d	-0.015472767
68	0xbcc156d1	-0.023600968
69	0x3d1f5adb	0.038905006
70	0x3d3b63c3	0.045749437
71	0x3cfb6d97	0.030691905
72	0x3d4447ba	0.047919966
73	0xbd555c35	-0.05208989
74	0xbd49c1f1	-0.049257223
75	0x3c1a573b	0.009420211
76	0xbd45f8c1	-0.048332933
77	0xbc85a81e	-0.016315516
78	0x3d0e14a3	0.03468765
79	0x3d60bf96	0.05487021
80	0xbc46b4ab	-0.012128036
81	0xbd544d49	-0.051831517
82	0xbceb0fb8	-0.028694019
83	0x3d60c37b	0.054873925
84	0xbc277834	-0.01022153
85	0xbd5c1822	-0.053733952
86	0xbcf92735	-0.030414203
87	0xbd0e7fc5	-0.03478982
88	0xbc70d99d	-0.014700321
89	0xbd2e7437	-0.0425913
90	0xbc99f36f	-0.018792836
91	0x3d57cfa4	0.052688256
92	0xbcccacfc	-0.02498483
93	0xbc60970c	-0.013707887
94	0x3d0424fa	0.032261826
95	0xbd64c1db	-0.055848937
96	0xbcf05ee9	-0.029342132
97	0xbba33737	-0.0049809474
98	0x3d33af95	0.04386862
99	0x3bec55cb	0.0072123758
100	0xb90d134b	-0.00013453995
101	0xbc99827d	-0.01873898
102	0x3cdc8012	0.026916537
103	0xbcd54e19	-0.026038216
104	0xbc1315be	-0.008977352
105	0xbccfc1b1	-0.025360914
106	0x3cb1ee8a	0.02172019
107	0x3d6d329f	0.057909604
108	0xbd328cb7	-0.043591227
109	0xbb7d5298	-0.0038653966
110	0xbb63dcab	-0.003476898
111	0xbcfd78b7	-0.03094135
112	0xbd2b9511	-0.041890208
113	0xbccb89de	-0.024846014
114	0xbd3cb56a	-0.046071447
115	0x3d2fb34a	0.042895593
116	0xbd2bb567	-0.041921046
117	0x3d099882	0.03359271
118	0x3d428c13	0.047496866
119	0xbc24a5cb	-0.010049294
120	0x3d5a27d7	0.05326065
121	0x3d2ff2fc	0.042956337
122	0xbd259607	-0.04042628
123	0x3d0ae75c	0.033912048
124	0x3c5d79ee	0.01351784
125	0x3d3bf176	0.045884572
126	0xbd33a052	-0.043854065
127	0x3d31105d	0.043228496
128	0x3bf0c83b	0.007348088
129	0x3cd74c70	0.026281565
130	0xbd002abf	-0.031290766
131	0x3d18449c	0.037174806
132	0xbb66f0f1	-0.0035238827
133	0x3d3ed7fb	0.046592694
134	0x3b9baf59	0.0047511277
135	0x3d11c7a0	0.035590768
136	0xbd161a50	-0.036646187
137	0xbd53f40e	-0.05174642
138	0x3cab42e1	0.020905914
139	0x3cff3048	0.031150952
140	0x3c87af4e	0.016563084
141	0x3c89b357	0.016809149
142	0x3d159ad7	0.03652462
143	0xbcf551b8	-0.029946193
144	0x3cf0c2a9	0.029389696
145	0x3cdd158e	0.026987817
146	0xbcc1d9bf	-0.0236634
147	0xbd133170	-0.03593582
148	0xbd66123d	-0.056169737
149	0x3d2f67f6	0.042823754
150	0xbac6b33c	-0.0015159617
151	0x3c3dfd92	0.0115961
152	0xbd256c1b	-0.0403863
153	0xbd37f952	-0.044915505
154	0x3d42c2c4	0.047549024
155	0x3d211b34	0.039332584
156	0x3cffc94d	0.031223917
157	0x3d389435	0.045063216
158	0x3d365c03	0.044521343
159	0x3d08ec71	0.033428613
160	0x3d2571c6	0.040391706
161	0xbc0fc7e6	-0.008775687
162	0x3c68a54e	0.014199568
163	0xbd496b52	-0.049174614
164	0xbcac5096	-0.02103452
165	0xbbc020be	-0.005863278
166	0xbbb00ed9	-0.0053728637
167	0x3d6c93fb	0.057758313
168	0x3d3eafe4	0.04655446
169	0x3c9528b2	0.018207882
170	0x3d54c559	0.051946018
171	0xbce94af3	-0.028478121
172	0x3c1073f2	0.008816706
173	0xbd37b881	-0.04485369
174	0xbd449d3b	-0.04800151
175	0x3cf83d60	0.030302703
176	0x3ca0a8a9	0.019611673
177	0xbb2d87c8	-0.0026478637
178	0xbd12e038	-0.035858363
179	0x3d2c27fa	0.042030312
180	0xbba1c3cb	-0.0049366704
181	0x3d2089de	0.03919398
182	0xbd293edc	-0.041319713
183	0x3d32cd9c	0.043653116
184	0xbb813096	-0.0039425595
185	0xbca705dd	-0.020388538
186	0xbbb7b873	-0.005606705
187	0xbd3ba408	-0.04581073
188	0xbc220ce9	-0.009890773
189	0x3b97cd50	0.0046326295
190	0xbd2e7663	-0.04259337
191	0x3ce6034c	0.028077744
192	0x3d5c29e3	0.053750884
193	0x3cf3fb48	0.029782906
194	0xbcefc53b	-0.029268852
195	0xbd1528e4	-0.03641595
196	0xbd3ff7ad	-0.04686706
197	0xbd0ec9cd	-0.03486042
198	0x3d0f6d6b	0.03501646
199	0x3cca531e	0.024697836
200	0xbcb2922f	-0.021798221
201	0x3b1ee413	0.002424483
202	0xbc24b17f	-0.010052084
203	0x3a950224	0.0011368436
204	0xbd6d384a	-0.05791501
205	0x3d44b1dc	0.048021182
206	0xbca375bc	-0.019953601
207	0xbd4fca71	-0.050730173
208	0xba73f795	-0.0009306607
209	0x3c828c1c	0.01593595
210	0x3ccb1b20	0.024793208
211	0xbcf8d33e	-0.030374166
212	0xbb6e6d93	-0.003638123
213	0xbd328b78	-0.04359004
214	0xbd306ff8	-0.04307553
215	0xbd1ec67e	-0.038763516
216	0xbd10552f	-0.035237487
217	0x3d1058df	0.035241004
218	0xbd53ac6a	-0.0516781
219	0xbc41d5ae	-0.01183073
220	0xbcc1fd7c	-0.023680441
221	0x3d195f53	0.037444424
222	0xbb89db86	-0.0042070774
223	0xbcf83bc5	-0.030301938
224	0x3d42375f	0.047416087
225	0xbd351f96	-0.044219576
226	0xbcabb220	-0.02095896
227	0xbd5b9e06	-0.0536175
228	0xbb8e02a4	-0.004333811
229	0x3c92324c	0.017846249
230	0x3d540e46	0.051771425
231	0xbd2a6e6e	-0.04160922
232	0xbd1aa043	-0.037750494
233	0x3d652853	0.05594666
234	0x3c27c212	0.010239141
235	0xbd1a315c	-0.03764473
236	0x3ccb451f	0.024813233
237	0x3d6711f7	0.056413617
238	0x3af6847f	0.0018807797
239	0xbcdbb2f9	-0.02681874
240	0xbd00f2c2	-0.031481512
241	0xbc9f971f	-0.01948124
242	0x3cf2a9b0	0.029621929
243	0xbd258e0a	-0.040418662
244	0x3d554768	0.05207005
245	0xbd1941ef	-0.037416395
246	0x3c81a9ec	0.015828095
247	0x3d655f10	0.05599886
248	0xbcc2240c	-0.02369883
249	0xbd248fbe	-0.040176146
250	0xbcefc98d	-0.029270912
251	0xbcccbef0	-0.02499339
252	0xbd145b45	-0.036219854
253	0xbd6cc46d	-0.057804514
254	0xbcfbdb0c	-0.030744098
255	0xbca0c2cc	-0.019624136

layers.0.bias f4 [50]
0	0xbc262003	-0.010139468
1	0xbd10535d	-0.03523575
2	0xbd2de2c3	-0.042452585
3	0xbc9a75ad	-0.01885494
4	0xbc8a7292	-0.016900335
5	0xbb81e65d	-0.003964229
6	0x3d19bdcd	0.037534524
7	0xbd0c6ed3	-0.034285378
8	0xbcee4333	-0.029084777
9	0xbc85d29e	-0.016335782
10	0xbce3fc89	-0.02783038
11	0x3c3a60a5	0.011375581
12	0xbcb643d0	-0.022249132
13	0xbccc96e9	-0.024974303
14	0x3d5a29e9	0.053262625
15	0xbc6e9310	-0.01456143
16	0xbd326450	-0.043552697
17	0x3d05d866	0.032677077
18	0xbc467d90	-0.012114897
19	0xbcd32fa0	-0.025779545
20	0x3d39a14e	0.045319848
21	0xbc9e93fa	-0.01935767
22	0xbceada0a	-0.028668422
23	0x3c906fca	0.01763143
24	0xbc516f05	-0.012782817
25	0x3d474792	0.04865224
26	0x3d2d16f2	0.04225821
27	0xba13cd3a	-0.0005638186
28	0xbc85d7be	-0.016338225
29	0x3d072e7f	0.033003327
30	0x3d001964	0.031274214
31	0xbd1bc016	-0.038024984
32	0x3c644e5d	0.013934699
33	0x3c824ad3	0.01590482
34	0x3d6e658e	0.05820232
35	0xbd06e7cd	-0.032935906
36	0xbd2bd744	-0.04195334
37	0xbc8b43fa	-0.017000187
38	0xbd6d6c87	-0.057964828
39	0xbaac3be0	-0.0013140403
40	0x3cee2483	0.029070145
41	0xbcf45110	-0.02982381
42	0x3d60efe5	0.05491628
43	0x3d08785a	0.0333179
44	0x3d11f2a8	0.035631806
45	0xbd130d6f	-0.035901483
46	0x3d12dccd	0.035855103
47	0x3d18c335	0.03729554
48	0x3d128022	0.03576673
49	0xbd31ee63	-0.043440234

layers.2.weight f4 [20, 50]
0	0x3d6c6d2a	0.057721294
1	0x3d0001f9	0.03125188
2	0x3c424a60	0.011858553
3	0x3dffae87	0.1248446
4	0xbaa2acb0	-0.0012411084
5	0xbd4f7fe6	-0.050659083
6	0xbdbe72e2	-0.09299256
7	0xbdcf8de1	-0.10134483
8	0xbd42e010	-0.047576964
9	0x3dd0f750	0.10203421
10	0x3d92e8df	0.07173323
11	0x3d762d58	0.060101837
12	0x3d82f3bc	0.06394145
13	0x3cf4b770	0.029872626
14	0xbd310ff4	-0.043228105
15	0x3d4e2349	0.05032662
16	0xbd232d5c	-0.03983818
17	0x3d6d6590	0.057958186
18	0x3d8b76ea	0.068097904
19	0xbdc99c5c	-0.09844276
20	0xbdd2369b	-0.102643214
21	0xbe0ec3d5	-0.13941891
22	0x3d05d9f7	0.03267857
23	0xbd56eff6	-0.05247494
24	0xbc938d54	-0.018011726
25	0x3c8cb417	0.017175717
26	0x3cc32a74	0.023823954
27	0xbdfa628b	-0.12225827
28	0xbc85d357	-0.016336126
29	0xbcd8a0eb	-0.02644392
30	0xbd044e23	-0.03230108
31	0xbe11973e	-0.1421785
32	0xbdc9e463	-0.098580144
33	0xbd0b89a6	-0.03406682
34	0x3d080d73	0.03321595
35	0x3dcdc311	0.100469716
36	0xbd98e904	-0.07466319
37	0xba7af80b	-0.00095737044
38	0x3ddb2670	0.10700691
39	0xbd2f953e	-0.042866938
40	0x3d670ad4	0.05640681
41	0x3db31740	0.08744669
42	0xbd179b26	-0.037013195
43	0xbda4f868	-0.08055192
44	0x3d89827c	0.06714341
45	0x3d34547c	0.044025883
46	0xbd742487	-0.059605148
47	0xbde4b568	-0.11167413
48	0xbc50f487	-0.012753612
49	0x3a1c8e1c	0.00059721037
50	0x3d96164c	0.073284715
51	0xbdd4baf8	-0.10387224
52	0x3cd42676	0.025897246
53	0x3ce4eb21	0.02794415
54	0x3d0850af	0.03328007
55	0xbde51c52	-0.11187042
56	0xbd2e5258	-0.042558998
57	0xbe0f7c5f	-0.14012288
58	0x3d3f4004	0.04669191
59	0xbda1af4b	-0.078947626
60	0xbde36c4a	-0.11104639
61	0x3dd589cd	0.10426674
62	0xbdb12f26	-0.08651571
63	0x3d22d6b9	0.039755557
64	0x3da4e37a	0.080512
65	0x3d5bbafc	0.05364512
66	0xbdf4a5ce	-0.11945687
67	0xbda6bfa6	-0.08142023
68	0xbe038666	-0.12844238
69	0xbb2719d9	-0.0025497584
70	0x3d46f1dc	0.0485705
71	0xbdc57c0d	-0.096428014
72	0x3d8010b6	0.06253187
73	0xbe02d37a	-0.12775984
74	0xbdd73d72	-0.10509767
75	0xbda6bf4c	-0.08141956
76	0xbc94264b	-0.018084666
77	0x3e0faa80	0.14029884
78	0x3e0f0246	0.13965711
79	0xbe0b4e90	-0.13604188
80	0x3b83017a	0.0039979788
81	0x3da405f8	0.08008951
82	0xbc802494	-0.015642442
83	0xbd4c904f	-0.04994231
84	0x3cf2fee9	0.029662566
85	0x3e0eb1bc	0.13934988
86	0xbd9e52a3	-0.077306055
87	0x3c60ffe0	0.01373288
88	0x3c3c6709	0.011499175
89	0xbd95d6eb	-0.07316383
90	0xbdaa0b78	-0.08302969
91	0xbc92998f	-0.017895488
92	0x3de8462d	0.1134151
93	0x3ccc729a	0.02495699
94	0xbde4c60c	-0.11170587
95	0x3db40edf	0.08791899
96	0xbcc60e31	-0.024176689
97	0xbd410f2e	-0.047133617
98	0x3e0694e8	0.1314274
99	0xbdf3691f	-0.11885285
100	0xbda61db9	-0.08111138
101	0xbd929a05	-0.07158283
102	0x3c829602	0.01594067
103	0x3d7fd8f1	0.06246275
104	0xbe00dd06	-0.12584314
105	0x3c89c98f	0.016819743
106	0x3d4de638	0.05026838
107	0xbcd0e482	-0.025499586
108	0xbdf619b2	-0.1201662
109	0x3dda454e	0.1065775
110	0x3c8e953d	0.017405147
111	0x3c0061b0	0.0078357905
112	0x3db122c2	0.08649208
113	0x3e03a619	0.1285633
114	0x3d5325d3	0.051549744
115	0xbd5b33a6	-0.053516053
116	0xbc618497	-0.013764522
117	0xbd54cec4	-0.051955
118	0x3d9ff812	0.078109875
119	0x3dd6aec4	0.10482553
120	0x3daec43b	0.08533522
121	0x3df4f87a	0.11961456
122	0x3dc2dacc	0.095143884
123	0x3d72acf8	0.059246987
124	0xbe0ff431	-0.14057995
125	0x3cb293e7	0.021799041
126	0xbd56f2da	-0.052477695
127	0xbd776115	-0.06039532
128	0x3ca117c2	0.019664649
129	0x3cd08b6d	0.025457108
130	0xbdf7264a	-0.1206785
131	0xbcc3eda4	-0.023917027
132	0x3d700160	0.05859506
133	0x3d531c52	0.05154068
134	0x3ce97d10	0.028502017
135	0x3dbb9f8e	0.09161292
136	0x3d20bc1a	0.039241888
137	0xbd0692f3	-0.032854985
138	0x3dc193a6	0.0945199
139	0x3cda9eb8	0.026687011
140	0x3db69aeb	0.08916267
141	0xbd379242	-0.044817217
142	0xbe0ac22e	-0.13550636
143	0xbd361870	-0.0444569
144	0xbd2ef67b	-0.04271553
145	0x3db03d1d	0.086054064
146	0x3d6879bb	0.056756716
147	0xbc9fa2f4	-0.019486882
148	0xbd831d0e	-0.06402026
149	0xbc197365	-0.009365891
150	0x39d59c3d	0.00040742932
151	0x3df5ed19	0.120081134
152	0xbc8803f8	-0.016603455
153	0x3cbbb886	0.022915136
154	0xbc329848	-0.0109005645
155	0x3caf99ba	0.021435607
156	0xbe0483dc	-0.12940925
157	0x3ba4e2c7	0.005031917
158	0x3ce55800	0.027996063
159	0x3aebe000	0.0017995834
160	0x3dbf079f	0.093276255
161	0x3da61da6	0.08111124
162	0xbd1b9215	-0.03798111
163	0x3db01202	0.08597185
164	0xbdcf608a	-0.10125835
165	0x3cb63f06	0.022246849
166	0x3d03eb20	0.032206655
167	0x3d847bb8	0.0646891
168	0x3d25c704	0.040473
169	0xbcc5e5da	-0.024157453
170	0xbd948389	-0.07251651
171	0xbd021e2e	-0.031767063
172	0x3c6fbb61	0.014632077
173	0xbe030a13	-0.12796812
174	0x3d455c1c	0.048183545
175	0x3e0744e7	0.13209878
176	0xbd5f1387	-0.054461982
177	0x3d4ec463	0.050480258
178	0x3d48bdb0	0.049009025
179	0xbd695c8a	-0.056973018
180	0x3d9b75d9	0.07590837
181	0x3b1e79c5	0.0024181467
182	0x3ddc150f	0.10746204
183	0xbd3a21dd	-0.04544245
184	0x3dcce4b9	0.10004563
185	0xbdd73c9e	-0.10509609
186	0xbb8404bc	-0.0040288847
187	0xbd915e80	-0.070981026
188	0xbcf39fc8	-0.029739276
189	0x3cbcc108	0.023041263
190	0x3e0b5735	0.13607486
191	0xbd335193	-0.043778967
192	0x3d94f714	0.07273689
193	0x3da2e055	0.07952944
194	0x3dfa489b	0.1222088
195	0x3c5a3eda	0.013320649
196	0x3ccc1062	0.024910156
197	0xbde91468	-0.11380845
198	0xbd2de6c9	-0.042456422
199	0xbd82b8ad	-0.0638288
200	0x3e09aaa8	0.13444006
201	0x3d7666c2	0.06015659
202	0xbbd2d136	-0.0064336313
203	0xbc119bdd	-0.008887258
204	0x3d9b3f02	0.07580377
205	0x3dfe9626	0.12430982
206	0xbdb79334	-0.08963624
207	0x3d17d89f	0.03707182
208	0x3bc38f20	0.0059679896
209	0xbdd7bdfa	-0.10534282
210	0x3d82cbc4	0.063865215
211	0x3d5d27c8	0.053993016
212	0xbcd71ec8	-0.026259795
213	0x3d751d88	0.059842616
214	0xbdabc7bd	-0.083877064
215	0xbdede903	-0.11616709
216	0xbe0c6a6c	-0.13712472
217	0xbd97f2b4	-0.07419339
218	0xbd39e5b4	-0.045385078
219	0xbd3a9d00	-0.045559883
220	0xbe0954dd	-0.13411279
221	0x3d2eb43d	0.042652357
222	0xbccf098a	-0.025273103
223	0xbe02146b	-0.12703101
224	0xbe08bb92	-0.13352802
225	0x3dc6de59	0.09710378
226	0xbdfa072b	-0.122083984
227	0x3da98ad9	0.08278436
228	0x3c8c7fe3	0.017150825
229	0x3de024bb	0.10944506
230	0xbdfb455e	-0.1226909
231	0x3d7e904c	0.06214933
232	0x3d85a53c	0.065256566
233	0xbc1b6d09	-0.009486445
234	0x3bb7c0c9	0.0056076986
235	0xbdd78a9b	-0.10524484
236	0x3dda9dc8	0.10674626
237	0x3d87d451	0.06632293
238	0x3db01915	0.08598534
239	0xbbfda800	-0.0077409744
240	0xbdcad442	-0.09903766
241	0x3dcdd867	0.10051041
242	0xbe02f538	-0.12788856
243	0x3d822f50	0.063566804
244	0x3b583325	0.003298947
245	0x3d32d47e	0.04365968
246	0xbd5945f2	-0.05304522
247	0xbd5e1ada	-0.054224826
248	0xbda61f51	-0.08111442
249	0xbd352aee	-0.044230394
250	0x3ce28cd5	0.027655045
251	0x3d3e43a9	0.046451245
252	0x3db9d59d	0.090739466
253	0xbda6fa04	-0.081531554
254	0x3d30118b	0.04298548
255	0xbbfa5740	-0.0076397955

layers.2.bias f4 [20]
0	0xbd8bb202	-0.06821062
1	0x3e0b185d	0.13583513
2	0xbdab771d	-0.083723284
3	0xbd682902	-0.056679733
4	0xbdafa191	-0.08575738
5	0xbd955ac5	-0.072927035
6	0x3c808b47	0.015691413
7	0x3d954335	0.07288209
8	0x3d37a31f	0.0448333
9	0xbd267184	-0.0406356
10	0x3d1c9118	0.03822431
11	0xbdd4fb4a	-0.10399492
12	0x3dd835cb	0.10557135
13	0xbdcfbe72	-0.101437464
14	0x3d816a50	0.063191056
15	0xbde19f6e	-0.11016737
16	0xbd78da4e	-0.060755067
17	0xbe039578	-0.12849987
18	0x3cac5cc0	0.02104032
19	0x3d91cd50	0.071192384

layers.4.weight f4 [10, 20]
0	0xbe1eb08c	-0.15497035
1	0x3da838c8	0.08213955
2	0xbd55d3d0	-0.052203953
3	0x3d3d3518	0.046193212
4	0xbe1c78ad	-0.15280409
5	0xbe29b39a	-0.16572419
6	0xbd053f70	-0.0325312
7	0x3db6b624	0.08921459
8	0xbe5f2c7e	-0.21794316
9	0xbe15f102	-0.14642718
10	0xbe2db84f	-0.1696484
11	0xbd1c8344	-0.038211122
12	0xbe245a80	-0.16050148
13	0xbdf6b3f7	-0.12046044
14	0xbdd26cbc	-0.10274646
15	0xbe1b61c8	-0.1517402
16	0xbe06737c	-0.13129991
17	0xbdc80ae4	-0.09767702
18	0xbd772cb4	-0.060345367
19	0x3e390634	0.18068773
20	0xbc0bca3d	-0.008532104
21	0x3e4185b8	0.18898666
22	0x3c9555f7	0.018229468
23	0x3dd3f5c7	0.10349613
24	0x3da47bc8	0.08031422
25	0xbc840311	-0.016114743
26	0x3e56b2d5	0.20966657
27	0xbe0524e9	-0.13002361
28	0xbd7e5dde	-0.062101237
29	0x3d1e7f7b	0.038695794
30	0x3c8c8fcb	0.01715841
31	0xbdadd1ce	-0.08487283
32	0x3dfe4993	0.12416377
33	0xbe525d7d	-0.20543475
34	0x3e52db05	0.20591362
35	0x3d637d38	0.05553934
36	0xbd0a5fef	-0.033782896
37	0x3e4dd313	0.2010005
38	0xbdac4984	-0.084124595
39	0xbe6178e6	-0.22018775
40	0xbe236a3a	-0.15958491
41	0x3e397d8a	0.18114296
42	0xbdf79a2c	-0.12089953
43	0x3d802839	0.06257672
44	0xbd848546	-0.064707324
45	0x3e11b478	0.14229
46	0xbdc2ebbb	-0.09517618
47	0x3e4212dc	0.18952507
48	0x3e4964f7	0.19667421
49	0x3c418996	0.011812588
50	0xbe2e4fae	-0.17022583
51	0x3d0600d8	0.03271565
52	0xbddbe136	-0.10736315
53	0xbe2adef9	-0.1668662
54	0xbd60e884	-0.054909244
55	0xbd194fd8	-0.03742966
56	0x3d20c64b	0.039251607
57	0xbce96cd8	-0.028494284
58	0x3d200ab0	0.039072692
59	0xbd047dd4	-0.03234656
60	0xbe62a3c4	-0.22132784
61	0x3c0da5c3	0.008645478
62	0x3d6b751e	0.05748474
63	0x3e317aa9	0.17331947
64	0xbe4995c5	-0.19686039
65	0xbdce6d61	-0.10079456
66	0xbe0e409b	-0.13891833
67	0xbd7a12fa	-0.061053254
68	0xbdd70800	-0.10499573
69	0x3e4d646a	0.20057836
70	0xbe286a06	-0.16446695
71	0xbe1e382e	-0.15451118
72	0xbcc030c8	-0.02346076
73	0x3d5112a0	0.051043153
74	0x3e518dbd	0.20464225
75	0x3d3e0666	0.04639282
76	0x3e452486	0.19252214
77	0x3d69b3f0	0.057056367
78	0xbe52b32c	-0.20576161
79	0x3d6fcf26	0.05854716
80	0x3d13dda8	0.03610006
81	0xbd53181c	-0.051536664
82	0x3d936944	0.07197812
83	0xbe057724	-0.1303373
84	0x3e4f1018	0.20220983
85	0xbe1b4a77	-0.15165125
86	0x3e612090	0.21985078
87	0x3e2723aa	0.16322199
88	0x3e22c6b2	0.15896109
89	0xbd797810	-0.060905516
90	0xbe4a9dad	-0.19786711
91	0x3e1e76ec	0.15475053
92	0xbe3a10b8	-0.1817044
93	0xbe36ecd5	-0.17863782
94	0xbc615950	-0.013754204
95	0xbe2e2dda	-0.17009678
96	0x3d303f98	0.043029398
97	0x3e361582	0.17781642
98	0xbd3ffa64	-0.04686965
99	0xbd82c01c	-0.06384298
100	0xbdeff191	-0.11715997
101	0x3d9904f6	0.07471649
102	0x3d0c414c	0.03424196
103	0x3e2e6a64	0.17032772
104	0xbe5f38fd	-0.21799083
105	0x3d7ae7ee	0.06125634
106	0xbe152c5a	-0.145677
107	0x3dfd5a08	0.12370688
108	0xbd7b6d3a	-0.061383463
109	0x3e49ef6e	0.19720241
110	0xbd98dde4	-0.07464197
111	0xbe6033be	-0.21894738
112	0xbce22f53	-0.027610457
113	0x3e54387c	0.20724672
114	0xbdf7868d	-0.120862104
115	0x3d08d6df	0.033408042
116	0xbda2375b	-0.079207145
117	0xbdc264a2	-0.094918504
118	0x3dbcc53c	0.09217307
119	0xbd9a492b	-0.07533487
120	0xbe1ece81	-0.15508462
121	0x3e512beb	0.2042691
122	0xbe345a9d	-0.17612691
123	0xbd116230	-0.03549403
124	0x3e5dced2	0.21660927
125	0xbcd1222b	-0.025528988
126	0x3dab4387	0.08362489
127	0x3e36bcc9	0.17845453
128	0xbb3bde8a	-0.002866658
129	0xbd1ff32c	-0.039050266
130	0xbd2d1984	-0.04226066
131	0x3dad5970	0.084643245
132	0xbce8ad47	-0.028402938
133	0x3e537ea5	0.2065378
134	0x3af5d921	0.0018756726
135	0xbe36404d	-0.17797966
136	0x3e3aeb50	0.18253827
137	0x3d55ce60	0.052198768
138	0x3d8b6758	0.06806821
139	0x3b3cbc74	0.002879885
140	0x3e1e4d9a	0.1545929
141	0xbe234456	-0.15944037
142	0xbd4bdc23	-0.049770486
143	0xbe562224	-0.20911461
144	0xbd06e145	-0.032929678
145	0xbe613c2d	-0.21995611
146	0x3e46a29e	0.19397971
147	0xbe3c2a56	-0.18375525
148	0xbc352ddb	-0.011058296
149	0xbdfb02d9	-0.122564025
150	0x3daa7104	0.08322337
151	0x3c318e70	0.010837182
152	0x3c7fdaed	0.015616161
153	0x3e116b87	0.14201175
154	0x3e3b0b0b	0.18265931
155	0x3e57d7f9	0.21078481
156	0xbdac6ac5	-0.08418802
157	0xbdce7599	-0.10081024
158	0x3e3d981a	0.18515053
159	0x3dccb471	0.09995354
160	0x3ccd291a	0.025044013
161	0xbde7027e	-0.11279772
162	0xbe2d77d0	-0.16940236
163	0x3e071719	0.13192405
164	0x3d203768	0.03911534
165	0x3e5189e9	0.20462765
166	0x3c1c3c27	0.009535826
167	0x3e2fddc6	0.17174444
168	0x3cc5ea02	0.024159435
169	0x3c539017	0.012912772
170	0x3d4e9293	0.050432753
171	0x3e326c10	0.17424035
172	0x3e0da9b4	0.13834268
173	0x3e5014af	0.2032039
174	0x3d0cae1d	0.034345735
175	0x3deb5841	0.114914425
176	0x3d3c37d2	0.045951672
177	0x3e21253a	0.15736857
178	0x3db44e38	0.088039815
179	0xbcd66204	-0.026169784
180	0x3d3174d8	0.04332432
181	0xbc77dd20	-0.015128404
182	0xbda72c48	-0.08162743
183	0xbdca4581	-0.09876538
184	0xbbb28e8f	-0.005449123
185	0x3e320e4d	0.17388268
186	0x3e459f2b	0.19298999
187	0x3e14d652	0.14534882
188	0x3de502a1	0.11182142
189	0xbdd8096f	-0.10548674
190	0x3cef74f1	0.029230567
191	0x3e4e0432	0.20118788
192	0x3e02bd1e	0.12767455
193	0xbe24b34f	-0.16084026
194	0xbe1e222f	-0.15442728
195	0x3e5c1606	0.21492776
196	0x3c6714de	0.014104096
197	0xbe48446e	-0.19557354
198	0x3d57df18	0.052702993
199	0x3d8ea69c	0.06965372

layers.4.bias f4 [10]
0	0xbce34b40	-0.027745843
1	0x3dff366b	0.12461551
2	0xbe37ffbb	-0.17968647
3	0x3d07df8e	0.033172183
4	0xbd7fe1d4	-0.062471226
5	0xbc277dcf	-0.010222866
6	0x3b316e53	0.0027073815
7	0x3e597f51	0.21239974
8	0xbd8a06ad	-0.067395546
9	0xbe5f0d49	-0.21782412

layers.6.weight f4 [2, 10]
0	0xbe4a492a	-0.19754472
1	0xbdf93407	-0.121681266
2	0x3e844176	0.25831193
3	0x3dbdb85c	0.092636794
4	0xbe4df8c4	-0.20114428
5	0x3d2559ed	0.040368963
6	0x3e1d38c2	0.15353683
7	0xbd0fa88a	-0.03507284
8	0x3bef2685	0.007298293
9	0xbe513d4e	-0.20433542
10	0x3d27cbe0	0.040965915
11	0xbe8a72d3	-0.2704073
12	0xbddadb7a	-0.10686393
13	0x3d83ec5c	0.06441566
14	0x3dc11ab0	0.09428918
15	0xbe7af074	-0.24505788
16	0xbd094778	-0.033515424
17	0x3e3f0301	0.1865349
18	0x3e9ad131	0.30237725
19	0xbd15dad8	-0.03658566

layers.6.bias f4 [2]
0	0x3e06b93b	0.13156597
1	0x3c931ce7	0.017958118
