DHH/model/fc/model-fold-6.pth (torch, 70287 bytes, 8 tensors)

layers.0.weight f4 [50, 312]
0	0xbcaf6a96	-0.021413129
1	0x3cfe413a	0.031036962
2	0x3c8503e9	0.016237216
3	0x3cb4fa19	0.022091912
4	0x3d13ee2e	0.036115818
5	0x3d00816d	0.03137343
6	0xbd37e812	-0.044899054
7	0xbd4de4d4	-0.050267056
8	0xbd4ac54b	-0.04950456
9	0xbd5735e7	-0.05254164
10	0x3c68de7c	0.014213201
11	0x3c8907d5	0.016727367
12	0xbcce7842	-0.025203828
13	0xbd4b8120	-0.04968369
14	0x3d29647b	0.04135559
15	0xbd49771d	-0.04918586
16	0xb93a182e	-0.0001774735
17	0x3b84adcb	0.004049038
18	0xbc9da283	-0.01924253
19	0xbbd3a560	-0.006458923
20	0xbd3547a2	-0.044257767
21	0x3c5271fd	0.01284456
22	0x3d126683	0.035742294
23	0xbaa36d52	-0.0012468493
24	0xbd690602	-0.056890495
25	0xbca95a9c	-0.020673089
26	0x3cf3473c	0.029697053
27	0x3c88049b	0.016603759
28	0x3d3a8e09	0.04554561
29	0x3d47e775	0.04880472
30	0xbccad385	-0.024759063
31	0xbbbd1447	-0.0057702395
32	0x3c2cfb32	0.0105579365
33	0x3c836a53	0.01604191
34	0x3d375ef8	0.044768304
35	0x3d027df9	0.031858418
36	0x3abd6c94	0.0014451914
37	0xbc84a31b	-0.016191056
38	0x3ce2356e	0.027613368
39	0x3d3c5f3b	0.045989256
40	0x3cdfc5e1	0.027316036
41	0x3bc3f5a0	0.0059802085
42	0x3c80b105	0.01570941
43	0xbd00495b	-0.031319957
44	0xbcdaac21	-0.026693406
45	0xbd37e641	-0.04489732
46	0xbcde3598	-0.027125165
47	0x3b79ed80	0.0038135946
48	0xbbecd6e5	-0.007227766
49	0xbc92d52c	-0.017923914
50	0x3d065d65	0.03280391
51	0xbd19ec2a	-0.03757874
52	0x3ccd7f73	0.025085187
53	0x3b505c36	0.0031793243
54	0xbb98a9c4	-0.0046589095
55	0x3bf462ab	0.007458051
56	0xbb3e77ea	-0.0029063174
57	0x3d1310c6	0.03590467
58	0xbc0b3261	-0.008495898
59	0x3d43ed66	0.047833823
60	0xba346e9b	-0.00068829366
61	0x3c23c36c	0.009995323
62	0xbc28a4db	-0.010293211
63	0x3cc583f0	0.024110764
64	0xbd3793c2	-0.044818647
65	0xbc364c02	-0.01112652
66	0xbbf45c0d	-0.0074572624
67	0x3ce1f5a0	0.027582943
68	0xbbaa5f76	-0.005199368
69	0x3cdb329a	0.026757527
70	0xbbf72f4d	-0.0075434805
71	0x3cc9798e	0.024594095
72	0x3cc8d732	0.024516676
73	0x3c0b6601	0.008508206
74	0x3d011656	0.03151544
75	0x3c7cc7f4	0.015428532
76	0xbd03d121	-0.032181863
77	0xbd0c3aea	-0.034235872
78	0xbbeaf34e	-0.0071701175
79	0x3c0ac848	0.008470602
80	0xbc050a43	-0.008120122
81	0x3d2735a1	0.04082263
82	0x3d1b0860	0.037849784
83	0x3d5e0bb0	0.054210365
84	0xbc9ffeaa	-0.019530613
85	0xbd315c8b	-0.043301146
86	0x3d4fd078	0.05073592
87	0x3d5f4251	0.054506604
88	0x3c34d92d	0.011038107
89	0xbc1c089f	-0.00952354
90	0x3ce714cc	0.028208159
91	0x3c59616a	0.013267854
92	0xbd49a243	-0.04922701
93	0xbd0ca9b9	-0.034341548
94	0x3d1f979b	0.03896294
95	0x3c8b6517	0.017015977
96	0xbbc04399	-0.0058674333
97	0x3ca96639	0.020678626
98	0xbd558b63	-0.052134883
99	0xbb8061a7	-0.003917891
100	0xbd312a5d	-0.04325329
101	0x3a114ee2	0.00055430655
102	0xbcb6f4ec	-0.022333585
103	0x3d6088a1	0.0548178
104	0x3d10305d	0.035202373
105	0xbc805111	-0.015663655
106	0xbd171d85	-0.036893386
107	0xbc9af7fa	-0.018917073
108	0xbb61d935	-0.003446174
109	0x3c1adc6a	0.009451965
110	0x3d52e11e	0.05148422
111	0x3b15173f	0.0022749451
112	0x3cb829ae	0.022480812
113	0xbd1f2248	-0.038851053
114	0x3d568a74	0.052378133
115	0x3bf79fc9	0.0075568897
116	0x3d04ed75	0.03245302
117	0x3cc65476	0.024210196
118	0x3d0c7abf	0.034296747
119	0x3c485639	0.012227588
120	0xbc87f6df	-0.01659721
121	0xbcc86ab8	-0.02446495
122	0x3d46922f	0.048479255
123	0xbb0ed296	-0.0021793
124	0x3cc3f5e3	0.023920959
125	0x3c254336	0.010086825
126	0xbc8c87db	-0.017154625
127	0xbc191268	-0.009342767
128	0x3ce92276	0.028458815
129	0x3baf996e	0.0053588664
130	0xbb8360fe	-0.004009365
131	0xbd4a7c7c	-0.049435124
132	0x3d2105e9	0.039312277
133	0x3ce86a92	0.02837113
134	0x3d58370c	0.05278687
135	0x3ccc2d6c	0.024924003
136	0x3c577fa0	0.013152987
137	0xbd200dcc	-0.039075658
138	0xbc9230d8	-0.017845556
139	0xbd486752	-0.04892666
140	0x3c573b10	0.01313664
141	0xbb7392f0	-0.003716644
142	0x3d5712c0	0.052508116
143	0x3bc62462	0.0060468176
144	0x3bd88e5f	0.006608769
145	0xbc9ed15a	-0.019386936
146	0x3d18eaf7	0.037333455
147	0xbcfcdcbc	-0.030866973
148	0xbcc94e94	-0.024573602
149	0xbd474fdc	-0.048660144
150	0xbd324432	-0.043522067
151	0x39a24ba6	0.0003095541
152	0x3d4fea4e	0.05076056
153	0xbc9e99ec	-0.019360505
154	0xbd301906	-0.042992614
155	0xbcd11acc	-0.025525473
156	0x3c0ed480	0.008717656
157	0x3c819017	0.015815778
158	0xbd30988d	-0.043114234
159	0xbd67f20e	-0.056627326
160	0xbbec7c93	-0.007216999
161	0xbd1ab948	-0.037774354
162	0xbd19fa9a	-0.037592508
163	0xbd0c86bd	-0.034308184
164	0x3ca13a99	0.019681262
165	0x3d0bf498	0.03416881
166	0x3d30d493	0.043171477
167	0xbc991c64	-0.018690296
168	0xbcc443bc	-0.02395808
169	0xbbc42fd8	-0.0059871487
170	0xbd55e5b2	-0.052221008
171	0xbc887b97	-0.016660495
172	0xbbd35c6c	-0.0064502265
173	0xbd3bc4fc	-0.045842156
174	0xbd02caff	-0.031931873
175	0xbcf0f461	-0.029413404
176	0xbbc1a45f	-0.005909487
177	0xbd519c16	-0.051174246
178	0xbc14f2ee	-0.009091122
179	0xbca714dd	-0.02039569
180	0xbc87f276	-0.016595107
181	0x3c95fa43	0.01830781
182	0x3bb6b821	0.005576149
183	0x3cd6cb6d	0.026220048
184	0x3d50fc19	0.05102167
185	0x3d2f692d	0.042824913
186	0xbd1d5150	-0.038407624
187	0xbd595fab	-0.05306975
188	0x3cbc135d	0.022958452
189	0x3d4e2ce1	0.05033577
190	0x3d2ef5d0	0.042714894
191	0x3b95a76e	0.0045670783
192	0x3cfc9204	0.030831344
193	0x3ce0a63f	0.027423022
194	0x3ce7f543	0.028315192
195	0xbcb455ba	-0.022013534
196	0x3d08f0da	0.03343282
197	0xbcd2f915	-0.025753537
198	0xbce9c779	-0.028537499
199	0x3c7f1f04	0.01557136
200	0xbc9ad298	-0.018899247
201	0xbca4defd	-0.02012586
202	0xbd6794a4	-0.05653824
203	0xba429b46	-0.000742365
204	0xbd3e63b4	-0.046481803
205	0x3c72236e	0.014778955
206	0x3c787acc	0.015165996
207	0xbcb3f0f8	-0.021965489
208	0xbc501417	-0.012700102
209	0xbcfedab4	-0.031110145
210	0x3c8dfc42	0.0173322
211	0xbaf1d449	-0.0018450107
212	0xbba39e76	-0.0049932553
213	0xbbe6b2d7	-0.0070403623
214	0xbc1f0669	-0.009706118
215	0xbd1ff673	-0.03905339
216	0xbd3225c1	-0.043493036
217	0xbd025d73	-0.0318274
218	0x3d2969bc	0.0413606
219	0xbd07965d	-0.033102382
220	0xbc9b2aeb	-0.018941363
221	0xbd65fc88	-0.056149036
222	0xbbda0f00	-0.00665462
223	0x3c8bac70	0.017049998
224	0x3d014f56	0.0315698
225	0x3c731c59	0.014838302
226	0x3c466e49	0.012111255
227	0x3d3a35d2	0.045461483
228	0xbd1f70ba	-0.038925864
229	0x3c465bd8	0.012106858
230	0xbcf97966	-0.030453395
231	0xbd01bd85	-0.03167488
232	0xbd40cc9d	-0.047070134
233	0x3cac99a0	0.021069348
234	0xbbeae51b	-0.007168425
235	0xbd3c2cae	-0.045941047
236	0x3cea99db	0.028637817
237	0xbd31e294	-0.043428972
238	0xbbb9f294	-0.0056746695
239	0xbc117b50	-0.008879498
240	0xbcad667a	-0.021167029
241	0xbd0a35cf	-0.033742722
242	0xbd6950d1	-0.05696184
243	0xbce6ecfc	-0.028189175
244	0x3a8a3c9b	0.0010546626
245	0x3b907583	0.0044085397
246	0xbca4586a	-0.02006169
247	0xbcbcbe36	-0.023039918
248	0xbca33329	-0.019921856
249	0x3ccffa94	0.02538804
250	0x3c9cd175	0.019142846
251	0x3d07fc15	0.03319939
252	0xbd03788d	-0.032097388
253	0x3ce52372	0.027971003
254	0xbcb3eb21	-0.021962704
255	0x3cb712e3	0.022347873

layers.0.bias f4 [50]
0	0xbc31b0ec	-0.010845404
1	0x3d22d258	0.03975138
2	0x3bd9eedc	0.0066507887
3	0x3d256f53	0.04038937
4	0xbc922288	-0.017838731
5	0xbd70853e	-0.05872082
6	0x3d487e00	0.048948288
7	0xbd5a4d25	-0.053296227
8	0xbd050d6f	-0.032483514
9	0xbcc772d7	-0.024346752
10	0x3c8b3004	0.01699067
11	0xbd04ae06	-0.032392524
12	0x3d283402	0.041065224
13	0xbb8e5128	-0.0043431707
14	0x3d2fe055	0.04293855
15	0x3c87390c	0.016506694
16	0x3c9cab12	0.019124541
17	0x3d1a080e	0.037605338
18	0x3d4ae8aa	0.049538292
19	0x3d44d0b4	0.048050597
20	0x3b7421d5	0.003725161
21	0xbcade0dc	-0.021225385
22	0x3d105bc8	0.03524378
23	0xbc84b44d	-0.016199255
24	0xbced33e1	-0.028955402
25	0xbd4c1baa	-0.04983107
26	0x3c5a0674	0.013307203
27	0x3c65ea96	0.01403298
28	0x3b3c0b1c	0.0028693145
29	0xbd372497	-0.04471263
30	0x3d4d0711	0.050055567
31	0x3d297d74	0.041379407
32	0x3d3440d9	0.044007156
33	0x3c8c6295	0.017136851
34	0xbd2a705a	-0.041611053
35	0x3d05b68a	0.032644786
36	0x3d52ada0	0.051435113
37	0x3d490f8c	0.049087092
38	0x3d4000fd	0.046875942
39	0xbcd3b615	-0.02584366
40	0xbd4eebbe	-0.05051779
41	0x3c4360a6	0.011924898
42	0x3cfc479e	0.030795868
43	0xbce0a6a5	-0.027423212
44	0x3d115525	0.03548159
45	0x3c618985	0.013765697
46	0x3bc3c668	0.0059745796
47	0x3c53c291	0.012924806
48	0xbc9f5052	-0.01944748
49	0xbc553211	-0.013012425

layers.3.weight f4 [20, 50]
0	0xbd807e40	-0.0627408
1	0xb98b3839	-0.00026554035
2	0x3b40722e	0.0029364931
3	0xbdd362d2	-0.10321583
4	0x3d99c376	0.07507984
5	0x3d8d285c	0.068924636
6	0xbd848350	-0.06470358
7	0x3d6f74d4	0.058461025
8	0xbd27c769	-0.040961657
9	0xbdddcaec	-0.1082972
10	0x3df9a47b	0.12189575
11	0x3d499bbb	0.04922078
12	0x3c97ca81	0.018529179
13	0x3b92a800	0.0044755936
14	0x3a5fbf37	0.0008535268
15	0x3d6ea371	0.05826134
16	0x3de611d6	0.11233871
17	0x3e0c0159	0.13672389
18	0x3e0b9593	0.13631277
19	0x3d5760ff	0.052582737
20	0x3e09a50f	0.13441871
21	0x3c0c4b6f	0.008562907
22	0xbda7d199	-0.081942745
23	0xbd558fca	-0.05213908
24	0x3d666557	0.05624899
25	0xbd62e518	-0.055394262
26	0x3da5bbf0	0.08092487
27	0x3e025eef	0.12731527
28	0x3ddc2680	0.10749531
29	0x3c8fdb3f	0.0175606
30	0x3d93f940	0.07225275
31	0xbdf65ce0	-0.12029433
32	0x3e09f7be	0.13473412
33	0xbdaf88f1	-0.085710414
34	0x3d55a5c5	0.052160043
35	0x3cd27fb4	0.02569566
36	0x3c9ee478	0.019396052
37	0x3c954e40	0.01822579
38	0x39bec291	0.00036384587
39	0xbc225add	-0.009909359
40	0xbe0ca585	-0.13735016
41	0x3de99b98	0.1140663
42	0x3d89fef8	0.067380846
43	0x3e0c6a0e	0.13712332
44	0x3caa2694	0.020770349
45	0x3dadcf6c	0.08486828
46	0xbcb59560	-0.022165954
47	0xbdb9c534	-0.09070817
48	0x3cae7468	0.021295741
49	0xbc880de6	-0.01660819
50	0x3c4d10a1	0.012516172
51	0xbd2ad3d2	-0.041705914
52	0xbc2afd44	-0.01043636
53	0x3e0bab71	0.13639618
54	0x3de794c6	0.11307673
55	0xbdf5db72	-0.120047465
56	0xbdd1d72e	-0.102461204
57	0xbdb23c65	-0.087029256
58	0x3cf78a43	0.030217296
59	0x3d8ef885	0.06980995
60	0xbe0a411e	-0.13501403
61	0xbdeab88b	-0.1146098
62	0x3d02355a	0.03178916
63	0x3d852ea2	0.06503035
64	0xbd7688c3	-0.06018902
65	0xbddf2eec	-0.108976215
66	0x3dbb2038	0.091370046
67	0xbc86b8fc	-0.01644563
68	0x3ddd2f0e	0.107999906
69	0xbda22f6c	-0.07919201
70	0xbb41508f	-0.002949748
71	0x3def55a6	0.11686258
72	0x3e0e70a7	0.13910161
73	0x3d101088	0.035172015
74	0x3e00259b	0.12514345
75	0x3d99c604	0.075084716
76	0xbd9870c2	-0.07443382
77	0x3d210512	0.039311476
78	0x3e0fe67a	0.14052764
79	0xbda5a84b	-0.0808874
80	0xbdf2ef5d	-0.11862061
81	0x3dcaee23	0.09908702
82	0x392aabde	0.00016276489
83	0x3be33254	0.00693349
84	0x3d9ee98b	0.077593885
85	0xbd9de101	-0.07708932
86	0x3dd86c96	0.10567586
87	0xbd82c364	-0.06384924
88	0xbdbbf1e7	-0.091769986
89	0x3c137bea	0.009001711
90	0xbdff490a	-0.12465103
91	0xbce0d127	-0.027443482
92	0xbd48f1d8	-0.049058765
93	0x3b72b90c	0.0037036566
94	0xbd8230bd	-0.06356952
95	0x3c6ae780	0.01433742
96	0xbd3f481e	-0.046699636
97	0xbdfaf615	-0.12253968
98	0xbd1661ea	-0.036714472
99	0xbde9464b	-0.113903604
100	0xbc525fd7	-0.012840233
101	0x3e0b5bce	0.1360924
102	0xbdeabc0f	-0.114616506
103	0xbd3bb0a7	-0.045822766
104	0xbd25ba1c	-0.04046069
105	0xbdb02667	-0.08601075
106	0xbc124463	-0.0089274375
107	0x3dcb580b	0.09928902
108	0xbcd86429	-0.026414948
109	0x3de75b02	0.11296655
110	0xbc242b02	-0.0100200195
111	0xbd398006	-0.04528811
112	0x3dc4c1df	0.096072905
113	0x3e0643df	0.13111828
114	0x3dcf7cf1	0.101312526
115	0x3dee08be	0.11622761
116	0x3dbe228c	0.09283933
117	0xbde6e110	-0.11273396
118	0x3d377f68	0.04479924
119	0xbd0bc308	-0.034121543
120	0xbab543e5	-0.0013829438
121	0x3e0b9478	0.13630855
122	0x3d5d9ade	0.05410277
123	0xbc8afa04	-0.01696492
124	0x3d7baf5e	0.06144654
125	0xbdd43965	-0.1036251
126	0x3d1a38a8	0.037651688
127	0x3dd59466	0.104286954
128	0x3d3173c6	0.0433233
129	0x3e032350	0.1280644
130	0x3d9c8dac	0.07644209
131	0x3dee6258	0.11639851
132	0xbc81f7d3	-0.015865242
133	0x3dde6898	0.108597934
134	0xbdc05792	-0.09391703
135	0xbde32c31	-0.11092413
136	0xba63c500	-0.0008688718
137	0x3e02df60	0.12780523
138	0xbd95e07a	-0.07318206
139	0xbc5a22f4	-0.013313998
140	0x3de7b3e7	0.113136105
141	0xbdcf8b78	-0.101340234
142	0xbd777c9c	-0.06042157
143	0x3df7a01a	0.12091084
144	0xbdd8233b	-0.10553595
145	0xbb790000	-0.0037994385
146	0xbbce53e0	-0.00629662
147	0xbe119295	-0.14216073
148	0xbe107ff2	-0.14111307
149	0xbcf256fb	-0.029582491
150	0xbe065a88	-0.13120472
151	0x3e045da1	0.12926342
152	0xbe05d95f	-0.13071202
153	0x3c5ad08d	0.013355386
154	0x3db8fad4	0.09032217
155	0xbc57e21c	-0.013176467
156	0xbd860e4f	-0.06545698
157	0xbe0afa23	-0.13571982
158	0x3e0516e2	0.1299701
159	0xbd4ef22a	-0.050523914
160	0x3d4867a0	0.04892695
161	0xbd957b63	-0.07298925
162	0x3d8a3f25	0.06750325
163	0x3d85585a	0.06510992
164	0xbd0d2e4f	-0.03446799
165	0x3bbdd36a	0.005793025
166	0xbd8a5164	-0.06753805
167	0xbdca159a	-0.098674014
168	0x3db5530f	0.08853733
169	0x3d968017	0.0734865
170	0x3dd1ab30	0.102377295
171	0x3e05a929	0.1305281
172	0xbd242525	-0.040074486
173	0x3d25537b	0.040362816
174	0x3d803840	0.06260729
175	0xbd239276	-0.039934598
176	0xbbd75640	-0.006571561
177	0xbd51653d	-0.05112194
178	0xbdad2868	-0.084549725
179	0x3d8bd16e	0.06827055
180	0xbc940f22	-0.018073622
181	0x3e0d5d91	0.13805224
182	0x3e075802	0.13217166
183	0xbcfda45e	-0.030962165
184	0x3e10549b	0.14094774
185	0xbe0b0a3e	-0.13578126
186	0xbd8f40b1	-0.06994761
187	0x3dd5a82b	0.10432466
188	0x3e10f26b	0.14154975
189	0x3d7fd310	0.062457144
190	0x3d6de61b	0.058080774
191	0x3ddd02bd	0.10791538
192	0xbdd2f818	-0.103012264
193	0x3c2a2240	0.010384142
194	0xbc66c845	-0.014085834
195	0x3dbbffe8	0.091796696
196	0x3c6acca0	0.014331013
197	0xbd5b25de	-0.05350291
198	0xbd4b9b30	-0.049708545
199	0x3e010111	0.12598063
200	0xbc162ba2	-0.009165676
201	0x3d81878e	0.06324683
202	0xbdb14228	-0.086551964
203	0x3bd1f1a7	0.006406981
204	0xbd991e14	-0.0747644
205	0xbdee63ab	-0.11640104
206	0xbd622b86	-0.05521729
207	0xbd056014	-0.03256233
208	0xbd0b5dcb	-0.034024995
209	0x3d977d20	0.073969126
210	0xbbdaeafd	-0.006680845
211	0xbdbd76fe	-0.092512116
212	0x3dfd7b7a	0.12377067
213	0xbdc3640a	-0.09540565
214	0xbd9a266c	-0.0752686
215	0xbdad7ff7	-0.08471673
216	0x3d6bc168	0.057557493
217	0xbdc523d2	-0.09625973
218	0xbe0654c8	-0.13118279
219	0xbdfea25e	-0.12433313
220	0x3dd03e30	0.10168111
221	0xbd98c8d4	-0.0746018
222	0xbe10d22d	-0.14142676
223	0xbd6f1677	-0.058371034
224	0xbd589cc5	-0.052883882
225	0xbd8c57e0	-0.06852698
226	0x3daee95a	0.08540602
227	0x3db45c80	0.088067055
228	0x3d90e3d5	0.070747055
229	0xbdd5e68e	-0.104443654
230	0x3dab9f52	0.08379997
231	0xbde97cbc	-0.11400744
232	0xbe0a15ca	-0.13484874
233	0x3da3ca9c	0.07997629
234	0xbdd05a9e	-0.10173534
235	0xbdb8d0d5	-0.090242065
236	0xbde59f76	-0.112120554
237	0x3d7d5257	0.061846104
238	0x3d74f9ef	0.059808668
239	0xbd8a1331	-0.06741942
240	0xbd4391c8	-0.04774645
241	0xbc727600	-0.014798641
242	0xbd02aa60	-0.031900764
243	0x3ca61e34	0.020278074
244	0xbded9641	-0.11600924
245	0xbc6eabd0	-0.0145673305
246	0xbd82e822	-0.06391932
247	0xbdb38804	-0.08766177
248	0x3c0724c0	0.008248508
249	0xbd9dda76	-0.07707684
250	0x3d6d7487	0.057972457
251	0xbdbfae65	-0.09359435
252	0x3d2e1434	0.042499736
253	0x3dad30db	0.08456584
254	0xbdb45616	-0.08805482
255	0x3d147517	0.036244478

layers.3.bias f4 [20]
0	0xbcc57363	-0.024102872
1	0x3c810c40	0.015752912
2	0x3c4d5742	0.012533011
3	0x3cafa371	0.02144024
4	0xbdb870be	-0.09005879
5	0x3c425fd7	0.01186367
6	0xbdd1d504	-0.10245708
7	0x3df971b4	0.1217989
8	0x3d282259	0.04104838
9	0x3dd6c6d0	0.10487139
10	0x3de98b62	0.11403538
11	0xbd2445a7	-0.04010549
12	0xbdff2bf7	-0.124595575
13	0xbd02e278	-0.03195426
14	0xbd92b636	-0.0716366
15	0x3e023622	0.12715963
16	0xbe0114ca	-0.12605587
17	0x3d0e0aa5	0.03467812
18	0xbdcc060e	-0.09962092
19	0x3defaae6	0.11702518

layers.6.weight f4 [10, 20]
0	0xbd22970c	-0.03969483
1	0x3e45d79a	0.19320527
2	0xbdf53514	-0.119730145
3	0x3e25239d	0.16126867
4	0xbda3f75c	-0.080061644
5	0x3d3e8b40	0.046519518
6	0x3df4a46c	0.119454235
7	0xbd807f04	-0.06274226
8	0x3e5502f9	0.20801915
9	0x3c6e3d5b	0.0145409955
10	0x3dbc7a9e	0.09203075
11	0x3dc0b85d	0.094101645
12	0xbe03e191	-0.12879016
13	0x3e4c5907	0.19955836
14	0xbd82f461	-0.06394268
15	0x3cfb197a	0.030651797
16	0x3cde855d	0.027163202
17	0xbe22fb8f	-0.15916274
18	0x3d86afc2	0.06576492
19	0x3c9b76c7	0.018977536
20	0x3e13487e	0.14383122
21	0xbdd38c9d	-0.10329554
22	0xbe27a9fb	-0.16373436
23	0xbe3a91eb	-0.18219726
24	0x3db868c8	0.090043604
25	0xbe1e08a0	-0.15432978
26	0x3da14898	0.07875174
27	0xbc5eb5d2	-0.013593154
28	0xbd17a46c	-0.03702204
29	0xbe16ac7e	-0.14714238
30	0xbe4e803b	-0.20166104
31	0x3d5bb079	0.053635094
32	0xbca1566a	-0.019694526
33	0xbd1b7152	-0.037949868
34	0x3db0c800	0.08631897
35	0xbe5c8244	-0.21534067
36	0x3e03613a	0.12830058
37	0x3e23cf7e	0.1599712
38	0x3d3baf1e	0.0458213
39	0x3d9d0fb3	0.0766901
40	0x3e21cda4	0.15801102
41	0x3dab5658	0.08366078
42	0x3e182b6d	0.14860316
43	0xbdbece7d	-0.09316728
44	0x3db4493e	0.08803032
45	0xbd9a04f3	-0.07520475
46	0x3d3feecd	0.046858598
47	0x3defc0b2	0.117066756
48	0x3e12428e	0.14283201
49	0x3e1ee7c5	0.155181
50	0xbcc9d8f2	-0.02463958
51	0xbbd813b1	-0.0065941443
52	0x3e463b2c	0.1935851
53	0x3d2f5fa4	0.04281582
54	0x3d582946	0.052773736
55	0x3d635087	0.05549672
56	0x3dbefbe1	0.09325386
57	0x3d7db924	0.061944142
58	0x3ca4454f	0.02005258
59	0xbe44f57a	-0.19234267
60	0xbe5c8ff9	-0.21539296
61	0xbd0ced8a	-0.034406222
62	0xbd967f52	-0.07348503
63	0x3e3fc861	0.18728782
64	0x3d60e020	0.054901242
65	0x3e239cd0	0.15977788
66	0x3d37e2a0	0.04489386
67	0x3d7a4a97	0.06110629
68	0x3e2dc559	0.16969813
69	0xbc053924	-0.008131299
70	0x3e1bd9e4	0.15219837
71	0xbd71dc9c	-0.05904828
72	0xbd5cff46	-0.053954385
73	0x3d9233ee	0.07138811
74	0xbd278237	-0.040895667
75	0xbd94b309	-0.07260711
76	0xbbaea9d5	-0.005330304
77	0xbd915269	-0.070957966
78	0x3ccd4e7c	0.025061838
79	0xbc6d9321	-0.01450041
80	0xbd1e1870	-0.038597524
81	0xbd2d5bc4	-0.042323843
82	0xbe4d7081	-0.20062448
83	0x3e45a0f6	0.19299683
84	0xbda4caa2	-0.08046462
85	0x3dea5efe	0.114438996
86	0xbe3d8c04	-0.18510443
87	0xbe54a89d	-0.20767446
88	0xbe079477	-0.13240229
89	0x3d047c2b	0.03234498
90	0x3d99439b	0.07483598
91	0x3e59f786	0.21285829
92	0x3d9016d4	0.07035604
93	0xbcf2168a	-0.029551763
94	0x3e1c7e8c	0.15282649
95	0x3e15141b	0.14558451
96	0xbe507a71	-0.20359208
97	0x3d717925	0.058953423
98	0x3de215f8	0.110393465
99	0x3dd6a8ec	0.10481438
100	0xbd818b69	-0.063254185
101	0xbdee81d5	-0.11645857
102	0xbd896d26	-0.067102715
103	0xbddc366e	-0.10752569
104	0x3e3df1b8	0.1854924
105	0x3e3a1a53	0.18174104
106	0xbdcca518	-0.09992427
107	0xbe401967	-0.1875969
108	0xbe4401b3	-0.19141273
109	0xbe12996d	-0.1431634
110	0x3e14b060	0.14520407
111	0x3d103f82	0.035216816
112	0xbddea892	-0.10871996
113	0xbe065b33	-0.13120727
114	0xbbeadf5a	-0.007167739
115	0x3dbd2a6d	0.09236608
116	0xbd466e5a	-0.048445083
117	0xbe63036f	-0.22169279
118	0xbbd3d48a	-0.0064645456
119	0xbe04beaf	-0.12963365
120	0xba98c589	-0.001165555
121	0x3d87f0d5	0.06637732
122	0xbe41b68a	-0.1891729
123	0xbe065baa	-0.13120905
124	0xbdb2f20c	-0.08737573
125	0x3c8e00e0	0.017334402
126	0x3cb62689	0.022235172
127	0x3dbc73bd	0.09201763
128	0x3dd34a0b	0.10316857
129	0x3ca0f4f6	0.019648056
130	0xbdafd494	-0.08585468
131	0xbe5f016d	-0.21777888
132	0x3d3270c0	0.043564558
133	0x3dd5a6f1	0.10432232
134	0xbbbffa20	-0.0058586746
135	0xbe2215b9	-0.15828599
136	0xbb41bf22	-0.0029563387
137	0xbe00771b	-0.12545435
138	0xbdb9699c	-0.090533465
139	0x3e0fd1b8	0.14044845
140	0xbdaa103d	-0.083038785
141	0xbe58810c	-0.21142977
142	0xbe5b8108	-0.2143594
143	0x3e093a78	0.1340121
144	0x3d7ab306	0.061205886
145	0x3e3f9c6e	0.18712017
146	0x3e056a54	0.13028842
147	0x3e36e097	0.17859112
148	0xbdaa5177	-0.083163194
149	0x3d54a8f2	0.05191893
150	0xbd8c9f34	-0.06866303
151	0xbd73beb4	-0.05950804
152	0xbe0d7139	-0.13812722
153	0xbe431093	-0.19049291
154	0xbd63a2dc	-0.055575237
155	0xbe1bc572	-0.15212038
156	0xbd502d0c	-0.05082421
157	0x3e1f06c7	0.15529929
158	0xbdf6a3b7	-0.12042945
159	0xbd4a94d0	-0.049458325
160	0x3d86575e	0.06559633
161	0xbd87ee04	-0.06637195
162	0xbe5987f2	-0.21243265
163	0x3de36d8e	0.1110488
164	0xbde700c9	-0.11279447
165	0xbd015eeb	-0.03158466
166	0xbe118a52	-0.14212921
167	0xbe196714	-0.14980727
168	0xbe0d801a	-0.13818398
169	0xbe0c72ad	-0.1371562
170	0xbe1eee5f	-0.15520619
171	0xbc66b4bf	-0.014081179
172	0x3e1fb232	0.1559532
173	0x3e0af8af	0.13571428
174	0x3db4ba3b	0.08824583
175	0x3e099124	0.13434273
176	0x3b5ef6c1	0.0034021589
177	0xbe15119c	-0.14557499
178	0xbe340d77	-0.17583261
179	0xbe4aeefe	-0.19817731
180	0x3d2dc532	0.04242439
181	0x3cabb3fe	0.02095985
182	0xbe1a5fdf	-0.15075634
183	0x3e5374be	0.20650002
184	0xbd40968a	-0.047018565
185	0x3de057be	0.109542355
186	0x3d8afbba	0.06786294
187	0xbd3e7ae5	-0.04650392
188	0xba8e00b4	-0.001083395
189	0xbe36da2b	-0.17856662
190	0xbd5eb58e	-0.054372363
191	0x3c071357	0.008244357
192	0xbe1e320f	-0.15448783
193	0x3e4544dd	0.1926455
194	0xbe333d82	-0.17503932
195	0xbd299924	-0.041405812
196	0xbe427e46	-0.18993482
197	0xbe34dcac	-0.17662305
198	0xbe5e77fd	-0.2172546
199	0xbc8a8d6d	-0.01691314

layers.6.bias f4 [10]
0	0x3ddb4d33	0.10708084
1	0xbde0ea0a	-0.109821394
2	0x3cf36e75	0.029715756
3	0x3e031e03	0.12804417
4	0x3d645d5f	0.055753108
5	0xbd34a1a8	-0.04409948
6	0xbe052a09	-0.13004316
7	0xbae25a4f	-0.0017269346
8	0x3c9a5ea0	0.018843949
9	0xbd9f32cb	-0.0777336

layers.9.weight f4 [2, 10]
0	0x3d3ab835	0.04558583
1	0xbd76d02c	-0.060257122
2	0xbe8eadbf	-0.27866933
3	0x3d1c4783	0.038154136
4	0xbde0f573	-0.10984316
5	0xbd496868	-0.049171835
6	0xbe4a9c6c	-0.19786233
7	0xbd497055	-0.049179394
8	0xbe924553	-0.28568515
9	0xbd3c94d8	-0.046040386
10	0x3e229a77	0.15879236
11	0x3e715ae3	0.23569827
12	0x3e2c33ab	0.16816585
13	0xbe88addb	-0.2669514
14	0xbe531f96	-0.20617518
15	0x3e64f4af	0.22358964
16	0xbe960821	-0.29303077
17	0xbd6028cb	-0.054726403
18	0x3e7c700c	0.24652117
19	0x3e7fb6f7	0.2497214

layers.9.bias f4 [2]
0	0xbe8c6723	-0.27422437
1	0x3e46cd59	0.19414271
