DHH/model/fc/model-fold-8.pth (torch, 70287 bytes, 8 tensors)

layers.0.weight f4 [50, 312]
00000000: 90e9 1cbd 6bbb 1f3d f7bf b8ba 93c2 2ebd
00000010: 6466 233c b3b0 7e3c ea65 fcbc 9923 d33c
00000020: d2db 76bc 716b 4ebd afa6 443d c1cb 103b
00000030: a20c 48bd beae 5d3c c168 38bc 855e 273d
00000040: d0a3 353d cbfb 63bd ce2d 3dbd cdc7 283d
00000050: 0bf3 eb3c 6e02 223d 942e d03c 47cb e5bc
00000060: 6587 7abb bbe3 e13c d7b9 cf3c 0dd9 153c
00000070: 3139 d23c a62c 5dbd 818e 9bbc 1e1d c8bc
00000080: 48a1 303c 8d8e b0ba a0de 3cbd 1af5 c1bb
00000090: d0aa 033d ec29 02bd 5eca 4ebd e472 883b
000000a0: 4739 23bd 3121 62bd 79ff 373c 9c01 3cbc
000000b0: 8444 3bbb b7bd 0bbc b433 e1bc 0817 473d
000000c0: 2774 1a3d 39dc 893c 29b4 15bd 3ad3 4abc
000000d0: b730 ca3c 7240 b53b 4003 57bd 62e4 2abd
000000e0: 45bc ba3c b5d9 38bb 67ce f13c 4692 ec3c
000000f0: d80b 8cbc 45e4 0f3d fba9 fc3c 64ec d3bc
00000100: ea39 49bc 8ff7 293d 6910 12bd 86fa b73c
00000110: c26a dfbc e0a8 323d 9dc1 cb3b 5dee 603d
00000120: 3b76 4b3d 1624 1b3a 3053 ce3c 7a95 50bd
00000130: 8f94 17bd cd1a a03c b9f0 9c3c 6fb2 133b
00000140: 550a a2bc 980c 033c aa39 62bd 520a 533d
00000150: 66d5 4b3d 7e41 5c3d 907f 5f3c 526b ddbc
00000160: 4ab5 54bc 83b7 0d3c f2f7 113b cb91 1bbd
00000170: 6293 4dbd 3a1a 7b3c 1c1d ccbc 697c 1cbd
00000180: eafb 173d d971 323c 0b86 e33c 673d 2abc
00000190: 714b 103d 2e7d a53c f19b 0a3d ca08 163c
000001a0: d1fb f7bc 0c5f 84bc 717f 38bd 1895 ccbc
000001b0: b251 bebc ce0d c83c f4ec 76bc 8fda ec3b
000001c0: 03fe b4bb a2b1 f4bb 0ad9 ffbb f37b bd3b
000001d0: 6d88 e43b b1cf 423d 50f6 a63c 0d91 0abb
000001e0: 31d4 603d 3a28 00bc 4a76 e2bc 0cf0 98bc
000001f0: aead a23c da27 f93c 8687 9bbc e55c 4ebc
00000200: c8ef 56bd 73e6 f1bc 2eb9 163d 5c22 2f3d
00000210: fec1 6a3d e4a7 473d 0fd0 553d 673a e03c
00000220: 0bd5 cabc d791 b33b 067b 2fbd bde1 0fbc
00000230: e1e9 023c b0b1 383d 784b 4c3d f176 f83a
00000240: 2313 d03b 8bc4 f93b 2f13 8bbc 3cae e63c
00000250: c152 babc edee 3a3d 6611 c4bc 21be 3b3d
00000260: d135 58bd bf79 5cbd 1382 4f3d 0fa6 303b
00000270: f561 b4bc b2e0 24bd d123 4f3d 5259 e2ba
00000280: 02f9 3b3d 2fdc 0e3d 29d6 543d 876a ef3b
00000290: e7c3 5bbd 51ba 7f3c f8b5 f5bb 8587 0abd
000002a0: bb6d 4abd 7d55 9bbc 9d82 5a3d ccdc 3d3d
000002b0: c8ea 9ebc e53f 533d 33ef 913c b230 09bd
000002c0: dd5f 1e3d 519a c5bb dea1 e8bc ff70 b2bc
000002d0: a6c6 d63c 079d 5b3d daaa 513c 309a 66bd
000002e0: bca5 3cbd f139 4cbc 07eb a3bc d1b6 e6bc
000002f0: 6d69 813c 36b1 653d 9b2e 433d 586c f8bc
00000300: 8a45 613c 8e9c 48bd 34bc 8b3c ba0e 0e3c
00000310: f9e3 a3bb 36bf 3bbd 7756 60bd bfa9 073d
00000320: 797b 7fbc f903 6cbc b233 3c3d aed8 2bbd
00000330: e043 b03c d97f e63c 89ce 473d 42a1 3a3d
00000340: f04a 3bbc 936a b8bc 0c5d 54bd bc66 183d
00000350: 48dd 45bd eb36 0fbd 1f93 2c3d 6fbb 58bd
00000360: d6b4 28bd bd58 8db7 9857 6bbd 1e8d 423d
00000370: 0ab1 38bd 116d 41bd 914e db3c 8c58 f13c
00000380: 1748 b73c 2dad 2abd ca18 f43c 191b bb3c
00000390: 656e c63c cb39 4c3d 0581 1d3d 7749 41bc
000003a0: 7a2a 2dbd bdfa 9abc 54e6 2f3c ef26 033d
000003b0: 4b49 8f3b 718a ac3c 2fe7 243d 55f0 38bd
000003c0: 1a23 0b3d 61df 413d 843b 04bd 377b 26bd
000003d0: 4fcd 4e3d eca7 2a3d 7e3e 59bd 8c07 603d
000003e0: a6bd bfbc 9831 38bc 9602 463d 04d4 83bc
000003f0: 8bb3 64bd 3a9a d13c ae9f da3c 645b 063d
-0.03830868 0.038997095 -0.0014095296 -0.04266603 0.009973142 0.015545058 -0.030810315 0.02577381
-0.015067058 -0.050395433 0.048010524 0.0022094103 -0.048840173 0.013530431 -0.011255444 0.040861625
0.044345677 -0.05566005 -0.04618626 0.04120617 0.028802415 0.0395531 0.025412835 -0.028051032
-0.0038227674 0.02757441 0.02535717 0.009145987 0.025662037 -0.05399766 -0.01898885 -0.024427947
0.01078064 -0.0013470218 -0.04611075 -0.005919111 0.03214532 -0.03177826 -0.05048596 0.0041640867
-0.039849546 -0.055207435 0.011230343 -0.011474993 -0.0028574774 -0.008529118 -0.027490474 0.04860595
0.037708428 0.016828643 -0.036548767 -0.012379462 0.024681432 0.005531364 -0.052493334 -0.04172171
0.022794852 -0.0028205935 0.029517366 0.028878342 -0.017095491 0.035129804 0.030842772 -0.025869556
-0.012281874 0.041495856 -0.03566018 0.022458326 -0.027272586 0.043618083 0.006218149 0.05491482
0.0496733 0.0005918158 0.025186151 -0.050923802 -0.03700691 0.01954403 0.019157754 0.0022536775
-0.019780317 0.007998608 -0.055230774 0.051523514 0.04976406 0.053773396 0.013641253 -0.027028713
-0.012982676 0.00864971 0.002227303 -0.037980836 -0.050189383 0.015326077 -0.024916224 -0.038204584
0.03710548 0.010891401 0.027773878 -0.010390616 0.035228197 0.020201292 0.033840124 0.009157369
-0.030271443 -0.016158603 -0.045043413 -0.024973437 -0.023232315 0.024420645 -0.015071142 0.0072282027
-0.0055234446 -0.0074674645 -0.0078078555 0.005782598 0.006974271 0.04756135 0.020381123 -0.0021143586
0.05488986 -0.007822091 -0.027644295 -0.01866915 0.019858208 0.03041451 -0.018985521 -0.01259539
-0.052474767 -0.029528832 0.036797695 0.042757377 0.05731391 0.048744097 0.052200373 0.027371598
-0.02475979 0.005480032 -0.042841934 -0.008781848 0.007990331 0.04509133 0.04987666 0.0018956346
0.0063499375 0.0076223067 -0.01697692 0.028159253 -0.022744538 0.045638014 -0.023934077 0.045835618
-0.0527857 -0.053827044 0.050661158 0.0026954447 -0.022019366 -0.04025335 0.050571267 -0.0017269051
0.04589177 0.034877952 0.05196205 0.0073064 -0.053653624 0.015608386 -0.007498499 -0.033820648
-0.049421053 -0.018961662 0.05334722 0.046353146 -0.019399062 0.051574606 0.017814254 -0.033493705
0.03866564 -0.006030359 -0.028397497 -0.021782396 0.02621777 0.05361655 0.012797082 -0.05629939
-0.046056494 -0.012464986 -0.02000953 -0.028163346 0.015797341 0.056077205 0.04765187 -0.0303251
0.01374949 -0.048977427 0.017057516 0.008670503 -0.0050015417 -0.04583665 -0.05476996 0.033120867
-0.015593403 -0.014405244 0.045947738 -0.04195469 0.02151674 0.028137134 0.04878095 0.045563944
-0.011431441 -0.022511756 -0.05184655 0.03720735 -0.048306733 -0.034964483 0.042132493 -0.052913126
-0.041188084 -1.6849832e-05 -0.057456583 0.04749786 -0.045090713 -0.047223154 0.026770862 0.029461168
0.022373242 -0.04166906 0.029796977 0.02284007 0.024222562 0.049859803 0.03845312 -0.011797301
-0.042276837 -0.01891839 0.010736067 0.03201955 0.004372751 0.021062108 0.040259536 -0.045151073
0.033969022 0.04733217 -0.03228332 -0.04064485 0.050488766 0.04166405 -0.053038113 0.054694697
-0.023405861 -0.011242293 0.04834231 -0.016092308 -0.055835288 0.025586236 0.02668747 0.032802

layers.0.bias f4 [50]
00000000: d5a3 403d 3588 fcbc c3e0 37bd 4a8a 703c
00000010: fb1c 113d 5893 2f3c f128 dcbc dc8e 44bd
00000020: 39da ccbc f933 edba 54a4 e2bc 2552 2dbd
00000030: 8b92 1cbd 8f75 113d 8284 22bd 3aed 4dbd
00000040: 5417 66bd a258 b33a 15d1 d03c b318 523c
00000050: e8b8 ad3b 816a 4a3d e492 58bb 46ca 07bd
00000060: b9b1 363c 3520 74bc 95d9 67bc b662 27bc
00000070: dece 89bc c574 5dbc 9951 3ebd 591d 163c
00000080: d505 34bc 9569 acbc 3941 46bd 0b07 04bb
00000090: bf27 343d c2d4 5f3d e99b f8bc a05c 063c
000000a0: 0ef8 b4bc 21b8 363b fe6f 09bd 85b9 0cbc
000000b0: dc7f fa3b ec8c 5fbd df35 b63c d5e1 573d
000000c0: 8eeb 6abc 1160 56bd
0.047031242 -0.030826667 -0.044892084 0.014681408 0.03542803 0.010716282 -0.026874991 -0.047987804
-0.0250064 -0.0018097154 -0.027666248 -0.042314667 -0.03822569 0.035512503 -0.03967715 -0.050275065
-0.05617459 0.0013683031 0.025490323 0.012823272 0.0053015836 0.049417976 -0.0033046538 -0.033151887
0.011150771 -0.014900257 -0.014150997 -0.010216406 -0.016822275 -0.01351661 -0.046464536 0.00916227
-0.010987719 -0.02104644 -0.048402045 -0.00201458 0.043983217 0.05464626 -0.030347781 0.008200794
-0.022090938 0.0027880745 -0.03355407 -0.008589153 0.0076446366 -0.054577753 0.022242485 0.052705605
-0.014338387 -0.05233771

layers.3.weight f4 [20, 50]
00000000: aca6 053e 5eeb 9cbd 04e4 c53d 16cc f83d
00000010: 80f5 01bc e511 b7bd 4987 693d 4aea f93d
00000020: 18e6 babd 3f5e 84bd c2b1 5c3c 0225 d83d
00000030: 18c8 5ebd 581c d3bc 2edb ccbd 8097 793d
00000040: 5739 95bd 842a a4bd 4eb4 95bd 26fc 153d
00000050: 3c32 88bc a782 7d3d cdf0 b93d d56a 883d
00000060: 4213 06bd 98c8 dd3d db8e ea3d b7c9 e9bc
00000070: cb7e b7bd 0350 d9bd 67da 0abe 4cd5 8cbd
00000080: 7853 d23c 4d0d 063e da9f 4ebd 888d 0c3e
00000090: abc8 0fbe ef5c dcbc 562d 1dbd 43c8 c8bd
000000a0: 6ca8 43bc 964f 9d3c 5706 8cbd fc76 36bd
000000b0: 5276 8b3c 13c5 94bd c35f 30bc bf83 ed3d
000000c0: f0ac ab3d 9ae4 b1bd c146 3ebc a2c1 f23d
000000d0: 6245 0c3e 3793 4bbd a325 0b3e 958b 4a3d
000000e0: d881 89bd 882a cf3d 6409 dfbb 8ab7 953b
000000f0: e6ab 323d 3f83 09bd f8c9 efbd 3edc a63d
00000100: 0949 efbd 483b 993d 2092 4abc bbf6 003e
00000110: 5d79 febb 0a5a f53d c8e8 8ebc 7491 8ebd
00000120: 6223 debd 803a fbbc 850b 73bc 8463 85bd
00000130: fde4 963d 5b76 d8bd c0f5 f1bc 5181 5bbd
00000140: e8f2 e8bd 8a81 c53d ca8d ad3d 7061 003e
00000150: f104 213d 1667 a83d b47f 8a3d fc58 063e
00000160: 0a09 303d 5640 a4bd 0572 99bd e2cd 11be
00000170: 883d c53c e446 5f3d 14cb e83c 68a9 e3bc
00000180: 2f74 313d 6ad8 febc 8590 503b 1dd5 a0bd
00000190: 92ce 90bd 0044 47ba e760 0fbe 7b89 aebc
000001a0: ccea aabd 5a00 0fbe d867 cebc 4650 e63d
000001b0: 32c3 a43d 4c57 b0bc 73f6 cfbd 1c91 933d
000001c0: 2dde e2bc 640d 7c3d 3867 c73d 7e69 fe3d
000001d0: 3277 0fbe 7832 abbd b38b 17bd c992 753c
000001e0: f027 50bd 2555 c8bd feb9 26bd c3f8 883d
000001f0: 3bbb b13d 41e7 013e aebd 8a3c 2a95 e63d
00000200: 949f 1dbd 43ea d13d ee08 9b3d d721 9dbd
00000210: 0668 d73d 30c9 073e 24cd 743d 186a b0bd
00000220: f6a2 3fbd d70e 903d f0f1 11bd 7a0a bfbc
00000230: bf29 453c 6271 c83d f9dc 063e 39a3 6cbd
00000240: 652f b4bd fceb b4bd d7c2 623d ba93 84bd
00000250: 2a3d fabd 8a91 f8bd 934d 0cbe 3ee5 d8bd
00000260: 6a10 873d 1dbe 083e e3ec 90bd 01ba 983c
00000270: 003a a03d 2a65 c9bd d97e 5d3c 715c b43d
00000280: 3995 80bd 545a a0bc eb6a 5e3c 6060 203d
00000290: 59a0 74bc 5fba fdbd 7c76 cfbd 7cb7 7ebd
000002a0: ecae e23d f11a fcbd faa2 d43d d9ce 9d3d
000002b0: ae32 f1bd baa1 0fbe f90a 313d 06c6 dabd
000002c0: 97f3 e6bc ca99 713c be65 7ebd 61d1 eebc
000002d0: 8a73 9a3d 724a de3d 3cf1 90bd 8425 f7bd
000002e0: ad43 c83d 5782 d5bd 28f6 5fbd 8796 acbd
000002f0: 08cb 01be cb52 d93d 5ae6 44bd 8fb8 b23d
00000300: 34e2 1fbd 3608 9b3d f667 f23d 9ada 053d
00000310: f459 af3d e423 fd3d 227d cf3d 40da 913d
00000320: 4018 4abd 1d97 11bd b7d1 603d 7eea abbc
00000330: 9074 78bc 444f 853d 2081 013e 1651 f1bd
00000340: 3c9b c33d bcfb bf3d ed18 023e 6c60 b53c
00000350: 112e b63d 9395 d3bd 0240 febd 3ad7 df3d
00000360: 3678 e0bd dcca f5bd 2faa ce3d b486 f2bd
00000370: 83ad 073e 1e14 133d a540 5bbd af5f 00be
00000380: c9d3 08be 9bcc 8a3d 3e1c 08be 9cea e43c
00000390: f72c 10be 55c5 5e3d c752 e7bd 611a fc3d
000003a0: 3978 033e bcf3 1a3d 44dd 9cbd 092d f03d
000003b0: 8332 c03d ccf0 8ebd 963e ee3d d531 cc3a
000003c0: 3659 03be b1ec ea3d 1429 803d 2840 01be
000003d0: f6b2 1f3d fb43 233d beec 0d3e d35d b5bd
000003e0: 12aa 08be ba78 fdbd 318f f33d 855f babd
000003f0: 6de3 29bd a46c 2dbd 375b 06be 608c 5e3d
0.13051862 -0.0766208 0.09662631 0.12148301 -0.007932067 -0.0893896 0.057013784 0.1220289
-0.09125918 -0.064632885 0.013470115 0.10553934 -0.054390043 -0.025770351 -0.10002743 0.060935497
-0.07286327 -0.08015922 -0.07309781 0.03661742 -0.016625516 0.061892178 0.09079132 0.066610016
-0.03273321 0.10829276 0.11453029 -0.028538568 -0.08959731 -0.10610964 -0.13559876 -0.06876621
0.025674567 0.13091011 -0.050445415 0.13725865 -0.14041393 -0.026899783 -0.038373314 -0.09803822
-0.01194201 0.019202989 -0.06837147 -0.044547066 0.017024193 -0.072641514 -0.010765019 0.11597394
0.083825946 -0.086861804 -0.011613549 0.11853339 0.13698342 -0.049700942 0.13588576 0.049449522
-0.06714219 0.10115534 -0.0068065394 0.0045689987 0.043620966 -0.03357243 -0.11708444 0.081474766
-0.11683852 0.0748201 -0.0123639405 0.1259412 -0.0077659325 0.11980064 -0.017444983 -0.06961337
-0.108465925 -0.030667543 -0.014834289 -0.06513122 0.07367895 -0.105694495 -0.029536128 -0.053590123
-0.11374456 0.09643848 0.0847431 0.1253717 0.039311353 0.08222787 0.06762639 0.13119882
0.04297737 -0.080200836 -0.074924506 -0.14238694 0.024077192 0.054510966 0.028417148 -0.02779074
0.043323692 -0.031109054 0.0031824422 -0.07853148 -0.0707065 -0.00076013803 -0.14001809 -0.02130579
-0.08345565 -0.13964978 -0.025196001 0.1124578 0.08045043 -0.021526001 -0.10154428 0.07205412
-0.027693832 0.061536208 0.09736484 0.12422465 -0.14010313 -0.083592355 -0.036998462 0.01498861
-0.050819337 -0.09781865 -0.04070472 0.066880725 0.086782895 0.12685873 0.01693615 0.112589195
-0.038482264 0.1024976 0.075700626 -0.0767247 0.10517888 0.1326034 0.05976595 -0.08613986
-0.04678627 0.070340805 -0.03563112 -0.023320425 0.012033879 0.09787251 0.13170232 -0.05777285
-0.08798102 -0.08834073 0.055361595 -0.06473489 -0.12218697 -0.121371344 -0.13701467 -0.105905995
0.065949276 0.13353772 -0.070764326 0.018643381 0.078235626 -0.09833749 0.013519012 0.08806694
-0.06278462 -0.019574322 0.013575296 0.03915441 -0.014930808 -0.12389063 -0.10130021 -0.062186703
0.1106852 -0.12309826 0.10382648 0.07705469 -0.117772445 -0.14026538 0.043223355 -0.10682301
-0.028192325 0.014746139 -0.062108748 -0.029152574 0.075415686 0.10854043 -0.07077262 -0.120677024
0.09778533 -0.10425251 -0.054678112 -0.08427148 -0.12675107 0.10611495 -0.048071243 0.08726608
-0.039034083 0.075699255 0.11836235 0.032679178 0.08562079 0.12360361 0.10131289 0.07121706
-0.049339533 -0.035544503 0.0548875 -0.020985838 -0.015164509 0.06509259 0.12646914 -0.11783044
0.09551093 0.093741864 0.12704821 0.022140704 0.08895505 -0.103312634 -0.12414552 0.10929723
-0.109604284 -0.12001583 0.10091054 -0.11842099 0.13249783 0.035907857 -0.053528447 -0.125365
-0.1336204 0.06777307 -0.13292024 0.027943902 -0.14079653 0.05438741 -0.112950854 0.12309719
0.1283883 0.0378301 -0.076593906 0.1172734 0.09384634 -0.06979522 0.11633031 0.0015578816
-0.12827 0.114709266 0.06257835 -0.1262213 0.03898903 0.039859753 0.13859841 -0.08855786
-0.13346127 -0.123765424 0.11892546 -0.0910025 -0.041476656 -0.042339936 -0.13120733 0.05433309

layers.3.bias f4 [20]
00000000: d958 41bd 92b7 30bd 8142 243c 49ec a53c
00000010: 640b 873d a969 80bd 8c00 8d3c ff83 213d
00000020: 8d12 4f3d 7f96 e73d 1a41 efbc 5a6a 9d3d
00000030: be96 213d ba1d 0a3d 6912 183d 27cc b13c
00000040: a1bf 9ebc 0b70 31bd 3132 693d 3c79 e73c
-0.047203872 -0.043143816 0.010025621 0.020254271 0.065939695 -0.06270153 0.017212175 0.039432522
0.0505548 0.11308002 -0.029205848 0.076863006 0.0394504 0.033719756 0.037126932 0.021703793
-0.019378485 -0.043319743 0.056932632 0.028256051

layers.6.weight f4 [10, 20]
00000000: 5fb6 c33d 4523 48be 6157 c13c 301e d43a
00000010: 0d16 2cbd cf4d c0bd 4a3e 473c cc42 bf3d
00000020: 69bd 283d d502 0bbd e88b 3f3e b02a d1bd
00000030: fb5e 56be c17c a43a e232 04be 9027 8cbd
00000040: 2e33 243e d0ed 183d 4e6e 44bd f216 1d3e
00000050: 8d9a 9bbd 3d78 cdbc 46f6 603e e84b 4c3d
00000060: f216 47be 8f6c 553d 798b a33d e14c 563e
00000070: a398 2fbe a1f0 2b3e 3ee7 f83d 35a2 3cbe
00000080: 1f85 3c3e baac 51be ffa7 93bd 9748 0fbe
00000090: fd48 debb 4583 9abd 2587 ad3c 16dd 853b
000000a0: d9d6 223e 8fb3 3abe 793a d2bd 2420 38be
000000b0: 81ef 123e ff59 33be 761f 32be 7b50 5e3e
000000c0: 5e82 623e 1a0c 17be 80ec a23d 9c4e b0bd
000000d0: bcea 0cbe 5f46 613d 47f2 893d 169f ef3c
000000e0: dd6f cb3d c965 11be ee07 b3bd 4ac9 453c
000000f0: 9d4a 5a3e 617a 40be 64e9 46bc cf96 5ebe
00000100: e080 54bb 6a57 0d3d a437 35be 2245 3c3e
00000110: 6830 fb3d 675a d53d a508 b63d 2df9 4f3e
00000120: 0de4 5dbe 2151 8c3d c77c 52be aa58 363e
00000130: 36e9 d7bd 5605 a4bc e76b d53d 7f79 8bb9
00000140: 51e4 1fbe 4d52 603e 061d 67bd 8a05 c3bd
00000150: fbcc d6bd ad5e a6bd 0631 be3d dcff 1e3e
00000160: 2747 06be 889c 14be 6afd 00be 7303 623e
00000170: ab2e d13d 5410 563d af5d 5a3d e5b2 c53d
00000180: e900 e9bd 35d5 86bd 8ae6 133e 0168 f2bd
00000190: 31e2 0d3e 6518 87bc a1a3 38be 880e f8bd
000001a0: 60da 04bc 1bab 15be ba97 06be 4172 14be
000001b0: 83df 27be 08b3 433d 10b0 a23d 6905 80bd
000001c0: d275 25bd d478 0cbe cf30 89bd 82dc 4c3e
000001d0: 5aa9 4f3e 5acc 60bd 0797 df3d 21e5 27bd
000001e0: 5c4b 143e fb74 40be 7e01 0dbe 0fbc da3d
000001f0: e721 e53d 8a20 14be eae8 39be 0657 36be
00000200: dfd3 ed3d 4383 3dbd 5eb1 48be c484 19bc
00000210: b6df 483e bbf8 18be d17a 4f3e 3dd4 cabd
00000220: 827b 5dbe d42f f23a 747d f5bd c453 733d
00000230: de79 c33d fa07 16be 6580 cfbc 9409 38be
00000240: e894 d1bd 8411 5dbd d827 603e 14fd a93b
00000250: daaf afbd 7275 0e3e 4201 e4bd 1895 d3bd
00000260: 2729 8abd 01dc d23d 048d 03be 940d c5bd
00000270: e7dd 133d 83b6 593e fb4b 4dbb 690c a8bd
00000280: ac15 cd3d 3563 d9bd 779b 393e 3c8d 3b3e
00000290: 9f88 3ebe 971c 51be 5a26 8f3d 0dcb fe3d
000002a0: 9ec3 50be a270 d1bd 95d7 debd 341c 4dbe
000002b0: e860 43be f30d bebd cff3 54be 0bd8 f8bd
000002c0: 6deb 043d 64cc bb3d cf12 2d3e 77a7 393e
000002d0: d633 c2bd 6903 03be a72e 4cbd 0df4 373e
000002e0: 759c 443e d57a 58bd 4f1b 0b3e 6d23 5c3e
000002f0: 17fd 893d 5c2c 2f3e e821 4bbe 1d01 da3d
00000300: b01f 523e c968 3ebc c270 d03d 42bc c03d
00000310: 3e8a babd 6254 d5bc 741a a7bd 8e6b a3bc
0.09556269 -0.19544704 0.023601236 0.0016183313 -0.042013217 -0.09389841 0.012160847 0.09338912
0.04119626 -0.033938248 0.18705714 -0.1021322 -0.2093467 0.0012549387 -0.12910035 -0.068434834
0.16035149 0.03733617 -0.047956757 0.15340784 -0.075978376 -0.025081748 0.21968946 0.049877077
-0.19442347 0.052105483 0.07985587 0.20927764 -0.1714807 0.16791011 0.12153481 -0.18421252
0.18410157 -0.20476046 -0.07209777 -0.13992535 -0.006783603 -0.07544569 0.021182606 0.0040851934
0.1590227 -0.18232559 -0.10265059 -0.1798101 0.14349176 -0.175148 -0.17394814 0.21710388
0.22120044 -0.1475071 0.07955265 -0.086087435 -0.13761419 0.05499875 0.06735664 0.029250663
0.099334456 -0.14198984 -0.08741747 0.012071917 0.21317525 -0.18796684 -0.012140606 -0.21737216
-0.0032425448 0.034507193 -0.17697006 0.18385747 0.12265092 0.104176335 0.088883676 0.20309897
-0.21669026 0.068514116 -0.20555411 0.1780726 -0.10542528 -0.020022076 0.10420971 -0.00026602668
-0.1561444 0.21906395 -0.056424163 -0.09522541 -0.10488316 -0.08123527 0.09286694 0.1552729
-0.1311308 -0.14512837 -0.1259667 0.22071628 0.10213979 0.052261665 0.053312 0.09653262
-0.11377127 -0.06583635 0.14443412 -0.118362434 0.13855816 -0.016491124 -0.1803117 -0.121121466
-0.008108705 -0.14616053 -0.13143817 -0.1449671 -0.16393857 0.04777816 0.079437375 -0.06251032
-0.040395565 -0.13717967 -0.066987626 0.20005992 0.20279446 -0.054882385 0.10917478 -0.04099
0.14481872 -0.18794625 -0.137701 0.106804006 0.11188107 -0.14465538 -0.18155256 -0.17806634
0.11612677 -0.04626776 -0.1959891 -0.009370033 0.19616589 -0.14938633 0.20261694 -0.099037625
-0.21629146 0.0018477389 -0.11986819 0.059406057 0.09544729 -0.1465148 -0.025329778 -0.17972404
-0.1023348 -0.053971782 0.21890199 0.00518764 -0.08578463 0.1391199 -0.111330524 -0.10331172
-0.067461304 0.10295869 -0.12846762 -0.096217304 0.036100294 0.21261029 -0.0031325805 -0.08205492
0.10013899 -0.10614625 0.18125711 0.18315595 -0.18606804 -0.20421062 0.06989737 0.124410726
-0.20387122 -0.10226561 -0.10880963 -0.2003029 -0.19079936 -0.09280004 -0.2079613 -0.12150582
0.032451082 0.09169844 0.16901706 0.18130289 -0.09482543 -0.1279427 -0.04984918 0.17964192
0.19200309 -0.052851517 0.13584636 0.21497889 0.06737726 0.17106766 -0.19837153 0.106447436
0.205199 -0.011621662 0.10177757 0.09410907 -0.09108399 -0.026041213 -0.081593424 -0.019948747

layers.6.bias f4 [10]
00000000: 2fb7 013e c744 123e b50a 113e 3588 5c3d
00000010: b207 253e 44c4 c23d 3f09 3dbe 7766 293c
00000020: 2346 b2bd e7ec 11be
0.12667535 0.14284049 0.1416424 0.053840835 0.16116217 0.09510091 -0.18460558 0.010339371
-0.08704784 -0.14250527

layers.9.weight f4 [2, 10]
00000000: a917 79bd b562 603e 76b3 e03c 4d3a 97be
00000010: 17e8 04be b23f 7d3e 431a 823e 4344 97be
00000020: 477e 553d 890c 43be d573 57be 178f 5d3e
00000030: 1261 573e b65a 273e 8fd3 2b3e ba4d 3a3e
00000040: 2997 0f3e 9b5e 7bbe 3a4f 2dbe 8b90 16be
-0.06081358 0.21912654 0.027429324 -0.29536667 -0.1297916 0.24731329 0.2541066 -0.29544267
0.05212238 -0.1904775 -0.2104028 0.21636616 0.21033123 0.16343197 0.16779922 0.18193713
0.14022507 -0.24547808 -0.16924754 -0.14703576

layers.9.bias f4 [2]
00000000: d8f0 45be b08a 83be
-0.19330156 -0.25691748
