DHH/model/fc/model-fold-8.pth (torch, 68239 bytes, 8 tensors)

layers.0.weight f4 [50, 302]
0.040014263 -0.040446598 0.0542011 0.053762626 -0.03335377 0.0015012777 -0.016920464 -0.049680363
-0.034942314 -0.022529438 0.021174211 0.041527685 -0.037431337 -0.015890826 -0.023934957 -0.020170998
-0.027382687 0.02841242 -0.031170668 0.053749185 -0.044869877 -0.053965632 0.017918285 -0.050337046
-0.027337667 -0.010417268 -0.023199167 -0.036973644 0.039837178 0.007380385 0.034254346 0.02366997
0.021987822 0.048662964 0.036191266 -0.009770658 -0.049938384 -0.01536745 0.0045514167 0.04497649
0.01138987 0.01380052 -0.005336312 0.038459253 0.012312729 0.03767095 -0.009225555 -0.05603958
-0.024513703 0.014708121 -0.04981168 -0.014898042 -0.026745137 0.0126420455 0.004583098 0.0074997805
0.03549065 0.014604878 -0.017092623 -0.014111571 -0.045112856 0.035093825 -0.018086553 0.049824316
-0.03319987 0.009574886 0.052243855 -0.035496484 0.05369636 -0.021398176 0.042287435 -0.02193804
-0.04738149 -0.050251283 0.03743716 -0.039637186 0.039032314 0.03198308 -0.009857498 0.012060922
0.010332178 0.029595178 -0.053180654 0.044865947 -0.012265969 -0.032605447 0.004497502 0.036875498
0.056557897 0.03334249 -0.039475933 -0.020673499 -0.052501664 -0.0066933744 -0.019957017 0.03056127
-0.014753003 -0.007793408 -0.023753187 0.026972566 -0.025085282 0.002769839 0.047775943 -0.010739006
-0.055855267 0.027366433 0.031272966 -0.019424055 -0.040074714 0.023008395 -0.04052587 -0.0009492971
0.050459202 0.012089007 0.025003646 -0.022554051 -0.015651606 -0.012213524 0.021310005 -0.044413358
0.016832763 -0.01218003 -0.02694048 0.0011908673 0.028358418 0.03517544 0.053449992 0.0016305079
-0.03841483 -0.05639512 0.036879506 0.045289066 -0.008903559 0.048723776 -0.05211544 0.0060611814
0.0024251528 0.012462627 -0.031216627 -0.0019025803 0.042759698 0.028973253 -0.045486826 0.05025254
-0.013116725 0.03910887 0.0074342773 -0.028213557 -0.037022337 0.027800638 -0.0070699677 0.03320842
-0.006487855 0.014659245 0.017755006 0.017085422 -0.041855976 0.015343178 0.043449316 -0.014530192
0.0548944 -0.016255166 0.015814174 0.011039507 -0.0008171573 0.028557058 0.022442024 0.03780858
0.006372776 -0.002157282 -0.044836402 0.016354311 0.017017197 -0.006122064 0.036830943 0.04844104
-0.029604016 0.020192225 -0.030173806 -0.04767973 -0.026829397 0.023747455 -0.05085321 -0.0037155896
-0.04167124 0.04165568 0.009357262 0.0028523551 0.025550399 0.027925689 0.023892255 -0.049105834
-0.057342242 0.042495277 -0.036269404 0.037625547 0.015460741 0.033731285 0.029210728 -0.029252242
-0.026240282 -0.01165273 -0.028666127 -0.05236895 -0.025958 -0.055077277 -0.009005535 -0.05326775
0.016886208 0.0029454976 -0.024226934 -0.043906577 0.05238879 0.0034412679 0.050397035 0.04615098
0.026639776 0.05333249 -0.032442935 0.015136715 0.053482447 0.053682167 -0.0035089196 -0.013040494
0.038721588 -0.007613793 0.042793024 0.012538198 0.013838332 -0.024647024 -0.045483604 -0.023897523
-0.007937223 -0.055245135 0.040021595 -0.03370317 0.0526029 -0.032904282 -0.034175552 -0.0026802542
-0.054885358 0.0032563908 -0.04165334 0.031721998 -0.05055213 0.040520687 0.042421456 0.0061781146
-0.04173591 -0.004281942 0.053620633 0.0038258545 -0.015442178 0.035684947 -0.045509547 -0.0038431734
00000000: ffe5 233d 55ab 25bd f901 5e3d 3336 5c3d
00000010: f69d 08bd 85c6 c43a c99c 8abc a37d 4bbd
00000020: ac1f 0fbd a88f b8bc 8a75 ad3c ef18 2a3d
00000030: 9a51 19bd 7a2d 82bc 3e13 c4bc a63d a5bc
00000040: a851 e0bc 2ac1 e83c a159 ffbc 1b28 5c3d
00000050: 7ac9 37bd 110b 5dbd 5ec9 923c 382e 4ebd
00000060: 3ef3 dfbc 30ad 2abc 2e0c bebc ad71 17bd
00000070: 4f2c 233d 28d7 f13b 494e 0c3d 86e7 c13c
00000080: ce1f b43c d152 473d 4b3d 143d 1c15 20bc
00000090: 318c 4cbd c2c7 7bbc 0d24 953b 4539 383d
000000a0: 949c 3a3c 941b 623c 3bdc aebb 7387 1d3d
000000b0: 54bb 493c db4c 1a3d c826 17bc c289 65bd
000000c0: f6d0 c8bc 55fa 703c 5507 4cbd eb16 74bc
000000d0: 9e18 dbbc 9520 4f3c d02d 963b b8c0 f53b
000000e0: a55e 113d 4c49 6f3c d405 8cbc 3834 67bc
000000f0: 42c8 38bd 8bbe 0f3d 402a 94bc 9514 4c3d
00000100: 96fc 07bd fcdf 1c3c a7fd 553d c364 11bd
00000110: b7f0 5b3d 3a4b afbc 9735 2d3d 68b7 b3bc
00000120: 1813 42bd 4ad4 4dbd b557 193d 9a5a 22bd
00000130: 59e0 1f3d b100 033d 5881 21bc 2c9b 453c
00000140: 4c48 293c 9671 f23c f5d3 59bd 5bc5 373d
00000150: 34f7 48bc 4a8d 05bd c85f 933b c30a 173d
00000160: 41a9 673d 2392 083d 84b1 21bd 785b a9bc
00000170: fc0b 57bd 1854 dbbb e67c a3bc a15b fa3c
00000180: 94b6 71bc d85f ffbb 0b96 c2bc 92f5 dc3c
00000190: a67f cdbc 3086 353b b5b0 433d a8f2 2fbc
000001a0: 7ec8 64bd 922f e03c 1518 003d 321f 9fbc
000001b0: 6225 24bd 1a7c bc3c 74fe 25bd 40da 78ba
000001c0: 4fae 4e3d f810 463c 72d4 cc3c 46c3 b8bc
000001d0: cc37 80bc 3c1b 48bc 5292 ae3c c8ea 35bd
000001e0: dde4 893c c08e 47bc 48b2 dcbc e016 9c3a
000001f0: ea4f e83c 1f14 103d 61ee 5a3d c4b6 d53a
00000200: de58 1dbd 92fe 66bd f70e 173d 0781 393d
00000210: 3ce0 11bc 9592 473d 0077 55bd e09c c63b
00000220: 50ef 1e3b 0c30 4c3c 03ba ffbc 0060 f9ba
00000230: cb24 2f3d 5159 ed3c 6550 3abd 9bd5 4d3d
00000240: 88e7 56bc 9f30 203d 3d9b f33b 1e20 e7bc
00000250: bca4 17bd 2abe e33c 30ab e7bb 8d05 083d
00000260: 1398 d4bb 542d 703c f272 913c baf6 8b3c
00000270: 2c71 2bbd f461 7b3c e9f7 313d 0b10 6ebc
00000280: f3d8 603d 8e29 85bc ba8c 813c 0cdf 343c
00000290: 8036 56ba 7ef0 e93c 56d8 b73c 2bdd 1a3d
000002a0: b8d2 d03b 3061 0dbb 60a6 37bd 7af9 853c
000002b0: a667 8b3c 989b c8bb 0bdc 163d 1d6a 463d
000002c0: 1f84 f2bc 2a6a a53c 0f2f f7bc d24b 43bd
000002d0: 53c9 dbbc 068a c23c 754b 50bd 4081 73bb
000002e0: 76af 2abd 259f 2a3d 344f 193c 94ee 3a3b
000002f0: 124f d13c 6ac4 e43c b1b9 c33c 3323 49bd
00000300: b3df 6abd 870f 2e3d 3a8f 14bd 3f1d 1a3d
00000310: 0c4f 7d3c d129 0a3d 564b ef3c 66a2 efbc
00000320: dcf5 d6bc 18eb 3ebc 3ad5 eabc d380 56bd
00000330: dfa5 d4bc b698 61bd f48b 13bc 492f 5abd
00000340: f254 8a3c 4009 413b 9077 c6bc 62d7 33bd
00000350: a195 563d e586 613b 1f6d 4e3d cf08 3d3d
00000360: a93b da3c 2b73 5a3d e2e2 04bd fcff 773c
00000370: 6910 5b3d d5e1 5b3d e7f5 65bb cca7 55bc
00000380: 879a 1e3d 207d f9bb bd47 2f3d 046d 4d3c
00000390: 2cba 623c 8ee8 c9bc 044d 3abd bdc4 c3bc
000003a0: 200b 02bc b948 62bd afed 233d 560c 0abd
000003b0: 2376 573d a4c6 06bd aafb 0bbd 34a7 2fbb
000003c0: 78cf 60bd 2c69 553b b19c 2abd edee 013d
000003d0: c00f 4fbd 05f9 253d 1fc2 2d3d c871 ca3b
000003e0: 46f3 2abd 884f 8cbb 4fa1 5b3d 30bb 7a3b
000003f0: 3001 7dbc 612a 123d 3868 3abd c0dd 7bbb

layers.0.bias f4 [50]
-0.007633381 0.04854591 -0.0040123286 0.029516378 0.0037708976 0.016782502 0.031702947 0.0060622417
-0.015738726 0.046380114 0.040410418 -0.03419042 0.038288526 0.0006622641 -0.041574303 -0.052487545
0.01585299 0.051859483 -0.008033563 0.043042447 -0.055996887 0.027735919 -0.023830468 -0.008049927
0.0016324117 -0.010455892 0.0203618 0.038784858 -0.04652008 -0.025124341 -0.023341928 0.0115814395
0.009521875 0.013900256 0.042302735 0.024821714 -0.019022666 0.019420164 -0.016833976 0.030644227
0.017459534 -0.0046543954 0.028575731 -0.013593298 -0.025699433 -0.003061097 -0.04749124 0.0418545
-0.015509462 -0.041289907
00000000: 7121 fabb 13d8 463d da79 83bb 55cc f13c
00000010: 2a21 773b 757b 893c f3da 013d c5a5 c63b
00000020: 80ee 80bc 13f9 3d3d 6585 253d 410b 0cbd
00000030: 6ed4 1c3d cb9b 2d3a d149 2abd 2efd 56bd
00000040: 21de 813c 9c6a 543d 359f 03bc 474d 303d
00000050: fe5c 65bd 7036 e33c 1d38 c3bc d7e3 03bc
00000060: a6f6 d53a 314f 2bbc cacd a63c dfdc 1e3d
00000070: d78b 3ebd 90d1 cdbc 9237 bfbc 14c0 3d3c
00000080: a301 1c3c e6bd 633c a245 2d3d e856 cb3c
00000090: 6cd5 9bbc 0917 9f3c 68e7 89bc 9a09 fb3c
000000a0: 4c07 8f3c e683 98bb a717 ea3c 6db6 5ebc
000000b0: 9e87 d2bc b09c 48bb 2d86 42bd a06f 2b3d
000000c0: 661b 7ebc 9b1f 29bd

layers.2.weight f4 [20, 50]
0.020698914 -0.00624415 0.021727977 0.13174064 0.051039066 -0.12845838 0.008843717 -0.06551598
0.1358401 -0.111142285 0.008539051 0.11759542 0.06425992 0.08689743 0.049366545 -0.12825517
-0.10707973 -0.13331413 -0.1011131 0.014601037 0.0791861 0.13699 0.1010021 -0.1059642
-0.009196148 -0.048981808 0.04420657 0.10113757 0.111173786 -0.096683934 0.07634964 0.054629054
-0.030394943 -0.02505083 0.08240581 0.09687427 0.08102122 -0.12937655 -0.13475241 -0.12833682
-0.035655964 0.05388897 -0.07834789 0.12796295 0.0972504 0.10807605 -0.10034613 0.049493432
0.037985742 0.08129368 0.001788022 -0.09540545 0.0420298 0.03236325 -0.06851884 0.0041102096
-0.10663213 0.09564119 0.023906805 0.113803506 -0.06522378 -0.13796756 0.032216668 -0.13950853
0.13653284 -0.07193684 -0.11934053 0.05415086 -0.10622916 -0.08634585 0.013677078 0.104263134
-0.037863888 0.025139656 0.071765974 -0.12137962 -0.07217032 -0.07611108 0.05838572 -0.099482015
-0.13874264 -0.09502896 0.009317573 0.015769849 0.06428087 -0.024177285 -0.027647065 -0.035301697
-0.11830926 -0.0024921151 0.09017451 0.046863332 -0.006226142 -0.123230495 -0.05131946 -0.12365992
0.040163696 -0.035156585 -0.02105997 -0.005162474 0.07258423 0.032998905 -0.050340466 -0.0033117626
0.0007611429 0.11387575 0.0682533 -0.12982106 0.11870909 -0.068168364 0.107573494 -0.07025275
0.03448397 0.12553582 0.02652639 0.113252975 0.026002774 -0.112503745 0.12264348 -0.06074255
0.02631952 -0.030335702 0.082126796 0.0923022 -0.10520684 0.03984596 -0.09091014 -0.026381284
0.008902245 0.12857673 0.04465159 -0.12266802 -0.04776212 -0.122673936 -0.13498512 -0.047619045
0.057431683 0.11225416 0.12184066 0.0076778247 -0.11442891 0.07066641 0.014228508 0.053630978
0.02379179 -0.030192463 0.11749585 -0.04812634 0.030191436 0.123438776 0.077319846 0.012763373
0.055220563 -0.13602765 -0.111471385 0.05903511 -0.053280402 -0.05855439 -0.0600444 0.04122399
0.036816448 -0.032542627 -0.10379857 0.04758788 -0.10721854 0.03853904 -0.009993422 0.017195504
0.077919334 0.057282545 0.108767666 -0.03524105 0.060606036 -0.114879385 -0.011444686 0.085400894
-0.07632401 0.052342713 0.05933009 0.07409883 0.1103621 -0.13137585 0.022290217 0.049554516
-0.08373758 -0.037888996 -0.0719557 0.009615695 0.11020794 0.12282485 -0.03866703 0.020062812
-0.026572213 0.054261606 0.12078902 0.058787446 -0.10717091 -0.052133795 -0.114699766 0.014840096
0.084662914 -0.1359064 -0.13077915 0.05489826 -0.11404219 0.0942072 -0.038248017 -0.001427299
-0.1344393 -0.08354396 -0.07753879 0.004840275 -0.13095096 -0.06718154 0.030606486 -0.05342065
-0.0021925913 -0.0277938 -0.088416845 0.08759589 0.06520367 0.05151133 -0.10854588 0.099549726
0.005658624 -0.02961735 -0.06006604 -0.05622144 -0.02228973 0.040070716 -0.11746401 0.04859044
0.036522347 -0.13009241 0.11532514 0.08445783 0.019012274 -0.11942538 0.024714947 0.029313654
0.06824772 -0.12158237 0.039397597 0.079002455 -0.028726196 0.041191578 -0.103373766 -0.03991806
-0.03154252 -0.13267983 0.074418776 -0.115105554 0.073025934 -0.090716325 -0.013295547 0.06540029
00000000: c590 a93c ba9b ccbb dffe b13c 05e7 063e
00000010: 570e 513d 988a 03be 3de5 103c 3e2d 86bd
00000020: ab19 0b3e 919e e3bd 60e7 0b3c ded5 f03d
00000030: b49a 833d 48f7 b13d 9334 4a3d 5355 03be
00000040: 9e4c dbbd 8083 08be 6314 cfbd 3039 6f3c
00000050: 522c a23d 1b47 0c3e 30da ce3d c203 d9bd
00000060: 71ab 16bc 26a1 48bd f311 353d 3721 cf3d
00000070: 15af e33d 3a02 c6bd 335d 9c3d b7c2 5f3d
00000080: d1fe f8bc 6637 cdbc 61c4 a83d 0466 c63d
00000090: 74ee a53d 497b 04be 89fc 09be ba6a 03be
000000a0: fd0b 12bd aeba 5c3d dc74 a0bd b808 033e
000000b0: 382b c73d fa56 dd3d 4682 cdbd a0b9 4a3d
000000c0: f096 1b3d 4d7d a63d 105c ea3a ef63 c3bd
000000d0: 7127 2c3d 548f 043d 9b53 8cbd f0ae 863b
000000e0: f261 dabd 87df c33d 34d8 c33c d011 e93d
000000f0: 0c94 85bd 5e47 0dbe a0f5 033d 53db 0ebe
00000100: 44cf 0b3e 9f53 93bd cf68 f4bd 4bcd 5d3d
00000110: ad8e d9bd 18d6 b0bd d315 603c e987 d53d
00000120: 2a17 1bbd aef1 cd3c 0afa 923d e195 f8bd
00000130: 08ce 93bd 20e0 9bbd dd25 6f3d 3abd cbbd
00000140: 8d12 0ebe 8b9e c2bd bca8 183c c52f 813c
00000150: b0a5 833d 710f c6bc 197c e2bc 8398 10bd
00000160: 204c f2bd c152 23bb 6aad b83d c4f3 3f3d
00000170: aa04 ccbb 4560 fcbd 5b34 52bd 6a41 fdbd
00000180: b082 243d 5a00 10bd f585 acbc f829 a9bb
00000190: 0aa7 943d dc29 073d ce31 4ebd 280a 59bb
000001a0: 6f87 473a b037 e93d 63c8 8b3d d0ef 04be
000001b0: c01d f33d db9b 8bbd 7e4f dc3d ace0 8fbd
000001c0: 103f 0d3d 768c 003e df4d d93c 2df1 e73d
000001d0: c503 d53c 5d68 e6bd 812c fb3d 2ecd 78bd
000001e0: 099c d73c 9482 f8bc 1832 a83d f008 bd3d
000001f0: af76 d7bd 8435 233d 182f babd 901d d8bc
00000200: b9da 113c 9ea9 033e 96e4 363d 5f39 fbbd
00000210: 36a2 43bd 793c fbbd 8a39 0abe 300c 43bd
00000220: 7c3d 6b3d 82e5 e53d 9987 f93d 4396 fb3b
00000230: b459 eabd 8db9 903d b01e 693c 28ac 5b3d
00000240: 00e7 c23c 2f56 f7bc aaa1 f03d 2020 45bd
00000250: 0854 f73c 78cd fc3d de59 9e3d 771d 513c
00000260: f52e 623d d54a 0bbe 1c4b e4bd cdce 713d
00000270: 8d3c 5abd bad6 6fbd 1ef1 75bd 7dda 283d
00000280: d8cc 163d 6b4b 05bd 5894 d4bd 82eb 423d
00000290: 6595 dbbd 1ddb 1d3d 73bb 23bc 96dd 8c3c
000002a0: 2c94 9f3d 1aa1 6a3d 95c1 de3d eb58 10bd
000002b0: 093e 783d e245 ebbd 7e82 3bbc aae6 ae3d
000002c0: c34f 9cbd 5065 563d 1c04 733d 21c1 973d
000002d0: 8605 e23d 6487 06be f999 b63c adf9 4a3d
000002e0: 9c7e abbd 7e31 1bbd 835d 93bd 268b 1d3c
000002f0: b3b4 e13d 988b fb3d 5261 1ebd c45a a43c
00000300: f8ad d9bc 6b41 5e3d 3c60 f73d 1bcb 703d
00000310: 6c7c dbbd 3f8a 55bd b6e7 eabd e023 733c
00000320: c063 ad3d 0c2b 0bbe f8ea 05be ffdc 603d
00000330: f48e e9bd b4ef c03d f4a9 1cbd 3514 bbba
00000340: 75aa 09be 1819 abbd a8cc 9ebd 2b9b 9e3b
00000350: 0218 06be 7a96 89bd 74ba fa3c 9dcf 5abd
00000360: 94b1 0fbb d3af e3bc e413 b5bd 7965 b33d
00000370: 8089 853d 8bfd 523d 4d4d debd bae0 cb3d
00000380: fb6b b93b 16a0 f2bc cf07 76bd 7448 66bd
00000390: f498 b6bc 3121 243d f990 f0bd c506 473d
000003a0: 7598 153d f236 05be 962f ec3d 3af8 ac3d
000003b0: a1bf 9b3c 4b95 f4bd 0077 ca3c 3023 f03c
000003c0: 76c5 8b3d 2d00 f9bd 605f 213d 0acc a13d
000003d0: 3353 ebbc 80b8 283d a0b5 d3bd 1f81 23bd
000003e0: bb32 01bd 39dd 07be df68 983d 76bc ebbd
000003f0: 9f8e 953d 7bc9 b9bd 91d5 59bc 96f0 853d

layers.2.bias f4 [20]
-0.07785577 0.08187896 -0.042737648 0.14196011 0.09639083 0.03636883 -0.016446533 -0.022875868
-0.06211382 -0.108461715 0.032550566 0.049517408 -0.09884175 0.06900864 0.06100883 -0.11572779
-0.105102696 -0.13108443 0.09348236 -0.01053432
00000000: d972 9fbd 28b0 a73d ac0d 2fbd fe5d 113e
00000010: 8e68 c53d 7bf7 143d e1ba 86bc 2c66 bbbc
00000020: 106b 7ebd 2d21 debd be53 053d c4d2 4a3d
00000030: 8b6d cabd 6754 8d3d 65e4 793d b102 edbd
00000040: 1540 d7bd ff3a 06be ae73 bf3d 2498 2cbc

layers.4.weight f4 [10, 20]
0.15257825 0.08334246 0.08131874 -0.09236979 -0.21944313 0.107001856 -0.17979486 0.031914346
-0.11335176 0.12154007 -0.17940062 -0.116569094 0.15182842 0.1136735 0.09243546 0.21711126
0.18201739 -0.025463007 0.13475025 0.10872439 -0.058907464 0.026678413 -0.020548984 -0.17528051
-0.041451156 -0.06857826 0.16873905 -0.1826698 -0.0715138 -0.117292725 0.12141764 0.17667815
-0.22323763 -0.077509865 -0.033312574 -0.039293543 0.0031252503 -0.010109484 -0.21915245 -0.11972767
0.014395386 0.14552486 -0.03965774 -0.012440354 0.030054927 0.0022998601 0.19826332 -0.21270451
-0.18675132 -0.13910101 0.17452666 0.022880748 -0.08752425 -0.15265909 0.014533848 -0.060196057
0.062361956 0.1887697 -0.07669997 0.048410207 0.055037975 0.15042767 -0.08501613 0.0069140643
0.1658341 -0.041933477 -0.0010176748 0.13206965 0.03312105 0.15316126 0.062229723 0.108303964
0.022540003 -0.13729222 0.20550796 0.1361407 0.114782095 0.0855622 -0.0696381 -0.1805115
0.04491164 0.19235939 -0.03758679 0.18903337 -0.1469542 0.06412105 -0.18299422 -0.1564909
0.16316873 0.032796204 0.039203703 -0.0032221526 -0.122123554 0.07035847 -0.16636717 -0.0687826
0.08310571 0.0089401165 -0.18854232 -0.093197934 0.15916881 0.04348874 -0.09786289 0.20033155
0.1358524 -0.03309948 0.09071229 -0.12595022 -0.1812959 -0.06408736 -0.13608702 -0.14426668
0.02881558 -0.051408384 0.12425026 0.06302216 -0.14594641 -0.14060208 -0.022816237 0.064711675
0.05475969 0.16026962 0.09645632 -0.1016817 0.20425007 -0.20247276 0.15079619 0.1832982
0.09269053 -0.060149014 0.11723138 0.028963003 0.004774179 0.16641612 0.034737684 0.17199479
0.15872896 0.015315485 0.13501395 0.014126641 0.11006998 0.052050218 0.06893675 -0.1583086
-0.06198538 -0.13809174 0.1946985 -0.082965076 0.11149624 0.07311422 0.08603546 0.12219646
-0.06212615 -0.16383693 -0.14945641 0.05871682 -0.03960742 -0.02224305 -0.11900677 -0.02502647
0.16185418 -0.09662708 0.13532166 -0.09250168 -0.07134257 0.057247084 0.12547249 0.03257919
-0.21837923 0.08363646 -0.105562374 0.13207902 0.115166835 -0.09946824 -0.014359606 -0.16014041
0.16201335 0.07083559 0.13254978 -0.17172526 0.08995198 0.09350699 0.19613117 -0.0457528
-0.104983 -0.05568794 -0.16696958 -0.10578605 0.0024923384 -0.15806893 0.09152511 0.21733943
0.09155282 0.09311412 0.11111452 -0.06821232 -0.024451017 -0.14787643 0.19982275 -0.122279376
00000000: 793d 1c3e 74af aa3d 718a a63d 5f2c bdbd
00000010: b3b5 60be ca23 db3d 251c 38be 9eb8 023d
00000020: f824 e8bd 00ea f83d ccb4 37be c7bb eebd
00000030: e978 1b3e a7cd e83d cd4e bd3d 6a52 5e3e
00000040: c462 3a3e cc97 d0bc f8fb 093e e5aa de3d
00000050: f448 71bd b08c da3c 5856 a8bc bc7c 33be
00000060: b0c8 29bd c272 8cbd eec9 2c3e cb0d 3bbe
00000070: d475 92bd 2b37 f0bd d0a9 f83d 1eeb 343e
00000080: 6898 64be 7ebd 9ebd c472 08bd 44f2 20bd
00000090: 00d1 4c3b 40a2 25bc 8069 60be c833 f5bd
000000a0: a0da 6b3c 7804 153e 2870 22bd a0d2 4bbc
000000b0: c035 f63c 40b9 163b 8a05 4b3e 36cf 59be
000000c0: bd3b 3fbe 7f70 0ebe 1eb7 323e 6870 bb3c
000000d0: ea3f b3bd aa52 1cbe 601f 6e3c 2490 76bd
000000e0: 406f 7f3d d84c 413e e014 9dbd c849 463d
000000f0: 806f 613d b609 1a3e f01c aebd 608f e23b
00000100: 6ad0 293e 70c2 2bbd 8063 85ba 443d 073e
00000110: f0a9 073d 4ed6 1c3e 98e4 7e3d 78ce dd3d
00000120: d0a5 b83c 5596 0cbe ae70 523e 7868 0b3e
00000130: e012 eb3d 3c3b af3d 6c9e 8ebd 02d8 38be
00000140: 45f5 373d dcf9 443e 9bf4 19bd f791 413e
00000150: 297b 16be e651 833d d662 3bbe 273f 20be
00000160: b415 273e 5055 063d 1094 203d c02a 53bb
00000170: ea1b fabd 1a18 903d 285c 2abe e4dd 8cbd
00000180: 5433 aa3d 9179 123c 3d11 41be 8fde bebd
00000190: 26fd 223e 4021 323d 576c c8bd b723 4d3e
000001a0: e41c 0b3e 5293 07bd 5dc7 b93d 18f9 00be
000001b0: a2a5 39be 3c40 83bd 655a 0bbe a5ba 13be
000001c0: a70e ec3c 9991 52bd ec76 fe3d c311 813d
000001d0: fa72 15be fef9 0fbe 1ee9 babc 8e87 843d
000001e0: b24b 603d b81d 243e e48a c53d 7f3e d0bd
000001f0: ee26 513e 0555 4fbe 516a 1a3e 86b2 3b3e
00000200: 88d4 bd3d d05e 76bd 0117 f03d d243 ed3c
00000210: b770 9c3b fd68 2a3e 1a49 0e3d 671f 303e
00000220: d889 223e cded 7a3c 1941 0a3e 6d73 673c
00000230: 5f6c e13d 9c32 553d b62e 8d3d a61b 22be
00000240: 62e4 7dbd ec67 0dbe 0b5f 473e 98e9 a9bd
00000250: 2458 e43d e8bc 953d 5c33 b03d 2342 fa3d
00000260: fd77 7ebd dec4 27be 1a0b 19be 0c81 703d
00000270: 643b 22bd 0f37 b6bc d2b9 f3bd 5004 cdbc
00000280: 1abd 253e 6be4 c5bd c391 0a3e 8571 bdbd
00000290: 0e1c 92bd eb7b 6a3d dc7b 003e c271 053d
000002a0: ce9e 5fbe 9849 ab3d 1631 d8bd b93f 073e
000002b0: 97dc eb3d 01b6 cbbd 8e44 6bbc d9fb 23be
000002c0: d4e6 253e 4012 913d 21bb 073e bfd8 2fbe
000002d0: be38 b83d 9880 bf3d 9cd6 483e 4a67 3bbd
000002e0: 5401 d7bd 0a19 64bd 13fa 2abe 5ba6 d8bd
000002f0: 8056 233b d2dc 21be 8471 bb3d 3a8e 5e3e
00000300: 0b80 bb3d 9eb2 be3d 0290 e33d e7b2 8bbd
00000310: 804d c8bc eb6c 17be 569e 4c3e 9c6d fabd

layers.4.bias f4 [10]
-0.11144075 -0.016220853 -0.059891254 -0.103603 -0.19771463 -0.14376469 0.096911855 0.21834815
0.13381733 -0.1497109
00000000: 0c3b e4bd 98e1 84bc 8850 75bd cf2d d4bd
00000010: b475 4abe 0d37 13be b979 c63d a896 5f3e
00000020: 6907 093e d04d 19be

layers.6.weight f4 [2, 10]
-0.27341256 0.09827709 -0.013942897 -0.30536726 -0.0795882 0.30552632 -0.14335676 -0.3048349
-0.31336936 -0.06790474 0.09270792 0.06679416 0.05962783 -0.3094072 -0.26060072 0.03181173
-0.026943455 0.0042183697 0.2757243 -0.105426505
00000000: bbfc 8bbe 8045 c93d c070 64bc 1959 9cbe
00000010: 23ff a2bd f26d 9c3e 1dcc 12be 5213 9cbe
00000020: f371 a0be a411 8bbd a6dd bd3d 60cb 883d
00000030: 503c 743d 9f6a 9ebe 756d 85be 044d 023d
00000040: 85b8 dcbc 403a 8a3b bc2b 8d3e dae9 d7bd

layers.6.bias f4 [2]
-0.09118388 0.039226834
00000000: 9dbe babd 51ac 203d
