DHH/model/fc/model-fold-5.pth (torch, 70287 bytes, 8 tensors)

layers.0.weight f4 [50, 312]
000000 c9 ad 3b 3d 3b 17 90 bc 77 55 80 3c 68 90 0e 3d
       0.04582003 -0.017589202 0.015665753 0.034805685
000010 a5 7f 59 bd 4c 0e 44 bd 57 63 c0 bc d1 69 08 3c
       -0.053100247 -0.047865197 -0.023484869 0.00832601
000020 df c4 89 bc ed 24 2b bd 5d 9d 0d 3d 31 b3 f9 bc
       -0.016817508 -0.041783262 0.0345739 -0.030480953
000030 2a 38 0d 3d 55 95 a7 bc 2f 6a ef 3c a9 17 2f bd
       0.03447739 -0.02045695 0.029225437 -0.042747173
000040 6d a9 ff 3c 70 74 2d ba a7 5e 2b 3d f1 bd 24 3d
       0.031208718 -0.0006616777 0.041838314 0.040220205
000050 f5 94 1f 3d e7 f4 b1 3c 47 c9 4a bc 6e 10 3e 3d
       0.038960416 0.021723224 -0.01237709 0.046402387
000060 c5 68 86 bc 60 c8 b1 bc e6 ca 66 3d e0 db c3 bb
       -0.01640738 -0.021701992 0.056345843 -0.005977139
000070 73 a0 30 3c f2 5b 3f bc 5b b8 28 3c 68 9e c3 3c
       0.010780442 -0.011679636 0.01029786 0.023879245
000080 64 c2 6d 3d 91 f5 54 bd 5b 0c 52 bd ae 0a 12 3d
       0.058046713 -0.051992003 -0.051281314 0.035654716
000090 f7 7f 72 bc 2c a9 02 3c 78 a7 ed 3c 72 b8 c3 bc
       -0.014801017 0.007974904 0.02901052 -0.023891661
0000a0 6d 5f e0 bc 82 19 1a bd 4c 6a 93 bc aa 92 2d 3d
       -0.027389253 -0.037621982 -0.017995022 0.042376198
0000b0 f1 ea d3 3c 0c b0 f1 bc 8e 22 38 bc 25 6b 36 bd
       0.025868865 -0.029502891 -0.011238707 -0.044535775
0000c0 f0 b5 0d bc 7c be 2f bd 63 b0 79 bc 9c df 2a 3c
       -0.008649334 -0.04290627 -0.015239808 0.010429289
0000d0 1f 76 ef bc 96 6c c3 ba 88 53 11 bc 00 ea 41 3c
       -0.02923113 -0.001490968 -0.008870013 0.011835575
0000e0 78 c0 40 bc 2b 97 34 bd cc 15 64 3b 01 0a 93 3c
       -0.011764638 -0.044089478 0.003480303 0.017949106
0000f0 44 40 b3 bc ed c8 84 bb d8 95 22 3d 15 2f ea 3c
       -0.02188123 -0.0040522725 0.039693683 0.028586904
000100 d2 81 ff bc f5 f7 60 3c 70 18 1d bd 6f db 3e 3d
       -0.031189833 0.013730993 -0.038353384 0.046595987
000110 1c d4 0c 3d 8e a0 52 3b 34 7f 00 bd 64 e9 17 3d
       0.03438197 0.0032139155 -0.03137131 0.037087813
000120 65 06 d3 bc 93 41 dd bc 89 40 fd b9 61 61 98 bc
       -0.025759885 -0.027008807 -0.00048304003 -0.018601121
000130 bf 8a a8 3c 5f cf e7 3b 70 ba 1a 3d 6b 0c b0 bb
       0.020573972 0.007074281 0.037775457 -0.005372574
000140 5b 52 bb 3c 86 b0 d1 3c 48 14 49 bd de b5 02 bc
       0.022866419 0.025596868 -0.049091607 -0.007977931
000150 23 27 8d 3c 4d 5f 20 3d 99 7a 37 bd 41 e1 18 bb
       0.017230576 0.039153386 -0.044794653 -0.0023327621
000160 c7 f3 32 3d fd 3b a9 3c 01 fc 1c 3d be ab f0 bb
       0.043689515 0.020658487 0.038326267 -0.007344692
000170 54 72 21 bc 08 b9 5b bd 28 bc 85 3c fc b0 4c 3d
       -0.009853918 -0.053643256 0.016325071 0.049973473
000180 d9 72 a2 3a 61 60 2c 3d b3 68 0b bb 94 4b ca ba
       0.0012393846 0.0420841 -0.0021272122 -0.0015433901
000190 c6 dd 9f 3c e9 a2 59 3d 0e 62 1b 3c ab d3 ae bc
       0.01951493 0.05313388 0.009483827 -0.021341166
0001a0 18 19 5e 3d 73 77 1c 3d 48 be 5e bd bc e5 c8 bc
       0.05422315 0.038199853 -0.054380685 -0.024523608
0001b0 6a 7d 09 bd 0c b6 14 bd 2e fe 34 bd c2 84 35 3d
       -0.03356687 -0.036306426 -0.044187717 0.04431606
0001c0 9b 4a 04 bd d1 e5 2e 3b 55 ab 4e 3d c2 f6 3f bd
       -0.03229771 0.0026687274 0.050456364 -0.046866186
0001d0 a9 0f 8f 3c 81 44 1a bd 5a 74 c7 bc 01 ad 12 3d
       0.017463522 -0.037662987 -0.024347473 0.03580952
0001e0 60 8e 20 3d 3c bc 21 3d 0f 01 20 bd 27 13 3a bd
       0.03919828 0.039486155 -0.03906351 -0.04542842
0001f0 af 12 27 bd 7d a6 3f bd 81 7a d8 3c 8e 7a 4f 3c
       -0.040789302 -0.046789635 0.026425602 0.012663497
000200 b4 51 86 bc 80 8d 1e 3a f3 2d 61 bd 8a 57 52 3d
       -0.016396381 0.0006048307 -0.05497546 0.051353015
000210 b5 7d 36 3d ba ee ee 3c 40 a5 46 bd 48 e9 39 bd
       0.044553477 0.029166568 -0.04849744 -0.04538849
000220 6a ab 0e 3c 9a 80 55 bd 0c 3f 5c 3d 74 95 4d ba
       0.0087078605 -0.052124597 0.053771064 -0.00078423996
000230 be d4 5c 3d 0c 23 4e 3d 00 72 d7 3c b1 6e 4e bd
       0.053913824 0.050326392 0.026299477 -0.050398532
000240 46 be c8 3c b7 79 81 3c ef db 82 3c 95 8a fc 3b
       0.024504792 0.015805108 0.015974013 0.00770695
000250 7c 83 bf 3a b0 01 4d bd 5e bf 76 bb 2a 6a 17 3d
       0.0014611329 -0.050050437 -0.0037650685 0.03696648
000260 93 53 1a 3d b4 61 da 3c 80 f9 40 bc fc e5 0f bd
       0.03767736 0.026657917 -0.011778235 -0.03513144
000270 f8 fc 41 3d 94 3d be 3c 84 60 18 bd f3 0d 0b 3d
       0.04736039 0.023222722 -0.03720142 0.03394885
000280 be 32 e1 bc 6a 4e d7 bb a8 7a 04 3d 41 d4 e2 3c
       -0.027490016 -0.006570627 0.032343537 0.027689101
000290 e2 c0 01 bc d9 11 0d bd fe 09 20 bc 1b 05 c1 bc
       -0.007919522 -0.03444085 -0.009768007 -0.023562005
0002a0 e7 90 78 3c 39 59 cc bc 40 52 5a 3c c3 fa f4 3c
       0.015171266 -0.024944888 0.013325274 0.029904729
0002b0 02 e6 ca bc a8 78 cb 3c 5b 23 b0 3c 54 17 78 3c
       -0.02476788 0.024837807 0.021501234 0.015142281
0002c0 4a 18 78 3b a1 5d b8 3c d9 fd 80 bc b7 d7 c0 bc
       0.0037856274 0.022505583 -0.015746044 -0.02354036
0002d0 ac bb 47 3b 41 d0 2e bd 95 70 de bc 49 0d fb bb
       0.0030476851 -0.042679075 -0.027153293 -0.007661496
0002e0 67 56 b9 bc 6f 9c 7d 3c bf 31 a5 bb 85 c3 07 bd
       -0.022624208 0.015479191 -0.0050413306 -0.033145446
0002f0 b6 dd 8e 3c 7e e7 25 bd c6 45 c6 3c 5c db 19 3d
       0.017439704 -0.04050397 0.024203192 0.037562713
000300 ca a0 1f 3d da 72 ef bc 06 be 40 bd 0e 9c 3c 3d
       0.0389717 -0.02922957 -0.04705622 0.046047263
000310 06 f0 9b bc 51 92 b8 3c 9c 60 53 bd d9 bd 0f bd
       -0.01903535 0.022530707 -0.051605806 -0.035093162
000320 fa 6b 41 bd 3b 53 12 bd 57 ce 03 bd 0c 2a 58 bc
       -0.047222115 -0.035723906 -0.032179203 -0.0131936185
000330 07 27 59 3c c0 8e cd bb 48 07 5b 3d b0 4f 2c 3d
       0.013253934 -0.0062731206 0.05347374 0.042068183
000340 87 16 a1 bc f5 f0 23 3d 91 d4 50 bd 3c 35 f8 bc
       -0.019664062 0.040024716 -0.05098397 -0.030298822
000350 68 32 0e 3d 12 9e 22 3d 6d ea d8 bc 47 29 1d bd
       0.03471604 0.03970153 -0.02647897 -0.038369443
000360 96 09 d4 bc c2 cc 04 bd b6 62 26 3d e6 0c fb 3c
       -0.025883477 -0.032421835 0.04062148 0.030645799
000370 94 43 da 3c f7 d1 bb bb 64 c3 ca bc 72 87 a0 bc
       0.026643552 -0.005731817 -0.024751373 -0.019595835
000380 52 e8 da 3c 11 6b 2a bd d8 4d 91 bb 7d 8f 18 bd
       0.026722107 -0.041606013 -0.0044343285 -0.037246216
000390 9b 65 57 3d ef 01 85 bc 65 d1 23 bb 00 b5 b2 bc
       0.052587133 -0.016236274 -0.0024996635 -0.021814823
0003a0 94 63 78 3b 3a 73 52 3d 92 5f f5 bc 0b 90 4f bd
       0.003790115 0.05137942 -0.029952798 -0.05067448
0003b0 5e 22 86 bb 0c 63 34 3d 84 92 71 3b c9 21 82 3c
       -0.0040934524 0.04403977 0.0036861012 0.01588525
0003c0 20 15 39 3d af 1b 86 bc d4 af 0d bd 72 7e 43 b9
       0.045186162 -0.016370622 -0.03459151 -0.00018643754
0003d0 99 ce 34 3c 95 2b 3f bc d6 f8 f5 bc 0e 3d e3 bc
       0.011035585 -0.011668106 -0.03002588 -0.027739074
0003e0 1d 28 4f 3d bf b2 98 3c 85 51 4d bd 59 86 56 3b
       0.050575364 0.01863992 -0.05012657 0.0032733886
0003f0 96 19 03 bd d6 26 78 bc f9 48 2c bd 8e 75 8d bc
       -0.032006823 -0.015145978 -0.04206178 -0.017267969

layers.0.bias f4 [50]
000000 10 ab 5a 3d d0 c1 cd bc 44 46 d4 3c 9d 24 1e bd
       0.053385794 -0.025116831 0.025912412 -0.038609136
000010 e3 6c 2d bd 66 43 1c 3d c0 6b 28 bd c1 80 51 3d
       -0.04234017 0.038150214 -0.041118383 0.05114818
000020 36 9b 28 bd 34 f1 1a bd 41 9b af bc e1 e6 93 bc
       -0.041163646 -0.037827685 -0.021436336 -0.018054428
000030 0c f0 4b bd de 99 43 bd 21 0b 4d bd 70 4e 4d bd
       -0.049789473 -0.04775416 -0.05005944 -0.050123632
000040 7d 79 85 bc 0c 50 d0 3b 4a 31 74 3a 90 88 92 3c
       -0.016293282 0.0063571986 0.0009315206 0.017887384
000050 86 ae 07 3d b2 5b 21 bd 0d 24 22 bd 12 1f 4b bd
       0.033125423 -0.039394088 -0.039585162 -0.049590178
000060 7c 1d 23 bc 52 fc 3a 3d fa 04 f7 3b 33 60 31 bb
       -0.00995576 0.045650788 0.007538435 -0.0027065396
000070 b1 3b b9 3b 6f 5f 47 bd 32 46 6f bc 95 17 49 3d
       0.0056528677 -0.048674997 -0.014604138 0.049094755
000080 b7 76 ee bc 55 fc aa 3c df 39 3f bd fe cf f2 3b
       -0.029109342 0.020872274 -0.04668605 0.0074100485
000090 8d d7 4b bd 17 6a e3 3c 60 b6 e9 bc e5 d8 74 3b
       -0.049766112 0.027760549 -0.028529346 0.0037360725
0000a0 1d 13 18 3d 37 01 3c 3b 62 6a f1 3c f4 5c 13 bc
       0.037127603 0.0028687248 0.029469673 -0.00899433
0000b0 8d f1 38 bd 40 39 34 3c 7a 36 83 3c 00 36 84 3c
       -0.045152236 0.010999978 0.016017187 0.01613903
0000c0 a8 2d 5a 3c 23 aa 3c 3d
       0.013316549 0.046060693

layers.3.weight f4 [20, 50]
000000 03 63 5d 3d 9a 63 de bd 44 7a 9c bc ff 3e bd bb
       0.054049503 -0.10858841 -0.01910127 -0.005775332
000010 a6 6a 09 be 1a 5f df 3d 24 e2 42 3d cd 6a 99 bb
       -0.1341959 0.10906811 0.047578946 -0.004681921
000020 16 09 c8 bd b4 52 4b bd 91 14 94 bb c9 67 ca 3d
       -0.09767358 -0.04963942 -0.0045190533 0.09883077
000030 20 67 13 bd c0 73 ef 3c 2c 2a f7 3d e4 fd 05 3d
       -0.03598702 0.029229999 0.120685905 0.032712832
000040 08 76 e9 bd 40 68 d4 3d ec 18 98 3d b2 6c 55 3d
       -0.11399466 0.103714466 0.074266285 0.052105613
000050 cc b2 ff bd ad bb 08 3e 00 10 f2 bb 10 8c 99 3d
       -0.12485275 0.13352843 -0.0073871613 0.07497418
000060 74 31 3a bd fc 41 77 3c 57 5e 70 bc f9 87 bf bd
       -0.04545732 0.0150914155 -0.01467093 -0.093521066
000070 fe 07 c1 3d 2a c3 da 3d 43 61 da bd cb 52 82 bc
       0.094253525 0.10681756 -0.106630825 -0.01590862
000080 6d 83 a1 bd 20 83 f3 3d 77 a9 b9 bc 84 c4 0c 3e
       -0.078863956 0.118902445 -0.022663815 0.1374684
000090 45 07 0c 3e 8f 53 09 3e 95 d6 cc bc 0f 74 0e bd
       0.13674648 0.13410781 -0.025004664 -0.03477865
0000a0 52 4d 85 bd 05 e5 e8 bd 9b 8f da bd 72 9a 86 3d
       -0.06508888 -0.11371807 -0.10671922 0.06572427
0000b0 7b 49 0c 3e a9 67 e3 3d cc ca da 3d 23 9d 32 3d
       0.13699906 0.11103756 0.10683212 0.04360689
0000c0 65 1c f4 3d 88 bb a4 bc 50 af ee bd f5 9d 02 3e
       0.11919478 -0.020108953 -0.11654532 0.12755568
0000d0 42 41 1a 3d 82 d3 85 bd 39 a6 f1 3d c0 de 47 3d
       0.03765989 -0.065344825 0.117992826 0.048796415
0000e0 cb 9b 0a 3d 80 2a c2 3d a7 fc 4f 3d 95 6f 97 3d
       0.033839982 0.094807625 0.050778057 0.073943295
0000f0 29 99 34 bc 86 c7 09 3d 80 1f 48 bd c0 f6 8a 3d
       -0.011022844 0.033637546 -0.048858166 0.06785345
000100 33 87 0c 3e 02 f6 1d bd 15 24 97 bd e7 fb 04 be
       0.1372345 -0.03856469 -0.07379929 -0.12986718
000110 de 94 5a bd da de cb bd 6c 59 3e 3d fa fd c6 3d
       -0.053364627 -0.09954615 0.046471998 0.09716411
000120 4c 25 29 3d a5 49 a1 bd c3 3e 92 bd a7 5e 55 bd
       0.041295335 -0.07875375 -0.07140877 -0.05209222
000130 ea cc f3 bd d5 58 5e 3d 05 6f 06 3e 7d 76 93 3d
       -0.11904319 0.054283936 0.13128288 0.07200334
000140 c8 60 08 be 1b 49 c5 3d d4 13 ba 3d 5a e5 41 3d
       -0.13318169 0.096330844 0.09085813 0.047337867
000150 0a e2 ea 3c 8a ca 39 3d 10 c3 b6 3d a5 c1 9c bd
       0.028672237 0.045359172 0.08923924 -0.07654122
000160 6c 5e fd bd 1f 27 88 bc 29 68 d4 bd 92 a9 86 3d
       -0.12371525 -0.016620217 -0.103714295 0.06575312
000170 58 4b 2f 3d cc 7f 8f bd 29 78 ce bd 3a 5a d1 3d
       0.042796463 -0.07006797 -0.100815125 0.102222875
000180 ee 88 9a bd 53 9e 9c bc a8 ea cc 3d 70 81 8c bd
       -0.075456485 -0.019118464 0.10005695 -0.06860626
000190 7d f6 0c be ba 28 04 be e7 97 d6 3d b2 8b b2 bd
       -0.13765903 -0.12906161 0.10478192 -0.08718051
0001a0 43 ec ee bd 00 d8 26 39 1d 95 0b be 6a 6c cf bd
       -0.11666157 0.0001591146 -0.13631101 -0.101281
0001b0 15 f9 58 bd d4 4e ae 3d 3c bb 98 bd 34 bf 18 3d
       -0.052971918 0.08511129 -0.07457587 0.03729172
0001c0 cc 09 b7 bd 80 b2 51 3d 5e cd 14 bd 00 b4 39 3b
       -0.089374155 0.05119562 -0.036328666 0.0028336048
0001d0 ef ce ff bd 3a b8 9d 3d 73 05 d3 bd 73 84 da 3d
       -0.12490641 0.07701154 -0.10303774 0.10669794
0001e0 ae 96 8a 3d 8b 82 f6 bd 4e df ce 3d c7 fe 0f 3e
       0.06767021 -0.12036618 0.10101186 0.14062034
0001f0 49 76 f4 bd 34 a3 a9 bd 08 e4 05 bd d6 3c db 3c
       -0.119366236 -0.08283082 -0.03268817 0.026762407
000200 22 74 ec 3d 88 12 c7 3c 24 b9 a4 3d 28 1c ec 3d
       0.11545588 0.024300829 0.08043125 0.11528808
000210 39 ff d8 bd 48 fd 09 3e e1 f2 00 be 92 33 ca 3d
       -0.10595555 0.13475525 -0.12592651 0.098731175
000220 51 b3 f4 bd 84 11 d8 3d e0 76 7b 3c 00 3a 88 bb
       -0.119482644 0.10550216 0.015348166 -0.0041573048
000230 2c 65 6e bd 28 d7 82 3b 9c 37 30 3d 56 3a f1 3d
       -0.058201954 0.003992934 0.043021783 0.11778705
000240 3d 9d 71 bd 44 d6 0f be 10 5f ba bd fe 95 a2 3d
       -0.058987845 -0.1404658 -0.09100163 0.07938765
000250 06 33 5a 3d 28 85 5e 3d a5 9b d1 bd 86 b2 5a bd
       0.053271316 0.054326206 -0.10234765 -0.05339291
000260 0f c6 ff 38 31 bd ed 3d 55 f3 9a 3c 3c 60 e1 bc
       0.00012196239 0.11608351 0.018914858 -0.027511708
000270 9a e8 5f 3d be d0 03 3d 9b e1 09 be 36 33 da bd
       0.054665186 0.032181494 -0.13464968 -0.10654299
000280 a4 a3 0c bd 66 76 ea bc 5a dc f2 3d 86 ef e0 bd
       -0.034335747 -0.02862091 0.11858435 -0.109831855
000290 9c 87 9b 3d 9a 93 e4 3d be 27 98 3d 80 d6 a1 bd
       0.07594225 0.11160965 0.07429455 -0.07902241
0002a0 09 2d db 3d 16 0d 73 3d 35 f3 04 be b9 92 e6 3d
       0.10701949 0.05933865 -0.12983401 0.11258454
0002b0 42 16 e9 3d e0 bc 94 3b b8 8f e0 3c a3 04 ab bb
       0.113811985 0.004539117 0.02741228 -0.0052190586
0002c0 be e4 c0 3d b6 fa 82 bd 24 5d e8 bb de a0 75 3d
       0.09418629 -0.063954756 -0.0070911814 0.059967868
0002d0 1f 35 94 3d 06 23 d9 bd 55 7e ad 3d d3 2b 80 bd
       0.072366945 -0.10602383 0.084713615 -0.06258359
0002e0 73 5d b5 3c 20 39 fd 3d ff 3d c0 3d c7 8e 53 bd
       0.022139287 0.12364411 0.09386825 -0.051649835
0002f0 33 64 c0 3d 35 11 f0 bd c2 07 c5 3d 5d e3 87 bd
       0.093941115 -0.11722032 0.0962062 -0.06635163
000300 d3 fb a3 bc 92 ce 9b 3d 52 72 2a 3d 89 40 d8 3c
       -0.02001754 0.076077595 0.04161293 0.02639796
000310 98 bd 24 3d 78 01 65 bd 5e 2a c3 bd 00 60 92 37
       0.040219873 -0.055909604 -0.09529565 1.744926e-05
000320 5d 56 e8 3c 2c 4b ca 3c 19 4a 07 3e dd d5 0f 3e
       0.028361494 0.024694048 0.1321186 0.14046426
000330 99 2c c1 3d e7 1b 00 3e 95 7a 90 bc fa bd c6 3d
       0.094323345 0.12510644 -0.017636577 0.09704204
000340 cc b9 05 be a5 36 ab 3c 37 35 be bd 0e f9 c5 3d
       -0.13059157 0.02090008 -0.09287494 0.09666644
000350 71 99 09 3e c0 6e 2e 3d 49 c4 06 3e cc 6e d4 3d
       0.1343744 0.04258609 0.13160814 0.10372695
000360 f2 15 c2 bd 3d 55 8a bd 8c 8e 2c 3c aa a7 c9 bd
       -0.09476842 -0.06754539 0.010532033 -0.098464325
000370 b6 fb e6 bd fa 26 5a bd 40 db 03 3d 00 a6 b7 3a
       -0.11278479 -0.053259827 0.032191515 0.0014011264
000380 1d f0 c8 3c 81 29 1b 3d d4 6f a9 bd 8e c4 84 3d
       0.024528557 0.037881378 -0.08273283 0.06482802
000390 64 bb 0e bd 9c ad b8 3c 19 3f db 3d 6a 4b da 3d
       -0.03484668 0.02254372 0.10705394 0.10658915
0003a0 d0 25 b7 3c 23 08 c7 bd 89 87 d3 3d c0 ee 83 3d
       0.022356898 -0.09718349 0.10328586 0.06442022
0003b0 e4 ab 74 3d 47 28 42 3c f6 71 2d 3d b5 3a 10 3e
       0.05973424 0.011850423 0.04234501 0.14084895
0003c0 65 70 8b bd 63 4d ae bd ec 70 48 bd 00 44 fc 3a
       -0.06808547 -0.08510854 -0.048935816 0.001924634
0003d0 7d c1 50 bd cf 40 4c bd 90 5e a0 3c 5f 09 c4 3d
       -0.050965775 -0.049866494 0.01957634 0.095721
0003e0 75 8d ad 3d e8 15 ab 3d 95 a8 79 bd bf bb a0 bd
       0.084742464 0.08353788 -0.060951788 -0.0784831
0003f0 b9 2b 99 3d 7c aa a4 3d e9 32 90 3d d6 60 ac 3d
       0.074790426 0.0804033 0.0704096 0.084169075

layers.3.bias f4 [20]
000000 52 00 2e bd 29 d3 c9 3d 67 ae 8d bc 42 f3 8a 3d
       -0.042480774 0.09854729 -0.017295076 0.06784679
000010 e8 03 47 bd b4 6c 62 bd 0f 55 42 3d 0d 84 c2 3d
       -0.04858771 -0.05527945 0.0474444 0.09497843
000020 fb 41 ef 3d 63 04 45 3c db fa b1 3c 21 b4 74 bd
       0.11682507 0.012024972 0.021726063 -0.059742097
000030 26 76 0e be 61 a3 a2 3c ea 2d e9 bd 07 c6 ba 3d
       -0.13912258 0.019853296 -0.113857105 0.09119802
000040 a1 b3 c2 bd 22 52 79 3d 1e d9 4a bc 72 72 a3 bd
       -0.09506918 0.060869344 -0.012380866 -0.07980813

layers.6.weight f4 [10, 20]
000000 32 6a 22 3e ef 58 4e be 29 11 38 3e 22 f8 32 bd
       0.15860823 -0.20151113 0.17975296 -0.04369367
000010 07 27 f4 bd 67 3f a1 3c 12 e5 b6 bc a7 29 53 be
       -0.119215064 0.019683553 -0.022326026 -0.20621358
000020 93 35 20 3d 51 54 23 3d 96 05 6c 3d 10 3a bf 3d
       0.039113592 0.039875332 0.057622515 0.093372464
000030 18 08 f4 3d f0 e1 29 be 9e 5b 31 3e d6 58 35 be
       0.11915606 -0.16590095 0.17320105 -0.1770967
000040 f2 a9 39 bd 62 d5 44 3d a5 d9 42 3c 33 80 b8 3d
       -0.045328088 0.04805506 0.011892711 0.09008827
000050 cb 79 4c 3d df b1 55 3e d1 5f 35 3c 8d 43 f3 bd
       0.04992084 0.20868634 0.011070208 -0.11878119
000060 f0 dd fd 3d 4c 2c 02 be a8 ee d7 3d f6 28 41 be
       0.12395847 -0.1271221 0.10543567 -0.18863282
000070 d5 77 41 bd bb 75 9b 3d 34 11 9d 3d d8 1f ec bd
       -0.04723342 0.07590815 0.07669297 -0.11529511
000080 f1 b5 5b 3e a6 6f 1a 3e 0f 2a 84 3d 18 0e cc 3d
       0.21456124 0.15081653 0.064533345 0.09963626
000090 6c 7c 9d bc 5e 47 16 3e e6 f0 2d 3e 04 39 29 be
       -0.019224368 0.14675662 0.16986427 -0.16525656
0000a0 57 cc 48 b9 38 75 88 3c 22 e1 30 be 2a 6b e0 bd
       -0.00019149609 0.016657457 -0.17273381 -0.1095794
0000b0 10 43 a9 3d 85 59 2a 3e fe d9 01 3e 46 f4 73 3d
       0.08264744 0.16635711 0.12680814 0.05955913
0000c0 20 09 fd 3d 52 ee a6 3d d5 a1 4a 3e e2 fa 48 3e
       0.12355256 0.08150925 0.19788297 0.19626954
0000d0 16 a1 b3 bd a4 e3 d6 3c 00 9e 1f be 8d 9c fd bd
       -0.08770959 0.026231594 -0.15587616 -0.12383375
0000e0 b8 22 e6 bd 78 41 82 bd 51 c3 07 be 8e 71 1f be
       -0.11237091 -0.063601434 -0.13258101 -0.15570661
0000f0 79 3e 93 3d a5 b1 d3 3d 85 40 1a 3e a3 2c 3b be
       0.0718965 0.103366174 0.15063675 -0.18278746
000100 65 26 36 3e 7e 6b f6 3d 8c cd 14 3e fb 35 ad 3d
       0.17788084 0.12032221 0.14531535 0.084575616
000110 99 7d 2b be db d7 3d 3e 94 4e 94 3c ef 90 af bd
       -0.1674713 0.18539374 0.018103875 -0.08572566
000120 c0 61 33 be 21 80 8f 3d 5c 3c 18 3e 49 28 98 bb
       -0.17517757 0.070068605 0.14866775 -0.0046434742
000130 bd 88 65 3e 11 54 16 be db eb 54 3e 3b 14 02 bd
       0.22415443 -0.14680506 0.20793097 -0.031757575
000140 eb d8 ff 3c 11 bb ff 3c e8 b5 30 3d 8a 6b 17 be
       0.031231364 0.03121713 0.04314223 -0.14787117
000150 84 f1 12 3e 69 c8 12 be 0a 76 4d 3e ef 6f 2c 3e
       0.14349943 -0.14334263 0.2006456 0.16839574
000160 1c f9 a5 3d 62 8f 43 bd e7 48 35 bc b3 28 3f be
       0.081041545 -0.047744162 -0.011064745 -0.1866787
000170 13 de 0e be 00 b4 3b be 6f ef 29 bd 4b f1 51 be
       -0.13951902 -0.18330383 -0.041488107 -0.20502202
000180 9a b9 05 3e c0 c0 83 bd 23 f0 1e 3d d6 c0 80 3d
       0.13059083 -0.064332485 0.03880323 0.062867805
000190 7a ee 3e 3e 0f ff 98 bd 9b 36 47 3e f7 7c 44 3d
       0.18645659 -0.074705236 0.19454424 0.04797074
0001a0 48 bc 32 3c 1e 61 11 3e 06 71 0a 3c 57 26 43 be
       0.010909148 0.14197204 0.008449798 -0.19057594
0001b0 d8 96 e3 3d 6a 9a d5 bc 9c 10 c6 3d 8c b9 c4 bd
       0.111127555 -0.026074607 0.09671137 -0.09605703
0001c0 64 47 98 bd 69 95 43 bd 1d c2 12 3e 2e ae 98 bd
       -0.07435492 -0.04774991 0.14331861 -0.07455097
0001d0 c7 8c 56 be c5 e4 a8 bc 74 fd ca bd c8 54 90 3c
       -0.2095214 -0.020616898 -0.099116236 0.017618552
0001e0 e0 be 89 3d d8 23 d0 3c 52 c1 5b 3e ee d2 85 bd
       0.0672586 0.025407717 0.21460465 -0.06534372
0001f0 ba 1c 45 3e 26 58 20 be cb 69 90 3c 66 cd 01 3e
       0.1924924 -0.15658626 0.017628571 0.1267601
000200 5a 66 92 3d 8c 3a b9 3d e6 6f 22 be d3 e4 c9 bd
       0.07148428 0.0904437 -0.15862998 -0.09858098
000210 ec 48 49 3e 26 55 ed 3c 87 41 92 3d 54 14 1f be
       0.19656724 0.028971266 0.071414046 -0.15535098
000220 c2 0c a4 bd c7 00 38 be 16 bd 2d 3e 36 41 87 bd
       -0.08010246 -0.17969047 0.16966662 -0.06604235
000230 27 d4 2c 3e d8 23 d0 bd 35 6b fa 3d 41 a2 75 bd
       0.16877805 -0.10163087 0.12227479 -0.05996919
000240 06 58 fa bd 7d d7 ce bc 95 e8 2b 3e 97 b4 31 3e
       -0.122238204 -0.025249237 0.16787942 0.17354046
000250 50 fa db ba 37 5d 35 bc 37 48 12 be a8 5c e7 3d
       -0.0016782973 -0.011069587 -0.1428536 0.1129697
000260 b3 24 31 be d8 11 14 be 97 81 21 bd 73 9e 5e 3e
       -0.17299156 -0.14459932 -0.039430227 0.21740131
000270 d5 69 3b 3e 7a b4 45 3e 94 49 ab 3a 95 2b d2 bd
       0.1830209 0.19307128 0.0013068193 -0.10262219
000280 18 b4 85 3d 36 55 9a 3d 7d 3c 0d be 29 18 f5 3d
       0.06528491 0.07535784 -0.13792606 0.11967499
000290 af db 51 3e fc a8 14 be 08 d5 33 3e 1a a3 4f 3e
       0.20493959 -0.14517587 0.17561734 0.20277062
0002a0 fe 5b a5 3b 2f 01 5d bc b2 90 32 bd 59 29 69 3d
       0.0050463667 -0.013489052 -0.043595023 0.056924198
0002b0 27 74 24 3c a2 b3 51 be d5 ef 9f 3d 9c 30 dc bd
       0.0100374585 -0.2047868 0.07809416 -0.10751459
0002c0 ad ed bc bd d0 a1 0a 3d 0c 38 58 be 4d d1 41 3d
       -0.092250206 0.033845723 -0.2111513 0.047318745
0002d0 b2 df b4 bd c1 dd 6a bc 3e 6f 11 be 92 e6 f2 bd
       -0.08831729 -0.014335097 -0.14202592 -0.11860384
0002e0 4d 06 a5 bd 83 e3 8a 3d 47 75 bb bd 2c 1a 4f bd
       -0.080578424 0.06781676 -0.09153228 -0.05056207
0002f0 4e 87 6d 3d 44 8f a6 3b 64 9f 2c 3e 57 48 14 3e
       0.057990365 0.0050829966 0.16857678 0.1448072
000300 08 ea cf 3d 40 f7 38 3e ab a3 e5 3d 2e d6 5f be
       0.1015206 0.18063068 0.11212858 -0.21859047
000310 49 6b 11 3e ce 0b ab bd e4 53 4a 3e 35 fd 31 be
       0.14201082 -0.08351861 0.19758564 -0.17381747

layers.6.bias f4 [10]
000000 be bf 35 3e 31 0c e2 bd fc c0 3f be fa bc bd 3d
       0.17748925 -0.110374816 -0.18725961 0.0926456
000010 b5 f5 59 3e 4c 39 6f bd 61 af 01 3d 69 f8 29 3e
       0.21285136 -0.058404252 0.031661395 0.16598667
000020 1f 1a 63 3e bd 82 8d 3d
       0.22177933 0.06909702

layers.9.weight f4 [2, 10]
000000 76 cc af bd fb 8e 74 3e 2c 3a 47 be 53 90 d9 bd
       -0.0858392 0.23882668 -0.19455785 -0.10623231
000010 53 af f9 3d 3f a4 42 3e 47 a9 ac bd df 67 2b be
       0.121916436 0.19007967 -0.084307246 -0.16738842
000020 c3 cd b0 3d c8 55 fa bc 40 74 87 be d5 ad dd 3d
       0.08632996 -0.030558482 -0.2645588 0.108241715
000030 1b 53 a0 3e b9 42 4f bd 98 40 16 3e 2b 99 95 3e
       0.31313404 -0.05060074 0.14673078 0.2921842
000040 6f e4 37 be d8 12 1b 3e a5 af 9f 3e 2d 74 5d bc
       -0.17958234 0.15143907 0.31188694 -0.013516468

layers.9.bias f4 [2]
000000 e3 87 7d 3e a9 a1 4c 3e
       0.24758868 0.19983543
