DHH/model/fc/model-fold-2.pth (torch, 70287 bytes, 8 tensors)

layers.0.weight f4 [50, 312]
0	0x3bab6db2	0.0052315826
1	0xbcecf49f	-0.028925238
2	0x3c2ea160	0.010658592
3	0x3d31255a	0.04324851
4	0x3c89f720	0.016841471
5	0x3ce027e8	0.027362779
6	0xbc6aef22	-0.01433924
7	0xbbbe5e2c	-0.005809566
8	0x3d6fd11d	0.058549035
9	0x3c911a42	0.017712716
10	0xbd2ba234	-0.041902736
11	0x3d40dc02	0.047084816
12	0x3d2be8f0	0.041970193
13	0xbd5ad907	-0.05342963
14	0xbd503623	-0.05083288
15	0xbc114440	-0.00886637
16	0xbd00f49e	-0.031483285
17	0xbcaef851	-0.02135864
18	0x3c7175d4	0.014737565
19	0xbbc348a2	-0.0059595862
20	0xbd2438e0	-0.040093303
21	0x3d107c5d	0.035274852
22	0xbd2e5006	-0.042556785
23	0xbd65a931	-0.056069557
24	0xbbe7c600	-0.007073164
25	0xbcb060d3	-0.021530544
26	0xbd0f53ed	-0.034992147
27	0xb90a745a	-0.0001320405
28	0xbc369aca	-0.011145303
29	0xbd344bea	-0.04401771
30	0x3c27a9b8	0.010233335
31	0x3cdf2b8b	0.027242443
32	0xbd63cd53	-0.055615734
33	0x3c91de5a	0.01780622
34	0x3d536336	0.051608287
35	0xbc7df581	-0.015500427
36	0xbce66baf	-0.02812752
37	0xbd391615	-0.045187075
38	0xbd53d4c2	-0.051716574
39	0x3d50f870	0.05101818
40	0xbd336efe	-0.043807022
41	0xbc3131ad	-0.010815066
42	0x3cb7a2ed	0.022416556
43	0xbd5bfc10	-0.053707182
44	0x3b7d3aa4	0.003863969
45	0xbd02dd0d	-0.03194909
46	0x3bfb7590	0.0076739267
47	0x3d582bc5	0.052776117
48	0x3d1d05e0	0.03833568
49	0x3d027a04	0.031854644
50	0x3cfc0974	0.030766226
51	0xbd2c472b	-0.04206006
52	0xbce68a40	-0.028142095
53	0xbd373084	-0.044724002
54	0xbcfed6a1	-0.031108202
55	0x3bcf476c	0.006325653
56	0x3b115bbf	0.002217993
57	0xbd4e693b	-0.050393324
58	0x3c68ad3d	0.0142014595
59	0xbd155100	-0.0364542
60	0x3c6703f6	0.014100065
61	0x3cc16018	0.023605391
62	0x3d13acdf	0.036053535
63	0xbd57f90f	-0.052727755
64	0x3c8c1775	0.017101029
65	0xbc143bb5	-0.009047438
66	0x3ccf24c9	0.025286095
67	0xba262861	-0.00063384144
68	0xbd37bc96	-0.044857584
69	0x3caf4101	0.021393301
70	0x3cacaf7b	0.02107977
71	0x3d22fd24	0.039792195
72	0x3c4d3980	0.012525916
73	0xbb516cc8	-0.0031955708
74	0xbcff01f2	-0.031128857
75	0xbca7da3b	-0.020489803
76	0x3cc0aa62	0.023518745
77	0xbcb7626d	-0.0223858
78	0x3d2b1e0e	0.04177671
79	0x3d6b1620	0.057394147
80	0xbd4ed2dc	-0.05049406
81	0xbc9bd0d0	-0.019020468
82	0x3d336784	0.043799892
83	0x3d19e68f	0.037573393
84	0x3c465549	0.0121052945
85	0x3c144bc0	0.009051263
86	0x3d015f4e	0.03158503
87	0xbc986b78	-0.018605933
88	0xbbabb6ef	-0.0052403132
89	0x3c9e3977	0.01931451
90	0xbc0e29c1	-0.008676947
91	0x3ca74618	0.020419165
92	0xbd1e467f	-0.03864145
93	0x3b75b271	0.0037490393
94	0xbcf351ed	-0.029702151
95	0x3cc7f27b	0.024407616
96	0x3d5ddb91	0.054164473
97	0x3c1b562a	0.009480992
98	0xbcbc7957	-0.023007078
99	0x396f4bd6	0.00022821067
100	0x3c985188	0.018593565
101	0x3c0e22ef	0.008675321
102	0x3c4b3340	0.012402356
103	0x3c9902b9	0.018678056
104	0x3ca04d25	0.019568035
105	0x3d176b98	0.036967844
106	0xbd13b7bc	-0.036063895
107	0x3cad3569	0.021143632
108	0x3d4f00d5	0.050537903
109	0x3d45fb03	0.048335087
110	0x3ca7a804	0.020465858
111	0xbc887d84	-0.016661413
112	0xbd324ece	-0.043532185
113	0xbc000cd4	-0.007815558
114	0xbd40d135	-0.047074515
115	0x3cd03eb7	0.02542053
116	0x3d57a261	0.05264509
117	0xbc970561	-0.018435182
118	0x3be87a0c	0.0070946272
119	0x3c493bc3	0.012282315
120	0xbc6ca4ec	-0.014443617
121	0xbd252238	-0.040315837
122	0xbcb3ae97	-0.021933837
123	0xbc120e4d	-0.008914542
124	0xbd1189f8	-0.035531968
125	0x3c88c751	0.016696604
126	0x3c121b03	0.008917573
127	0x3d58e621	0.052953843
128	0xbd28a776	-0.04117533
129	0xbc857745	-0.016292224
130	0x3c49ad2d	0.012309355
131	0x3cdf2ba8	0.027242497
132	0x3d0f3e59	0.03497157
133	0x3d059ee6	0.03262224
134	0xb9aa3667	-0.0003246546
135	0xbd4be8bc	-0.0497825
136	0x3d439553	0.04774983
137	0xbcf0e325	-0.029405186
138	0xbcf49f08	-0.029860988
139	0x3a30bb64	0.00067417906
140	0xbd5cff8b	-0.053954642
141	0x3b9a6786	0.004712048
142	0x3d4f92d6	0.050677143
143	0xbcb004ea	-0.021486718
144	0xbd5c08b2	-0.05371923
145	0xbb3c6214	-0.0028744983
146	0x3bab8e56	0.0052354736
147	0xbc7f9abe	-0.015600858
148	0xbcafd868	-0.021465495
149	0xbd1672cf	-0.036730584
150	0x3d0ae15c	0.033906326
151	0xbd588868	-0.052864462
152	0xbd260c76	-0.040539227
153	0xbce460fe	-0.02787828
154	0xbd550676	-0.052008115
155	0xbb949b94	-0.004535148
156	0xbd548b47	-0.051890638
157	0x3c8110a0	0.015754998
158	0xbbfdece1	-0.0077491854
159	0x3c765da9	0.015036979
160	0xbc9aedcf	-0.018912224
161	0x3b80ce32	0.0039308304
162	0xbb85cec2	-0.0040834853
163	0xbc87cfdf	-0.016578613
164	0xbce974bb	-0.028498044
165	0xbc065f62	-0.008201452
166	0xbd0d333d	-0.034472693
167	0x3b286de0	0.0025700256
168	0xbd1571a8	-0.036485344
169	0xbbd728f6	-0.006566162
170	0xbd432525	-0.047642846
171	0x3d16b892	0.036797114
172	0xbd1e1750	-0.03859645
173	0x3d0ca0a5	0.03433289
174	0xbc53e5f8	-0.012933247
175	0xbd126517	-0.035740938
176	0xbcf6df1a	-0.03013568
177	0xbcb8fe2a	-0.022582132
178	0xbc2b22c8	-0.010445304
179	0x3c87b18b	0.016564151
180	0x3c0ef4d9	0.008725368
181	0xbc12058a	-0.008912453
182	0xbce672b2	-0.028130863
183	0x3d060c46	0.03272655
184	0xbd6180ac	-0.05505435
185	0x3d2a5cd2	0.041592427
186	0xbd4688d6	-0.04847034
187	0xbd0d56dc	-0.034506664
188	0xbc2d97e0	-0.010595292
189	0x3cb8c111	0.022552999
190	0x3d593e39	0.053037856
191	0x3d585555	0.052815754
192	0x3d5f92c5	0.05458333
193	0xbb8be0d5	-0.0042687454
194	0x3d1eac6a	0.038738646
195	0x3d54609e	0.051849954
196	0xbced42f7	-0.028962595
197	0x3cb6f909	0.022335546
198	0x3b90a606	0.004414323
199	0x3c63cb0f	0.013903393
200	0xbd6573dd	-0.0560187
201	0xbd35023c	-0.044191584
202	0x3b88bab9	0.0041726497
203	0xbb3085f1	-0.0026935304
204	0x3c11e44a	0.008904526
205	0xbcea45e1	-0.028597774
206	0xbb867c4d	-0.0041041733
207	0x3d4cdfce	0.050018124
208	0x3d443bd2	0.04790861
209	0x3d28cea9	0.04121271
210	0x3d53a406	0.051670097
211	0x3b1b4f38	0.002369834
212	0xbc8b1534	-0.016977884
213	0x3d1e820d	0.038698245
214	0x3d275ead	0.040861774
215	0x3d54c2fa	0.051943757
216	0x3cd7f3d6	0.026361387
217	0xbcc22b1f	-0.023702202
218	0x3d3dc788	0.046332866
219	0xbd38bc1c	-0.04510127
220	0xbcd007c4	-0.025394328
221	0xbcc7c965	-0.024388025
222	0x3b92e696	0.0044830544
223	0x3c08537e	0.008320687
224	0x3d31b27e	0.043383114
225	0xbd25f877	-0.040520158
226	0x3b835f48	0.004009161
227	0xbd24b689	-0.04021314
228	0x3d191d95	0.037381727
229	0x3c1daab9	0.009623223
230	0x3d3027be	0.04300665
231	0x3d4990b0	0.04921025
232	0x3d332ba0	0.043742776
233	0xbd321a6a	-0.04348222
234	0xbcccbe31	-0.024993034
235	0x3d3f7a3e	0.04674744
236	0xbd375922	-0.044762738
237	0xbc8aa302	-0.016923431
238	0x3d58bcfc	0.052914605
239	0xbd53c3d1	-0.051700417
240	0x3d398275	0.04529043
241	0xbca25264	-0.019814678
242	0x3c30a220	0.010780841
243	0xbd659f10	-0.056059897
244	0x3bcdd0ed	0.0062810094
245	0x3d19a5e9	0.03751174
246	0xbcc5a8ba	-0.024128307
247	0xbd140a84	-0.03614284
248	0xbce981ce	-0.028504279
249	0x3b67becf	0.0035361534
250	0xbcb952e0	-0.022622526
251	0x3c182c18	0.0092878565
252	0xbb7129fc	-0.0036798706
253	0x3c6af909	0.014341601
254	0x3d2d9b74	0.04238458
255	0xbd664adc	-0.056223735

layers.0.bias f4 [50]
0	0x3d625a89	0.055262122
1	0x3d1f2e57	0.038862552
2	0xbb0c5c38	-0.0021417271
3	0xbbb5cbe0	-0.0055479854
4	0xbad7656d	-0.0016433425
5	0xbd67c712	-0.056586333
6	0x3d6cae17	0.057783213
7	0xbc7b6429	-0.015343704
8	0xbd5a798b	-0.05333857
9	0x3ce64486	0.028108846
10	0xbd4a8e72	-0.049452253
11	0x3d23c273	0.039980363
12	0x3b1a28bb	0.0023522812
13	0xbd62fe26	-0.055418156
14	0x3b653dab	0.0034979384
15	0xbbe030ee	-0.0068417704
16	0xba0e3500	-0.0005424768
17	0x3d18661e	0.03720676
18	0xbc34a36a	-0.011025289
19	0x3c432ce4	0.011912558
20	0x3d34c8bd	0.04413675
21	0x3d442490	0.04788643
22	0xbd3bf280	-0.045885563
23	0xbc9ce760	-0.019153297
24	0xbcc5b02e	-0.02413186
25	0xbd494e74	-0.049147084
26	0xbcbbc5a2	-0.022921387
27	0x3d1af359	0.03782973
28	0x38aa8df5	8.132673e-05
29	0xbd1d4c9d	-0.038403142
30	0x3d59000f	0.05297857
31	0xbc939f9b	-0.018020442
32	0xbc0fe03a	-0.008781487
33	0x3d468b1e	0.048472516
34	0x3ce84f89	0.028358238
35	0xbd35994b	-0.044335645
36	0x397c8ab8	0.0002408427
37	0xbbf004f7	-0.0073248106
38	0x3d157bd5	0.03649505
39	0x3cec48a4	0.028843231
40	0x3af0318d	0.0018325314
41	0x3af8e32d	0.0018988602
42	0xbd31640d	-0.043308306
43	0x3a00bd81	0.0004911051
44	0x3d36f4a3	0.044666898
45	0x3caebe76	0.021331053
46	0x3d4c6e7e	0.04991006
47	0x3d0578f9	0.03258607
48	0x3cb07c82	0.021543745
49	0x3cfeeb24	0.031117983

layers.3.weight f4 [20, 50]
0	0x3d955d32	0.07293166
1	0x3de1e92e	0.110308036
2	0xbdeb9acc	-0.115041345
3	0x3db096a0	0.086224794
4	0x3dd49f56	0.103819534
5	0xbd8ad2c7	-0.06778484
6	0x3cf7576f	0.030193059
7	0x3d087af9	0.0333204
8	0x3dc7b658	0.09751576
9	0xbc78481e	-0.015153913
10	0x3e0c4931	0.13699795
11	0xbdc18fd5	-0.09451262
12	0x3d1ee543	0.03879286
13	0xbd4b186d	-0.04958384
14	0xbdeecfeb	-0.11660751
15	0xbdc5f500	-0.09665871
16	0x3db59988	0.088671744
17	0xbe0094b0	-0.1255672
18	0xbd9ef278	-0.07761091
19	0x3e0a49f7	0.13504778
20	0xbdc3d2a1	-0.09561659
21	0x3d6b7315	0.057482798
22	0xbdd8a2c6	-0.105779216
23	0x3da3fd23	0.08007266
24	0x3de57ed2	0.1120583
25	0xbd927696	-0.07151525
26	0x3b5310c0	0.0032206029
27	0x3dc80f04	0.09768489
28	0x3e0d9e52	0.13829926
29	0xbde9591b	-0.11393949
30	0xbd278836	-0.040901385
31	0x3d5270b2	0.051377006
32	0x3db4aaca	0.08821638
33	0xbc66ce4f	-0.014087274
34	0xbd108540	-0.035283327
35	0xbd5570f6	-0.05210968
36	0xbc3ebf6f	-0.011642321
37	0x3dda7ce2	0.10668351
38	0xbc44ed60	-0.012019485
39	0x3e0a7d36	0.13524327
40	0x3deec4dc	0.11658642
41	0xbdd0ca2f	-0.101948135
42	0x3de45426	0.111488625
43	0xbb85a1d6	-0.0040781302
44	0xbc336c40	-0.010951102
45	0xbb496e40	-0.003073588
46	0xbd2e5b97	-0.042567816
47	0x3c9c7bbf	0.019101975
48	0x3da5743c	0.080788106
49	0x3d388b9b	0.045055013
50	0xbdff3e22	-0.12463023
51	0xbdb8d767	-0.0902546
52	0xbd9ea743	-0.077467464
53	0xbd044c4c	-0.032299325
54	0x3d94b74f	0.07261526
55	0x3ddba69b	0.10725137
56	0x3d284c30	0.041088283
57	0x3d827491	0.063698895
58	0xbd3cc51e	-0.046086423
59	0xbd44da99	-0.048060033
60	0x3da4114f	0.08011114
61	0x3d229a94	0.0396982
62	0x3de82bda	0.11336489
63	0x3de28935	0.110613264
64	0xbdffcb49	-0.124899454
65	0x3c187470	0.009305105
66	0xbccb0088	-0.024780527
67	0xbe02434b	-0.12720983
68	0xbb8fd45a	-0.004389328
69	0x3c9b53f8	0.018960938
70	0xbe0a10de	-0.13482997
71	0x3c08c8ba	0.008348638
72	0x3dae84a0	0.0852139
73	0xbd9db1b7	-0.07699912
74	0xbd557bbc	-0.052119955
75	0xbd6b4473	-0.057438325
76	0xbcd600e8	-0.026123479
77	0x3dc413ec	0.09574112
78	0x3dfcc102	0.12341501
79	0xbe09ecfd	-0.1346931
80	0x3d9acde2	0.075588
81	0xbb98621c	-0.0046503674
82	0x3dbe97ec	0.093063205
83	0xba26147b	-0.0006335449
84	0x3ddf7d95	0.10912625
85	0xbd9047ca	-0.07044943
86	0xbdd46e87	-0.10372644
87	0x3dd16a76	0.10225384
88	0xbdb382cb	-0.08765181
89	0x3cfe602e	0.031051721
90	0xbc2a82d5	-0.010407169
91	0xbd6d24e8	-0.057896525
92	0x3d22fd68	0.03979245
93	0x3cb1e209	0.021714227
94	0xbc22ee30	-0.009944484
95	0xbd18433a	-0.037173487
96	0x3cc6d922	0.024273459
97	0xbdc80f94	-0.09768596
98	0xbb627300	-0.0034553409
99	0xbd5c417e	-0.053773396
100	0x3cb3f949	0.021969454
101	0xbdc3b028	-0.095550835
102	0x3c0ed11c	0.008716848
103	0x3d87b3de	0.06626104
104	0xbdf952e2	-0.12174012
105	0x3e0e79ee	0.139137
106	0xbdbb44fc	-0.09144017
107	0x3cd488ee	0.0259442
108	0x3c282ca9	0.010264554
109	0xbdc7f8c5	-0.09764246
110	0xbd9ffb82	-0.07811643
111	0x3d7e483a	0.0620806
112	0x3d9b707e	0.075898156
113	0xbd928794	-0.07154766
114	0xbda58221	-0.08081461
115	0x3d4fe521	0.050755624
116	0xbcde7cdc	-0.027159147
117	0x3d278ce6	0.040905856
118	0xbddc2f61	-0.10751224
119	0x3bd05ba0	0.006358579
120	0x3d29ae4c	0.041425988
121	0xbc91c16d	-0.017792428
122	0x3e0278c1	0.12741376
123	0x3dd6c68a	0.10487087
124	0xbc89da78	-0.016827807
125	0xbcac0b59	-0.021001505
126	0xbdaa0601	-0.083019264
127	0xbdf3b0fe	-0.11898993
128	0xbd450cde	-0.048107974
129	0xbdd5b6a4	-0.104352266
130	0x3da8d9c8	0.082446635
131	0x3dbd8155	0.09253184
132	0x3e0abe4f	0.1354916
133	0x3bb027f1	0.005375855
134	0xbde6aa47	-0.112629466
135	0x3e081a00	0.13291168
136	0xbdd01103	-0.10159495
137	0x3c668cf4	0.014071692
138	0x3de47f36	0.11157076
139	0xbd4f7540	-0.050648928
140	0x3d3213ab	0.043475788
141	0xbd2e7430	-0.042591274
142	0xbd51f060	-0.05125463
143	0x3d41e3c3	0.04733635
144	0xbd85715b	-0.065157615
145	0xbe0aa3b6	-0.13539013
146	0xbde995e2	-0.11405541
147	0xbd80fe85	-0.06298546
148	0x3d87c0ae	0.066285476
149	0xbe06953f	-0.1314287
150	0xbc1c4ebb	-0.009540255
151	0xbba7fc26	-0.005126494
152	0x3d7f9eab	0.062407177
153	0xbdd7f17c	-0.10544106
154	0x3dcfc78d	0.10145483
155	0x3e0a93c7	0.13532935
156	0x3cc2411a	0.023712683
157	0x3ca20c10	0.019781142
158	0x3cd07e17	0.02545075
159	0xbdffdf2e	-0.1249374
160	0xbdbc3e57	-0.09191578
161	0xbdd0ba44	-0.10191777
162	0xbda6d352	-0.08145775
163	0x3e0302ac	0.12793988
164	0xbd66f17b	-0.056382637
165	0x3db0aabc	0.08626315
166	0xbb82c080	-0.003990233
167	0x3c625c6b	0.0138159795
168	0x3dac6b4e	0.08418904
169	0xbd6b12f6	-0.05739113
170	0x3ce0cd78	0.027441725
171	0xbd7e28db	-0.06205068
172	0x3def7c65	0.11693648
173	0x3db17243	0.08664372
174	0x3c23fc00	0.010008812
175	0x3d714707	0.058905628
176	0xbca64da0	-0.020300686
177	0xbe0de57e	-0.13857076
178	0xbded238c	-0.11579046
179	0x3e075591	0.13216235
180	0x3e0b3d2b	0.13597552
181	0x3deb87a8	0.11500484
182	0xbe0ce40e	-0.13758871
183	0xbd0d5bf1	-0.03451151
184	0xbca54270	-0.020173281
185	0xbca94585	-0.020663032
186	0xbd63d1a2	-0.055619843
187	0x3cf65d35	0.030073741
188	0xbde0f5f8	-0.10984415
189	0x3c73d809	0.01488305
190	0xbda7d17f	-0.08194255
191	0xbe08cf66	-0.13360366
192	0xbda75923	-0.08171298
193	0x3dccc962	0.09999348
194	0xbe049100	-0.12945938
195	0x3cde5a20	0.027142584
196	0x3b23c04c	0.0024986444
197	0xbbf0b95c	-0.0073463153
198	0xbe0b34d4	-0.13594371
199	0xbb31d1b5	-0.0027133052
200	0xbb3eaf0a	-0.002909603
201	0x3cc05d78	0.02348207
202	0xbe012865	-0.12613066
203	0xbda8dc8a	-0.082451895
204	0x3e0010d4	0.1250642
205	0xbdd83d1a	-0.10558529
206	0x3d94ab36	0.072592184
207	0x3e0595b1	0.13045384
208	0x3c2415f4	0.010015
209	0xbdcbdf94	-0.099547535
210	0x3defc419	0.117073245
211	0xbc227984	-0.009916667
212	0x3bf215a4	0.0073878337
213	0xbcf917c3	-0.030406838
214	0xbd6a2ea5	-0.05717339
215	0x3ddcb264	0.10776213
216	0x3dd5c380	0.10437679
217	0x3dacc786	0.084364936
218	0xbdfcbf0a	-0.12341125
219	0x3c956fb8	0.018241748
220	0x3dcafd84	0.099116355
221	0x3d8e525d	0.06949303
222	0xbd892121	-0.06695772
223	0x3df0d50c	0.117593855
224	0xbce3dc50	-0.027815014
225	0xbdc0ff1f	-0.094236605
226	0xbdeb4430	-0.11487615
227	0x3d7dc9bc	0.061959967
228	0xbdd30333	-0.103033446
229	0x3d826e24	0.06368664
230	0x3c2f4f9e	0.010700135
231	0x3df78812	0.120865
232	0xbd8014f9	-0.06254
233	0x3dfefcc6	0.124505565
234	0xbd268d89	-0.040662322
235	0x3d200855	0.039070446
236	0xbdcce79b	-0.10005113
237	0xbcf5e398	-0.030015752
238	0xbd401880	-0.046898365
239	0x3db669dc	0.0890691
240	0xbc4aef91	-0.012386219
241	0xbd4dfaa3	-0.050287854
242	0xbcd43bd3	-0.025907433
243	0x3d8b7a58	0.068104446
244	0xbdbb8c52	-0.09157623
245	0x3d0fac64	0.035076514
246	0xbd6a0c2e	-0.05714052
247	0x3d7f409e	0.062317483
248	0x3d82337e	0.063574776
249	0xbdd59518	-0.10428828
250	0x3dab8c99	0.08376426
251	0x3d195ad0	0.03744012
252	0xbd6b170e	-0.057395034
253	0xbcf33290	-0.029687196
254	0x3daf903a	0.08572431
255	0xbdea0e36	-0.11428492

layers.3.bias f4 [20]
0	0x3b22cfe5	0.0024843153
1	0x3d94e17a	0.07269569
2	0xbd9b6301	-0.07587243
3	0x3e077757	0.13229118
4	0xbd380055	-0.04492219
5	0x3e010ff3	0.1260374
6	0xbdbae1fd	-0.09125135
7	0xbd2796e1	-0.040915374
8	0x3d99d08d	0.07510481
9	0x3a1d4971	0.00060000183
10	0x3da3f8f4	0.080064684
11	0x3dadd54b	0.08487948
12	0xbe06d5a6	-0.13167438
13	0xbc38ef2c	-0.011287492
14	0xba8ce919	-0.0010750621
15	0xbd3617b5	-0.044456203
16	0xbc3d4329	-0.011551657
17	0xbd8f7ed9	-0.07006616
18	0xbd9d101d	-0.07669089
19	0xbd8670a6	-0.06564455

layers.6.weight f4 [10, 20]
0	0x3d5d395d	0.054009784
1	0xbcb2d8bc	-0.021831863
2	0x3e071439	0.13191308
3	0x3e095a41	0.13413335
4	0x3a6907ae	0.0008889389
5	0x3b178496	0.00231198
6	0xbd2d0d60	-0.042249084
7	0xbde561df	-0.11200308
8	0xbd71f692	-0.05907304
9	0xb8ef73c6	-0.000114179726
10	0xbddbe4c7	-0.10736995
11	0xbe0a7700	-0.13521957
12	0xbe21cc4b	-0.15800588
13	0x3dbe3ecf	0.092893235
14	0x3d968052	0.07348694
15	0x3e0a6b4a	0.1351749
16	0x3e034c27	0.12822019
17	0xbda1e4df	-0.07904982
18	0xbe53c20d	-0.20679493
19	0xbe1986d8	-0.14992845
20	0xbe239ff5	-0.15978988
21	0xbc1d8f74	-0.009616721
22	0x3e19b30c	0.15009707
23	0x3e4fcedf	0.20293759
24	0xbe6423f4	-0.2227934
25	0xbd1d606b	-0.03842203
26	0xbe4d7f4b	-0.2006809
27	0xbe362278	-0.17786586
28	0x3c453a23	0.012037787
29	0xbc5885b7	-0.013215474
30	0x3dd2b50e	0.1028844
31	0xbe1385b9	-0.1440648
32	0x3d2d9c1d	0.04238521
33	0xbdfc0140	-0.12304926
34	0xbd5bccd9	-0.053662155
35	0xbe1fabbd	-0.15592857
36	0x3e0a736c	0.13520592
37	0xbd3f0121	-0.046631936
38	0xbe2a4937	-0.16629492
39	0xbe5bc00a	-0.21459976
40	0x3e38a09f	0.18030022
41	0xbe13b473	-0.14424305
42	0xbd4f2222	-0.05056966
43	0xbb8821a3	-0.0041544004
44	0x3e0013aa	0.12507501
45	0xbd9ff020	-0.07809472
46	0xbddbe9ee	-0.10737978
47	0x3d86d12e	0.065828666
48	0x3d88502a	0.06655915
49	0x3e0ad40c	0.13557452
50	0x3e23f5b0	0.16011691
51	0x3daa1e79	0.083065934
52	0x3c076583	0.008263948
53	0xbca75d05	-0.020430097
54	0x3d88cbf0	0.06679523
55	0xbcf5e6bf	-0.030017255
56	0xbdcf6bb9	-0.10127968
57	0xbdf69042	-0.12039234
58	0xbe617adb	-0.22019522
59	0x3e24a537	0.1607865
60	0x3d72a52b	0.059239548
61	0xbde5d45f	-0.11222147
62	0x3c16a923	0.009195599
63	0xbcdf160d	-0.027232194
64	0xbe379d98	-0.17931211
65	0xbe04e9a8	-0.12979758
66	0x3e1b8209	0.15186323
67	0xbe5921e4	-0.21204334
68	0x3d3ed0bd	0.046585787
69	0xbd4debd5	-0.050273735
70	0xbde2bf7f	-0.11071681
71	0xbd8b979a	-0.06816025
72	0xbd904d80	-0.07046032
73	0xbd6e4711	-0.058173243
74	0x3e002d48	0.12517273
75	0x3daa5463	0.08316877
76	0xbe07a73a	-0.13247386
77	0xbbd03faf	-0.006355248
78	0xbe54229f	-0.20716332
79	0xbaa1e4f6	-0.0012351561
80	0x3db7286d	0.089432575
81	0xbe011a55	-0.12607701
82	0x3c4358f7	0.011923066
83	0xbcb0ac47	-0.021566523
84	0xbe5d8a22	-0.21634725
85	0xbe5c38d8	-0.21506059
86	0x3d77912e	0.06044119
87	0xbcf8c9c6	-0.03036965
88	0xbe3852fb	-0.18000405
89	0xbc6bfe8a	-0.014403949
90	0xbdda3d3d	-0.106562115
91	0xbe20b1dd	-0.1569285
92	0xbd58c072	-0.052917905
93	0x3d071943	0.032983076
94	0xbd52077a	-0.05127666
95	0xbb4ddcb5	-0.003141207
96	0x3d93706e	0.07199179
97	0x3e250bb1	0.16117741
98	0xbd6c605f	-0.057709094
99	0xbd13cebe	-0.036085837
100	0xbd440d7c	-0.047864422
101	0x3d42d35b	0.047564846
102	0x3dcda896	0.10041921
103	0xbe1df4b2	-0.15425375
104	0x3e425e24	0.18981224
105	0xbe1ad314	-0.15119582
106	0x3df75155	0.1207606
107	0x3e3f8ab1	0.1870525
108	0x3e50f7e9	0.2040707
109	0xbe056930	-0.13028407
110	0x3df9f7dc	0.122054785
111	0x3e560239	0.20899285
112	0x3def38f4	0.11680785
113	0xbe17f4e1	-0.14839508
114	0xbe5e9947	-0.21738158
115	0x3d8fae79	0.070157
116	0x3ce644fc	0.028109066
117	0x3e2fa632	0.17153242
118	0x3dd40e27	0.10354262
119	0x3e3ed9c5	0.1863776
120	0x3e37ec47	0.17961226
121	0xbe40ecb0	-0.18840289
122	0x3dc85da7	0.09783488
123	0x3dae95ca	0.08524664
124	0x3e00f1f0	0.12592292
125	0xbd5dd8ba	-0.054161765
126	0xbbf53199	-0.007482719
127	0xbd4c7fb2	-0.049926467
128	0x3df2f839	0.11863751
129	0x3d56ac05	0.052410144
130	0xbe0ab254	-0.1354459
131	0xbd7e310e	-0.0620585
132	0xbdd4e44f	-0.10395109
133	0xbd103fa0	-0.035216928
134	0x3e1d2b89	0.15348639
135	0xbe18b265	-0.14911802
136	0xbe4d9934	-0.20077974
137	0xbda9e2eb	-0.08295234
138	0x3da38cf4	0.07985869
139	0x3db0e04b	0.086365305
140	0xbe472262	-0.1944671
141	0xbc7eff6a	-0.015563825
142	0xbde979d1	-0.11400188
143	0xbe310636	-0.17287526
144	0x3dab3b07	0.08360868
145	0xbe189390	-0.1490004
146	0xbd22a735	-0.039710242
147	0xbce98b7f	-0.0285089
148	0x3e4ce6d7	0.20009933
149	0xbdb3b835	-0.08775369
150	0x3d450bcc	0.048106954
151	0xbd9fd993	-0.07805171
152	0x3e55df03	0.20885853
153	0x3e44135b	0.19148009
154	0x3e0cf3ca	0.13764873
155	0x3cbe5138	0.023232087
156	0x3e3047b5	0.17214854
157	0xbc6d6fce	-0.014491988
158	0xbd9bb31c	-0.07602522
159	0xbe5e1f2c	-0.21691579
160	0xbdcfb27e	-0.101414666
161	0xbddf3aa1	-0.108998545
162	0x3e31d960	0.17368078
163	0x3e327d2c	0.17430562
164	0xbde6bd79	-0.11266608
165	0xbda31d29	-0.07964546
166	0xbd30f6d0	-0.04320413
167	0x3e260f27	0.16216718
168	0x3e1d3eee	0.15356037
169	0xbd3b7eab	-0.045775097
170	0x3e5d0365	0.21583326
171	0xbe000993	-0.12503652
172	0x3db23fa8	0.08703548
173	0x3d14af48	0.036299974
174	0xbe17f1fa	-0.148384
175	0xbd7c4a24	-0.061594144
176	0x3e1110ab	0.14166515
177	0xbdfe001c	-0.124023646
178	0xbe41c4cb	-0.18922727
179	0xbe06a05d	-0.13147111
180	0x3dd59664	0.10429075
181	0xbe609598	-0.21932065
182	0x3c134090	0.008987561
183	0xbe295cc5	-0.16539295
184	0xbe451a0f	-0.19248222
185	0xbd2395ab	-0.039937656
186	0xbd96aafa	-0.0735683
187	0x3d2756aa	0.040854134
188	0xbe1d14a9	-0.15339912
189	0x3e01ba9e	0.12668845
190	0xbe472e5b	-0.19451277
191	0xbde61cb2	-0.11235942
192	0x3dc71967	0.09721642
193	0xbd49aa25	-0.049234528
194	0x3dcaf321	0.099096544
195	0x3e5dde04	0.21666723
196	0xbe5e2161	-0.2169242
197	0x3c84299e	0.016133126
198	0x3d7f2cdf	0.06229865
199	0xbddfab11	-0.109213

layers.6.bias f4 [10]
0	0xbd39d78f	-0.04537159
1	0xbe013b1a	-0.12620202
2	0xbe42375b	-0.18966429
3	0x3dab9565	0.08378104
4	0xbdb0c790	-0.086318135
5	0xbe56e940	-0.20987415
6	0xbd9077bb	-0.07054087
7	0x3e547c9b	0.20750658
8	0xbdf2a150	-0.11847174
9	0xbdfa2055	-0.12213198

layers.9.weight f4 [2, 10]
0	0xbd2b3796	-0.041801058
1	0xbe5149c4	-0.20438296
2	0xbe70b5f6	-0.23506913
3	0x3e068b24	0.13139015
4	0xbd8e5cc6	-0.06951289
5	0x3e8f4bec	0.2798761
6	0xbdbd8129	-0.09253151
7	0x3c299edd	0.010352817
8	0xbd8eab19	-0.06966228
9	0xbe89ade7	-0.2689049
10	0xbe8713af	-0.26382205
11	0x3e795b46	0.24351224
12	0xbe8ceecf	-0.27525946
13	0xbdcab743	-0.09898236
14	0xbe5c49ab	-0.21512477
15	0x3d40772b	0.046988647
16	0xbe0a3d1a	-0.13499871
17	0x3e17fbf1	0.14842202
18	0x3d1f09a2	0.038827546
19	0x3e3e75e8	0.18599665

layers.9.bias f4 [2]
0	0xbe9294a7	-0.28629038
1	0xbdd1f3fd	-0.10251615
