DHH/model/fc/model-fold-4.pth (torch, 68239 bytes, 8 tensors)

layers.0.weight f4 [50, 302]
-0.028456967 0.03852218 -0.031109588 -0.044793125 0.034881663 0.0283634 0.05635489 0.00019814447
-0.008334488 -0.042121574 -0.010221612 0.03821342 0.02457146 0.025770854 -0.04769496 -0.04889355
0.0100466795 0.028664332 0.0040114075 0.056474764 -0.0035938434 0.040014934 -0.03581941 0.007674884
-0.0008055866 -0.050525453 0.013711002 0.019246135 -0.024001818 -0.009147305 -0.024275117 0.054299925
0.049651522 -0.0037320107 0.04189842 -0.016321052 0.044705 0.04263665 0.027726736 -0.018633835
0.052650552 -0.013978779 0.03040256 -0.047288194 -0.05573612 0.030131526 -0.032105826 -0.052383266
0.018769901 -0.01917139 0.024465706 -0.035987236 -0.018361546 -0.023203764 0.019369114 0.03966089
-0.053450003 0.03310625 -0.05532627 -0.055757757 -0.0296139 0.009314258 -0.005052708 0.021918219
-0.046794694 -0.006799545 -0.030952157 0.052268554 -0.044681653 0.017397184 -0.043549724 -0.05551329
-0.03829714 0.018526137 0.015744608 0.0030926913 -0.013522003 -0.031052578 -0.039428774 -0.006102197
-0.024728887 0.026507292 0.04213838 0.0076171793 -0.05344857 0.0017971992 -0.04595428 -0.05337115
0.05425715 -0.055811983 -0.027844079 -0.036717646 -0.055868164 0.015859116 -0.04210621 0.023558203
0.05245157 0.056277227 0.015821803 0.040954303 0.013636414 0.0015297383 -0.0143855065 -0.027883213
-0.023173355 0.024212945 0.043875758 0.017826412 -0.046605177 0.042820897 -0.028127462 -0.0028371066
-0.004016772 -0.041839283 -0.024549328 -0.005739853 0.010169763 -0.03868921 -0.021222766 0.042367604
-0.018848088 -0.013314903 0.056764882 0.010477025 0.002869986 0.02159692 0.008448061 0.031807486
0.021681752 -0.014511555 0.0034685656 0.022867542 0.02816825 0.0280709 0.043203574 -0.038455546
0.049752418 6.427616e-05 0.016607497 0.0019231662 -0.050134156 0.022090059 0.006392628 0.013944227
-0.02184501 -0.014591847 -0.004559461 -0.05132203 0.034543347 0.05796514 0.01847532 -0.017879855
-0.016535249 0.006188091 -0.007937059 0.048634436 0.029063862 0.057020564 -0.003199514 0.043689724
-0.030202465 0.039010484 -0.040234514 0.0066944696 0.025494885 -0.040564656 -0.028387863 0.030389491
0.040622298 0.050404567 0.010641355 -0.024104755 -0.05358893 -0.022678733 0.056647386 0.013678331
-0.019577235 0.0061829872 0.011451129 -0.0057191774 -0.035111915 0.02651294 0.01761406 0.052254874
0.006023977 0.018883456 -0.004386835 -0.011441005 0.0036924519 0.046408538 -0.027282631 0.0482026
0.05219652 0.0010172203 -0.036888435 -0.036676675 -0.026128765 -0.033203006 -0.0025583766 0.051430833
-0.05689475 -0.049072083 0.012088668 -0.02176547 0.0027773045 -0.005117491 -0.044145208 -0.05322066
0.0009477325 -0.035208598 -0.016692623 -0.034443513 -0.05161705 -0.012911046 -0.051945947 0.04800329
-0.027977817 0.05116776 0.047367398 0.0113657825 0.008594055 0.020175304 -0.05256117 -0.0014053397
-0.025348037 0.021518331 0.015019421 0.005656671 -0.011485148 0.0067260526 -0.03509393 -0.048382416
0.014365476 0.0062435903 -0.051194992 -0.044450656 -0.0009692386 0.032032248 -0.036252663 -0.020466857
-0.0007572177 -0.01573142 -0.04851422 -0.004654404 0.052603725 -0.024854824 -0.023941781 0.027162056
-0.025248159 -0.033415683 -0.025394648 -0.03883087 0.007642459 -0.012715884 -0.057242867 -0.04120931
00000000: 961e e9bc 6fc9 1d3d 89d9 febc ff78 37bd
00000010: 13e0 0e3d 5c5a e83c 63d4 663d 00c5 4f39
00000020: 608d 08bc ac87 2cbd 8c78 27bc ad85 1c3d
00000030: 164a c93c 661d d33c ca5b 43bd 9a44 48bd
00000040: d49a 243c 76d1 ea3c 2072 833b 1552 673d
00000050: b086 6bbb b3e6 233d 60b7 12bd 987d fb3b
00000060: 002e 53ba c7f3 4ebd 1ca4 603c 12aa 9d3c
00000070: 769f c4bc 94de 15bc 9cdc c6bc 9969 5e3d
00000080: 655f 4b3d c094 74bb ad9d 2b3d bab3 85bc
00000090: 971c 373d c5a3 2e3d 2e23 e33c fca5 98bc
000000a0: 1ba8 573d 4007 65bc ca0e f93c 44b1 41bd
000000b0: 8f4b 64bd 64d6 f63c 6681 03bd d68f 56bd
000000c0: 56c3 993c 520d 9dbc 4e6c c83c 5a67 13bd
000000d0: f46a 96bc d215 bebc faab 9e3c 7573 223d
000000e0: 64ee 5abd 6b9a 073d cd9d 62bd 3f62 64bd
000000f0: da98 f2bc d49a 183c 3091 a5bb d68d b33c
00000100: cbab 3fbd b8ce debb 618f fdbc 8d17 563d
00000110: 1c04 37bd 8a84 8e3c 3261 32bd e761 63bd
00000120: 76dd 1cbd 20c4 973c d6fa 803c c0ae 4a3b
00000130: 648b 5dbc fa61 febc 1180 21bd f0f4 c7bb
00000140: 3c94 cabc d225 d93c 4b99 2c3d 8899 f93b
00000150: e3ec 5abd 0090 eb3a 8e3a 3cbd b59b 5abd
00000160: bf3c 5e3d 1b9b 64bd 4419 e4bc 3e65 16bd
00000170: 04d6 64bd faea 813c 9077 2cbd 22fd c03c
00000180: 75d7 563d f382 663d ba9c 813c b3bf 273d
00000190: 446b 5f3c 8081 c83a 30b1 6bbc 566b e4bc
000001a0: 0cd6 bdbc 3a5a c63c 11b7 333d b208 923c
000001b0: 12e5 3ebd f764 2f3d 906b e6bc c0ee 39bb
000001c0: 209f 83bb ab5f 2bbd ac1b c9bc 6015 bcbb
000001d0: 149f 263c 9478 1ebd 5edb adbc a789 2d3d
000001e0: 4e67 9abc c026 5abc 4b82 683d d4a7 2b3c
000001f0: 6016 3c3b 06ec b03c bc69 0a3c 9148 023d
00000200: ee9d b13c e0c1 6dbc e050 633b b654 bb3c
00000210: 1ac1 e63c f2f4 e53c 3bf6 303d 9083 1dbd
00000220: 31c9 4b3d 00cc 8638 720c 883c c012 fc3a
00000230: 7959 4dbd 36f6 b43c 4079 d13b 5476 643c
00000240: 4ef4 b2bc a412 6fbc 8867 95bb 0d37 52bd
00000250: 537d 0d3d db6c 6d3d 8e59 973c c678 92bc
00000260: ee74 87bc 78c5 ca3b 700a 02bc e734 473d
00000270: 5617 ee3c 658e 693d f0ae 51bb fff3 323d
00000280: 296b f7bc 75c9 1f3d f2cc 24bd 485d db3b
00000290: a6da d03c 2027 26bd aa8d e8bc 62f3 f83c
000002a0: 9163 263d 0575 4e3d 1459 2e3c 5677 c5bc
000002b0: 1180 5bbd c0c8 b9bc 1707 683d 141b 603c
000002c0: 7060 a0bc a89a ca3b 849d 3b3c f067 bbbb
000002d0: 83d1 0fbd aa31 d93c 5c4b 903c 3509 563d
000002e0: c864 c53b 7ab1 9a3c 70bf 8fbb 0e73 3bbc
000002f0: 10fd 713b e116 3e3d d37f dfbc 1770 453d
00000300: 05cc 553d 4054 853a 5418 17bd 483a 16bd
00000310: fe0b d6bc e0ff 07bd 70aa 27bb 23a9 523d
00000320: 780a 69bd cfff 48bd 8c0f 463c 804d b2bc
00000330: 7003 363b a0b0 a7bb 9bd1 34bd e8fd 59bd
00000340: 4071 783a e436 10bd f8be 88bc a414 0dbd
00000350: 666c 53bd da88 53bc 46c5 54bd 199f 443d
00000360: bc31 e5bc 4995 513d 5104 423d 8c37 3a3c
00000370: 14ce 0c3c ae46 a53c 624a 57bd 6033 b8ba
00000380: b0a6 cfbc 3647 b03c 0414 763c 985b b93b
00000390: 342c 3cbc 3866 dc3b a7be 0fbd a42c 46bd
000003a0: 2c5d 6b3c 0897 cc3b d7b1 51bd e411 36bd
000003b0: 8014 7eba 3f34 033d ac7d 14bd 1caa a7bc
000003c0: 0580 46ba 2edf 80bc d9b6 46bd f883 98bb
000003d0: 0177 573d 589c cbbc 8e21 c4bc f682 de3c
000003e0: 3ad5 cebc e2de 08bd 7008 d0bc 1e0d 1fbd
000003f0: 986d fa3b 4856 50bc 7f77 6abd 18cb 28bd

layers.0.bias f4 [50]
0.012479259 -0.024305526 -0.01257176 -0.031217435 -0.016798796 0.017872589 0.03508774 0.021681968
-0.009457979 0.04852987 -0.04348688 -0.015311412 0.034178313 0.05774902 -0.044229582 -0.021779507
0.05395798 -0.034532506 0.0095623 -0.043517485 -0.042451415 0.038361795 -0.018392228 0.026761103
0.0043348754 -0.040533878 0.02585467 0.03434245 0.05304721 0.040671483 0.015785234 -0.014392534
0.030365806 0.054278426 -0.031590533 -0.012141963 -0.0017193406 0.020561373 -0.024341218 -0.022154082
0.02557453 -0.053280998 -0.044953007 -0.03368763 0.018861389 -0.05030733 0.028105028 0.00574528
0.052433547 -0.029782994
00000000: ce75 4c3c 621c c7bc c9f9 4dbc b5bb ffbc
00000010: a19d 89bc 8969 923c 29b8 0f3d 629e b13c
00000020: a4f5 1abc 42c7 463d 4c1f 32bd b7dc 7abc
00000030: 8ffe 0b3d 3d8a 6c3d 142a 35bd f06a b2bc
00000040: 0b03 5d3d f571 0dbd 31ab 1c3c 643f 32bd
00000050: 89e1 2dbd 4221 1d3d 4cab 96bc 1a3a db3c
00000060: 920b 8e3b da06 26bd 2ccd d33c abaa 0c3d
00000070: 0848 593d 2497 263d 0950 813c aace 6bbc
00000080: b6c1 f83c 0e53 5e3d 1365 01bd 15ef 46bc
00000090: 7f5b e1ba 5370 a83c 3c67 c7bc 7a7c b5bc
000000a0: ad81 d13c 2d3d 5abd a520 38bd 0afc 09bd
000000b0: 3383 9a3c 0f0f 4ebd 843c e63c e742 bc3b
000000c0: 8fc4 563d 77fb f3bc

layers.2.weight f4 [20, 50]
0.07452956 0.046755493 -0.06592632 0.03429163 -0.07552063 -0.11990651 0.02465573 -0.11498178
0.013250307 -0.06311481 -0.13934664 -0.13319916 -0.038214058 0.069159426 -0.00978033 -0.12965788
-0.035265666 0.116318315 -0.09654634 -0.08321855 -0.08484223 0.13501115 -0.070216164 -0.080735646
0.11760928 0.06455402 -0.10591624 -0.089073405 0.03625811 -0.02868278 0.13816392 0.013680518
0.019698918 0.100365065 0.06921693 -0.008835052 0.043691467 -0.07738559 -0.07975871 0.12784083
0.104402274 -0.06743419 -0.108599275 0.07323216 0.012147356 -0.05521832 0.05221831 -0.0063140774
0.001786193 0.131183 0.08338994 0.06937489 -0.09978144 0.10841219 0.033288464 0.08554582
-0.1356027 -0.123199426 0.05161281 0.07743965 0.07431567 -0.021491542 0.01690635 0.091956675
-0.07196234 -0.012178034 -0.0042237043 0.11054568 0.00682573 0.08328384 -0.10035536 -0.0720452
0.078874886 -0.07994585 -0.033567958 -0.09864091 -0.010802358 0.06907597 -0.079390556 0.105045944
-0.0040105134 0.045739144 0.008102402 -0.005731195 -0.10465415 -0.10497856 -0.108714804 -0.13168941
-0.044997953 -0.115887366 -0.06509723 0.045217335 -0.011694625 0.13094835 -0.123430945 -0.10680556
0.077275485 -0.11522246 0.11527099 -0.12884755 -0.036866136 0.14549194 -0.062190667 -0.0044700233
-0.070396595 -0.053821918 0.060874686 -0.08807538 -0.020292342 0.06275883 0.10337189 0.041999467
0.11365169 0.047185123 0.028269315 -0.10980396 -0.047286607 -0.11353626 0.09620736 -0.046893563
-0.008009673 0.123379685 -0.061863072 0.047664344 -0.010667263 -0.13886401 0.1396025 -0.092040196
-0.12595555 -0.02317768 -0.024260186 0.08942442 -0.072413124 -0.093354024 0.13577025 0.08620485
-0.03385197 -0.022765687 0.14463723 -0.13676998 -0.07864208 -0.029011505 -0.10871467 -0.08183054
-0.0055953152 0.1415184 0.09832091 -0.017559454 -0.135488 -0.12771772 0.124633595 -0.008522764
-0.08423972 0.11006798 -0.13427389 -0.13120124 -0.05721986 0.071291775 -0.11349602 0.081701815
-0.101737045 -0.12301489 -0.0467621 -0.048928954 -0.080228 0.04959692 -0.1235289 -0.11771789
0.12946941 -0.11488157 -0.08768983 -0.116286755 -0.023024026 0.012183458 0.06537743 -0.027183516
0.01846194 -0.06520029 -0.000243986 0.06743233 -0.11624608 -0.13214985 0.066053 -0.0016421825
-0.045538522 -0.028639898 0.01798898 0.106769755 -0.0025465786 0.06593101 0.0076242685 0.08780504
0.1388059 0.10605751 0.038635254 0.050431073 0.050909337 0.12129794 0.011298691 0.067550614
-0.040251456 -0.072272494 0.09397203 -0.06472753 -0.053390384 0.11081497 -0.117505044 -0.04049343
-0.13335842 -0.06954628 0.05188121 -0.022848368 -0.09964377 0.106586844 -0.0263291 0.092264086
-0.059209578 0.041826174 -0.054512925 -0.11077 -0.022566758 -0.108709544 -0.033669986 0.11949654
-0.027286105 0.05267872 -0.066644356 -0.1042632 -0.09742856 0.043429896 -0.11513348 -0.058466293
-0.100255266 -0.114793204 0.03477004 0.020826474 -0.11848366 -0.13046646 -0.089019895 0.07824013
-0.092083186 -0.0099269 0.03305079 -0.12082672 -0.059862837 0.04861279 0.05427088 0.086684
-0.12936279 0.030330807 -0.018012324 -0.056653492 0.0014454573 0.1266516 -0.002225846 -0.072768815
00000000: f4a2 983d b082 3f3d 6104 87bd 6175 0c3d
00000010: 8faa 9abd 8b91 f5bd d0fa c93c 917b ebbd
00000020: d117 593c 5642 81bd e3b0 0ebe 5c65 08be
00000030: 5886 1cbd 75a3 8d3d ad3d 20bc 09c5 04be
00000040: bb72 10bd 4c38 ee3d 16ba c5bd 7d6e aabd
00000050: c3c1 adbd 5d40 0a3e 7ecd 8fbd bb58 a5bd
00000060: 22dd f03d e634 843d 9dea d8bd 1e6c b6bd
00000070: 6283 143d 26f8 eabc d87a 0d3e 4024 603c
00000080: a05f a13c 338c cd3d 9bc1 8d3d e5c0 10bc
00000090: d3f5 323d 567c 9ebd 8958 a3bd b5e8 023e
000000a0: dcd0 d53d f01a 8abd 4c69 debd befa 953d
000000b0: b405 473c 9b2c 62bd dee2 553d 52e6 cebb
000000c0: b11e ea3a d654 063e 58c8 aa3d 6c14 8e3d
000000d0: 365a ccbd 3607 de3d 7c59 083d a632 af3d
000000e0: 6fdb 0abe fb4f fcbd f467 533d ae98 9e3d
000000f0: d032 983d 080f b0bc 307f 8a3c c853 bc3d
00000100: fe60 93bd 6086 47bc 0067 8abb c665 e23d
00000110: 60aa df3b b890 aa3d 1c87 cdbd 6f8c 93bd
00000120: 2889 a13d a6ba a3bd 8e7e 09bd 3f04 cabd
00000130: 60fc 30bc b477 8d3d 8497 a2bd 5422 d73d
00000140: a06a 83bb f858 3b3d f0bf 043c c0cc bbbb
00000150: ea54 d6bd 00ff d6bd dea5 debd 97d9 06be
00000160: c64f 38bd 5b56 edbd b251 85bd d035 393d
00000170: d09a 3fbc 5317 063e 5dc9 fcbd e0bc dabd
00000180: 9c42 9e3d c1f9 ebbd 3213 ec3d 9df0 03be
00000190: f200 17bd d7fb 143e a4bb 7ebd 4679 92bb
000001a0: 172c 90bd 5f74 5cbd bc57 793d dd60 b4bd
000001b0: 203c a6bc b487 803d a4b4 d33d a207 2c3d
000001c0: 38c2 e83d 3045 413d 0d95 e73c e6e0 e0bd
000001d0: 9aaf 41bd b385 e8bd 5d08 c53d 7713 40bd
000001e0: 013b 03bc 7dae fc3d 2264 7dbd b03b 433d
000001f0: bec5 2ebc 5e32 0ebe f5f3 0e3e 927f bcbd
00000200: 7efa 00be 1edf bdbc 4cbd c6bc 2624 b73d
00000210: 554d 94bd 6530 bfbd 5b07 0b3e 2b8c b03d
00000220: 5da8 0abd 1b7f babc c81b 143e 6e0d 0cbe
00000230: 190f a1bd 89a9 edbc cca5 debd c596 a7bd
00000240: e858 b7bb 33ea 103e 795c c93d d8d8 8fbc
00000250: 5ebd 0abe 6fc8 02be e63f ff3d 10a3 0bbc
00000260: e085 acbd 526b e13d 187f 09be 9e59 06be
00000270: 5f5f 6abd 6c01 923d 9a70 e8bd 4853 a73d
00000280: 835b d0bd 3bef fbbd 9e89 3fbd ba69 48bd
00000290: 944e a4bd 2426 4b3d b8fc fcbd 1416 f1bd
000002a0: a193 043e 0747 ebbd ba96 b3bd c027 eebd
000002b0: e29c bcbc 209d 473c 9ae4 853d f7af debc
000002c0: 7f3d 973c bb87 85bd 7ed6 7fb9 f619 8a3d
000002d0: 6d12 eebd 4a52 07be cc46 873d 803e d7ba
000002e0: 9a86 3abd 389e eabc a05d 933c 1aaa da3d
000002f0: 80e4 26bb d606 873d 00d5 f93b 21d3 b33d
00000300: 2223 0e3e ae34 d93d 0040 1e3d d090 4e3d
00000310: 4f86 503d 0e6b f83d 251e 393c fa57 8a3d
00000320: b6de 24bd 9a03 94bd 6874 c03d de8f 84bd
00000330: e0af 5abd f6f2 e23d 7ca6 f0bd 70dc 25bd
00000340: 1c8f 08be 486e 8ebd 6481 543d 802c bbbc
00000350: 0812 ccbd 344a da3d 20b0 d7bc f4f4 bc3d
00000360: be85 72bd ec51 2b3d f248 5fbd 62db e2bd
00000370: ecdd b8bc 1ca3 debd 8ae9 09bd 9aba f43d
00000380: 1c87 dfbc a4c5 573d d67c 88bd f287 d5bd
00000390: a088 c7bd 8ce3 313d 1acb ebbd 5a7a 6fbd
000003a0: a252 cdbd b318 ebbd 086b 0e3d 489c aa3c
000003b0: 90a7 f2bd 0099 05be 1050 b6bd 5c3c a03d
000003c0: 1c96 bcbd 70a4 22bc 4460 073d 0074 f7bd
000003d0: bc32 75bd 341e 473d 244b 5e3d 6287 b13d
000003e0: ae77 04be 5078 f83c 958e 93bc 7e0d 68bd
000003f0: 8075 bd3a f5b0 013e 80df 11bb d107 95bd

layers.2.bias f4 [20]
0.11313238 -0.091014944 0.06469669 -0.022462988 -0.04238178 0.060772218 -0.030159594 0.13798898
-0.03791038 -0.015415276 -0.028070481 0.10607898 -0.014343843 0.0143298805 0.020063106 0.041081075
0.13710825 -0.10626946 0.03541009 0.031529456
00000000: f3b1 e73d 0b66 babd b37f 843d 4d04 b8bc
00000010: 8498 2dbd 4aec 783d 4111 f7bc fc4c 0d3e
00000020: ea47 1bbd 5b90 7cbc 11f4 e5bc f03f d93d
00000030: 7002 6bbc e0c7 6a3c 625b a43c a144 283d
00000040: 1b66 0c3e cda3 d9bd 2c0a 113d 0825 013d

layers.4.weight f4 [10, 20]
-0.075071916 -0.21828458 0.11571241 -0.14148454 0.04484421 0.084788814 0.10616539 0.06316148
-0.101401575 -0.14971368 -0.0067684427 -0.0910088 0.1927445 -0.04585843 -0.02666154 -0.03325953
0.10218255 0.18069214 0.06228232 0.17435163 -0.13395843 -0.015882745 0.04774502 0.12293947
0.1956284 -0.036935523 -0.1991664 -0.078764394 0.17928898 0.18689162 0.08444196 -0.089426875
-0.19734207 -0.06408946 -0.1559554 -0.18523067 -0.113044925 -0.17883202 -0.14394322 0.11453709
-0.0967477 0.20652407 0.14406526 0.059338644 -0.11857794 0.16640693 -0.082503036 -0.011519685
-0.10598916 -0.120334245 0.05866797 -0.1698448 0.17909768 -0.11456387 -0.07264384 0.11573302
0.20537966 0.031299233 -0.13970296 0.14366126 0.19855386 -0.050510302 0.08533402 0.15444094
0.11326793 0.06372282 0.08210705 -0.09001361 0.16536981 0.07574989 -0.07407798 -0.09303568
-0.022349149 0.03956978 -0.10450679 -0.0010005832 -0.14949194 -0.21320261 -0.0455492 -0.032709554
0.08458534 -0.05400893 0.046825826 -0.03131105 0.08263078 -0.009053066 -0.011867017 0.012858853
0.053973883 -0.18232206 0.02266848 -0.12990323 -0.0041547418 -0.2025003 0.097473115 -0.0060610473
0.05454272 -0.20151299 -0.011504471 0.014310941 0.021320976 0.1650725 0.21935712 0.211696
0.04108259 0.08071911 0.14183757 -0.15230529 0.13476849 -0.018830864 -0.048564307 -0.07656202
-0.16067247 0.1658544 -0.065260656 -0.14759196 -0.20347215 -0.09853324 0.03290218 -0.13283803
0.12764987 -0.10871226 0.19991025 -0.03573814 -0.2120888 -0.14336216 -0.06713497 -0.059701413
-0.1444782 0.2100933 -0.058993038 0.03940068 0.22226915 -0.14092034 -0.04402367 -0.00092962384
0.065699756 -0.16651666 0.108492136 -0.0587302 -0.010869041 -0.03402944 0.06654441 0.00022338331
-0.17325053 -0.1663611 -0.19577408 -0.053699702 -0.16377813 -0.104828216 -0.21938345 0.14483044
0.025844753 -0.012006298 0.029248923 0.14976346 -0.11266271 0.16184536 -0.00023059547 0.084124506
0.05931288 -0.022433832 0.022902653 -0.13020748 -0.01546064 0.15520555 -0.13821377 -0.11893761
0.03845173 0.17580602 -0.19897589 0.13844818 0.17159885 -0.1019853 -0.21273836 -0.18196255
0.112389416 0.034727365 -0.12633765 -0.07276757 0.22174115 0.13116023 0.20640737 0.18156427
0.16087753 0.11356017 0.18117356 -0.0023621763 -0.19380906 -0.16034348 0.19383188 0.21994223
-0.10080771 -0.02359379 0.1257666 -0.17988473 -0.092902906 0.14293367 0.119514756 0.122357875
00000000: 4ebf 99bd fe85 5fbe a1fa ec3d 53e1 10be
00000010: 90ae 373d c2a5 ad3d 3d6d d93d ce5a 813d
00000020: a1ab cfbd 8b4e 19be d0c9 ddbb d262 babd
00000030: d05e 453e 0dd6 3bbd 4d69 dabc 253b 08bd
00000040: 1645 d13d 5c07 393e bf1b 7f3d 3c89 323e
00000050: 662c 09be 881c 82bc 4890 433d b0c7 fb3d
00000060: d052 483e b449 17bd 47f2 4bbe 3a4f a1bd
00000070: 8897 373e 8460 3f3e e8ef ac3d 7025 b7bd
00000080: 0a14 4abe 5641 83bd c6b2 1fbe 1cad 3dbe
00000090: 1984 e7bd be1f 37be da65 13be 6c92 ea3d
000000a0: a823 c6bd 0c7b 533e d885 133e 140d 733d
000000b0: fed8 f2bd 9466 2a3e 5af7 a8bd 10bd 3cbc
000000c0: d810 d9bd cd71 f6bd d34d 703d cceb 2dbe
000000d0: 6265 373e 76a0 eabd 4bc6 94bd 6f05 ed3d
000000e0: 0c4f 523e a033 003d 4b0e 0fbe f01b 133e
000000f0: b451 4b3e e4e3 4ebd 9ac3 ae3d c425 1e3e
00000100: 04f9 e73d 1c81 823d be27 a83d 0e59 b8bd
00000110: b456 293e c222 9b3d 32b6 97bd 7e89 bebd
00000120: 9015 b7bc ec13 223d a807 d6bd 0026 83ba
00000130: 6a14 19be c951 5abe cc91 3abd 74fa 05bd
00000140: 143b ad3d 7838 5dbd 70cc 3f3d 0440 00bd
00000150: 543a a93d 5053 14bc e06d 42bc f0ad 523c
00000160: b813 5d3d a2b2 3abe 40b3 b93c 5a05 05be
00000170: 8024 88bb 3d5c 4fbe fc9f c73d c09b c6bb
00000180: 3068 5f3d 6c59 4ebe 407d 3cbc 7078 6a3c
00000190: 54a9 ae3c c408 293e 279f 603e d6c6 583e
000001a0: 3846 283d 1050 a53d de3d 113e ebf5 1bbe
000001b0: c000 0a3e 2f43 9abc 5eeb 46bd 8ccc 9cbd
000001c0: 5387 24be bcd5 293e 61a7 85bd 5922 17be
000001d0: 015b 50be cccb c9bd 70c4 063d b106 08be
000001e0: a6b6 023e 89a4 debd 46b5 4c3e 2862 12bd
000001f0: ce2d 59be 88cd 12be 0f7e 89bd 7889 74bd
00000200: 18f2 13be b322 573e afa2 71bd 9c62 213d
00000210: 869a 633e 6c4d 10be 2a52 34bd 00b2 73ba
00000220: 988d 863d 5883 2abe 2031 de3d 148f 70bd
00000230: 1014 32bc 7462 0bbd 7048 883d 003c 6a39
00000240: 9668 31be 905a 2abe 0079 48be 38f4 5bbd
00000250: 74b5 27be 2db0 d6bd 0ea6 60be 6e4e 143e
00000260: 60b8 d33c 10b6 44bc 709b ef3c 985b 193e
00000270: b5bb e6bd caba 253e 00cc 71b9 7849 ac3d
00000280: 10f2 723d 28c7 b7bc 589e bb3c 1c55 05be
00000290: a04e 7dbc 34ee 1e3e e987 0dbe 9095 f3bd
000002a0: 907f 1d3d 7e06 343e 56c0 4bbe 5cc5 0d3e
000002b0: 9cb7 2f3e abdd d0bd 16d8 59be 6454 3abe
000002c0: 6c2c e63d 483e 0e3d a85e 01be 2a07 95bd
000002d0: 1d10 633e de4e 063e 745c 533e fceb 393e
000002e0: 14bd 243e 3c92 e83d 9085 393e bece 1abb
000002f0: e275 46be 1531 24be dd7b 463e 8938 613e
00000300: 4674 cebd c447 c1bc f6c8 003e b433 38be
00000310: e143 bebd 345d 123e 27c4 f43d c496 fa3d

layers.4.bias f4 [10]
-0.009773948 0.020592585 -0.0442796 -0.16931252 -0.21655618 0.08935581 -0.07385149 -0.0024918616
0.037418783 0.16983896
00000000: e922 20bc c8b1 a83c 875e 35bd 4360 2dbe
00000010: e7c0 5dbe 2e00 b73d 733f 97bd 804e 23bb
00000020: 7044 193d 44ea 2d3e

layers.6.weight f4 [2, 10]
0.071625 0.14942002 0.16977611 0.06649006 0.06810996 -0.29057252 0.2551736 -0.28134042
0.25554022 0.2847566 0.31164825 -0.11762221 -0.18707326 -0.30210593 0.19143876 -0.018542724
0.2237458 0.13011849 0.06642938 -0.05660519
00000000: 21b0 923d 9001 193e cad9 2d3e f12b 883d
00000010: 3c7d 8b3d ecc5 94be 1da6 823e da0b 90be
00000020: 2bd6 823e 9ecb 913e 5c90 9f3e eae3 f0bd
00000030: 2290 3fbe a1ad 9abe 8608 443e e9e6 97bc
00000040: 9e1d 653e c83d 053e 200c 883d d8da 67bd

layers.6.bias f4 [2]
0.23083316 -0.04322338
00000000: 875f 6c3e 000b 31bd
