DHH/model/fc/model-fold-9.pth (torch, 68239 bytes, 8 tensors)

layers.0.weight f4 [50, 302]
0	0xbc5f07d0	-0.0136127025
1	0xbd108bd9	-0.03528962
2	0xbc678278	-0.014130227
3	0xbc55b040	-0.01304251
4	0xbd582d4e	-0.05277758
5	0x3ca4b02f	0.020103542
6	0x3ce68f0a	0.028144378
7	0x3d4612b5	0.048357684
8	0x3c661f34	0.014045525
9	0x3c37ed6c	0.011226039
10	0x3d4de07f	0.050262924
11	0x3cf2b712	0.02962831
12	0xbccb10ca	-0.02478828
13	0xbc55065c	-0.0130020045
14	0xbd18d8c5	-0.037316103
15	0x3d195b73	0.03744073
16	0x3cf9c8a6	0.030491184
17	0x3d5988cd	0.05310898
18	0x3d1e8b93	0.038707327
19	0x3ccb868a	0.024844427
20	0xbd1e67d8	-0.038673252
21	0x3c187cec	0.009307127
22	0x3d0622e5	0.03274812
23	0x3d5d4c41	0.0540278
24	0xbbecc530	-0.007225655
25	0x3d006393	0.03134496
26	0x3d398f63	0.04530276
27	0xbbf2c1a0	-0.007408336
28	0x3ce9d172	0.028542254
29	0xbcaf8a22	-0.021428172
30	0x3d18f32d	0.037341285
31	0x3b57ff90	0.0032958724
32	0xbca63e52	-0.020293389
33	0xbc9fe114	-0.019516505
34	0x3b228e70	0.0024804138
35	0x3d4ba35f	0.04971635
36	0x3cd17462	0.025568191
37	0x3c795c74	0.015219796
38	0xbc010e6c	-0.007876974
39	0xbd489ec6	-0.048979543
40	0xbd39cc5f	-0.04536092
41	0x3d5df139	0.054185126
42	0x3d68802b	0.056762855
43	0xbc5ec4b0	-0.013596699
44	0x3d5cdbcf	0.053920563
45	0xbc96300b	-0.018333456
46	0x3c9f656e	0.019457545
47	0xbce91d05	-0.02845622
48	0xbd3b6d9b	-0.045758825
49	0x3c987162	0.018608753
50	0xbd63667c	-0.05551766
51	0x3b38a3e0	0.002817385
52	0x3ce414da	0.027841974
53	0x3d040731	0.03223342
54	0x3d1a403d	0.03765892
55	0x3d6861af	0.056733783
56	0xbc1f2a8c	-0.009714734
57	0xbbec9e88	-0.007221047
58	0xbcd719f8	-0.0262575
59	0xbcc92492	-0.02455357
60	0x3cacfaca	0.02111568
61	0xbd28796f	-0.041131433
62	0xbc7159b4	-0.01473086
63	0x3c0c854c	0.008576702
64	0xbb8f3185	-0.004369917
65	0x3d5b1475	0.053486306
66	0x3d2f8391	0.04285008
67	0xbd5d8175	-0.054078538
68	0x3d4fcf6b	0.05073492
69	0x3cf0cec6	0.029395472
70	0xbc467a74	-0.012114156
71	0x3c49e43c	0.012322482
72	0x3cc8bb9e	0.024503525
73	0x3c89569f	0.016764937
74	0xbd4b90c7	-0.049698617
75	0x3d1b3457	0.037891712
76	0x3c6a0744	0.014283959
77	0xbbe8a440	-0.0070996583
78	0xbcd1a074	-0.025589205
79	0x3a568b40	0.0008184202
80	0xbcb4cf92	-0.022071633
81	0xbab127e0	-0.0013515912
82	0xbb8154dd	-0.003946884
83	0x3d322033	0.04348774
84	0xbc64a52c	-0.013955396
85	0x3d2809bb	0.041024905
86	0xbd1f1b3e	-0.03884434
87	0xbb936de0	-0.004499182
88	0xbd5cc7eb	-0.053901594
89	0xbd5f3eaa	-0.05450312
90	0x3c24651c	0.010033872
91	0x3d206edb	0.03916822
92	0xbc09f63c	-0.008420523
93	0x3c9bd9a2	0.019024674
94	0xbd58d882	-0.052940853
95	0x3d1f44b1	0.03888387
96	0x3c179154	0.0092509575
97	0x3c45eed4	0.012080867
98	0xbc55a9d0	-0.013040975
99	0x3d2dd659	0.042440746
100	0x3c6593d4	0.014012296
101	0x3ca07912	0.01958898
102	0xbb2e92a0	-0.0026637688
103	0xbce41c25	-0.027845452
104	0x3d6437b1	0.055717174
105	0xbb369e50	-0.0027865358
106	0x3c839516	0.0160623
107	0x3ca5655e	0.020189937
108	0x3d4d4ce1	0.050122146
109	0x3cf026ca	0.029315371
110	0xbcb4ff1a	-0.022094298
111	0xbd4d6b21	-0.050150994
112	0x3cb3a1a6	0.021927666
113	0xbc4a310f	-0.012340798
114	0xbc8822ae	-0.016618099
115	0x3d321617	0.043478098
116	0xbd2c3e06	-0.042051338
117	0xbaf24860	-0.0018484704
118	0x3d2d0f11	0.042250697
119	0xbc85670a	-0.016284484
120	0x3aad1360	0.0013204627
121	0x3cd05d2e	0.025435057
122	0xbcd49230	-0.025948614
123	0xbbb9b8e0	-0.005667791
124	0x3cdb93ba	0.02680384
125	0xbd48bad6	-0.049006306
126	0x3d05c3df	0.0326575
127	0x3c8fb0ff	0.017540453
128	0xbc1593dc	-0.009129491
129	0xbb9f59a8	-0.004862983
130	0xbb24e520	-0.0025160983
131	0xbd1f001c	-0.038818464
132	0xbce9fe6e	-0.028563704
133	0xba360e80	-0.00069449097
134	0xbd59cd53	-0.053174328
135	0x3d6c14b5	0.057636935
136	0xbcc78932	-0.024357412
137	0xbd40c6a0	-0.047064424
138	0xbd041ade	-0.032252185
139	0x3c9b288e	0.018940236
140	0x3cb432b2	0.02199683
141	0x3d0c73a3	0.034289967
142	0xbd412b20	-0.047160268
143	0xbd5ea937	-0.054360595
144	0x3cdcd956	0.026959103
145	0x3d2e03c7	0.04248407
146	0xbcf67080	-0.030082941
147	0xbd4ad3ab	-0.04951827
148	0xbd4c1865	-0.049827952
149	0x3cfba45b	0.03071802
150	0xbd411daa	-0.04714743
151	0x3d5e13b1	0.054217998
152	0xbd64df6d	-0.055877138
153	0x3c7997c4	0.015233938
154	0xbbf49a98	-0.007464718
155	0x3c31592c	0.010824483
156	0x3c0b8afc	0.008517023
157	0xbd3554b9	-0.04427025
158	0x3d45cf65	0.04829349
159	0x3d6686a3	0.056280743
160	0x3d229fb7	0.039703097
161	0x3d161eaf	0.036650356
162	0x3acd5036	0.0015664164
163	0x3cbbd456	0.022928398
164	0xbd641e49	-0.055692945
165	0xbc572283	-0.013130787
166	0xbd1dd0a0	-0.03852904
167	0xbd123ca8	-0.035702378
168	0x3ca2018a	0.019776125
169	0x3d3f3caf	0.04668873
170	0xbd3b3964	-0.04570903
171	0xbd3f4cb1	-0.046703998
172	0xbbca7520	-0.006178513
173	0x3d49b1e7	0.049241927
174	0xbb9788f8	-0.0046244822
175	0xbcb0fba0	-0.02160436
176	0x3d1f488f	0.038887557
177	0x3d68b3e1	0.05681217
178	0x3d3b6e0f	0.045759257
179	0xbbb7c7e0	-0.0056085438
180	0xbd381fea	-0.04495231
181	0x3d402ca7	0.046917584
182	0xbcdfb03f	-0.02730572
183	0xbd3a960c	-0.045553252
184	0xbd10478e	-0.03522449
185	0x3d5e826d	0.054323602
186	0xbcc06a28	-0.02348812
187	0xbc8e1a1d	-0.017346436
188	0xbd3e47c3	-0.046455156
189	0x3c6765d1	0.014123396
190	0xbc344f54	-0.011005241
191	0xbcfc8ff5	-0.030830363
192	0xbd021261	-0.03175581
193	0x3d20c169	0.03924695
194	0xba645800	-0.0008710623
195	0x3cda108a	0.026619215
196	0x3cbdcc8e	0.023168828
197	0xbd09f4e4	-0.03368081
198	0xbc8f71e6	-0.017510366
199	0xbbf4c150	-0.0074693337
200	0x3d270365	0.04077472
201	0xbd0d0fdd	-0.034438957
202	0x3c482bb4	0.012217451
203	0xbd2a555a	-0.041585304
204	0x3a0bb900	0.00053299963
205	0xbd345f3e	-0.044036143
206	0xbd28bf50	-0.041198075
207	0xbc98efea	-0.018669087
208	0x3d3c0001	0.04589844
209	0xbb9356d0	-0.004496433
210	0x3c34b10c	0.011028539
211	0x3c514034	0.012771655
212	0xbcc9c2fe	-0.024629112
213	0xbcc592db	-0.024117878
214	0xbd33e94c	-0.04392366
215	0xbc9d0ac6	-0.019170176
216	0xbd3bb9a4	-0.045831338
217	0xbcd05aba	-0.025433887
218	0x3c990502	0.018679146
219	0x3d12c267	0.035829928
220	0x3d38978b	0.045066398
221	0xbc81388a	-0.01577403
222	0xbd542d42	-0.051800974
223	0x3c31f0a4	0.010860596
224	0xbd2fdfe4	-0.042938128
225	0x3c69b9d4	0.014265496
226	0x3d0f9f9d	0.03506433
227	0xbd136726	-0.035987042
228	0x3d3b39f3	0.04570956
229	0x3ca3c58e	0.019991662
230	0xbcd16c0c	-0.025564216
231	0x3b8ba548	0.0042616464
232	0xbd472054	-0.048614815
233	0xbcaf50e8	-0.021400884
234	0xbc62ba44	-0.0138383545
235	0xbd443ccd	-0.047909547
236	0x3c82b02e	0.01595315
237	0xbcfce876	-0.030872565
238	0xbd00ac12	-0.0314141
239	0x3c069b1c	0.008215692
240	0xbd29956e	-0.041402273
241	0xbd1ea49c	-0.038731202
242	0x3c961433	0.018320179
243	0x3d5d970d	0.05409913
244	0x3d04bad1	0.032404725
245	0xbd2dee00	-0.042463303
246	0xbd5e27bc	-0.054237112
247	0xbc50afb4	-0.012737203
248	0xbce7361d	-0.028224045
249	0x3ce0cc7a	0.027441252
250	0xbd1c30b0	-0.03813237
251	0xbc72cbd8	-0.014819108
252	0xbd36bf72	-0.04461617
253	0x3d137937	0.03600427
254	0x3d01aabf	0.031656977
255	0xbc125aa8	-0.008932747

layers.0.bias f4 [50]
0	0x3be79573	0.0070673763
1	0xbc3a442f	-0.011368795
2	0xbcb5d71d	-0.0221973
3	0xbd6300e1	-0.05542076
4	0xbd1ac898	-0.037788957
5	0x3cc9d252	0.024636421
6	0xbc8282b8	-0.015931472
7	0xbcfeaf73	-0.03108952
8	0x3d000894	0.03125818
9	0x3d01c508	0.031682044
10	0xbc7edd7e	-0.015555738
11	0xbc8679ec	-0.016415559
12	0x3b9a6eb7	0.0047129053
13	0xbd2880fe	-0.04113864
14	0xbc9c3e22	-0.019072596
15	0x3c436b2a	0.011927405
16	0x3bf4ff37	0.007476713
17	0x3d6097b4	0.054832175
18	0xbd3d7daa	-0.04626242
19	0xbd39790a	-0.045281447
20	0x3ce73469	0.028223233
21	0xbcaaa26d	-0.020829404
22	0x3bc0d444	0.005884679
23	0xbc815dc8	-0.015791789
24	0x3d0e6930	0.034768283
25	0xbc138678	-0.009004228
26	0x3c918240	0.017762303
27	0xbd56b400	-0.052417755
28	0xbd460c74	-0.04835172
29	0x3cf2f03e	0.029655572
30	0x3ca658d7	0.020306034
31	0x3d446a1f	0.047952767
32	0x3d35f252	0.044420548
33	0x3c8f593f	0.01749861
34	0x3d01806b	0.03161661
35	0xbd010678	-0.03150031
36	0xbbeceddd	-0.007230504
37	0x3d40fe52	0.04711754
38	0x3d3973ba	0.04527638
39	0x3be16512	0.0068785036
40	0xbcdd64f2	-0.027025674
41	0x3c98c5b4	0.01864896
42	0xbbe77541	-0.0070635383
43	0xbd6900c3	-0.056885492
44	0x3ba13129	0.0049191904
45	0x3d47c641	0.048773054
46	0x3cd9dd11	0.02659467
47	0x3d25e737	0.040503707
48	0xbca95dc1	-0.020674588
49	0xbd306803	-0.043067943

layers.2.weight f4 [20, 50]
0	0xbd88bd9a	-0.06676789
1	0xbdf71f31	-0.12066496
2	0xbd071e91	-0.032988135
3	0x3d2aa566	0.041661642
4	0xbc6a6265	-0.014305686
5	0x3ce41a16	0.02784447
6	0x3dc8d53a	0.09806295
7	0xbd9c932b	-0.076452576
8	0xbe03b7ea	-0.12863126
9	0x3de9c63f	0.114147656
10	0xbd0256ee	-0.031821184
11	0xbd8bb8f2	-0.06822385
12	0x3dc6fc89	0.09716136
13	0xbd229e25	-0.0397016
14	0x3dcbdab1	0.099538215
15	0xbdcefcd2	-0.101068154
16	0xbe104193	-0.14087515
17	0x3db086ab	0.08619436
18	0xbdf02ab5	-0.11726896
19	0x3d0a0fa5	0.033706326
20	0xbdfcf1d6	-0.12350814
21	0x3c9c3b50	0.019071251
22	0x3d84994a	0.0647455
23	0x3d265fc3	0.04061867
24	0xbd419d8a	-0.04726938
25	0x3d837f13	0.06420722
26	0x3de58298	0.112065494
27	0xbe0afba7	-0.1357256
28	0x3c889b83	0.016675716
29	0xbddd78bc	-0.10814044
30	0xbcc072f3	-0.023492312
31	0xbdd52a92	-0.1040851
32	0x3d9d1772	0.076704875
33	0x3d961844	0.07328847
34	0xbd07c3ed	-0.033145834
35	0x3d81981b	0.0632784
36	0x3e0d68db	0.1380953
37	0x3d8b9f92	0.06817545
38	0x3dd42cf2	0.10360135
39	0xbdd5e325	-0.10443715
40	0xbdccf87d	-0.10008333
41	0xbe082dce	-0.13298723
42	0x3c8f4d79	0.017492997
43	0xbd5612b0	-0.052263916
44	0x3dac9964	0.084276944
45	0x3da67ec2	0.08129646
46	0x3d02fb26	0.031977795
47	0x3d3a8370	0.045535505
48	0x3d75dfe5	0.060027976
49	0x3ccef898	0.025265023
50	0x3dc37970	0.09544647
51	0xbddc6bcd	-0.10762749
52	0xbcfa10f4	-0.030525662
53	0xbda9cbac	-0.082908005
54	0x3cb4b499	0.022058772
55	0xbc6a14f0	-0.014287218
56	0xbd8a3f1a	-0.06750317
57	0xbd36cefe	-0.044630997
58	0x3d8759aa	0.06608899
59	0x3e0da3da	0.13832036
60	0x3e03e235	0.1287926
61	0xbd9c04ee	-0.07618128
62	0xbdbcca6c	-0.092182964
63	0x3da9c317	0.082891636
64	0x3dae8d6b	0.08523067
65	0xbd365275	-0.04451223
66	0xbd096681	-0.03354502
67	0xbdb19428	-0.08670837
68	0x3def43f2	0.116828814
69	0xbbf27d31	-0.007400178
70	0xbe03f9a3	-0.12888198
71	0xbdb25969	-0.0870846
72	0x3d4894d4	0.04897006
73	0xbd80f920	-0.06297517
74	0x3d4a1a2c	0.049341366
75	0xbcc218a8	-0.023693398
76	0xbcc01e3b	-0.023451915
77	0xbda571d1	-0.080783494
78	0x3e0793b1	0.13239934
79	0x3e11b3ea	0.14228788
80	0xbdf64fec	-0.12026963
81	0xbdc1765c	-0.094464034
82	0xbde453f7	-0.111488275
83	0xbe0da161	-0.13831092
84	0xbd75bc92	-0.059994288
85	0xbd952ab8	-0.072835386
86	0x3c905988	0.017620817
87	0xbd2811aa	-0.04103247
88	0xbbb5d460	-0.0055489987
89	0xbdcda6f3	-0.10041609
90	0xbd9b300c	-0.075775236
91	0xbdbd37aa	-0.09239133
92	0x3e067f39	0.13134469
93	0x3e0b7861	0.1362014
94	0x3da94e3e	0.08266877
95	0x3d66ce9b	0.056349378
96	0xbcab1094	-0.020881929
97	0x3dcb18e9	0.099168606
98	0x3d1c5bc5	0.038173456
99	0x3dd94221	0.10608316
100	0xbd4183f0	-0.047244966
101	0xbcb48d98	-0.022040173
102	0x3d160abc	0.03663133
103	0xbdcb471a	-0.09925671
104	0xbe0ca843	-0.13736062
105	0xbce18e08	-0.027533546
106	0xbe0790d5	-0.13238843
107	0xbd553d1c	-0.05206023
108	0xbdfec4e8	-0.12439901
109	0x3dca66c6	0.09882884
110	0xbc92c4d4	-0.01791612
111	0x3b5cb3c0	0.0033676475
112	0x3dd87b34	0.10570374
113	0xbdb2c072	-0.08728112
114	0xbbe69b60	-0.007037565
115	0xbd270770	-0.040778577
116	0x3dd7f700	0.105451584
117	0xbd06c4aa	-0.032902397
118	0xbdfe6986	-0.12422471
119	0xbbf47440	-0.007460147
120	0x3db22758	0.086989105
121	0x3d5f75a4	0.05455555
122	0x3defbc1e	0.117058024
123	0x3c3e42f0	0.011612639
124	0xbdb372a2	-0.08762099
125	0xbdf00b13	-0.11720862
126	0x3d916dca	0.07101019
127	0x3d4cb974	0.04998155
128	0xbd44b928	-0.04802814
129	0x3d1e7e00	0.03869438
130	0x3de9a6fe	0.11408804
131	0xbda7dcec	-0.081964344
132	0xbd612b7e	-0.054973118
133	0xbdadd0cd	-0.08487091
134	0xbce08328	-0.02740629
135	0x3e0cccad	0.13749953
136	0x3d50d918	0.050988287
137	0xbde5ea3f	-0.112263195
138	0xbdb04af8	-0.08608049
139	0xbe106eff	-0.14104842
140	0xbe029bcd	-0.12754746
141	0xbe0e87ec	-0.13919038
142	0xbdf491e1	-0.11941887
143	0xbc8a36ac	-0.016871773
144	0xbdcf2eda	-0.10116358
145	0x3d9b1954	0.0757319
146	0xbdc9e478	-0.0985803
147	0xbcb7ab90	-0.022420675
148	0x3df671f2	0.12033452
149	0xbcad056c	-0.02112075
150	0xbe0d80aa	-0.13818613
151	0xbd47fee8	-0.048827082
152	0x3c7c5b0b	0.015402566
153	0x3d9ba95d	0.07600663
154	0x3d62b1ac	0.055345222
155	0x3dc4b25e	0.09604333
156	0x3d4c5bea	0.049892344
157	0x3db65fa6	0.08904962
158	0x3cfbca54	0.030736126
159	0x3d057259	0.032579754
160	0xbd86d29d	-0.0658314
161	0xbcc4a8f0	-0.024006337
162	0x3bdfe68b	0.006832903
163	0xbcd0e30d	-0.025498891
164	0x3dc10e3f	0.09426545
165	0x3df958d7	0.12175148
166	0xbe0b6d0c	-0.13615817
167	0xbda1ea8a	-0.07906063
168	0x3df2c335	0.11853639
169	0xbd76a5b9	-0.06021664
170	0x3d8a9ee6	0.06768589
171	0xbc1f7173	-0.009731638
172	0xbd85de1c	-0.065365046
173	0xbd2517b0	-0.040305793
174	0x3cc432dc	0.023950033
175	0x3dfb20e0	0.1226213
176	0x3dba1b7d	0.09087274
177	0xbd5858b0	-0.052818954
178	0x3e048dc9	0.12944712
179	0xbd445f88	-0.04794267
180	0x3da2a4dc	0.07941601
181	0x3d7e5fef	0.06210321
182	0x3d4a2be9	0.049358282
183	0xbbaa83ff	-0.0052037234
184	0xbd55d581	-0.052205566
185	0x3cde19e9	0.027111964
186	0x3ddfa3f4	0.109199435
187	0xbdd2ada4	-0.102870256
188	0x3e0f15d7	0.13973175
189	0x3dbd359a	0.09238739
190	0xbdd12130	-0.10211408
191	0x3dda8827	0.106705
192	0xbdbbf160	-0.09176898
193	0xbd1c10d0	-0.03810197
194	0xbd049f2d	-0.032378364
195	0xbdcc5875	-0.09977809
196	0xbb83b521	-0.004019395
197	0xbde9dbc6	-0.114188716
198	0x3cc56fe3	0.024101203
199	0xbdea0fd1	-0.11428798
200	0xbcafea64	-0.02147407
201	0xbde7b4c3	-0.113137744
202	0x3d021bbb	0.031764727
203	0x3de7d2a9	0.11319477
204	0xbd4128d3	-0.047158074
205	0x3cdbf5f3	0.026850676
206	0x3d86aa68	0.06575471
207	0xbc91224b	-0.017716547
208	0xbdf1a340	-0.117987156
209	0xbdc1ad02	-0.09456827
210	0xbcee595a	-0.02909534
211	0xbdc5c110	-0.096559644
212	0xbd9df413	-0.07712569
213	0x3d80ff4d	0.06298695
214	0xbd3d594d	-0.046227742
215	0x3dc64a5c	0.09682152
216	0xbdda443d	-0.10657547
217	0xbc6e5c05	-0.014548306
218	0x3e10ec5d	0.14152665
219	0xbcbe8572	-0.023256991
220	0x3d935ff4	0.07196036
221	0x3e0fc917	0.14041553
222	0xbe0c434c	-0.13697547
223	0xbd360b60	-0.04444444
224	0xbceb58c0	-0.028728843
225	0x3d75f66f	0.06004947
226	0xbcb0789b	-0.021541884
227	0x3e0562dd	0.13025995
228	0x3c86261b	0.016375592
229	0x3dbd1920	0.09233308
230	0x3c2fe820	0.010736495
231	0x3cf7ea2b	0.030263027
232	0xbdb23ae3	-0.08702638
233	0x3c953938	0.01821576
234	0xbdde6869	-0.108597584
235	0x3b902d40	0.0043999255
236	0x3df7faa2	0.12108351
237	0xbd931c60	-0.071831465
238	0xbdc1b8ba	-0.09459062
239	0x3d8f9f84	0.07012847
240	0x3dc5c906	0.09657483
241	0xbd065a82	-0.03280116
242	0xbd97007f	-0.073731415
243	0x3dea0072	0.11425866
244	0x3dcf5c76	0.101250574
245	0x3d7b5643	0.061361562
246	0xbd80e6a2	-0.0629399
247	0xbde80277	-0.11328595
248	0x3d86e758	0.06587094
249	0x3db1d02a	0.08682282
250	0x3d1be8e0	0.038063884
251	0xbbf6fea0	-0.007537678
252	0xbcffb1a0	-0.031212628
253	0xbe0bc18a	-0.13648048
254	0xbcb570c8	-0.022148505
255	0x3dcb8b0e	0.09938632

layers.2.bias f4 [20]
0	0xbd9b1323	-0.075720094
1	0xbd2febef	-0.042949613
2	0x3b05dbc0	0.002042517
3	0x3de5c75f	0.11219668
4	0x3c3cbd0f	0.011519684
5	0xbe032e7f	-0.12810706
6	0x3d93ddce	0.0722004
7	0xbe01c526	-0.12672862
8	0x3da6c672	0.08143319
9	0x3d257754	0.040397003
10	0x3d50118a	0.050797977
11	0x3d32e050	0.043670952
12	0xbdbb07b8	-0.091323316
13	0xbaf31395	-0.0018545265
14	0x3bc49566	0.005999255
15	0xbdb20057	-0.08691471
16	0x3d808019	0.06274433
17	0x3d83a778	0.064284265
18	0xbe02af36	-0.1276215
19	0xbc0a480d	-0.00844003

layers.4.weight f4 [10, 20]
0	0xbdbf52c1	-0.09341956
1	0x3e39aed8	0.18133104
2	0x3d77cba0	0.060496926
3	0xbd433b7b	-0.047664147
4	0xbd65f457	-0.056141224
5	0xbe424495	-0.18971474
6	0xbdcfca61	-0.101460226
7	0xbd647252	-0.055773087
8	0x3d38b794	0.04509695
9	0x3e344f0d	0.1760828
10	0xbe02cff9	-0.12774648
11	0xbe563025	-0.20916803
12	0x3e115e7e	0.14196202
13	0x3b488f06	0.0030602827
14	0x3e1170a6	0.14203128
15	0xbd754290	-0.059877932
16	0x3d249b61	0.040187243
17	0x3c825a0e	0.015912082
18	0xbdcae67d	-0.099072434
19	0x3e0cf153	0.13763933
20	0xbdbea8c3	-0.093095325
21	0x3e1610df	0.14654873
22	0xbddd9733	-0.108198546
23	0xbdf9208e	-0.121644124
24	0xbe2a7849	-0.16647448
25	0x3d956820	0.07295251
26	0x3e4ad69b	0.19808428
27	0xbe119356	-0.1421636
28	0xbe5631d8	-0.20917451
29	0xbc88bb7d	-0.016690964
30	0x3dcb09a6	0.0991395
31	0x3d0c6330	0.03427428
32	0xbdfe012f	-0.124025695
33	0xbe5591e3	-0.20856433
34	0xbe5e6763	-0.21719126
35	0x3d51deb9	0.051237796
36	0x3e01761c	0.12642711
37	0x3e04d401	0.12971498
38	0x3e480d12	0.19536236
39	0xbe343b5a	-0.17600766
40	0x3e128352	0.14307907
41	0xbde59417	-0.112098865
42	0xbd0a1b10	-0.033717215
43	0xbd11bf4d	-0.03558283
44	0xbe640d5e	-0.22270724
45	0xbe08f6e2	-0.13375428
46	0x3dcef7b6	0.10105841
47	0x3c455070	0.012043104
48	0xbd55af3e	-0.052169077
49	0x3e3ba424	0.18324333
50	0xbc5c231f	-0.013436108
51	0xbd22fc1c	-0.03979121
52	0xbd364123	-0.044495713
53	0x3d579895	0.052635748
54	0xbdbaaaae	-0.09114586
55	0xbd646a14	-0.055765226
56	0x3e52a132	0.20569304
57	0xbe33e5f0	-0.17568183
58	0x3e2c36e2	0.16817811
59	0x3e317ec9	0.17333521
60	0xbe50c5a2	-0.20387891
61	0xbdb8f297	-0.09030645
62	0xbe1b74b8	-0.15181243
63	0xbd08bbc6	-0.0333822
64	0x3da3b789	0.07993991
65	0xbe3a0bf8	-0.18168628
66	0x3d20a081	0.03921557
67	0xbe48a1d6	-0.19592986
68	0xbe16fdb2	-0.14745215
69	0xbcaa9478	-0.020822749
70	0xbd4f8807	-0.050666835
71	0xbe2cabb2	-0.16862372
72	0xbdb8f540	-0.09031153
73	0xbdad31c9	-0.084567614
74	0xbd9fc3cd	-0.07801018
75	0xbdcf428f	-0.10120117
76	0x3e589cf9	0.2115363
77	0xbe3692c9	-0.17829432
78	0xbdd409b9	-0.10353417
79	0x3e3cdab6	0.18442807
80	0x3e506bb0	0.2035358
81	0xbe64df06	-0.22350702
82	0xbd8c741c	-0.068580836
83	0xbe14fa76	-0.14548668
84	0xbe198912	-0.14993694
85	0x3afb9280	0.0019193441
86	0xbe073280	-0.13202858
87	0x3dfb530c	0.12271699
88	0x3de15c54	0.11003938
89	0xbe64b7aa	-0.22335687
90	0x3d6af800	0.057365417
91	0x3e5d5d28	0.21617568
92	0xbe408818	-0.18801916
93	0x3dc54cc0	0.096337795
94	0x3df9f6a0	0.12205243
95	0x3e3611c6	0.17780218
96	0xbdcf5abe	-0.101247296
97	0xbe4eb239	-0.20185174
98	0xbc885ad0	-0.016644865
99	0xbe1ee0e0	-0.1551547
100	0xbe43280b	-0.19058244
101	0x3dc40455	0.09571139
102	0xbda175d8	-0.07883805
103	0xbe0be741	-0.13662435
104	0xbe559ff5	-0.208618
105	0x3e2fb2c2	0.17158034
106	0x3d35aed1	0.04435617
107	0x3e44d3dd	0.19221444
108	0x3e24ab06	0.16080865
109	0x3e073434	0.13203508
110	0xbe4737ca	-0.19454876
111	0xbd99847c	-0.074959725
112	0x3df2566e	0.118328914
113	0xbd0760a6	-0.033051156
114	0x3cc59836	0.024120431
115	0x3db2ffa4	0.08740166
116	0xbda2e88e	-0.079545125
117	0x3d9f4ff4	0.07778922
118	0x3d40e638	0.047094554
119	0x3d868393	0.065680645
120	0xbe2ad72a	-0.16683641
121	0xbe1289c3	-0.14310364
122	0x3c001260	0.007816881
123	0xbe593eec	-0.21215409
124	0xbe2c2fff	-0.16815184
125	0x3e059d6e	0.13048336
126	0xbe3a1ec0	-0.18175793
127	0x3e5a3151	0.21307875
128	0x3d7fd14b	0.062455457
129	0x3db4870c	0.08814821
130	0xbd94888f	-0.07252609
131	0xbde60fbd	-0.112334706
132	0x3e006d1e	0.12541625
133	0xbc728677	-0.014802567
134	0x3d21d7ce	0.039512448
135	0xbe5c5f75	-0.21520789
136	0xbe355303	-0.17707448
137	0xbe1752f2	-0.14777735
138	0x3d8cd88c	0.068772405
139	0xbe394d24	-0.18095833
140	0xbe1e621b	-0.15467112
141	0x3d88f312	0.06686987
142	0xbe16b86c	-0.14718789
143	0x3d9fb043	0.07797291
144	0x3e32a185	0.17444427
145	0x3d7f3be0	0.06231296
146	0x3e607f3b	0.21923535
147	0xbdd3f8bb	-0.10350176
148	0x3e10d011	0.14141871
149	0xbe59844b	-0.21241872
150	0x3e493c7d	0.1965198
151	0x3db15fc8	0.08660847
152	0xbc87ae17	-0.016562505
153	0x3c277063	0.010219666
154	0x3d9b0ff2	0.07571401
155	0xbce08ef8	-0.027411923
156	0xbdabf8c5	-0.083970584
157	0xbd98c784	-0.074599296
158	0x3e4ea91c	0.20181698
159	0xbde3064f	-0.11085188
160	0xbdb47c10	-0.088127255
161	0x3c0fbef4	0.008773554
162	0xbc52e530	-0.012872025
163	0x3d716997	0.05893859
164	0x3dd078b7	0.101792745
165	0xbe134536	-0.1438187
166	0x3e5c7ecb	0.21532743
167	0xbe63d788	-0.22250187
168	0x3e39f39b	0.18159334
169	0xbe61f47a	-0.22065917
170	0xbd8eea8a	-0.069783285
171	0xbd60fec4	-0.054930463
172	0x3d4ed8d0	0.050499737
173	0x3d031cca	0.032009877
174	0xbd2ac177	-0.04168841
175	0xbe341f1c	-0.17589992
176	0xbe1ad506	-0.15120324
177	0xbd8c233a	-0.068426564
178	0x3e4c5d2a	0.19957414
179	0xbe447421	-0.19184925
180	0xbd54fc1c	-0.051998243
181	0x3e1b6fbc	0.15179342
182	0xbe4466ec	-0.19179887
183	0xbd79f038	-0.061020106
184	0x3dfbe6c8	0.122998774
185	0x3de9fcec	0.11425194
186	0x3dd7a148	0.10528809
187	0xbe00185a	-0.1250929
188	0xbe57d945	-0.21078975
189	0xbdfba114	-0.122865826
190	0x3dbce8b8	0.09224075
191	0x3d59ffe8	0.053222567
192	0xbdd8df2d	-0.105894424
193	0x3e35d926	0.17758617
194	0x3d07de08	0.03317073
195	0x3c573ad0	0.013136581
196	0xbdd92e0e	-0.10604487
197	0xbe0603d1	-0.13087393
198	0x3cfcaaf0	0.030843228
199	0x3dcb6568	0.09931451

layers.4.bias f4 [10]
0	0x3d94c455	0.0726401
1	0x3e457b1a	0.19285241
2	0x3d78e61d	0.060766328
3	0x3dd38aa5	0.10329179
4	0xbe589247	-0.2114955
5	0x3dc813f1	0.097694285
6	0x3e47f8c8	0.19528496
7	0xbe220454	-0.15821964
8	0x3e2bebd9	0.16789187
9	0xbd94bb84	-0.07262328

layers.6.weight f4 [2, 10]
0	0x3dc34ff8	0.09536737
1	0x3e2c391a	0.16818658
2	0x3e5959fc	0.21225733
3	0x3e84d225	0.25941578
4	0x3e29daa4	0.16587311
5	0xbe87b5eb	-0.2650598
6	0x3def224e	0.11676465
7	0xbe36da29	-0.17856659
8	0xbdc4f90e	-0.09617816
9	0x3e966815	0.29376283
10	0xbdafc4be	-0.085824475
11	0x3e237b4a	0.15965
12	0xbe868ae1	-0.2627783
13	0xbe32efae	-0.17474243
14	0xbcab86d0	-0.020938307
15	0x3be09c4c	0.0068545695
16	0x3e90da5c	0.28291595
17	0x3d73d6ab	0.059530895
18	0xbe7be521	-0.24599124
19	0xbe910d29	-0.28330353

layers.6.bias f4 [2]
0	0xbe8c2424	-0.27371323
1	0xbe931699	-0.28728178
