DHH/model/fc/model-fold-2.pth (torch, 68239 bytes, 8 tensors)

layers.0.weight f4 [50, 302]
000000 10 b9 99 bc 21 0e fd 3c 35 a0 1a 3d 5c c7 04 bd
       -0.018765002 0.030890526 0.03775044 -0.032416686
000010 bf f7 54 3d 8b 75 12 39 07 69 3a 3d 97 42 06 3d
       0.05199408 0.00013967433 0.045510318 0.03277835
000020 f8 29 d7 bc 10 d0 24 bb 21 23 34 bd 12 d0 ab 3c
       -0.02626513 -0.002514843 -0.043978814 0.02097324
000030 80 ce 72 3a b4 b7 6c bc 34 ca 24 3c c5 49 40 3d
       0.0009262338 -0.014448095 0.010057975 0.046945352
000040 b7 eb fb bc 25 7b 4a bd be 66 12 bd 77 8d 67 bd
       -0.030752046 -0.049433846 -0.035742514 -0.056531396
000050 a8 82 43 bd 73 04 26 3d 6e 88 a7 3c 9e 9b 81 3c
       -0.047732025 0.040531587 0.020450797 0.015821274
000060 b0 b7 7d bb 04 f1 10 bc ef b7 05 3d 39 9b 03 bd
       -0.0038714223 -0.008846525 0.032646116 -0.032130454
000070 0e e0 91 bc 25 28 16 3d 7c 30 56 bc 57 e7 45 3d
       -0.017807033 0.03665938 -0.013073083 0.048316326
000080 fd 08 31 3d 77 13 01 3d 41 8b 6a 3d e8 4c 5d bd
       0.043221463 0.031512704 0.05726171 -0.05402842
000090 ef d4 3a 3d 1d d4 62 3d 6f bc 10 bd 85 1b 38 3d
       0.045613226 0.05537807 -0.035335954 0.04494812
0000a0 c1 d5 04 bd 5f 2b 30 bd c4 82 87 bc c6 93 9d 3c
       -0.032430414 -0.043010112 -0.016541846 0.019235503
0000b0 cc 73 71 bc 7c 93 2a bd 94 3a 0a 3c a1 2e 05 3d
       -0.014737081 -0.04164456 0.008436818 0.032515172
0000c0 9b 69 2c 3d 13 e2 56 bd e5 04 15 3d 92 de fc 3c
       0.0420929 -0.052461695 0.03638162 0.030867849
0000d0 30 38 5a bb cb 22 50 3d 90 ca 71 3b 48 77 61 bd
       -0.003329765 0.05081443 0.0036894418 -0.055045396
0000e0 59 54 11 bd 4e 00 0c bd 05 c3 2e 3d 22 a6 5f bd
       -0.03548083 -0.034179978 0.042666454 -0.054601796
0000f0 36 7a ff bc e0 59 ec 3a 80 91 de 3a 48 fc de bb
       -0.031186204 0.0018032156 0.0016980618 -0.0068049766
000100 0b 2c a3 bc 90 38 57 3b f0 bb 22 bc f5 4a 21 3d
       -0.019918462 0.003284011 -0.009932503 0.039378125
000110 10 7b 42 bd 95 9c 5a bd 6f fc 13 bd 8d 12 01 3d
       -0.047480643 -0.053371985 -0.03612941 0.031511832
000120 c2 5f f9 3c c9 31 2e 3d ea 83 ce 3c a0 83 80 bc
       0.030441169 0.042527948 0.025209386 -0.015687764
000130 0e 30 9f bc 56 57 c2 3c 9d a3 1a 3d 3b 50 58 bd
       -0.019432094 0.023723286 0.03775369 -0.05281089
000140 48 c4 95 bb 14 d5 96 bc d8 cc 2a bb 69 a0 51 3d
       -0.0045705177 -0.01841215 -0.0026062038 0.05117837
000150 82 31 bf bc a6 2c b1 3c 30 87 5b bd 6d 4b 01 3d
       -0.023339037 0.021627735 -0.05359572 0.031566072
000160 46 fc 56 bd e3 c2 54 3d ec 93 39 bd a8 23 67 bd
       -0.05248668 0.05194367 -0.045307085 -0.05643049
000170 64 71 7d 3c f6 65 e7 3c 76 fb 9c 3c 0e 12 cb 3c
       0.015468929 0.028246861 0.019162875 0.024788883
000180 7a d9 bf 3c 4f 42 3d 3d 26 33 ca 3c f0 7c 1b 3b
       0.02341913 0.046205815 0.024682593 0.0023725592
000190 e0 53 85 3b f2 4f 8a 3c 80 70 76 3a 0c 20 0d bc
       0.0040688366 0.016883824 0.0009400919 -0.008613598
0001a0 74 3e 22 bd b0 5d 72 bc fc 75 0b bd 80 cf 36 3a
       -0.03961034 -0.014792845 -0.034048066 0.0006973669
0001b0 0f c3 36 3d 40 b8 1f bb 04 bc 0d 3c 84 63 d0 bc
       0.044619616 -0.0024371296 0.008650783 -0.025438078
0001c0 07 d0 2d bd 80 b8 a8 3b 7b a4 24 bd ed 1c 9f 3c
       -0.04243472 0.0051489472 -0.040195923 0.019422973
0001d0 c8 d9 c4 3b 3d 66 37 bd f0 f4 1a bd f8 8c dd 3b
       0.006007407 -0.044775236 -0.037831247 0.0067611896
0001e0 ff 33 39 bd 51 58 60 3d 97 99 5f 3d 5c 85 85 bc
       -0.045215603 0.054771725 0.054589834 -0.016298942
0001f0 0d f4 46 3d 42 62 16 bd 23 b7 47 3d c3 6e 49 3d
       0.04857259 -0.0367148 0.048758637 0.049177896
000200 93 64 1b 3d 5e 89 66 bd 57 4f 15 3d 70 d5 07 3b
       0.037937712 -0.056283347 0.036452617 0.0020726584
000210 b6 f0 df bc df 71 57 3d 3a 09 94 3c 98 18 5d bb
       -0.02733646 0.05259883 0.018070806 -0.0033736583
000220 b1 da 33 3d 96 74 16 bd 70 26 4b bd 7e 31 f9 3c
       0.043909732 -0.03673228 -0.049597204 0.030419108
000230 40 f1 03 bb 5e be 00 bd a0 51 21 ba 3d 05 3a 3d
       -0.002013281 -0.03143155 -0.00061538257 0.045415152
000240 c8 cb c8 3b 96 32 9e 3c 6e bf d7 3c 72 4b 8c 3c
       0.0061278082 0.01931123 0.026336398 0.017125819
000250 fc 18 64 bd 54 f6 4c bd 2d 65 30 3d 4e 4e 88 3c
       -0.05568789 -0.050039604 0.04306524 0.016638901
000260 af 98 28 3d 94 ec 6b bc 0e c5 95 bc 00 90 13 37
       0.041161235 -0.014399666 -0.01828244 8.79541e-06
000270 d2 a2 f7 3c 4c 90 06 3c 14 1c 0f 3c 9e b2 b5 3c
       0.030229006 0.008213114 0.008734722 0.022179898
000280 c0 46 2a ba 04 21 0f bc 00 ce 46 bc 7d dc 20 3d
       -0.0006495528 -0.008735899 -0.012134075 0.039272774
000290 a4 0e 1b 3c a0 f5 a5 bb 43 9d 44 3d 9c e8 2d 3c
       0.00946394 -0.005064681 0.04800154 0.01061454
0002a0 0c 58 77 bc 13 17 2d bd 49 62 18 3d 42 45 a6 3c
       -0.015096676 -0.042258333 0.037203107 0.020296697
0002b0 da 39 c4 3c 40 0f 54 bb 4c df 69 3c 10 99 0b bb
       0.023953367 -0.0032357723 0.0142744295 -0.002130095
0002c0 f0 26 46 bb 8b 02 03 3d 80 99 7b 3b ed 62 29 3d
       -0.003023561 0.031984847 0.0038391054 0.04135411
0002d0 00 b8 8e 37 11 85 30 bd f0 26 3e 3c 03 ec 39 3d
       1.70134e-05 -0.043095652 0.011605963 0.045391094
0002e0 9b eb 53 bd 51 62 2e bd 80 85 03 bc fd 7b 38 3d
       -0.051738363 -0.04257423 -0.008027434 0.04504012
0002f0 98 a4 c4 3b fc 5e 57 bc 8b f5 13 3d 1b e3 5e 3d
       0.0060010664 -0.013145205 0.03612284 0.054415803
000300 50 6d 94 bb b6 c5 98 bc 56 a6 d9 3c e8 d2 c9 3b
       -0.0045296326 -0.018648963 0.026568573 0.006159175
000310 d0 26 50 bc 62 11 c2 3c c3 fd 42 3d d7 0d 1a 3d
       -0.012704566 0.02368993 0.047605287 0.037610855
000320 45 a3 55 3d 4c 73 75 3c d0 24 01 3b c9 26 05 3d
       0.05215766 0.014981102 0.001970578 0.03250769
000330 bc 1d a3 bc 27 54 1d bd f4 f5 40 bd b0 07 19 bd
       -0.01991164 -0.038410332 -0.04710956 -0.037360847
000340 a0 78 38 bc 8e f1 d3 3c 79 79 42 bd 07 32 2b bd
       -0.011259228 0.025872018 -0.047479127 -0.041795757
000350 a5 3f 12 3d 0b 81 6b 3d 88 84 a7 3b 4a d2 9b 3c
       0.035705227 0.05749611 0.0051122345 0.019021172
000360 b5 53 f4 bc 08 da c5 bc 13 c8 5d 3d dc 12 26 bd
       -0.02982507 -0.024151817 0.054145884 -0.04054533
000370 8c 85 18 3c 07 05 3e 3d 60 83 72 bb c9 3d 4b 3d
       0.009309184 0.046391513 -0.0037004575 0.04961947
000380 a8 28 f8 3b 84 fb 13 3c 95 f9 34 3d 00 d6 d2 38
       0.007573206 0.009032134 0.044183332 0.00010053441
000390 ec ec 17 3c fc 1a 2d 3c 76 7e 6b bd 28 c0 45 bd
       0.009272795 0.010565516 -0.05749365 -0.048278958
0003a0 65 57 2b 3d 6b b6 5d 3d b9 6a 21 3d d5 22 44 3d
       0.041831393 0.054129045 0.03940842 0.04788478
0003b0 ac 65 76 bc fe a6 af bc d0 1b 98 3b 44 b4 24 3c
       -0.015038889 -0.021441933 0.0046419874 0.010052744
0003c0 a5 b1 9e bc 3a 39 d0 3c 35 e8 04 3d 4c fc 5b bd
       -0.019371817 0.025417913 0.032448012 -0.053707406
0003d0 09 29 61 3d ee 06 f4 3c 35 50 1f 3d 28 70 ab bb
       0.054970775 0.02978846 0.03889485 -0.005231876
0003e0 c6 6b a7 bc 49 01 32 bd f5 a1 37 3d 5f 46 43 3d
       -0.020437133 -0.043458257 0.04483219 0.047674533
0003f0 a0 d2 d4 3a 61 d4 01 3d 70 8c 6e bb 47 b2 0f 3d
       0.0016237088 0.03169668 -0.0036399625 0.035082128

layers.0.bias f4 [50]
000000 2f 5b 2c bd 71 c3 e0 3c a0 f0 5e 3d 19 1e 5f 3d
       -0.042079147 0.027436944 0.054428697 0.054472063
000010 6c 9b 6e bb a0 e4 f3 bb 5b e2 9b 3c c4 42 16 3d
       -0.0036408557 -0.0074430257 0.019028833 0.036684766
000020 8a de 4d 3d 64 ef 14 bd 4a a3 93 bc ec b7 0c 3d
       0.050261058 -0.036361113 -0.018022198 0.03435509
000030 16 ab 82 bc 3a 27 d5 3c 24 68 68 3c 16 81 4c bd
       -0.01595072 0.026019681 0.014184985 -0.049927793
000040 a5 90 9c 3c 19 d7 1f bd 48 7e 9a 3c cc 63 67 bd
       0.01911194 -0.039023492 0.018859044 -0.056491658
000050 98 e5 f3 3c 98 31 38 3d 58 9a be 3c 83 58 83 3c
       0.029772565 0.04496917 0.023266956 0.016033417
000060 23 24 57 3c 4e 92 e3 bb 65 ea 89 bb 42 b7 ef bc
       0.013131174 -0.006944931 -0.00420885 -0.029262189
000070 e2 69 57 bc 35 b6 3e 3d 97 e0 08 bc 2e fd 28 bd
       -0.013147803 0.046560485 -0.008354328 -0.041257076
000080 4d 86 40 3d 68 5b 47 bd 94 47 1c bd 42 b7 2d 3d
       0.04700308 -0.048671156 -0.0381542 0.042411096
000090 e3 31 cf bb 96 e4 2f 3c 8d b8 89 3b da 8d 81 3c
       -0.0063230856 0.0107356515 0.0042029084 0.01581471
0000a0 73 a0 1b 3d b6 84 00 3d b0 f4 f3 3c 50 b4 38 3d
       0.037994813 0.031376563 0.029779762 0.045093834
0000b0 6c 53 66 bd 0d 06 01 bd 55 50 16 bd 70 c2 6c bc
       -0.0562319 -0.03149991 -0.036697704 -0.014450654
0000c0 cb 88 21 bd 30 28 02 3d
       -0.039437097 0.031776607

layers.2.weight f4 [20, 50]
000000 6b da 4f 3d 9f f5 00 3c 67 cf 89 3d df e0 86 3b
       0.05074541 0.007871061 0.06729012 0.004116162
000010 cd 5a be bd 80 8e 90 3d b2 81 eb 3d 06 ea 8b 3d
       -0.092946626 0.0705843 0.11499347 0.06831746
000020 52 d7 15 bd 7b 27 26 bd a2 84 f4 bd df 46 8e 3d
       -0.0365823 -0.040564995 -0.1193936 0.06947111
000030 19 d4 fc bd 7e 4d ad 3d 4d b0 5b 3d 9a 95 92 bd
       -0.12345142 0.08462046 0.05363493 -0.071574405
000040 aa f2 9d 3d 1f 57 c2 3c 54 35 a3 3d 2d 41 06 3e
       0.077123 0.023723183 0.07969156 0.131108
000050 2d 75 e9 3b a5 ad 49 3c 02 db 04 be e1 2c ba bc
       0.007124564 0.0123094665 -0.1297417 -0.022726478
000060 e8 e7 c4 3d 3b 68 86 3d 52 f6 ab bc 3b ac f2 3d
       0.09614545 0.06562849 -0.020991478 0.118492566
000070 dc 93 f7 3d e8 b1 02 3e e4 5c e3 bc 76 3a 7a bd
       0.12088749 0.12763178 -0.027754255 -0.06109091
000080 1b 8e 5b bd fa de 02 3d a4 6e e3 bd 96 0c 6c bd
       -0.05360232 0.03195093 -0.111050874 -0.05762919
000090 18 64 f9 bd f2 ed 90 bd f4 fb 0b 3e 66 95 b5 3d
       -0.121772945 -0.070766345 0.13670331 0.08866386
0000a0 a9 d0 e9 3d 8d de 69 bd 20 84 2b 3d 5c 1f 8c 3d
       0.11416752 -0.057097007 0.04187405 0.06841919
0000b0 69 0c e6 bb f4 7b be bd d6 91 68 bd 35 0e 8e 3c
       -0.0070205224 -0.09300986 -0.056779705 0.017340759
0000c0 86 a7 bc bc 19 f2 d2 3d 25 77 07 be 57 59 55 bd
       -0.0230291 0.10300083 -0.13229044 -0.052087154
0000d0 42 3c 30 bd 61 b7 0e 3e a2 3f 03 3c 65 9b c0 bd
       -0.043026216 0.13937141 0.008010777 -0.09404639
0000e0 f7 1f 87 b9 02 dc b1 bc 1d 00 b4 bc 61 6f 96 bd
       -0.00025773022 -0.021711353 -0.02197271 -0.073454626
0000f0 fb fa 2f 3d e8 bd e0 3d f5 89 f8 bd 24 46 a5 bd
       0.042963963 0.10973722 -0.12135688 -0.08070019
000100 26 31 a8 bd 2e d0 48 3d ad aa fd bd 52 3d 0a be
       -0.08212499 0.04902666 -0.123860694 -0.13499954
000110 b8 f7 e7 bc 28 03 de 3c 83 6a f5 3c bc d8 bc bd
       -0.028316364 0.027101114 0.029958015 -0.09221026
000120 c4 4c 3e 3d a2 06 9f 3d 69 cd fa bd bd 89 f7 3d
       0.04645993 0.07764937 -0.1224621 0.12086818
000130 c3 23 a0 bd 79 80 9c bc 0a 7c bc bc 71 6d 46 3d
       -0.07819321 -0.01910423 -0.023008365 0.048444215
000140 e9 38 78 bd 1d 5f b1 3d 45 9e 80 bd ca 4b 09 be
       -0.06060115 0.086607195 -0.062801875 -0.13407817
000150 bf 55 96 bd 6c f8 df 3d f3 e9 d9 3d d0 bd 57 ba
       -0.073405735 0.109360546 0.106403254 -0.00082298834
000160 b5 42 10 3e 4c d9 8f 3d 74 65 28 bb 77 89 ca bd
       0.14087947 0.07023868 -0.0025695236 -0.098895006
000170 cd cc ad bd 87 31 15 3c 4a ff fd 39 c2 b6 ac 3d
       -0.08486328 0.0091060465 0.00048446126 0.08433296
000180 92 99 b8 bc 5a fb cf bd ca 8c 07 be d6 51 15 3c
       -0.022534166 -0.101553634 -0.132373 0.0091137495
000190 de 32 82 bd 13 fa ea 3d d2 84 ce 3c d2 de f8 bd
       -0.063573584 0.11473479 0.025209818 -0.121518746
0001a0 c5 05 b0 bd f4 ea bf 3d 3e 02 bd 3d f6 1a e9 3d
       -0.085948505 0.093709856 0.09228943 0.113820955
0001b0 f4 ff ae bc 66 cb 2c bc cd 47 eb bd 6d ee f1 bd
       -0.021362282 -0.010546541 -0.11488304 -0.11813054
0001c0 2e 0b 0b be 4b 4f 6b bd 90 57 98 3a e0 55 27 bd
       -0.13578483 -0.057448667 0.0011622775 -0.04085338
0001d0 61 27 b9 3d bf 88 43 bc 1c 53 65 3d 03 02 aa 3d
       0.09040714 -0.011934458 0.055987462 0.08301165
0001e0 94 6d 0b be 1f ef 40 bc 62 22 47 bd 97 2f b2 bd
       -0.1361602 -0.011775761 -0.048616774 -0.08700483
0001f0 d6 0f f5 bd 00 1d 75 bb 94 51 45 3d f8 5c fe bc
       -0.11965911 -0.0037401319 0.048173502 -0.03105019
000200 d6 8b 5b bc c9 f6 9b bd 05 3b 1e bd d0 c5 2c bd
       -0.013400039 -0.0761543 -0.038630504 -0.042180836
000210 f8 d6 9b 3d 50 79 c8 bc d3 2c 49 bc 44 e3 cc bd
       0.076093614 -0.024471909 -0.012278753 -0.10004285
000220 5c 14 11 bd 9a d6 97 3d b4 90 e6 3d d0 3f c3 3c
       -0.035419807 0.07413979 0.11258069 0.02383414
000230 58 c7 ef bc 1a 82 78 bd 02 5c 9d bd e5 1e 2e 3d
       -0.02926986 -0.06067095 -0.07683565 0.042509932
000240 40 22 e8 3b 22 8f 5d bc 4f 86 80 bd dc fa b5 3c
       0.007084161 -0.013522895 -0.06275617 0.022214346
000250 bb 72 da 3d 68 9e 3e bd d6 a4 b5 3d 4f 34 c7 3d
       0.10666414 -0.046537787 0.088693306 0.09726774
000260 0f a1 a6 bd e2 5a f4 3b c7 81 12 be 61 38 ca bc
       -0.08136188 0.007457123 -0.14307319 -0.024685087
000270 43 f1 5e 3d 8f 00 e9 3d 32 76 80 bd 49 f6 60 bc
       0.054429304 0.1137706 -0.06272544 -0.013730594
000280 01 31 0b 3d 94 c5 5d bd 5f a8 c5 3d cc a3 6b 3c
       0.03398228 -0.054143503 0.09651255 0.014382314
000290 d9 df 30 bd c1 ee 0a 3e 5b 4c c4 bd 0d 76 03 be
       -0.043182228 0.1356764 -0.09584876 -0.12838002
0002a0 0d 0f d2 ba ab 4d 92 3d 09 50 82 3d bd 27 89 3d
       -0.0016026214 0.0714372 0.06362922 0.066970326
0002b0 e6 40 bb 3d d7 6f 0c 3e bd 5b cb bd e0 ba db bd
       0.09143238 0.13714539 -0.09929607 -0.10729003
0002c0 12 76 d0 3d 3a 6c 8f 3d 4c f4 95 3d 53 01 0d 3d
       0.1017877 0.070030645 0.073219866 0.03442509
0002d0 1b c5 03 3d e5 05 56 3a 7e cf 16 bd 3b d0 9f 3d
       0.032170396 0.00081643305 -0.036818974 0.07803389
0002e0 38 69 ab bd 14 c1 ca 3d a7 d9 e2 bd 15 3e 35 3b
       -0.08369678 0.09900108 -0.1107667 0.0027655412
0002f0 10 e9 fa 3d 43 cf c4 bb 64 fc 03 be 61 b6 2e bd
       0.122514844 -0.006006153 -0.12889248 -0.0426544
000300 d7 ea ac 3d e5 25 00 3e 7e ab da bd 0d cc 0a be
       0.0844323 0.12514456 -0.10677241 -0.13554402
000310 05 22 0f bd ce 80 95 3d fb fb ba 3d 38 97 95 3d
       -0.034944553 0.07299958 0.09130093 0.07304233
000320 a3 77 f3 bd e9 5f 97 3d be 87 83 3d 65 43 c2 3d
       -0.11888053 0.0739134 0.06422375 0.09485511
000330 fe 18 92 bc da e5 c8 bc de 3e bd 3d 32 be bb bc
       -0.017834183 -0.024523664 0.092405066 -0.02291784
000340 ea bb 34 bd a5 b7 c3 3b eb 32 45 3c 1d 21 d0 3d
       -0.04412452 0.00597282 0.012036066 0.10162566
000350 72 46 91 3c 63 cd 29 bd 92 ea f3 3d 7b a8 6c bd
       0.017733786 -0.041455638 0.11909975 -0.057777863
000360 3d 0c f2 3c 90 cd 36 3d a8 90 0f 3e 5f 3a 02 be
       0.029546851 0.044629633 0.14020026 -0.1271758
000370 81 9d 6f 3d 14 12 6b 3d 6f ac 03 3e 62 44 ab bd
       0.058499817 0.057390288 0.12858747 -0.08362652
000380 9d 84 57 bd cd 43 97 3c 23 78 0f 3e 7d b1 72 ba
       -0.052616704 0.018464947 0.14010672 -0.0009258015
000390 52 77 ea bd ef 96 07 3d cd 17 71 3d 97 09 e6 3d
       -0.1144854 0.033102926 0.05886059 0.11232298
0003a0 dd da 2a bd 1b 6f f5 bd 9b 22 00 be a1 51 01 3e
       -0.04171263 -0.11984082 -0.12513201 0.12628795
0003b0 01 9b 7d bd b7 07 64 bd bd 0c 76 bd e7 0b 93 bd
       -0.0619154 -0.05567142 -0.060070742 -0.071800046
0003c0 03 f1 02 3e 0c 69 f1 bc 9c da 81 3c 53 c0 81 bd
       0.12787251 -0.029469036 0.015851311 -0.06335511
0003d0 2d 65 03 3e 6e 70 d6 bd a8 26 b5 bc 6b d0 0c be
       0.12831564 -0.10470663 -0.02211316 -0.1375138
0003e0 c5 52 fe 3d 10 2d 8a 3d 82 50 31 bd 7b c9 d5 3d
       0.12418131 0.06746876 -0.04328967 0.1043882
0003f0 a2 74 85 3d 12 2d 37 3d a8 b0 d4 3c c7 06 df 3d
       0.065163866 0.044720717 0.025963143 0.108899646

layers.2.bias f4 [20]
000000 4d 51 f2 bb 44 10 c1 3d c1 95 26 3d 83 72 8f bd
       -0.0073949457 0.094269305 0.04067016 -0.07004263
000010 ca 9e f5 bc 1f af 98 3c 9c a3 0f 3e b3 32 d4 3d
       -0.029982943 0.018638192 0.14027256 0.103612326
000020 d8 12 14 3c 18 8c cb 3c d6 29 e1 bd 43 5c a5 3d
       0.009037696 0.024847075 -0.10994308 0.08074238
000030 34 9d c0 3d 61 aa d8 3d c2 ca 2b bd a3 00 c2 3d
       0.09404984 0.10579372 -0.04194141 0.09472778
000040 6b e9 69 bd 7e 43 d7 bd 76 eb 84 3d 5b 1b d3 bd
       -0.05710737 -0.1051092 0.06490223 -0.10307952

layers.4.weight f4 [10, 20]
000000 86 aa c0 bd 28 6d 19 bd 8e c2 15 3e 7f 1e 14 bd
       -0.09407525 -0.037457615 0.14624998 -0.036161896
000010 6d 9b 56 bd 95 4f 41 be ca 89 51 be 4c ef 0b be
       -0.05239432 -0.18878014 -0.20462719 -0.13665503
000020 a2 6e 46 3e a6 92 55 3e bb f5 0f 3d b7 7c d5 bc
       0.1937814 0.20856723 0.035146456 -0.026060445
000030 53 20 30 3e 1c c3 de 3d 14 67 a8 3d 97 45 1f 3e
       0.1719983 0.10877058 0.082227856 0.1555389
000040 70 90 d6 3c dc 03 d8 3d c9 b7 a6 3d 1b 8a 40 be
       0.02619192 0.10547611 0.08140523 -0.18802683
000050 60 4b 70 3c 46 49 3f be d0 65 6c 3d 20 61 55 3e
       0.014666408 -0.18680295 0.057714283 0.20837831
000060 9c 17 8c bd 4c 7a 4d be 82 64 13 be 10 ea 0e bd
       -0.06840441 -0.20066184 -0.1439381 -0.03489119
000070 44 9e 3c be fc e8 f9 3d 68 bf 58 bd 16 d7 03 3e
       -0.18419749 0.12202641 -0.052916914 0.12875018
000080 e0 ed b1 bd 58 87 3e be 0c a4 bc 3d 85 69 32 be
       -0.08687949 -0.18606317 0.09210977 -0.17423065
000090 a2 9e be bd 86 7a 4b be bd f0 e4 bd 13 a7 33 be
       -0.093076006 -0.19870958 -0.1117873 -0.17544203
0000a0 b5 e4 d0 bd 77 de 54 3e e2 f7 28 be ae 3f a2 3d
       -0.101998724 0.20787989 -0.1650081 0.07922302
0000b0 1c 63 16 be f6 4a a1 3d 04 25 5a be 88 04 db bd
       -0.14686245 0.07875626 -0.21303183 -0.10694224
0000c0 a2 ea 91 3c 7d f5 ac 3d b5 2f 2a be 72 34 1c be
       0.017812077 0.08445261 -0.16619761 -0.15254381
0000d0 8c 43 0a be 09 19 45 3e 5e bf 2e be 8a f1 ab 3d
       -0.1350233 0.19247831 -0.17065188 0.08395679
0000e0 42 52 d1 3d 00 4c 37 39 a0 43 4e bd 5e 7e 03 be
       0.102207676 0.00017480552 -0.05035746 -0.12841174
0000f0 5f 57 e0 bb 23 09 c4 3d 99 70 82 3a f7 27 29 3e
       -0.006846353 0.09572055 0.000995177 0.16519152
000100 56 0c 58 3d 98 8a 28 3e 58 95 13 3e 62 d6 24 3e
       0.05274614 0.1645912 0.14412439 0.16097406
000110 dc d1 18 bb 06 7c de 3c bb b2 8b bd e5 16 0d 3e
       -0.0023318445 0.027158748 -0.068211995 0.13778265
000120 83 af 0b be c3 2a 71 bb a6 8f bf bd 6d 4e 47 3c
       -0.13641171 -0.003679917 -0.09353571 0.012164694
000130 64 36 52 3e b6 57 46 3e 4f 8e 50 be 9b 60 b9 3d
       0.20528561 0.19369397 -0.20366786 0.09051629
000140 11 3b 0f 3d bc 52 90 3d 0a 66 61 3c 66 69 3d be
       0.03496844 0.0704703 0.013757238 -0.18497238
000150 6b fc 3a 3e 4e b5 03 be 4d e1 08 3e 8f 06 41 be
       0.18260352 -0.12862131 0.13367195 -0.18850158
000160 6d 3d b5 3d 6e 34 15 3e 0c 49 f3 3d 40 2b 3d be
       0.08849607 0.14570782 0.11879167 -0.1847353
000170 98 50 52 3d 0f d4 5b 3e 3c 49 a5 3d b2 a8 31 be
       0.05134639 0.21467613 0.08070609 -0.17349508
000180 9b 04 a5 bd 48 d2 c1 3c b8 7a 05 be db 2b f5 3d
       -0.08057519 0.02365984 -0.13035095 0.119712554
000190 e3 32 ea bc 41 73 61 3e ad c0 45 3e ac 20 54 3d
       -0.028588718 0.22016622 0.19311781 0.05178897
0001a0 6c b4 3c 3e d2 b7 5b 3e f1 20 52 3e 1d 13 c0 3d
       0.184282 0.2145684 0.20520379 0.093786456
0001b0 7a 2a 30 3e bd 0b bb bd 57 7e a2 bd b6 ba 4a 3e
       0.17203704 -0.09133098 -0.07934254 0.19797787
0001c0 dc 35 5c be 5d 1b 9e bd 6d 79 4b 3d 88 45 29 3e
       -0.2150492 -0.07720063 0.049676348 0.1653043
0001d0 6f c7 b0 3d f0 e7 01 3e e1 6e 13 be 82 16 88 bd
       0.08631789 0.12686133 -0.14397766 -0.06644918
0001e0 ba 29 11 be 65 e1 61 be 20 ba a9 3d f2 42 3e be
       -0.14176074 -0.22058637 0.08287454 -0.18580225
0001f0 88 c0 1f be 35 d4 ec bc f2 4f 2a be 71 6f 40 3e
       -0.15600789 -0.028909782 -0.16632059 0.18792512
000200 c8 94 a7 3d 0c 60 a9 3d ea 2d 21 3e 04 12 be bd
       0.08182675 0.082702726 0.15740171 -0.0928078
000210 ec ce 3d be a1 3b 0d be e8 58 00 3e 82 dc 96 3d
       -0.18535966 -0.13792278 0.12533915 0.07366277
000220 82 68 34 be 9c 3f de 3d 08 24 76 3b 04 71 56 be
       -0.17617992 0.10851976 0.0037558097 -0.2094155
000230 2c 49 3e be 70 50 3a 3c 10 65 26 3d f0 03 ad 3c
       -0.185826 0.011371717 0.040623724 0.021120042
000240 dc 8f 3a 3e c0 f5 9c bc 94 2d 50 bd f0 52 74 3c
       0.1821894 -0.019160151 -0.050824717 0.014912352
000250 88 b6 45 3e 72 e9 1c 3e f0 e1 50 be a6 13 57 3e
       0.19307911 0.15323427 -0.20398688 0.21003589
000260 a0 86 59 be c7 a8 f2 bd f2 c5 a6 bd fc 2c 94 3d
       -0.21242762 -0.11848598 -0.08143224 0.072351426
000270 b0 02 26 bc c9 8c 32 be 22 b1 b3 bd c0 b5 b7 bc
       -0.010132477 -0.17436518 -0.0877402 -0.022425532
000280 60 6d 83 3c 22 65 e5 bd f5 c0 ca bd 19 38 f5 3c
       0.016043365 -0.1120093 -0.09900085 0.029933976
000290 e0 9b 17 bc c4 50 63 3d c9 81 dd 3d 58 6f d8 3c
       -0.009253472 0.055496946 0.1081577 0.02642028
0002a0 3d a8 b7 bb 9b bf 2a 3e e0 57 1c 3e f2 7c ba 3c
       -0.0056047724 0.16674654 0.15267897 0.022764657
0002b0 8f 90 53 be bc 88 0b 3e 76 72 57 3e 7b d2 57 bd
       -0.20660613 0.13626379 0.21039757 -0.052690964
0002c0 7e 3e 4c bd a4 73 19 bd 3a 45 1e bc e7 4d 5a 3e
       -0.049864285 -0.0374638 -0.00966006 0.2131878
0002d0 66 ba bd 3d 9c 08 45 be 4f 56 f2 bd 9f 68 8b bc
       0.09264068 -0.19241565 -0.11832868 -0.01701766
0002e0 23 60 f3 bd a6 93 4a be ec 9f 85 3d b5 85 3c 3e
       -0.11883571 -0.19782886 0.06524643 0.1841038
0002f0 2c 30 34 3d 62 e0 c7 bc 32 75 65 3e 36 00 b5 bd
       0.043991253 -0.024398986 0.22407988 -0.08837931
000300 10 e7 0d be 14 e5 02 bd f6 7b 1e be de 6f 47 bb
       -0.13857675 -0.031956747 -0.15476975 -0.0030431668
000310 bd f9 61 be 82 9a 53 be 38 6c 8d bc c1 e4 0d 3e
       -0.22067924 -0.20664409 -0.017263517 0.13856794

layers.4.bias f4 [10]
000000 37 34 d9 3c ae c5 5b be f5 90 3e 3e 0f 87 42 3e
       0.026514156 -0.21462128 0.18609984 0.18996833
000010 98 b0 48 b8 3b 12 06 3e 5a b2 5b 3d 98 11 b8 bd
       -4.784818e-05 0.13092892 0.053636886 -0.08987731
000020 bc 07 9a 3d 68 bc 10 bd
       0.075210065 -0.03533593

layers.6.weight f4 [2, 10]
000000 e9 86 0c be e5 b7 8c 3e 3b 6e 4b be d3 de a6 3d
       -0.13723339 0.2748405 -0.19866268 0.08147969
000010 55 38 2a 3e af 4a c1 bd 56 88 9c bd be e9 51 be
       0.16623051 -0.09438073 -0.076431915 -0.20499322
000020 1c 92 2b 3e 89 40 b6 bd 35 0f 8a be b0 cd 2b 3e
       0.16754955 -0.08899028 -0.26964727 0.16777682
000030 88 a3 59 be 59 d8 44 bc eb a7 02 be d2 f6 66 3e
       -0.21253788 -0.012014472 -0.12759368 0.22555092
000040 17 72 37 3e 92 2d 1b be 20 ec 55 3e 21 d4 00 bc
       0.17914616 -0.15154102 0.20890856 -0.0078630755

layers.6.bias f4 [2]
000000 fb 9a 3b 3c 6c 73 47 3e
       0.011450524 0.19477624
