DHH/model/fc/model-fold-6.pth (torch, 68239 bytes, 8 tensors)

layers.0.weight f4 [50, 302]
-0.034842532 0.043182332 0.0058275205 -0.05574165 0.041233327 -0.026803168 0.010789313 -0.0310426
-0.045620203 -0.024407303 0.039057642 -0.004230118 0.005573098 -0.016770784 -0.011651009 -0.025837174
-0.0489201 0.051470656 -0.010531917 -0.025639586 -0.041450575 -0.022134053 0.00072093954 0.026173241
0.009704134 0.021283675 -0.028187957 0.024393082 -0.010864489 0.03571225 -0.0016127812 0.037522305
0.0157817 -0.04360423 -0.034863498 0.030964974 -0.0008630881 -0.027975973 0.054866005 0.015102153
0.017901607 0.0025089285 0.014468352 0.019376367 -0.002462848 -0.04169279 0.05629109 0.015611542
0.00984806 0.02799963 -0.050118927 0.0068252976 0.014561571 0.028991073 -0.034104306 0.046993796
0.03453902 -0.018757537 0.036002144 0.03827434 0.02845028 0.0037260195 -0.054441903 0.017589482
-0.010813319 -0.0050791446 -0.047743246 0.049818825 0.00070654793 0.0423513 0.056690007 -0.039032713
-0.01424368 -0.041060306 -0.007865852 0.036729418 -0.04237517 -0.05132608 0.012611593 0.040315554
0.04360389 0.022396363 -0.02820891 -0.03816242 -0.04667182 -0.03093789 0.004777512 0.01899103
0.009472704 -0.04335533 -0.030875908 -0.038617056 0.016885696 -0.030310005 0.056903265 0.035883434
-0.042410977 -0.05062813 -0.050032683 -0.029966142 -0.045326047 -0.01882387 -0.042633582 -0.015782977
-0.053477224 0.0058929524 0.017353967 -0.034920998 0.03149677 -0.037672702 -0.014762277 0.054302588
0.027757904 0.00435944 -0.040904947 0.056156497 -0.044575043 -0.0014786391 0.04827101 0.024817972
0.016205702 0.040146977 -0.020850766 -0.024520434 -0.035022814 0.02564864 0.031244682 0.025399674
-0.038282983 0.018049773 0.054755375 -0.04864716 -0.04527688 0.01717069 0.021037629 -0.022796357
0.033985175 -0.0058784075 -0.039003856 0.022442777 0.0005441057 -0.007945471 -0.021522049 0.008247204
0.037767395 0.0140484385 -0.0006341478 -0.0029201575 -0.04545552 0.019122737 -0.020495117 -0.0019485448
0.029949494 -0.014255312 0.033316713 -0.04360586 0.04563115 -0.040043548 0.016846804 -0.047942284
-0.008404426 0.010091395 -0.008022113 -0.044790994 0.04070288 0.029630248 -0.020282408 0.041182477
0.05341458 0.030365527 0.023799438 0.045843598 -0.0075835004 0.04690497 -0.03576148 0.03693139
0.041390672 0.04438119 -0.005360912 -0.05466709 -0.021521013 0.021763843 -0.03429834 -0.055714846
0.035257556 0.042170335 0.041946996 0.023001453 0.0428865 0.05482142 0.013673103 0.047445085
0.0066899527 0.010638886 -0.009137782 0.04719133 -0.01948728 -0.05481563 -0.050365344 -0.004996629
-0.02950779 0.026902687 -0.013934478 -0.035444614 0.02534185 -0.0060957507 0.01827776 0.0148729915
-0.037033826 0.005548077 0.009427614 0.033814535 -0.005744309 0.042993538 0.03943835 -0.028385215
-0.057384096 0.04737292 -0.054122 -0.014593224 0.028354904 0.055573322 -0.055765446 -0.0028521623
0.05582715 0.031005276 0.0043965885 0.03489494 -0.038835317 0.03271644 0.05700444 -0.050413627
-0.029222012 0.047551233 -0.0040957807 -0.029704114 0.029398276 -0.026552856 -0.017311217 -0.021014493
0.045653548 -0.02627894 0.045974027 -0.035281453 -0.030312791 0.0026720408 -0.03417076 -0.011137473
-0.028978797 -0.052025255 0.0229045 -0.02791781 -0.02537591 -0.02339493 0.03542226 -0.023866523
00000000: 0bb7 0ebd f5df 303d c9f4 be3b 5b51 64bd
00000010: 47e4 283d 5192 dbbc a9c5 303c 0d4d febc
00000020: 40dc 3abd d3f1 c7bc e8fa 1f3d cd9c 8abb
00000030: 899e b63b e262 89bc e0e3 3ebc 7ba8 d3bc
00000040: 7160 48bd e5d2 523d 108e 2cbc 1c0a d2bc
00000050: 14c8 29bd 7952 b5bc 6ffd 3c3a 4469 d63c
00000060: 17fe 1e3c 1a5b ae3c 6eea e6bc 00d4 c73c
00000070: f800 32bc 0247 123d f563 d3ba fdb0 193d
00000080: a048 813c 599a 32bd 07cd 0ebd 42aa fd3c
00000090: dd40 62ba de2d e5bc 2dbb 603d 056f 773c
000000a0: 64a6 923c d66c 243b ab0c 6d3c 30bb 9e3c
000000b0: bc67 21bb 0fc6 2abd 7c91 663d 8ec7 7f3c
000000c0: c259 213c 7b5f e53c 8149 4dbd bfa6 df3b
000000d0: a893 6e3c b07e ed3c f5b0 0bbd 917c 403d
000000e0: ca78 0d3d 68a9 99bc fc76 133d 8ec5 1c3d
000000f0: 9010 e93c 3c30 743b 79fe 5ebd d117 903c
00000100: 592a 31bc f46e a6bb 6c8e 43bd d30e 4c3d
00000110: a137 393a 8f78 2d3d c833 683d c4e0 1fbd
00000120: 535e 69bc da2e 28bd c6df 00bc 9671 163d
00000130: 9691 2dbd 4c3b 52bd dba0 4e3c ec21 253d
00000140: fe99 323d 9478 b73c 5f16 e7bc 3350 1cbd
00000150: f32a 3fbd 7571 fdbc ad8c 9c3b 1493 9b3c
00000160: 6633 1b3c 5c95 31bd 79ef fcbc eb2c 1ebd
00000170: df53 8a3c b04c f8bc 6613 693d 82fa 123d
00000180: 22b7 2dbd 715f 4fbd 12ef 4cbd 8e7b f5bc
00000190: cea7 39bd 8434 9abc 8da0 2ebd 4d4b 81bc
000001a0: ef0a 5bbd ab19 c13b e829 8e3c 5209 0fbd
000001b0: c202 013d b14e 1abd 7add 71bc 646c 5e3d
000001c0: 8b64 e33c a2d9 8e3b f28b 27bd 5b04 663d
000001d0: 5294 36bd e5ce c1ba d3b7 453d 0f4f cb3c
000001e0: d2c1 843c 2871 243d 3acf aabc 14df c8bc
000001f0: 1574 0fbd 191d d23c d9f4 ff3c fa12 d03c
00000200: 9ece 1cbd 1edd 933c 2c47 603d 3f42 47bd
00000210: 4074 39bd 8ca9 8c3c 1b57 ac3c 6dbf babc
00000220: 0a34 0b3d a89f c0bb 82c2 1fbd ead9 b73c
00000230: 51a2 0e3a b92d 02bc 024f b0bc 481f 073c
00000240: fcb1 1a3d 6c2b 663c f03c 26ba 1d60 3fbb
00000250: 912f 3abd 49a7 9c3c 60e5 a7bc 5066 ffba
00000260: a458 f53c 1d8f 69bc 1b77 083d 0f9c 32bd
00000270: bbe7 3a3d b404 24bd 4f02 8a3c 215f 44bd
00000280: b8b2 09bc 6156 253c 2e6f 03bc c376 37bd
00000290: 10b8 263d 22bb f23c 4b27 a6bc f5ae 283d
000002a0: 3fc9 5a3d 20c1 f83c 0af7 c23c 7fc6 3b3d
000002b0: 037f f8bb 6d1f 403d a17a 12bd 5f45 173d
000002c0: 4489 293d 0dc9 353d 97aa afbb 99ea 5fbd
000002d0: d64c b0bc 164a b23c 6b7c 0cbd 4035 64bd
000002e0: 3a6a 103d cdba 2c3d 9dd0 2b3d 8b6d bc3c
000002f0: c1a9 2f3d 6d8c 603d 2705 603c c755 423d
00000300: 6437 db3b b94e 2e3c a3b6 15bc b24b 413d
00000310: caa3 9fbc 5b86 60bd e44b 4ebd c3ba a3bb
00000320: 52ba f1bc 0663 dc3c 704d 64bc 5f2e 11bd
00000330: b699 cf3c ddbe c7bb 3ebb 953c d9ad 733c
00000340: c8b0 17bd a5cc b53b 4776 1a3c 1c81 0a3d
00000350: c23a bcbb fe19 303d 1b8a 213d 1c88 e8bc
00000360: 960b 6bbd 1b0a 423d 08af 5dbd 6b18 6fbc
00000370: 8b48 e83c daa0 633d 4f6a 64bd 58eb 3abb
00000380: 02ab 643d c7fe fd3c 4211 903b ffed 0e3d
00000390: c811 1fbd ac01 063d 7d7d 693d 857e 4ebd
000003a0: 0063 efbc 15c5 423d e635 86bb 0b56 f3bc
000003b0: a7d4 f03c 6085 d9bc 41d0 8dbc 9626 acbc
000003c0: 37ff 3a3d ee46 d7bc 434f 3c3d 4983 10bd
000003d0: 8852 f8bc 681d 2f3b a4f6 0bbd f379 36bc
000003e0: f164 edbc 6f18 55bd 38a2 bb3c e4b3 e4bc
000003f0: 24e1 cfbc b9a6 bfbc ef16 113d ba83 c3bc

layers.0.bias f4 [50]
-0.045414537 0.049937937 -0.02613793 -0.028555466 0.044107065 -0.034867935 0.03890176 0.04825729
-0.051887102 0.033768486 -0.032435168 -0.019619979 -0.05663118 -0.040862236 0.056666136 -0.0224699
-0.007283338 0.045909543 -0.030728536 -0.015210361 -0.00739589 0.0017908245 -0.00067894976 0.05307188
0.013555414 0.0020884555 0.02686555 -0.052430823 -0.0048067286 -0.011392329 -0.024770752 -0.021464663
-0.05665559 0.017793195 -0.05473886 -0.03753035 -0.039296895 0.02316919 -0.0043236203 0.057516195
-0.030999571 0.004032399 0.02833604 -0.04661195 -0.042327173 -0.009985989 0.005255801 -0.03515862
-0.027399577 0.055132218
00000000: 9804 3abd b98b 4c3d 361f d6bc 27ed e9bc
00000010: 9ca9 343d aed1 0ebd 7457 1f3d 70a9 453d
00000020: 9287 54bd d350 0a3d bdda 04bd 14ba a0bc
00000030: 19f6 67bd 295f 27bd c01a 683d cc12 b8bc
00000040: 11a9 eebb a50b 3c3d 69ba fbbc e134 79bc
00000050: 3959 f2bb 19ba ea3a 8cfb 31ba e661 593d
00000060: 8717 5e3c 78de 083b 2415 dc3c b4c1 56bd
00000070: c381 9dbb e4a6 3abc 08ec cabc a9d6 afbc
00000080: b10f 68bd 09c3 913c db35 60bd 6db9 19bd
00000090: c8f5 20bd 50cd bd3c 28ad 8dbb 1a96 6b3d
000000a0: d0f2 fdbc 3722 843b fc20 e83c 2cec 3ebd
000000b0: 425f 2dbd 469c 23bc db38 ac3b 7c02 10bd
000000c0: 1475 e0bc 52d2 613d

layers.2.weight f4 [20, 50]
-0.022195876 0.11853464 0.04097985 -0.05102944 -0.056716766 0.049624216 -0.016734878 -0.077393726
-0.10030426 0.08287257 -0.006530163 -0.10226257 -0.069006704 0.016723942 -0.0031241057 -0.07794212
-0.08977694 -0.06939695 -0.07092082 0.025480732 0.08063042 0.08909187 -0.09894882 -0.0030734995
0.11631778 0.0010370222 0.0033303692 0.0040756706 0.024600364 -0.024439197 -0.044273123 0.1382192
0.117897876 0.0040349364 -0.1005895 -0.053227887 -0.04620878 0.11161813 0.023630798 -0.12836921
-0.11871711 0.13688895 0.0424395 0.098989084 -0.123778306 0.106760696 0.027097244 0.12705182
0.04447031 -0.14003123 -0.014948692 0.018720359 -0.029277395 -0.061635837 -0.12988771 0.1208296
0.0075771785 -0.10175758 -0.12177021 -0.08633783 0.035775572 -0.08064315 0.045064304 -0.014535398
0.036983535 -0.13054532 0.14187363 0.10213516 0.042440947 0.11235627 -0.027392505 0.061896943
-0.116845824 0.06504877 0.0216417 0.1308735 -0.030245423 0.061112016 -0.09170629 -0.05132103
-0.041408844 -0.114692 0.07990692 -0.08730752 -0.0690145 -0.11889315 0.07837795 -0.030921575
-0.014212627 0.11018059 0.10339694 0.0457029 0.019686026 -0.117267184 0.11345858 0.1275586
-0.13163012 -0.023947 -0.08786864 -0.008471944 0.026666656 -0.12225424 -0.13518694 0.014535651
-0.08436517 -0.065425955 -0.1406354 -0.12774263 -0.08115789 -0.12165271 0.055542886 -0.05948197
0.112410024 -0.01894036 -0.094517246 -0.029847272 0.078655615 0.02597794 -0.13872264 0.043147102
0.1319684 0.076153725 0.1004792 -0.025752857 -0.12769945 -0.060320675 -0.11208985 0.1385981
-0.02005659 -0.019818075 -0.13244642 0.13328941 -0.0051823705 -0.025658578 0.06694825 -0.07452266
-0.028423384 0.06680231 0.07899979 -0.01423645 -0.030726455 -0.020479947 -0.100341514 -0.08540164
-0.06934339 0.1318383 0.117178634 0.05778131 -0.11074404 -0.034952767 -0.017070165 0.035604093
-0.075201176 0.0988201 0.12482099 -0.10089593 0.103751704 0.10651258 0.10169794 0.06826573
-0.014913174 -0.023508959 -0.11266504 -0.1375096 -0.048446935 0.1326334 -0.10745743 0.030616224
-0.04453824 -0.009305552 0.07107909 0.079458065 -0.03758415 0.066730574 -0.007776444 -0.015452367
0.045688823 0.025802033 -0.06840254 0.018065576 -0.069275476 -0.008847628 0.12850635 -0.120675996
-0.056512505 -0.015259605 -0.098416336 -0.09622765 0.1296453 -0.12036542 -0.05865703 0.09486459
0.06259464 0.11669062 0.04663823 -0.023213388 -0.13598168 0.09605655 -0.124217845 -0.06575686
0.057531696 0.119090706 -0.05310653 -0.05784761 -0.13916363 0.13432355 -0.08003894 -0.00621821
0.038856145 0.040704112 0.07458316 0.0048301816 -0.10463721 -0.007444456 0.084659114 0.049771678
0.046641514 -0.0394207 -0.013957322 0.11983607 0.10326328 -0.10382503 -0.11261126 0.139314
-0.050190844 0.07902845 -0.12373386 0.024117038 0.032933593 -0.10303989 0.056896046 0.086099565
0.09765026 -0.026701514 0.008234907 0.11677988 0.08777888 -0.08935888 0.092206046 -0.07106884
0.10938709 -0.10071538 -0.10884032 0.012983263 -0.06044344 -0.045537986 -0.036478322 -0.058318175
0.10987462 -0.036893398 0.00043732728 0.04357881 0.11158015 -0.11353052 0.12368115 -0.03261235
00000000: 20d4 b5bc 4ac2 f23d 7dda 273d 3f04 51bd
00000010: d74f 68bd c342 4b3d 9517 89bc 9a80 9ebd
00000020: 526c cdbd 18b9 a93d fafa d5bb 0a6f d1bd
00000030: 6353 8dbd a600 893c ccbd 4cbb 1ea0 9fbd
00000040: f9dc b7bd fd1f 8ebd ef3e 91bd f8bc d03c
00000050: 9021 a53d cc75 b63d aea5 cabd c46c 49bb
00000060: 0438 ee3d b1ec 873a 5342 5a3b 348d 853b
00000070: b486 c93c b634 c8bc bc57 35bd 5589 0d3e
00000080: 7174 f13d 8037 843b de01 cebd 7c05 5abd
00000090: 6b45 3dbd 0c98 e43d 6095 c13c 3873 03be
000000a0: f521 f3bd 9e2c 0c3e 0bd5 2d3d caba ca3d
000000b0: 7b7f fdbd 5aa5 da3d 0afb dd3c df19 023e
000000c0: 8026 363d 5964 0fbe 5ceb 74bc 705b 993c
000000d0: 26d7 efbc dc75 7cbd 4901 05be 8275 f73d
000000e0: fb49 f83b 4766 d0bd a962 f9bd e3d1 b0bd
000000f0: 6889 123d 3c28 a5bd 5995 383d e125 6ebc
00000100: 0c7c 173d acad 05be 5247 113e 3d2c d13d
00000110: 8fd6 2d3d 0b1b e63d 3f66 e0bc a687 7d3d
00000120: dd4c efbd 4a38 853d ef49 b13c b403 063e
00000130: 40c5 f7bc 9850 7a3d 82d0 bbbd 0036 52bd
00000140: 529c 29bd a4e3 eabd 3da6 a33d 49ce b2bd
00000150: 7957 8dbd 407e f3bd 9e84 a03d 3e4f fdbc
00000160: 14dc 68bc 5ca6 e13d c6c1 d33d f732 3b3d
00000170: 9744 a13c c729 f0bd f95c e83d b99e 023e
00000180: 0cca 06be 802c c4bc 79f4 b3bd e9cd 0abc
00000190: 0874 da3c 6e60 fabd 726e 0abe f026 6e3c
000001a0: a5c7 acbd 0bfe 85bd ba02 10be f7ce 02be
000001b0: 1c36 a6bd 0e25 f9bd f080 633d 5ea3 73bd
000001c0: 3a37 e63d d028 9bbc 4292 c1bd 4482 f4bc
000001d0: 3216 a13d b0cf d43c 4f0d 0ebe 04bb 303d
000001e0: b922 073e 7cf6 9b3d 0ac8 cd3d a8f7 d2bc
000001f0: a5c3 02be d012 77bd 5d8f e5bd a9ec 0d3e
00000200: b84d a4bc 8459 a2bc 09a0 07be 057d 083e
00000210: e0d0 a9bb f031 d2bc 2a1c 893d 569f 98bd
00000220: 28d8 e8bc a6cf 883d a4ca a13d 0040 69bc
00000230: 0cb6 fbbc 90c5 a7bc da7f cdbd 0ee7 aebd
00000240: e803 8ebd 9f00 073e 5afb ef3d 18ac 6c3d
00000250: c5cd e2bd a22a 0fbd bbd6 8bbc 99d5 113d
00000260: 1303 9abd 3162 ca3d 26a2 ff3d 86a2 cebd
00000270: c67b d43d 4423 da3d 0247 d03d e7ce 8b3d
00000280: 6356 74bc dc95 c0bc eebc e6bd 51cf 0cbe
00000290: 4b70 46bd 0dd1 073e a412 dcbd e0ce fa3c
000002a0: bb6d 36bd 5076 18bc ea91 913d e9ba a23d
000002b0: d6f1 19bd 0aaa 883d 8ad1 febb ed2b 7dbc
000002c0: 3424 3b3d c95e d33c a216 8cbd 42fe 933c
000002d0: 4de0 8dbd a4f5 10bc 2b97 033e fa24 f7bd
000002e0: a879 67bd 6c03 7abc 818e c9bd 0113 c5bd
000002f0: bdc1 043e 2582 f6bd 5b42 70bd 5e48 c23d
00000300: 9e31 803d 7efb ee3d bb07 3f3d 012a bebc
00000310: c83e 0bbe 4cb9 c43d ed65 febd 88ab 86bd
00000320: 5ba6 6b3d d4e5 f33d 3c86 59bd 9ef1 6cbd
00000330: e980 0ebe 1d8c 093e 75eb a3bd 20c2 cbbb
00000340: 9f27 1f3d 5bb9 263d 0ebf 983d 8046 9e3b
00000350: 094c d6bd a0f0 f3bb c261 ad3d 63dd 4b3d
00000360: 2c0b 3f3d 9a77 21bd 40ad 64bc 9d6c f53d
00000370: b37b d33d 38a2 d4bd bba0 e6bd 54a8 0e3e
00000380: ea94 4dbd abd9 a13d 2e68 fdbd 1891 c53c
00000390: 60e5 063d 9406 d3bd d40b 693d f854 b03d
000003a0: dcfc c73d 22bd dabc b4eb 063c 4a2a ef3d
000003b0: 6ac5 b33d ca01 b7bd 86d6 bc3d 8a8c 91bd
000003c0: 5706 e03d dd43 cebd ace7 debd c0b7 543c
000003d0: 8a93 77bd 0a86 3abd 4b6a 15bd 0adf 6ebd
000003e0: f205 e13d 881d 17bd 1349 e539 b27f 323d
000003f0: 2284 e43d b082 e8bd 8b4c fd3d 8794 05bd

layers.2.bias f4 [20]
-0.004316791 0.13177028 -0.09843387 -0.14010286 -0.06644083 0.0116451075 0.094940975 0.018857677
-0.085548684 0.0046271794 -0.062177546 0.1351803 0.015132555 -0.12335758 0.12827004 -0.07096636
-0.10036293 -0.1000226 0.11556416 -0.12840933
00000000: de73 8dbb caee 063e b297 c9bd 2077 0fbe
00000010: 2112 88bd 1fcb 3e3c 6a70 c23d 6a7b 9a3c
00000020: 2634 afbd 989f 973b e2ad 7ebd b46c 0a3e
00000030: 89ee 773c e6a2 fcbd 3959 033e d056 91bd
00000040: 148b cdbd a6d8 ccbd e7ac ec3d bc7d 03be

layers.4.weight f4 [10, 20]
0.13526604 -0.15064666 -0.12351861 0.15981242 -0.16405483 -0.18930975 -0.115199104 0.18815213
-0.014837056 0.19335455 0.1426675 -0.09450151 -0.09637405 -0.07979615 0.103971034 0.11204347
0.020077378 -0.028093696 -0.03589295 -0.09901009 -0.07581502 -0.08609764 -0.01455541 0.023933517
0.115591526 0.077541366 0.02566998 -0.20199497 -0.09766784 -0.009637707 0.13748848 0.15237005
0.066628665 -0.19703227 -0.029991433 -0.011075932 -0.17887855 0.10868761 -0.20513692 0.013446644
-0.15754233 0.190063 -0.010936901 0.1755218 0.18715137 0.19334684 -0.101385295 0.076445125
0.11274296 -0.005313446 -0.14586669 -0.15220645 0.07115243 -0.13134275 0.0876192 -0.02094424
0.083452605 0.122965544 0.06696815 0.15715134 -0.042152748 -0.09420469 -0.029554844 0.20944795
0.19903484 -0.13776693 -0.08460596 -0.065522105 0.034163505 -0.18307348 0.22099921 0.061935693
0.12212482 -0.12362593 0.1514312 -0.071808845 -0.15274641 -0.18397942 0.059491903 -0.05396293
-0.07818956 -0.21521728 0.12740591 0.20557468 -0.14156452 -0.012139752 0.14482683 -0.09260151
-0.10168379 -0.0105440235 -0.0877399 -0.13683218 -0.15698715 -0.14100066 0.038964152 -0.09064738
-0.081829354 -0.022531599 -0.0093575865 0.22223163 0.047972947 0.110506654 0.09564379 0.20631903
-0.21087477 -0.17859632 -0.06291537 -0.06284265 0.2199862 0.017554313 0.20551708 -0.08598673
0.07658264 -0.109163545 -0.104474485 -0.0923821 0.00071677566 -0.1320315 -0.16124526 0.20677459
0.10996577 -0.20899768 0.008093774 -0.14250833 0.07570714 -0.1600238 -0.030109286 0.18250781
0.002718091 0.09871715 0.09229651 0.058710307 0.05638793 -0.17420521 -0.08572915 -0.15756328
0.052102536 -0.16979939 -0.19027624 0.19286811 -0.111575216 -0.05830002 -0.10585876 0.15766057
-0.142064 0.037631873 -0.11718335 0.18548986 0.022787556 -0.052970115 -0.006725788 0.042966902
-0.11134715 0.09057143 0.22277825 0.013872059 0.09863064 -0.20077555 -0.11276926 0.21051839
-0.22241822 -0.18045433 0.105266064 0.11960751 -0.0051550427 0.13910054 0.16302194 -0.06133808
-0.023667067 -0.22078456 -0.05104153 0.21206848 0.08530797 -0.009456292 -0.20368987 -0.08452373
-0.2038952 0.120262116 0.031193824 -0.1687651 0.035147853 -0.18334377 0.17510962 0.06668472
0.0494394 0.16359472 -0.072663315 -0.014005295 -0.137921 -0.2195936 0.1690743 0.09855431
-0.14004783 -0.14401662 0.19889171 0.20713437 -0.016280284 0.21275908 0.17371027 0.22248653
00000000: 2e83 0a3e 1e43 1abe 53f7 fcbd dea5 233e
00000010: fdfd 27be 6ada 41be 82ed ebbd f4aa 403e
00000020: 2017 73bc bcfe 453e 6e17 123e 028a c1bd
00000030: c25f c5bd 2a6c a3bd c4ee d43d 0c77 e53d
00000040: 5079 a43c c024 e6bc 7c04 13bd cdc5 cabd
00000050: e844 9bbd f653 b0bd d079 6ebc 3910 c43c
00000060: 40bb ec3d 02ce 9e3d da49 d23c c5d7 4ebe
00000070: 1406 c8bd 79e7 1dbc c8c9 0c3e e506 1c3e
00000080: 9c74 883d d4c2 49be 98b0 f5bc d377 35bc
00000090: f02b 37be 9c97 de3d 6a0f 52be 504f 5c3c
000000a0: c752 21be e09f 423e b030 33bc fdbb 333e
000000b0: 9ca4 3f3e b7fc 453e 18a3 cfbd 438f 9c3d
000000c0: c8e5 e63d 6a1c aebb 145e 15be 02dc 1bbe
000000d0: 5db8 913d b77e 06be b271 b33d 4193 abbc
000000e0: 33e9 aa3d 5cd5 fb3d 9926 893d 48ec 203e
000000f0: 5ca8 2cbd 63ee c0bd 001d f2bc 8679 563e
00000100: cacf 4b3e c612 0dbe e445 adbd 7430 86bd
00000110: 08ef 0b3d 9d77 3bbe 9e4d 623e 48b0 7d3d
00000120: 941c fa3d 972f fdbd c810 1b3e 8410 93bd
00000130: 8e69 1cbe 1a65 3cbe c8ad 733d 3c08 5dbd
00000140: d921 a0bd eb61 5cbe b276 023e 2b82 523e
00000150: 4af6 10be cfe5 46bc 7c4d 143e dca5 bdbd
00000160: 973f d0bd d7c0 2cbc fab0 b3bd bc1d 0cbe
00000170: 3dc1 20be 7a62 10be e098 1f3d 55a5 b9bd
00000180: 2696 a7bd 3094 b8bc 9050 19bc b090 633e
00000190: 487f 443d 5051 e23d e4e0 c33d 4c45 533e
000001a0: 8eef 57be f4e1 36be c6d9 80bd a6b3 80bd
000001b0: 1044 613e 10ce 8f3c 1273 523e d019 b0bd
000001c0: 5cd7 9c3d 2391 dfbd b8f6 d5bd d432 bdbd
000001d0: 00e6 3b3a 4433 07be 7a1d 25be b8bc 533e
000001e0: bc35 e13d 7d03 56be c09b 043c b4ed 11be
000001f0: 580c 9b3d 47dd 23be c0a7 f6bc 54e3 3a3e
00000200: 0022 323b 382c ca3d f405 bd3d 387a 703d
00000210: 08f7 663d da62 32be c492 afbd 4558 21be
00000220: 7869 553d e4df 2dbe c6d7 42be 387f 453e
00000230: 8c81 e4bd 00cc 6ebd 7acc d8bd c671 213e
00000240: 3a79 11be e123 1a3d d3fd efbd 0ef1 3d3e
00000250: f8ac ba3c 31f7 58bd 0064 dcbb 10fe 2f3d
00000260: f909 e4bd 847d b93d fb1f 643e a247 633c
00000270: dcfe c93d 1b98 4dbe 92f3 e6bd 2292 573e
00000280: 9ac1 63be 05c9 38be bc95 d73d c8f4 f43d
00000290: a2eb a8bb 5f70 0e3e 39ef 263e a33d 7bbd
000002a0: 70e1 c1bc 5915 62be ec10 51bd 7b28 593e
000002b0: f2b5 ae3d 90ee 1abc 1494 50be c71a adbd
000002c0: e7c9 50be fc4b f63d 318a ff3c c2d0 2cbe
000002d0: 32f7 0f3d 78be 3bbe f04f 333e 0092 883d
000002e0: f880 4a3d 6085 273e 81d0 94bd 7776 65bc
000002f0: 2a3b 0dbe 25dd 60be d021 2d3e d8d6 c93d
00000300: b368 0fbe 1879 13be 45aa 4b3e 081b 543e
00000310: 3b5e 85bc 84dd 593e 1be1 313e 82d3 633e

layers.4.bias f4 [10]
-0.2160746 0.034678325 0.09355338 0.10810305 -0.08259711 -0.13474025 -0.03386408 0.038768712
0.07322253 -0.01812031
00000000: a942 5dbe dc0a 0e3d ea98 bf3d 2265 dd3d
00000010: ac28 a9bd 59f9 09be 10b5 0abd f1cb 1e3d
00000020: b2f5 953d 0b71 94bc

layers.6.weight f4 [2, 10]
-0.30808508 0.04598059 -0.26630786 0.005111814 0.18837586 -0.0775397 -0.3023058 0.029887114
-0.253123 -0.08376292 -0.13469225 0.24535622 0.13136517 0.10885065 -0.056698278 0.14576602
-0.17867756 0.12741646 0.100693434 0.25217426
00000000: 54bd 9dbe 2556 3c3d 8159 88be 0181 a73b
00000010: 9ae5 403e 22cd 9ebd d3c7 9abe d2d5 f43c
00000020: 5699 81be e58b abbd c4ec 09be a93e 7b3e
00000030: 9784 063e 17ed de3d 743c 68bd b043 153e
00000040: 40f7 36be 7679 023e 5c38 ce3d fc1c 813e

layers.6.bias f4 [2]
-0.29323292 -0.23014069
00000000: a022 96be 00aa 6bbe
