DHH/model/fc/model-fold-1.pth (torch, 70287 bytes, 8 tensors)

layers.0.weight f4 [50, 312]
00000000: 98e1 56bd f1ac 53bc 000f 4f3d 71d4 f63b
00000010: 4fb1 623d c2b0 58bc 1672 f5bc 242b 36bd
00000020: 160e 613d 3806 59bd 5881 0bbd 8602 b9bc
00000030: 46ea 903c 348c 203d dae1 c43c 53cc 5d3b
00000040: d62a 523d 410a 113d 6253 dfbc 7d31 2ebb
00000050: e0e8 473d d89f 06bd 0052 303a 0432 d7bb
00000060: 0d3d 5ebd e6de 143d 13d4 ef3c 5d34 f43c
00000070: 9d06 e9bc 4f5a 593d 2e64 10bd 1762 fbbc
00000080: 221e 4fbd fa9a 453d 9097 f23c b4e4 7dbc
00000090: 5996 3fbd 6685 083c eb0c 5ebd 8418 263d
000000a0: d616 2bbd 0f2b a63c 88fc c43a d1e4 3b3d
000000b0: c3b7 c3bc 5101 b6bb e1e6 31bd f19d d8bc
000000c0: 634e 603d dcc7 4c3d a49f b33c e457 3fbd
000000d0: 436e ef3c 82b1 67bd 5632 22bd cc33 4bbd
000000e0: 6086 acbc b7b9 aebc a930 2ebd 6828 13bd
000000f0: c137 dabc c449 ccbc 5034 ce3c 21ee 293d
00000100: 7a0c 423c acda fe3b 60e0 393d e7a5 f8bb
00000110: 40b4 0ebd 1c0e 40bd 4c55 26bd f4ab 613c
00000120: 956f 353d a93e d8bb adcf 1abc 2172 423d
00000130: daa7 f1bc 583b 343d 4bea 22bd 4ea5 493d
00000140: e548 6cbd 03f1 24bd efd7 b03c ef27 093d
00000150: f67d b5bc 5345 c7bc 09ef 473d 0086 0f3d
00000160: a385 66bd 7be8 313d ba95 353c c2ca 3bbd
00000170: 0afb 02bc 755d b1b9 205e af3c 9c64 35bd
00000180: 1490 82bc cc06 73bc ad1f 9ebc fd09 813c
00000190: 6810 e93b 486e 9a3c 2d33 48bc 0871 63ba
000001a0: bcd1 533c 0f0f d33c e02c 04bd 6cdd b5bc
000001b0: 58c5 8d3c 0534 00bd 6f72 053d 79e8 203c
000001c0: 646a 483d 2fe0 433d cd44 bcbc f853 003d
000001d0: 71b5 f13b 98f6 a73c 4916 773c 78fe 063c
000001e0: b208 ee3a 4ea9 fc3b 9539 55bd 619d 0cbd
000001f0: 97a7 323b 1711 babc db31 383c 65cd 8fbc
00000200: 579f 313c 9d70 243d c4f2 9e3c 4945 093d
00000210: dfe6 0abd 88f4 273b 19d4 4abd f989 c03c
00000220: 26a2 53bd 6af8 fd3c 5d9e 423c 1be5 e93a
00000230: ff46 343c 904a 873c 8a9c 3a3d 01f3 0abd
00000240: 4508 12bd b747 94bc 3a65 5cbd e83f 1bbc
00000250: 86b8 12bd bedc a03a e48f 573b bc5f 3b3d
00000260: a1e9 e8bc 9faa 61bd 6738 473c 86f8 553c
00000270: 75bf 44bd 6109 223c e641 5b3d 45ae 44bd
00000280: e2f0 2bbd 71b6 dd3a 7704 fc3c dd67 3e3d
00000290: 3f51 07bd 4f58 5fbd 0a2c aa3c 3171 91bc
000002a0: 0ee1 23bb 8b48 50bd f30e 06bd 3fe1 a8bc
000002b0: 443a 1cbd a521 603b d7e7 a8bc 3f17 0c3d
000002c0: 8943 093d bf15 a03c 30e5 273d 4448 49bd
000002d0: 8818 ddbc 0505 49bc 2898 5f3d 61dd 413d
000002e0: 6028 d8bb 7cd3 a6bb d264 27bd f14a 493d
000002f0: be23 69bc 7847 49bc 0c59 5b3d 104f 9bba
00000300: 1c4f afbc 4aa6 adbb 2ccc 583d ff46 403d
00000310: afd1 58bd 6484 f73c 8733 a9bc 0dcd cb3c
00000320: 765b 293d c159 343d e1a8 11bd 7cf1 f8bc
00000330: 4513 af3c a942 5d3d 5443 5939 fd3a 86bc
00000340: b923 2f3d db0a aabc f4f3 21bd f2bb c43c
00000350: 605e b8bc 8f2d 353d 707f dd38 f1ab edbc
00000360: 5eb2 57bc 4206 073d 2fab 4ebd 79b6 2bbb
00000370: e78b 143d 0776 143d 8466 5b3c 6982 62bc
00000380: c81b babc a432 193d 1a2a 4abb 4df3 5e3c
00000390: cc89 a13c f426 473c d5a7 9abc 78fe 863b
000003a0: 1f3f 36bd 70cb 283d 5384 6fbc ccd6 ed3c
000003b0: 542e 173d cdf0 023d e6b2 2e3d 460a 3d3d
000003c0: c1a7 09bd 8bd3 36bd 46ce 553c 1928 593d
000003d0: 7d45 febc db4e 4e3d fb65 e9b9 c582 483d
000003e0: 0a1e 113c 5583 383d 302a 31bd 2d2a 013d
000003f0: 9e3a d13c db10 2cbd 107d 4d3d d2ad 09ba
-0.052461237 -0.01291965 0.050551414 0.007532649 0.055344876 -0.013225736 -0.029961627 -0.044474736
0.054945074 -0.052984446 -0.0340589 -0.022584211 0.017689835 0.039196208 0.024033476 0.003384371
0.051310383 0.03541017 -0.02726144 -0.002657979 0.04880607 -0.032867283 0.0006726086 -0.0065672416
-0.05425744 0.036345385 0.02927593 0.029810125 -0.028445536 0.05306464 -0.03525179 -0.030686421
-0.050565846 0.0482435 0.029613286 -0.015496422 -0.046774242 0.008332586 -0.05421154 0.040550724
-0.041769825 0.020284204 0.0015028873 0.045872513 -0.023891335 -0.005554356 -0.043433074 -0.0264425
0.054762255 0.04999529 0.021926709 -0.04671468 0.029227382 -0.05656577 -0.039598785 -0.049609944
-0.021060169 -0.02132879 -0.042526875 -0.035927206 -0.026637914 -0.024937518 0.025171429 0.041486863
0.011843795 0.0077775326 0.045379996 -0.0075881365 -0.03483987 -0.046888456 -0.04060869 0.013773907
0.044295866 -0.0065992665 -0.009448928 0.047472123 -0.029498983 0.044001907 -0.03977422 0.049229912
-0.057686705 -0.04026891 0.02158734 0.03348535 -0.02215479 -0.024325049 0.048811946 0.0350399
-0.05627979 0.0434346 0.011083061 -0.04584766 -0.007994423 -0.00033829702 0.021407187 -0.0442854
-0.015937842 -0.0148331635 -0.019302214 0.015751833 0.0071125515 0.018851414 -0.0122192325 -0.0008676206
0.012928423 0.025764016 -0.03226936 -0.022200309 0.017306015 -0.03129961 0.032579836 0.009821051
0.048929587 0.04782122 -0.022982026 0.03133008 0.007376366 0.020503327 0.015080997 0.008239381
0.001816055 0.0077106124 -0.052056868 -0.034329776 0.0027260536 -0.022713227 0.011242355 -0.017553994
0.010841212 0.04014646 0.019402869 0.03351334 -0.033911582 0.002562793 -0.04951868 0.02350329
-0.05166831 0.031002242 0.011878577 0.0017844768 0.011003255 0.016515046 0.045559444 -0.033923153
-0.035652418 -0.018100603 -0.053807475 -0.009475686 -0.035820507 0.0012272818 0.0032892162 0.045745596
-0.028431715 -0.055094358 0.012159443 0.013059741 -0.04803415 0.009889931 0.053529643 -0.04801776
-0.04197777 0.0016915334 0.030763848 0.04648577 -0.033036467 -0.054527577 0.020772953 -0.01775417
-0.002500597 -0.050850432 -0.0327291 -0.020615218 -0.038141504 0.0034199741 -0.020618362 0.034201857
0.033511672 0.01954162 0.040990055 -0.049141183 -0.026989236 -0.012269263 0.054588467 0.047330264
-0.00659661 -0.005091129 -0.040867634 0.049143735 -0.014229713 -0.012285106 0.05355172 -0.0011849124
-0.021400027 -0.005299364 0.05292909 0.046942707 -0.052934345 0.030214496 -0.020654453 0.02487805
0.04134699 0.04403091 -0.035561446 -0.030388586 0.021371493 0.05401865 0.00020719814 -0.01638555
0.042758677 -0.02075713 -0.039539292 0.0240154 -0.022505939 0.0442329 0.00010561838 -0.029012652
-0.013165085 0.032964952 -0.050456222 -0.0026201291 0.036266234 0.036245372 0.013391141 -0.0138250375
-0.022718325 0.03740181 -0.0030847848 0.013607812 0.019719027 0.012155283 -0.018878857 0.0041196905
-0.04449379 0.041209638 -0.014618951 0.029033087 0.036909416 0.031967927 0.04265108 0.046152376
-0.03360725 -0.044635337 0.013049668 0.053016756 -0.031038994 0.05036817 -0.00044517205 0.048952837
0.0088572595 0.045047123 -0.043253124 0.031534363 0.025540646 -0.042008262 0.050168097 -0.00052520365

layers.0.bias f4 [50]
00000000: 64aa 3f3d 6e31 51bc c2c6 303d 45c7 f5bc
00000010: 65e3 e4bc 9a93 293d b1b5 b1bc 5c7d 1e3d
00000020: 9a84 923c b0c8 19bd 5052 553d 6958 3fbb
00000030: e9a4 4a3b fe30 063d f913 3f3d b243 67bd
00000040: 0959 eaba 2fbd 15bc 402c 08bd 4215 69bd
00000050: c2f0 fbba 09c4 2ebd be3b d43b 1897 24bd
00000060: 37bd debc e456 143d 0bec 503d e9b7 28bd
00000070: 8f0b 333d b2ec 3dbd 0c85 133c 1677 15bc
00000080: 466c 0dbd ae14 87bc 7725 8ebc 5935 fcbc
00000090: 31bc 3ebc 3799 beba 4c72 c4bc e04f 02bc
000000a0: 59ca fcbb 84e2 d6bc 2c87 d4bc 5b1a 7d3c
000000b0: c7d7 f13c 6a54 943c 3ccc 28bc ec6c 5fbd
000000c0: 3055 4c3b 0cc1 ef3a
0.046793357 -0.012768133 0.0431583 -0.030002246 -0.027940461 0.04140053 -0.021693083 0.03869377
0.017885495 -0.037544906 0.052080452 -0.0029196984 0.0030921048 0.032761566 0.046649907 -0.056461044
-0.0017879318 -0.009139343 -0.033245325 -0.05690504 -0.0019221532 -0.042667422 0.0064768484 -0.040183157
-0.027189834 0.036215678 0.051006358 -0.041191015 0.043712195 -0.04636831 0.009003889 -0.009122631
-0.034527086 -0.016489353 -0.017351849 -0.030787157 -0.011641548 -0.0014541511 -0.023980282 -0.007953614
-0.0077145514 -0.026231058 -0.025943361 0.015448178 0.029521836 0.018106658 -0.0103025995 -0.054547235
0.0031178705 0.0018291785

layers.3.weight f4 [20, 50]
00000000: adb3 b5bd bfa8 d43d c956 cbbd 0ebf 043e
00000010: 37c5 c43b 365e 52bc 0b05 e63d 4564 b03d
00000020: 3f1d 013e 2262 5e3d d7c3 84bd b8a3 ee3d
00000030: 6267 433d 1161 3b3d 715a f6bd 5043 30bc
00000040: b85e b4bc 9cf3 bd3d 8a32 e23d 4967 d2bd
00000050: c73c 093e bebc c5bb e2a3 f6bd 002c 9dbc
00000060: 8cd7 bcbc 7719 12bd 40d8 11bb 2df7 c53d
00000070: 4ae9 6ebd ef2f 65bd f116 0a3e ddf1 79bd
00000080: a344 08be 5585 8f3d fd2d 063e 7fbd e63d
00000090: 057c b1bd d24b 3cbd 9820 afbd d8b9 093d
000000a0: 4be4 193c fb09 bcbd 89d7 033e 265d b03d
000000b0: 19ff c5bb 4a23 42bd 6f3a 66bd 0524 dbbd
000000c0: 2c0d 383d d63f fd3c dada ddbd 0399 8bbd
000000d0: 5806 063d b785 9fbd 4da4 5c3d 26b8 843c
000000e0: d357 cdbc 987b 0e3e 392d 083e 91d3 623d
000000f0: a223 12bd c463 a2bd 63c8 913d 1d15 a43c
00000100: cc06 1b3d d48b 04be 47cc 9cbd b20f 9dbd
00000110: 28e3 f53d 1f9b 30bd b53f 593d 145f 0b3e
00000120: be64 fb3c 0020 fe38 da6e e0bd 93af 04be
00000130: 94c5 aabd 1d91 f6bd 1d97 ce3d e590 1e3d
00000140: 0088 e739 3b52 fc3d 7dac b7bd 0a45 fc3d
00000150: 1f20 c63d 2de9 113d 6bee f1bd 159a d1bd
00000160: 6e3c 47bd e02b ccbd 55c2 c93d 32fa a33b
00000170: 0264 14bd b4ae e4bd a17d a83c 4afc f23d
00000180: 8b7f 373d 78b5 e7bd 3471 243d f5a8 d93d
00000190: 66c2 083e e598 163d 589b 043e d2f2 69bd
000001a0: 756f fb3d 4a9c a2bd da0d 523d 9feb ecbd
000001b0: bc86 b13d 057f 423d 77a2 a7bd 7973 823a
000001c0: c947 d6bd e49e f03d 3dd4 afbd 3058 80bd
000001d0: 3b8f ca3c 9544 b9bd 86bc 1abd 86ae 093e
000001e0: e595 e4bd e70d 0cbd f33f 4f3d 6476 afbc
000001f0: 480d db3c f98c d43d 628e d0bd ca54 d6bd
00000200: 8207 af3d 875d de3c a68a ff3d 6de5 32bd
00000210: 3219 d9bd 1993 52bd 61e7 10be 8585 92bb
00000220: 390b e93d 0139 863d 0262 be3d a257 00bd
00000230: 6fa9 2e3d 2bc7 34bd 624d a2bd 77b0 413d
00000240: 512f e23d 00da 9f3c 507f 8ebd 3dbd a2bd
00000250: 80c0 a2bc 2b62 b4bd db14 d73d 910e e73d
00000260: 49c4 bf3d 4a22 01bb e0fc 13bd 0b2f 9cbd
00000270: 4e34 9abc 2453 5e3c 1a45 14bd 5597 8c3d
00000280: 53d4 213d 6a2c ee3c b55b 4f3d f593 493d
00000290: 3ed0 683d 02a4 ac3d 2739 0f3e 8c81 a13d
000002a0: 4b73 38bd 9bd5 6d3d 570b 97bd fe3a dc3c
000002b0: 6dff f4bd 2847 733d 87e6 0cbe 1ac4 a6bd
000002c0: 6edc d43d e8b2 c93d fa2e f4bd 9b25 5ebd
000002d0: 5a3a cf3d d736 e6bd 287c 803b f2a0 afbd
000002e0: 8ec6 083e 1758 02bd 003c 3f39 ec2f 8ebd
000002f0: f463 88bd b831 963c 3004 e43d 66fe ccbd
00000300: a411 25bd e688 e0ba 79ca 0f3e 7446 b6bd
00000310: 063b cabd 144d c63d d016 8f3c eef4 1b3d
00000320: 2e32 eebd 36ff ddbd a1c1 533b fcae 973c
00000330: cf97 343c 8bd4 19bd a50d e9bc 8a3a d33d
00000340: 00f6 c73c ac2f a43c cfe0 0ebe 3bb7 2e3d
00000350: 5dcc 40bd f09d e93d 2837 d93d ed2f 02be
00000360: 0b2d 8b3d 82c9 a93d 837f 35bd 24f5 613d
00000370: 909c b33d 15b7 d13d 96df e33d d469 1bbd
00000380: 3c22 3fbd dbe3 c43d 587e d43d 2b8f 10be
00000390: 1750 eabd 6c22 e1bd c2b3 c73d 1e83 0a3d
000003a0: 689b 97bd 082b ca3c 36ae 953b 5936 f83c
000003b0: be9c 59bd 8f71 673d 4603 dfbd 38fc f73c
000003c0: 89e3 b03d 7d8d 893d d6b5 a7bd 6ea5 35bd
000003d0: 452e 023e 9d49 92bd ea88 fb3d 1479 e5bd
000003e0: 1187 a3bd a106 083b d2f4 8c3d 9cc7 3dbd
000003f0: 238b 11bd f318 933d eac0 b93d e67a 553c
-0.08872161 0.10383748 -0.09928662 0.12963507 0.006004955 -0.012839844 0.112314306 0.08612875
0.12608813 0.054292805 -0.06482666 0.116523206 0.047706015 0.045746867 -0.12028969 -0.010758236
-0.022017822 0.092749804 0.11044796 -0.10273606 0.13402091 -0.0060344627 -0.12042977 -0.01918602
-0.023052 -0.035668816 -0.002225414 0.09666286 -0.05832795 -0.055953916 0.13485314 -0.061021674
-0.13307433 0.07007853 0.1310348 0.11266612 -0.08666233 -0.045970745 -0.08551139 0.0336245
0.009392808 -0.09181591 0.12875189 0.08611517 -0.006042373 -0.047396936 -0.05620807 -0.107002296
0.044934437 0.030914228 -0.10832758 -0.06816294 0.032720894 -0.07789176 0.053867627 0.01620109
-0.025066292 0.13914335 0.13298501 0.055377547 -0.035678513 -0.07929185 0.07118299 0.020029599
0.03784828 -0.12943965 -0.0765615 -0.07669009 0.12006217 -0.043116685 0.05303927 0.13610488
0.030687686 0.00012117624 -0.10958643 -0.12957601 -0.08338466 -0.12039397 0.10087416 0.0387124
0.0004416108 0.12320372 -0.089684464 0.12317856 0.09674095 0.035622764 -0.11813053 -0.10234467
-0.048641615 -0.09969306 0.09851519 0.005004191 -0.036228187 -0.111661345 0.020567717 0.118645266
0.04479937 -0.11313909 0.04014702 0.10627929 0.13355407 0.036766905 0.12949884 -0.057116337
0.12277118 -0.07939966 0.05128274 -0.11568379 0.08668277 0.047484417 -0.081852846 0.0009952626
-0.10462911 0.11749056 -0.08585403 -0.062668204 0.0247265 -0.09046284 -0.037777446 0.13445482
-0.111614026 -0.034192946 0.050598096 -0.021418758 0.026739731 0.10378451 -0.10183407 -0.10465391
0.08546354 0.027144207 0.12477617 -0.04367583 -0.10600509 -0.051409815 -0.14150764 -0.004471483
0.11379094 0.065538414 0.09296037 -0.031333573 0.042642053 -0.044135254 -0.07924916 0.04728743
0.11044181 0.01951313 -0.06957877 -0.079462506 -0.019867182 -0.088077866 0.10502025 0.11282075
0.0936361 -0.0019704276 -0.036129832 -0.0762616 -0.018823769 0.013569627 -0.036198713 0.06864802
0.03950913 0.029073913 0.050624568 0.04921337 0.05683922 0.084297195 0.13986646 0.07886037
-0.045031827 0.05806504 -0.0737521 0.026883598 -0.11962781 0.05939403 -0.13759814 -0.08142872
0.10393606 0.09848577 -0.119230226 -0.054235082 0.101185516 -0.112409286 0.0039210506 -0.0857562
0.13356993 -0.03182229 0.00018237531 -0.06942734 -0.066596895 0.018334255 0.11133611 -0.1000946
-0.040300027 -0.0017130643 0.14042081 -0.089001566 -0.09874539 0.0968267 0.017466933 0.03807538
-0.11630665 -0.10839693 0.0032311457 0.018516056 0.011022522 -0.037556212 -0.028448889 0.103139
0.024409294 0.020042263 -0.13952945 0.04265521 -0.047069896 0.11407077 0.10606223 -0.12713595
0.06795701 0.08290388 -0.044311058 0.055165425 0.08770096 0.10239998 0.1112663 -0.037942722
-0.046663508 0.096137725 0.10375661 -0.14117114 -0.11441057 -0.109928936 0.09751083 0.03381645
-0.07402688 0.024678722 0.0045678867 0.030299352 -0.053127997 0.056504782 -0.10889296 0.030271634
0.08637149 0.0671644 -0.08188979 -0.04434722 0.12712963 -0.07142947 0.12281974 -0.112047344
-0.07984746 0.0020755904 0.06882633 -0.04633294 -0.03553308 0.07182493 0.090699986 0.01302979

layers.3.bias f4 [20]
00000000: aa19 3cbd 0c60 e7bd adb7 6f3d f55d 233c
00000010: 2d78 ae3d a44b cdbd b58c 033e 57b0 43bd
00000020: 364b a9bd 9f04 513d 8dc4 edbd e9cc e6bd
00000030: 9abd e1bc 5972 333c 79b7 52bd febc 22bc
00000040: d93a 09be 035c c93d a7d7 53bc 5d04 b63c
-0.045922913 -0.11297616 0.058524776 0.009971132 0.085190155 -0.10024193 0.12846644 -0.047775593
-0.082662985 0.051029798 -0.11609755 -0.11269552 -0.02755623 0.010952556 -0.051444504 -0.009932755
-0.13401355 0.09832003 -0.0129298335 0.022218877

layers.6.weight f4 [10, 20]
00000000: 925a 0b3e af64 f73d 855e 3b3e bef5 013e
00000010: 45cd 713d 4135 0abe 0886 213e 9547 37bd
00000020: 74f0 c63d dc62 5b3e 90b7 02be ba33 c3bc
00000030: 6b99 21be 7928 92bc 9420 69bd 2919 1fbe
00000040: 8d88 94bd 9f71 ab3d d1d4 27be 8593 cebc
00000050: d0f4 243e 9163 3f3e 0671 58be 310f 0a3e
00000060: 4b18 003d 534e 943d 4978 0f3e c732 363e
00000070: ae20 e5bd 4624 353e fdd2 2ebc 36d0 113d
00000080: 7d01 9c3d d0cb 4abe 9f0f ccbd 2f31 63be
00000090: 86b2 2a3d ee27 ed3d 357e b2bd 0547 763d
000000a0: 6ec0 25bd 9dec 8dbd 3896 20be 82aa a93d
000000b0: 3771 a1bc d8b2 c43d 3be3 563e c861 35be
000000c0: 8597 62bc 4ffa 85bd 8eee 0d3e 4f04 473e
000000d0: 8cac 3b3e 7f60 3abc b56a 873d 1827 a6bd
000000e0: 5e3a 5fbe dce2 63be fe34 a43d 4994 2abe
000000f0: 8347 04be 398d 853d bae8 4bbe dd10 113e
00000100: 3cee 1f3e 3037 69bc 915a 863d 5d72 183e
00000110: 3810 ae3d 8516 5cbe daa5 aa3d a2df 63be
00000120: 2e8c 0bbe a4a7 62be 5b52 f5bd 8315 6bba
00000130: 2c3d 833c a1db 6b3c 5f72 2d3c c922 42be
00000140: 2c83 2a3d ac83 87bd 7f8c 103e c442 433e
00000150: 56d7 5ebc fc61 993c 6dce 01be 738e c13d
00000160: 6a8a 3f3e de1d 6b3d cc6f 813d b2c6 0bbc
00000170: 8d7e 16be b710 13bd 3093 14be b8e8 363e
00000180: 3be5 00be 6cfb 2bbe 00d2 793d 84c0 a2bd
00000190: 27af 01bd aaae 603e 8d01 ea3d 9352 2f3e
000001a0: e566 52bd bad7 87bd fd71 18be 42fd 493d
000001b0: 235e 1d3e e81b 0cbe 620e a1bd cfbc 363e
000001c0: c273 b1bd 7b5e d63d c849 2b3e 732f 113e
000001d0: f9bc fdbd d427 d6ba 348d 223e af82 513e
000001e0: 01ed 073e cbb3 08be e971 0a3e e166 8cbd
000001f0: 24d8 583e d24e 0ebe 9d54 5a3e 37ac 443e
00000200: cc06 8dbc 31b5 d1bd c31a 47be 9eb4 debc
00000210: dfe0 f2bd c1ce 82bc 6157 47be 8736 883d
00000220: 23ba 1d3e 500b 363d 37c2 783d 5f8c 1e3e
00000230: b40c ae3d 97b7 0ebe 7df8 713d 333a fbbc
00000240: f2e6 5cbd 5d48 a3bd a4de d73d fe26 52be
00000250: e71b 55be 3fcd 963d 7b9a 47be 307f 9a3d
00000260: 50ae a7bd 329d 143c d60b c8bd e4e6 033e
00000270: 7f65 84bd 6a4f 92bd 32b0 db3d 8d13 8cbc
00000280: f4a7 2a3e eb39 283e 5773 fa3b e8fc b8bd
00000290: e8ad 943d e454 453e c18a e2bb 191e 893d
000002a0: 8772 08be cf74 eb3d 16e3 55bd 1ffa 51be
000002b0: 67c8 2fbd 0f98 c43d e3f2 6abd 8df0 bbbd
000002c0: c986 05bd 9511 0d3e 4bbb 11be 340f 4cbe
000002d0: 8701 f0bd 5bd1 4fbe 0844 4a3e 0296 193d
000002e0: 68c4 7b3d 62e0 953d 288a 483d 9d1a b0bc
000002f0: 11dc bb3d f93b 62be cc8c 62bb 5296 55be
00000300: cf82 19bd 183e 4cbe d20c a23c 3979 583e
00000310: a521 483e c230 063e 6581 0f3e 7c2a 4dbe
0.13608769 0.12079751 0.18297775 0.126914 0.05903365 -0.13496877 0.15773785 -0.044746
0.097138315 0.2142443 -0.12765336 -0.023828376 -0.1578118 -0.017841564 -0.056915835 -0.15536942
-0.072526075 0.08371281 -0.16389777 -0.025216827 0.16109014 0.18690325 -0.21136865 0.13482358
0.031273168 0.07241502 0.14010729 0.17792808 -0.11187874 0.17689618 -0.010670421 0.035598956
0.07617471 -0.19804311 -0.09963917 -0.22186731 0.04167416 0.115798816 -0.08715478 0.060126323
-0.04046672 -0.06929896 -0.15682304 0.08284475 -0.019707305 0.09604424 0.20985119 -0.17713082
-0.01383007 -0.06541883 0.13860533 0.19435237 0.1832754 -0.0113755455 0.066121496 -0.08112925
-0.21799609 -0.22254509 0.0801792 -0.16658129 -0.12917905 0.06521077 -0.19912997 0.14166589
0.15618223 -0.014234349 0.06560243 0.14887376 0.08499187 -0.21492966 0.08332415 -0.22253278
-0.13627693 -0.22134262 -0.11978599 -0.0008967744 0.01602038 0.014395625 0.01058635 -0.18958582
0.041629 -0.06616911 0.14116095 0.19068438 -0.013601145 0.01872348 -0.12676401 0.09450998
0.18705145 0.05740153 0.06320152 -0.008531259 -0.14696713 -0.035904612 -0.14509273 0.17862213
-0.12587444 -0.16795129 0.060991287 -0.07946876 -0.03166118 0.21941629 0.11426077 0.17121343
-0.05136766 -0.066329435 -0.14887233 0.04931379 0.15367942 -0.1368252 -0.078640714 0.17845462
-0.08664657 0.104672395 0.16727364 0.14178257 -0.12389559 -0.0016338774 0.15874177 0.20460008
0.13274004 -0.13349836 0.13520016 -0.0685556 0.21176201 -0.13897255 0.2132134 0.1920632
-0.017215155 -0.10239638 -0.19443803 -0.027185734 -0.11859297 -0.015967729 -0.19466926 0.06651025
0.15403037 0.044444382 0.060732093 0.15483235 0.08498517 -0.13937221 0.059074868 -0.0306674
-0.053931184 -0.079727866 0.10540512 -0.20522687 -0.20811425 0.07363366 -0.19492523 0.0754379
-0.08187544 0.009070681 -0.097678825 0.12881047 -0.06464671 -0.07144053 0.10726966 -0.017099166
0.16665632 0.16428344 0.007643144 -0.09032613 0.072597325 0.19270664 -0.0069135134 0.06695194
-0.13324939 0.11496889 -0.05221852 -0.2050557 -0.042915728 0.095993154 -0.05736054 -0.09176741
-0.032599244 0.13776238 -0.14231603 -0.19927675 -0.11719041 -0.20294707 0.19752514 0.037496574
0.061466604 0.07318188 0.04895988 -0.021497065 0.09172834 -0.2209319 -0.0034568785 -0.20858124
-0.037478264 -0.19945562 0.019781504 0.21139993 0.19544084 0.13104537 0.14014204 -0.20035738

layers.6.bias f4 [10]
00000000: f0e5 333e ed33 143e e189 1ebd bd3b 733d
00000010: c788 32bd 916d b03d 92cc 363d 7047 843d
00000020: da7c c93d e6e1 50be
0.17568183 0.14472933 -0.03870571 0.059383143 -0.043587472 0.08614648 0.044628687 0.06458938
0.09838267 -0.20398673

layers.9.weight f4 [2, 10]
00000000: b366 fa3d 53db 08be 95b8 67bd 8f17 8dbe
00000010: 3651 71be 8198 5b3e f3ee c93c e24a eb3c
00000020: e186 1a3d d037 19be 5ac9 01be 32d5 683e
00000030: b456 9b3e 4fa1 d73d 0b7d 10bd ef27 9a3e
00000040: 8a4d c5bd 6440 5c3e c0e0 623e df10 41be
0.122266196 -0.13364916 -0.056572516 -0.27557036 -0.23566136 0.21444894 0.024650073 0.02872223
0.037726287 -0.14962697 -0.12674466 0.22737578 0.30339587 0.10528814 -0.0352755 0.30108592
-0.0963393 0.21508938 0.22156048 -0.18854092

layers.9.bias f4 [2]
00000000: d196 03be 578a 82be
-0.128505 -0.2549617
