DHH/model/fc/model-fold-3.pth (torch, 70287 bytes, 8 tensors)

layers.0.weight f4 [50, 312]
0	0x3d27d8d9	0.040978286
1	0xbd52085b	-0.0512775
2	0xbd162ade	-0.036661975
3	0xbd2d5a48	-0.042322427
4	0x3c89fa16	0.016842883
5	0x3cdd6b12	0.027028594
6	0x3cb490a6	0.02204163
7	0xbc8ada94	-0.01694993
8	0x3c4dfaec	0.0125720315
9	0xbd34060f	-0.04395109
10	0xbb053ec0	-0.0020331591
11	0xbd2dd610	-0.042440474
12	0x3d322025	0.043487687
13	0x3c3420f4	0.010994185
14	0xbcb0fda2	-0.021605317
15	0x3c753554	0.014966328
16	0xbd399cc9	-0.045315538
17	0x3aea4b00	0.0017875135
18	0xbd4ab624	-0.04949011
19	0x3bfb4b88	0.007668916
20	0x3d0c3693	0.034231734
21	0xbcadbb2e	-0.021207418
22	0xba597bc0	-0.0008296333
23	0x3c72818c	0.014801394
24	0xbc55988c	-0.013036858
25	0xbd2b3269	-0.04179612
26	0x3d1c9fd9	0.03823838
27	0xbd03ebb6	-0.032207213
28	0x3c8cc3e6	0.017183255
29	0x3d1d0783	0.03833724
30	0x3c49afe4	0.012310002
31	0x3d29255b	0.04129539
32	0x3d20c58f	0.039250907
33	0x3d423ecd	0.047423173
34	0x3c9443d6	0.018098753
35	0x3d3d8c3d	0.04627632
36	0xbd103ccc	-0.03521423
37	0xbd242b6e	-0.04008048
38	0xbc8160d8	-0.015793249
39	0xbbbed258	-0.005823415
40	0xbd1f6d1e	-0.03892242
41	0x3ce115c6	0.027476203
42	0x3d0cd3c5	0.034381647
43	0xbb166b40	-0.002295211
44	0x3be5dd98	0.0070149414
45	0xbc1e22f4	-0.009651888
46	0x3c70f9bc	0.014707979
47	0xbc4c8014	-0.012481708
48	0xbc9a365a	-0.018824745
49	0x3d37d1c9	0.0448778
50	0x3cd77512	0.02630094
51	0x3cb19da6	0.021681618
52	0xbc02bc54	-0.007979471
53	0xbd0afeee	-0.033934526
54	0x3d381a5f	0.044947024
55	0x3d5d6209	0.05404857
56	0x3d160807	0.03662875
57	0x3d0c18ed	0.03420346
58	0xbd43a068	-0.047760397
59	0xb9c3e300	-0.00037362427
60	0x3ce5c64a	0.028048653
61	0xbcbd52e4	-0.023110814
62	0x3bdb3438	0.0066895746
63	0x3d2057d5	0.039146263
64	0x3d400c6b	0.046886843
65	0x3d29a8e9	0.04142085
66	0xbca66ff0	-0.020317048
67	0xbbe209e0	-0.00689815
68	0x3d559ed1	0.052153412
69	0xbce92b07	-0.0284629
70	0x3c39fa3c	0.011351164
71	0x3c34623c	0.011009749
72	0x3d546fad	0.051864315
73	0xbc100118	-0.008789323
74	0x3d2895b5	0.041158397
75	0x3c4882b4	0.012238193
76	0x3ba66088	0.0050774254
77	0x3ca9cb0e	0.020726707
78	0xbd427fc0	-0.047485113
79	0x3d4c4c1d	0.049877275
80	0xbd5c00ee	-0.053711824
81	0xbb463b80	-0.0030247867
82	0xbc8fba6e	-0.017544951
83	0xbcacdd94	-0.02110175
84	0x3cd9d89a	0.026592541
85	0xbd23713b	-0.039902907
86	0xbd23ba8e	-0.039972834
87	0x3c5d64ec	0.013512831
88	0x3d2f37c3	0.042777788
89	0x3cd1eb1a	0.0256248
90	0x3d28fccf	0.041256722
91	0x3c20aa9c	0.009806301
92	0xbc97dfb4	-0.018539287
93	0xbc3c6c80	-0.011500478
94	0xbd1ca31c	-0.03824149
95	0x3cd8e5d2	0.026476774
96	0x3a95f440	0.001144059
97	0x3cf26866	0.029590797
98	0xbd1a8264	-0.037722006
99	0x3d0633b9	0.03276417
100	0x3bacf768	0.0052785166
101	0xbc82729e	-0.015923794
102	0xbd43d0a8	-0.047806412
103	0xbd270a8a	-0.040781535
104	0x3cbacdd6	0.022803228
105	0x3d454235	0.048158843
106	0xbd57e1fb	-0.052705746
107	0x3be54288	0.0069964565
108	0x3cbf3d92	0.023344789
109	0xbb718520	-0.003685303
110	0x3cb89f92	0.022537027
111	0x3d5f7b73	0.05456109
112	0x3aa6cb80	0.0012725443
113	0xbbbfc550	-0.005852379
114	0xbd377249	-0.044786725
115	0xbd01a19a	-0.031648256
116	0xbd4996a7	-0.04921594
117	0x3d30f63f	0.04320359
118	0x3c89765e	0.016780075
119	0xbcb4120e	-0.021981265
120	0xbb3ad310	-0.002850715
121	0x3d40ea8f	0.047098693
122	0x3d4508ed	0.048104215
123	0xbba29690	-0.004961796
124	0xba05bc80	-0.0005101636
125	0x3d5cd37f	0.053912636
126	0xbd0b546b	-0.034016054
127	0xbd1ae5ba	-0.03781674
128	0x3ce1823e	0.027527925
129	0xbc88697e	-0.016651865
130	0x3d325a37	0.043543067
131	0xbbceac78	-0.006307181
132	0xbd58eb13	-0.05295856
133	0x3cc4962e	0.023997393
134	0x3d53dd6b	0.051724833
135	0xbd231cd2	-0.039822407
136	0x3cd92f16	0.02651171
137	0xbd0f153c	-0.03493236
138	0xbc1fc9cc	-0.009752702
139	0x3d57a3af	0.052646335
140	0x3ce2a326	0.027665686
141	0xbcb48510	-0.022036105
142	0xbd07b194	-0.033128336
143	0x3d23bbe1	0.039974097
144	0xbcfa3eca	-0.030547518
145	0x3d4fc013	0.050720286
146	0x3be63ac8	0.0070260502
147	0xbd624559	-0.055241916
148	0x3d2ce5cf	0.04221135
149	0xbd38647b	-0.0450177
150	0x3cf4bf36	0.029876333
151	0x3d161b5b	0.036647182
152	0x3d1e4d5b	0.03864799
153	0x3d01230d	0.031527568
154	0xbd26e3b8	-0.040744513
155	0x3cec7952	0.028866444
156	0xbd474cb3	-0.04865713
157	0x3d5d5035	0.05403157
158	0xbce069c5	-0.027394185
159	0x3d5b6db1	0.053571407
160	0x3c83192e	0.016003218
161	0xbb84f368	-0.0040573366
162	0x3c58a14c	0.01322205
163	0x3c58090c	0.013185751
164	0x3c808fce	0.015693571
165	0xbcf76b9f	-0.030202685
166	0xbd3ae670	-0.04562992
167	0x3cc574ae	0.024103489
168	0xbce0873d	-0.027408237
169	0xbb85f858	-0.004088443
170	0x3b0711f0	0.0020610057
171	0x3d2133e9	0.039356146
172	0x3d2ecf4b	0.04267816
173	0xbcfde205	-0.030991564
174	0xbd0cf769	-0.034415636
175	0xbc98a6d0	-0.01863423
176	0xbc8f15b0	-0.017466396
177	0x3c9f0566	0.019411754
178	0x3d4ffab7	0.05077621
179	0xbc138218	-0.009003185
180	0xbcc29dbc	-0.023756854
181	0xbbd23ab8	-0.006415691
182	0xbcbcc724	-0.023044176
183	0xbd38512f	-0.044999298
184	0xbccfbf18	-0.025359675
185	0xbad39e40	-0.0016145185
186	0xbd4229aa	-0.047403015
187	0x3a81b760	0.0009896569
188	0x3d649fd7	0.055816498
189	0xbd5547a3	-0.05207027
190	0xbd5b4e20	-0.053541303
191	0xbc9ec0bc	-0.019379012
192	0x3cdefcce	0.027220156
193	0xbc8e05a0	-0.017336667
194	0xbd1f34b2	-0.038868614
195	0xbd20ce58	-0.039259285
196	0xbcd2ed42	-0.025747899
197	0x3c3913c4	0.011296216
198	0x3ca4b42a	0.02010544
199	0xbd244ab8	-0.04011032
200	0x3d5c931f	0.053851243
201	0x3bf59638	0.007494714
202	0x3ccfdaea	0.025372941
203	0xbc363054	-0.011119921
204	0xbd2ded64	-0.04246272
205	0xbcd39ec9	-0.02583255
206	0xbc6c5fc0	-0.014427125
207	0xbc8854ba	-0.016641963
208	0xbd216e3e	-0.039411776
209	0xbd0d1286	-0.034441493
210	0xbd43d1dc	-0.04780756
211	0xbd493974	-0.049127057
212	0xbd449950	-0.047997773
213	0x3b133470	0.0022461675
214	0x3d16e757	0.036841717
215	0xbbef8e58	-0.00731067
216	0xbd17e155	-0.037080128
217	0x3d04d753	0.03243191
218	0xbd101184	-0.035172954
219	0x38f52e00	0.000116910785
220	0x3d017819	0.031608675
221	0x3d2d9543	0.042378675
222	0x3c891a9e	0.016736325
223	0x3b3fefd0	0.0029287226
224	0xbcc7dd76	-0.024397593
225	0xbd0eb278	-0.03483817
226	0x3d43bb69	0.04778615
227	0xbd276be6	-0.040874384
228	0xbd61a643	-0.0550902
229	0x3d304bab	0.043040913
230	0x3d1f131d	0.038836587
231	0x3c803606	0.01565076
232	0xbd049bb2	-0.032375045
233	0x3d382f77	0.04496714
234	0xbca08264	-0.019593425
235	0xbd097440	-0.03355813
236	0x3d26db6b	0.040736597
237	0x3d4ca07f	0.04995775
238	0x3ce8c74e	0.028415348
239	0x3bf82ba8	0.0075735636
240	0x3d33cac9	0.043894563
241	0xbca46188	-0.020066038
242	0x3c34810c	0.011017095
243	0x3d4f66cf	0.050635155
244	0xbc98892a	-0.018620092
245	0xbd590b34	-0.0529892
246	0xbcf517a9	-0.029918509
247	0x3d4cc167	0.04998913
248	0xbd40c7fe	-0.047065727
249	0xbd608f51	-0.054824177
250	0xbc54298c	-0.012949359
251	0x3d1f3fdb	0.038879257
252	0x3d34a90d	0.044106532
253	0x3c73bf6c	0.0148771815
254	0x3b6ba7d0	0.0035958178
255	0x3d54f351	0.051989857

layers.0.bias f4 [50]
0	0x3d06696b	0.03281538
1	0xbc243103	-0.010021451
2	0xbd30b9c0	-0.043145895
3	0x3d5e4666	0.054266356
4	0x3c94f968	0.018185332
5	0x3cb93549	0.022608416
6	0x3d66dff6	0.05636593
7	0xbcd133a7	-0.025537325
8	0x3c8596d1	0.016307266
9	0x3d61681b	0.055030923
10	0x3d4b1717	0.049582567
11	0x3d5be630	0.05368632
12	0x3d40587e	0.046959393
13	0xbd31e051	-0.043426815
14	0xbc9710c6	-0.018440615
15	0x3b373bbc	0.0027959188
16	0x3bb6e29e	0.005581214
17	0xbd43457c	-0.047673687
18	0xbc9d32ae	-0.019189205
19	0x3c903bef	0.017606704
20	0x3d040c37	0.03223821
21	0x3cce63ae	0.025194015
22	0x3d44b652	0.048025437
23	0xbd303172	-0.043015905
24	0xbc57f101	-0.013180018
25	0xbd31e711	-0.043433253
26	0xbd3ec079	-0.046570275
27	0xbb3ba240	-0.0028630644
28	0xbc8e1fb3	-0.0173491
29	0xbc2d4d6c	-0.010577541
30	0xbc963d3e	-0.01833975
31	0x3d64af51	0.055831257
32	0xbcd5c3e2	-0.02609438
33	0x3d0a73ef	0.03380197
34	0xbc8588eb	-0.01630064
35	0x3d0104bf	0.031498667
36	0xbd3e4e0d	-0.046461154
37	0xbd3cbfcf	-0.04608136
38	0x3d470937	0.048592772
39	0xbd5fa1bd	-0.054597605
40	0xbce743a9	-0.028230505
41	0xbce49d4e	-0.02790704
42	0x3d04a794	0.032386377
43	0xbc9bfc25	-0.01904113
44	0xbd580fd5	-0.052749474
45	0x3ce0eff7	0.027458174
46	0x3cde6d01	0.027151586
47	0x3b0f300c	0.0021848707
48	0xbd521131	-0.051285926
49	0xbd095ece	-0.03353768

layers.3.weight f4 [20, 50]
0	0x3defbece	0.11706315
1	0xbce26798	-0.027637288
2	0xbcf52d60	-0.029928863
3	0x3dc0e330	0.094183326
4	0x3c88b0f8	0.016685948
5	0xbd8e3d0a	-0.06945236
6	0xbcd320a0	-0.025772393
7	0x3c75b00c	0.014995586
8	0x3dc545fb	0.09632488
9	0xbd97a59d	-0.07404635
10	0xbdc26738	-0.09492344
11	0x3dc5a6a6	0.09650926
12	0x3dfc4c86	0.12319283
13	0x3cc6617c	0.024216406
14	0xbd981adb	-0.07426997
15	0xbd5a785d	-0.053337444
16	0x3e0462e1	0.12928344
17	0xbd934ded	-0.071925975
18	0xbdf75fba	-0.12078805
19	0x3dbbc602	0.09168626
20	0xbb96e489	-0.00460488
21	0x3be5ac2d	0.0070090503
22	0xbd960af2	-0.073263064
23	0xbe0b5eda	-0.13610402
24	0xbd2faa64	-0.042887107
25	0x3d9e8b4a	0.07741411
26	0x3d21390c	0.039361045
27	0x3dbf9104	0.093538314
28	0xbde559e6	-0.111987874
29	0x3d174238	0.036928385
30	0xbdbb0773	-0.0913228
31	0xbdf0e1dc	-0.11761829
32	0xbc7ae790	-0.015313998
33	0x3d7b0320	0.061282277
34	0xbd4b27ed	-0.049598623
35	0xbd54d024	-0.05195631
36	0x3d2818a8	0.04103914
37	0xbc51f220	-0.012814075
38	0xbd754466	-0.059879683
39	0xbbc8a520	-0.0061232
40	0xbd5729d3	-0.05253012
41	0x3dec3b72	0.11534776
42	0xbdb06e34	-0.086147696
43	0xbd860f9e	-0.065459475
44	0xbe023db8	-0.12718856
45	0xbe0db697	-0.13839184
46	0x3dcab278	0.098973215
47	0x3dc4ad68	0.09603387
48	0x3ce45570	0.027872771
49	0xbe03c04e	-0.12866327
50	0x3dc53864	0.09629896
51	0x3dddd096	0.108308
52	0xbcb6a0ac	-0.022293411
53	0xbd7beb7f	-0.061503883
54	0x3df4b366	0.1194828
55	0xbda2152b	-0.07914194
56	0x3d1d6a80	0.038431644
57	0x3dc2a8d5	0.095048584
58	0xbde85a7c	-0.113453835
59	0xbcd2c983	-0.025730854
60	0x3ddade48	0.10686928
61	0xbd640652	-0.05567009
62	0xbc01a940	-0.0079138875
63	0xbb666b07	-0.0035159008
64	0x3db8f9f0	0.09032047
65	0xbdad4fd4	-0.08462492
66	0x3d1a4f60	0.037673354
67	0xbda15f34	-0.07879487
68	0x3e040501	0.12892534
69	0x3e0277f3	0.1274107
70	0x3c08efb1	0.008357928
71	0x3e0d6fde	0.13812205
72	0xbcbe9e48	-0.023268834
73	0xbda241b7	-0.0792269
74	0xbd87bb96	-0.06627576
75	0xbb31875f	-0.0027088744
76	0xbd47f4aa	-0.048817314
77	0xbc88ca28	-0.016697958
78	0xbdeff41c	-0.11716482
79	0xbe04c00e	-0.12963888
80	0x3bdd47a0	0.006752923
81	0x3dc89c86	0.097954795
82	0xbdf53a35	-0.11973993
83	0x3d7f0ff4	0.062271073
84	0x3df112fa	0.117711976
85	0x3d9b5ec5	0.07586435
86	0xbd32ce9b	-0.043654066
87	0xbcfd41c8	-0.030915156
88	0xbda5c414	-0.080940396
89	0xbe1065c0	-0.14101315
90	0xbde3a514	-0.111154705
91	0xbe01e971	-0.12686707
92	0xbd67c27d	-0.056581963
93	0xbdef3c86	-0.11681466
94	0xbe0ef360	-0.13960028
95	0x3d80a137	0.06280749
96	0xba4a75f4	-0.0007723265
97	0x3d75da30	0.060022533
98	0x3dcaf914	0.09910789
99	0x3d78e364	0.06076373
100	0x3d0a7678	0.033804387
101	0xbd462ff0	-0.04838556
102	0x3dff5876	0.124680445
103	0xbe0e7262	-0.13910821
104	0xbc8067dd	-0.015674526
105	0x3c840ff6	0.016120892
106	0x3c4da330	0.012551114
107	0x3deb0825	0.11476163
108	0xbcb7707b	-0.022392502
109	0xbd774a8f	-0.06037384
110	0xbca08af8	-0.019597515
111	0x3dcf1bee	0.10112749
112	0xbe0c7994	-0.13718253
113	0x3aa5c9f8	0.0012648692
114	0x3d9eb384	0.07749084
115	0x3dc5d0a7	0.09658938
116	0x3df4594e	0.11931096
117	0xbd811ac4	-0.06303933
118	0x3df12f16	0.11776559
119	0xbdf2a19e	-0.11847232
120	0x3d8c1b3b	0.06841131
121	0x3e02174f	0.12704204
122	0xbc5a05fd	-0.013307092
123	0xbce4f2c7	-0.027947797
124	0x3d3ff370	0.04686302
125	0x3d83cf59	0.06436033
126	0xbde6a55d	-0.11262009
127	0x3c460fe0	0.012088746
128	0xbd3f9ca2	-0.046780236
129	0xbc950c4c	-0.01819434
130	0xbb3f7040	-0.0029211193
131	0xbd50fe24	-0.051023617
132	0x3d90a9e4	0.07063654
133	0xbd96d269	-0.07364351
134	0xbd9594b5	-0.07303754
135	0xbe0689ad	-0.13138457
136	0xbcf1879a	-0.029483605
137	0xbe013b3b	-0.12620251
138	0xbda1ce4c	-0.07900676
139	0x3d8e8308	0.06958586
140	0x3e07df4c	0.13268775
141	0xbd5f2256	-0.054476105
142	0x3d0e4208	0.03473094
143	0x3dd7f322	0.10544421
144	0xbd622850	-0.055214226
145	0xbcc086b9	-0.02350174
146	0xbcaeb3b7	-0.02132593
147	0x3cc31cb0	0.02381739
148	0xbbae3f00	-0.005317569
149	0x3e0abdf9	0.13549031
150	0xbdcecd08	-0.100977
151	0x3d62ec68	0.055401236
152	0xbd72f292	-0.059313364
153	0xbdc52280	-0.09625721
154	0xbcfcbb01	-0.03085089
155	0x3d559859	0.052147243
156	0xbdfa5a16	-0.12224214
157	0x3966d8e3	0.00022015306
158	0xbde0ec46	-0.109825656
159	0x3da01334	0.07816163
160	0xbcdaee16	-0.026724856
161	0x3cf830eb	0.030296763
162	0xbcbd785b	-0.023128679
163	0xbd897ad4	-0.06712881
164	0x3c8a8137	0.016907318
165	0xbdc122e2	-0.094304815
166	0x3ddbcafe	0.10732077
167	0x3dd8854a	0.10572298
168	0xbddf6aae	-0.109090194
169	0x3e00ca1d	0.125771
170	0x3df6b08b	0.12045392
171	0xbdbf2e0b	-0.09334954
172	0x3d591691	0.053000037
173	0x3d5a0311	0.05322558
174	0x3d85f456	0.06540744
175	0x3d0f193f	0.034936186
176	0xbddd9e68	-0.10821229
177	0xbd0a9646	-0.03383472
178	0xbdd3e24e	-0.103458986
179	0xbdf5300b	-0.11972054
180	0xbdd2ef78	-0.10299581
181	0xbd2ef3b8	-0.042712897
182	0x3c93bc98	0.018034264
183	0xbda2c896	-0.07948415
184	0x3e00ccbe	0.12578103
185	0x3debf15d	0.11520646
186	0x3df42048	0.1192022
187	0xbdb184ad	-0.08667884
188	0x3d9dbb3a	0.07701726
189	0x3de980c6	0.11401515
190	0x3c144d34	0.00905161
191	0x3e0ad045	0.13556011
192	0x3ddb11b5	0.10696737
193	0xbc551ebb	-0.013007815
194	0x3dc3dfb4	0.09564152
195	0x3e08630f	0.13319038
196	0xbdc9b05a	-0.098480895
197	0x3d83b000	0.06430054
198	0xbdbe1150	-0.09280646
199	0x3e02de5b	0.12780134
200	0x3d1d5c6c	0.03841822
201	0xbca95d58	-0.020674393
202	0xbdfa9d40	-0.12237024
203	0xbdc56eb7	-0.09640258
204	0x3d8864b8	0.066598356
205	0xbc055bfa	-0.008139605
206	0xbdf7b935	-0.12095872
207	0x3ac2d8e2	0.0014865662
208	0xbd659cdb	-0.056057792
209	0x3de063c5	0.109565295
210	0xbe051425	-0.12995966
211	0x3dc73261	0.09726406
212	0xbd2eb013	-0.042648386
213	0x3dce73bd	0.10080669
214	0x3d807650	0.06272566
215	0x3ddba728	0.10725242
216	0x3d3895f4	0.04506488
217	0xbd53b4aa	-0.051685967
218	0xbded0e8f	-0.115750425
219	0xbce55d1e	-0.027998503
220	0x3c29d106	0.0103647765
221	0xbbbfc6a9	-0.0058525396
222	0x3d284d14	0.041089132
223	0xbdd9b2e8	-0.10629827
224	0x3dff5062	0.12466504
225	0xbd0747a1	-0.033027295
226	0x3e016487	0.12636004
227	0xbd73c9fe	-0.059518807
228	0x3cdfe4c8	0.027330771
229	0x3c3fea30	0.0117135495
230	0xbde48d0a	-0.111597136
231	0xbde4f9b2	-0.11180438
232	0xbd7ef512	-0.062245436
233	0xbd8e1df9	-0.069393106
234	0xbd228281	-0.03967524
235	0xbd81712a	-0.063204125
236	0xb9a81d58	-0.0003206532
237	0xbc83c168	-0.016083434
238	0xbc9d8506	-0.01922847
239	0xbd8ee725	-0.06977681
240	0xbd05f8a4	-0.032707825
241	0xbe07681a	-0.13223305
242	0x3dd1d03a	0.10244794
243	0x3c8255b3	0.015910005
244	0x3de3ea22	0.11128642
245	0x3db87d53	0.09008279
246	0x3d8eaf51	0.06967033
247	0x3debd158	0.115145385
248	0xbcbf0f24	-0.02332265
249	0xbce07d5c	-0.027403526
250	0xbe0082f3	-0.12549953
251	0xbd12f2a6	-0.03587594
252	0xbdb30e2e	-0.08742939
253	0xbe0b71f3	-0.13617687
254	0xbe0103f4	-0.12599164
255	0xbdfabe7a	-0.12243362

layers.3.bias f4 [20]
0	0xbc3f9e48	-0.011695452
1	0x3dda8ff6	0.106719896
2	0xbd88f09c	-0.066865176
3	0x3de82f16	0.11337106
4	0x3d3c69d1	0.045999352
5	0xbd9fe775	-0.07807819
6	0xbda801ef	-0.08203494
7	0x3d9bc25f	0.07605433
8	0x3db719e6	0.089404866
9	0x3d5ea23b	0.054353934
10	0x3e0ba082	0.13635448
11	0xbd83fc2a	-0.06444581
12	0x3d33e799	0.04392204
13	0xbdd70248	-0.10498482
14	0x3d04972e	0.03237074
15	0xbc8e7a8c	-0.01739242
16	0xbd37387d	-0.044731606
17	0x3dbe3350	0.09287131
18	0x3ddf3745	0.10899214
19	0xbc805ea5	-0.01567013

layers.6.weight f4 [10, 20]
0	0x3bbf7806	0.0058431653
1	0xbcf94b61	-0.030431451
2	0xbd81ab28	-0.063314736
3	0xbd5b5926	-0.053551815
4	0xbd77bb7a	-0.060481526
5	0xbe26bb9f	-0.1628251
6	0xbe3a0eb5	-0.18169673
7	0x3d242a4d	0.040079404
8	0xbdf38186	-0.11889939
9	0xbced91a6	-0.029000115
10	0xbe015711	-0.1263087
11	0x3e3ec607	0.18630229
12	0x3e4345cd	0.19069596
13	0x3e314bd8	0.17314088
14	0xbd0299a0	-0.03188479
15	0x3c3dcd35	0.01158457
16	0xbdf67b99	-0.12035293
17	0x3df7ed10	0.12105763
18	0x3e1cd1af	0.15314363
19	0x3daa51e1	0.083163984
20	0x3e05016c	0.12988824
21	0x3e644d2b	0.22295062
22	0x3dd5a75a	0.104323104
23	0xbd3b5c2a	-0.04574219
24	0xbe5c4cda	-0.21513692
25	0xbc073086	-0.008251315
26	0x3df126d0	0.11774981
27	0x3dd5a8af	0.104325645
28	0x3d620be2	0.055187114
29	0x3e050883	0.12991528
30	0xbe55ccd7	-0.20878921
31	0x3cc6e64d	0.024279738
32	0xbe18eb5e	-0.14933535
33	0xbe0d4710	-0.1379664
34	0xbe5e9255	-0.21735509
35	0x3e169bc3	0.14707856
36	0x3e2dc2f7	0.16968904
37	0x3e3a1115	0.18170579
38	0x3d495b75	0.049159486
39	0xbe1837d2	-0.14865044
40	0xbe5d579f	-0.21615456
41	0xbd1a6a27	-0.03769889
42	0x3e41f68c	0.18941706
43	0xbe4d2b25	-0.2003599
44	0x3e22b044	0.15887552
45	0xbe29ebd3	-0.16593866
46	0x3e4cd33d	0.20002456
47	0xbe07d50b	-0.13264863
48	0x3d5e6edd	0.054304946
49	0xbe5b5029	-0.21417297
50	0xbcec408a	-0.028839368
51	0x3e348fd3	0.1763299
52	0xbe53ac24	-0.20671135
53	0xbbffe7e3	-0.0078096255
54	0xbd8a4a29	-0.06752426
55	0xbdab5eab	-0.08367666
56	0x3e466cd4	0.19377452
57	0x3da9a182	0.08282758
58	0xbc356925	-0.011072432
59	0x3dae517c	0.08511636
60	0x3dce6a07	0.10078817
61	0xbd1fa86f	-0.03897899
62	0x3860cb29	5.359497e-05
63	0x3d7d01a1	0.06176913
64	0xbbff9e4b	-0.0078008524
65	0x3e4204bc	0.18947119
66	0xbd5856d3	-0.052817177
67	0xbd09430c	-0.033511207
68	0xbdc06e29	-0.093960114
69	0xbd8d8972	-0.06910981
70	0x3e4f138c	0.202223
71	0xbe261a7c	-0.1622104
72	0xbd9f6230	-0.077824
73	0x3b9b0738	0.004731085
74	0x3c8b0973	0.01697228
75	0xbd06bcde	-0.03289496
76	0xbd0a5759	-0.033774707
77	0x3e08fe2e	0.13378212
78	0x3d3a5378	0.04548976
79	0xbc733fd8	-0.0148467645
80	0xbc635bed	-0.013876897
81	0xbe18f605	-0.14937599
82	0xbe14d1a1	-0.14533092
83	0xbe42dfd8	-0.19030702
84	0xbe597016	-0.21234164
85	0xbd0c5453	-0.034260105
86	0x3dbbf60d	0.0917779
87	0xbdd9bc92	-0.1063167
88	0xbd6cc528	-0.05780521
89	0xbd520e52	-0.05128319
90	0x3df1f0ad	0.118134834
91	0x3e47cb6d	0.19511195
92	0xbd252e0d	-0.04032712
93	0x3dc4343b	0.09580275
94	0x3d44b1a9	0.048020992
95	0xbdcc1ce8	-0.09966451
96	0x3e2042aa	0.1565043
97	0x3d6b15cb	0.05739383
98	0x3e260866	0.16214141
99	0x3d633542	0.055470712
100	0xbe2a90e4	-0.16656834
101	0xbe2575b9	-0.16158189
102	0xbe4cb549	-0.1999103
103	0x3e50d77e	0.20394704
104	0xbcce4f4b	-0.025184294
105	0x3de3e9d5	0.11128584
106	0x3e3add37	0.1824845
107	0xbd6a51a6	-0.057206772
108	0xbe0865ec	-0.1332013
109	0x3dad7c23	0.08470943
110	0xbe0b9da6	-0.13634357
111	0x3e12eac2	0.14347365
112	0x3e43a06b	0.19104163
113	0xbd031862	-0.032005675
114	0x3d57cde3	0.052686583
115	0x3e10b2b0	0.14130664
116	0xbe4e15c4	-0.2012549
117	0x3cdaf862	0.026729766
118	0x3db51b70	0.08843124
119	0x3d55f959	0.05223975
120	0xbda339ec	-0.07970032
121	0xbd6b7c37	-0.057491507
122	0x3e53a6f4	0.20669156
123	0x3d953561	0.07285572
124	0x3de02cd3	0.109460495
125	0x3d22c44b	0.03973798
126	0xbc967786	-0.01836754
127	0x3d9d87d4	0.07691923
128	0x3de6c24a	0.112675264
129	0xbd87398f	-0.06602775
130	0xbd779540	-0.06044507
131	0xbe0c813b	-0.13721173
132	0xbd2c0d67	-0.04200497
133	0xbe085f25	-0.13317545
134	0xbe3558c3	-0.17709641
135	0x3d871b8c	0.06597051
136	0x3df5e90e	0.12007342
137	0x3e0c90cc	0.1372711
138	0xbbbc33ec	-0.0057434943
139	0x3e0b9492	0.13630894
140	0x3e40fb52	0.18845871
141	0x3e07a0a3	0.13244872
142	0xbdd74de6	-0.10512905
143	0x3e2efdb0	0.17088962
144	0xbcf11fa4	-0.029434033
145	0x3e56dfcb	0.20983808
146	0x3e329718	0.1744045
147	0xbd0c5006	-0.034256004
148	0x3e553d8f	0.20824264
149	0xbe558dee	-0.20854923
150	0xbe660d9d	-0.2246613
151	0xbdecf605	-0.11570362
152	0xbe42bcb0	-0.19017291
153	0xbb9f630c	-0.004864102
154	0xbd9528a4	-0.07283142
155	0xbe4e7bcf	-0.20164417
156	0xbe2c976f	-0.16854642
157	0xbd959419	-0.07303638
158	0xbd52f1c6	-0.051500104
159	0x3e310cb9	0.1729001
160	0xbe24694a	-0.1605579
161	0x3dd168f5	0.10225097
162	0x3da94780	0.08265591
163	0x3e62ebae	0.22160217
164	0x3ddc1890	0.107468724
165	0x3e36bbed	0.17845125
166	0xbda94f25	-0.08267049
167	0x3e3c5ab2	0.18393973
168	0x3daa02c0	0.08301306
169	0x3dd59484	0.10428718
170	0x3cdf3418	0.02724652
171	0xbe020bdf	-0.12699841
172	0x3e13b41c	0.14424175
173	0xbe2edc83	-0.17076306
174	0xbe17e19b	-0.14832155
175	0xbe5e5a79	-0.217142
176	0xbddc1e48	-0.10747963
177	0x3e36e909	0.17862333
178	0x3e5fc039	0.21850671
179	0xbd832b32	-0.06404723
180	0xbe524ea2	-0.20537809
181	0x3dcee87e	0.10102938
182	0x3df80aed	0.12111459
183	0x3e5803a8	0.21095145
184	0xbe246978	-0.16055858
185	0xbe5d4e80	-0.21611977
186	0xbac45502	-0.0014978948
187	0x3c19cb8a	0.009386906
188	0xbe61db6e	-0.22056362
189	0xbe1c4467	-0.15260468
190	0x3e031fa5	0.1280504
191	0x3d3f2653	0.04666741
192	0xbda1bb7a	-0.078970864
193	0x3e094557	0.13405357
194	0x3e128770	0.14309478
195	0x3e523399	0.20527495
196	0x3db6ccce	0.08925782
197	0xbc74acd8	-0.014933787
198	0x3e073052	0.13202026
199	0x3e2b0907	0.16702662

layers.6.bias f4 [10]
0	0x3ba5bc73	0.0050578653
1	0xbdbc3e31	-0.091915496
2	0xbe1ffdfb	-0.1562423
3	0x3ccf4ad5	0.025304237
4	0xbbbc37f3	-0.0057439744
5	0xbe0897a0	-0.1333909
6	0xbe533d78	-0.20628917
7	0x3e1409f7	0.14456926
8	0xbe64d189	-0.22345556
9	0xbe61e4b8	-0.22059906

layers.9.weight f4 [2, 10]
0	0x3e9ec5bf	0.31010243
1	0x3bde64fc	0.0067869406
2	0x3e0984b9	0.13429536
3	0xbe7c8dd9	-0.24663486
4	0xbe5a21dd	-0.2130198
5	0xbc988ac5	-0.018620858
6	0xbe8d13b7	-0.27554104
7	0x3e9c9726	0.30584067
8	0x3dcf15b4	0.101115614
9	0x3e0de465	0.13856657
10	0x3e9b8d2f	0.30381152
11	0x3cb091b8	0.02155386
12	0x3d7e766b	0.06212465
13	0x3e15b21b	0.14618723
14	0x3e7118bd	0.23544593
15	0x3ddafb92	0.106925145
16	0x3d3c15f0	0.04591936
17	0xbe068dfb	-0.13140099
18	0x3e90933a	0.28237325
19	0x3e944efc	0.2896651

layers.9.bias f4 [2]
0	0xbc8e535c	-0.017373733
1	0xbe700058	-0.23437631
