DHH/model/fc/model-fold-3.pth (torch, 68239 bytes, 8 tensors)

layers.0.weight f4 [50, 302]
00000000: 2094 6e3b 11b4 bb3c c052 413a 570c 153d
00000010: 5429 febc 757d 88bc 200f 91ba 02ee c03c
00000020: f28a a43c 106d 7e3b bc07 85bc 8960 66bd
00000030: aad5 803c e2e3 ce3c da36 c6bc 1bfd 633d
00000040: d60a aebc b25e d2bc 08ba 0fbc 4e1c bf3c
00000050: f98b 553d f197 15bd e69f 38bd e83a 38bc
00000060: 1e53 5cbd b351 673d b87f 56bc a956 4c3d
00000070: 13ac 043d c504 253d 42c6 c9bc 6712 573d
00000080: 8b54 5bbd fe7a 9b3c 8841 b7bc 6177 003d
00000090: e6af dd3c b068 10bd 2772 2dbd a475 c63a
000000a0: c22e 16bd 01a3 603d 26b8 e33c 8de9 0b3d
000000b0: 64d1 603c 3bc6 97ba bcee 5ebc a481 283c
000000c0: ab53 253d be5b b2bc a0a8 613b 9071 2abd
000000d0: cd55 5bbd 68e1 ecbb 267e a53c aa45 5cbd
000000e0: f24b b53c 00e3 3ab9 a062 7e3b 4a1d 963c
000000f0: 5416 d3bc c0d9 37bb ac9c 4abd 0c81 35bc
00000100: 60ed 25bb 1ec0 d03c c99f a33b 0048 95bc
00000110: a9cc 513d 8f6f 4a3d 604f 14bc 3016 77bc
00000120: e381 103d bb46 643d 8b88 4d3d 92d6 9dbc
00000130: 60c5 b9ba 8a4b a3bc 3a9c e33c 0a05 02bd
00000140: 3cd6 cbbc 674d 29bd b3a3 e5bc 5e36 1abd
00000150: 5fbf 31bd 2ee8 27bd dcd8 97bc 3387 55bd
00000160: 60af 013b 96d8 be3c d66a 27bd 1adf d33c
00000170: fe3d a2bc 7a4d 8ebc 1cd9 52bd fe89 d7bc
00000180: 38b9 24bd 1bbe 1d3d 24c6 313c fb12 103d
00000190: 5423 6d3c c2c7 d73c a69f 2fbd 52a4 edbc
000001a0: e479 0abd f41b 1e3c 8835 61bc 9033 713b
000001b0: a474 88bc 60a4 d5ba 9070 febc 36d1 03bd
000001c0: 60d8 d63a 49db 1e3d b886 0fbd 908d dd39
000001d0: 4faa 0e3d c0d3 403b 96e9 b13c 7994 553d
000001e0: e9b2 513d 8b1a 5f3d 8aff ed3b dc25 763c
000001f0: 6604 26bd 2437 54bd f997 253d 1bb1 423d
00000200: ae66 0bbd 286b b6bb d834 a23b 1398 1fbd
00000210: d88d 90bb 6e44 b1bc 0074 84bb 99ad da3c
00000220: 0701 5d3d d95b 313d f61b b53c e266 dd3c
00000230: da9d a13c a70e 493d 9ce4 20bd 68b8 843b
00000240: e83b 8abb cec5 d93c e6af c13c f900 683d
00000250: 5c9b 0f3c 0775 123d bc82 6a3c 98e7 2dbc
00000260: 88e2 b43b 6c44 53bd 004e 0eba 4ef6 f63c
00000270: 05fd 1e3d 964a e23c ebf5 edbc 00c4 7dba
00000280: 852c 1d3d c080 b1bc b5d1 86bc 2770 463d
00000290: 8e19 42bd 31f9 073d ac1c 0ebd 533d 0c3d
000002a0: 3aea 863c 7ac1 f83c 3fc5 12bd e4ff 1b3c
000002b0: 2497 593c 86b3 37bd 84aa 4a3c d418 013c
000002c0: deba f73c 20c5 85bb 087e c9bb 56b0 c23c
000002d0: 2b5a 5c3d 9c2e 03bd 4700 533d 310a 07bd
000002e0: e87b ca3b c2c3 fb3c a474 363c c524 303d
000002f0: 3d83 343d 01ad c7bc cc1c 05bd cd4a 163d
00000300: 525e cebc 9a69 2cbd 8ef6 96bc 9074 7e3b
00000310: 011b 4ebd fd48 5e3d 4fa2 093d 97cd 393d
00000320: 7c5e 593c f2db 28bd e107 483d ddb3 4bbd
00000330: 34ab 16bd 14ee 05bd 8c8e 3fbd 9c3d 00bd
00000340: 9170 33bd 75fc 2bbd c0fb 34ba f4c9 423c
00000350: 5727 14bd 0834 fc3b 17c6 633d dfbb 3e3d
00000360: 27e9 133d a0af 1fbc 5c17 9bbc c044 383a
00000370: 91a5 32bd 00d5 90bc 5cf8 08bc f1c1 1a3d
00000380: fcb5 08bd 02c8 923c 68e2 ae3b a2bd fcbc
00000390: c464 55bd 4b12 debc 28ca e93b b689 1dbd
000003a0: 683b e33b 1c5d 173c 2046 02bd 6a5a aa3c
000003b0: 7903 053d 4a42 cf3c 57c9 523d f144 4ebd
000003c0: d7d1 1c3c a045 b0bb 1e86 53bd f6f5 6abd
000003d0: 7005 c5bc 5330 3cbd ecb2 763c c9f0 38bd
000003e0: c567 443d 2fb3 5d3d 9846 f1bb 30d9 5ebd
000003f0: 8476 213c ac0c 4b3c 73ae 693d e95c 233d
0.0036404207 0.02291301 0.00073746964 0.03638872 -0.031025566 -0.016661385 -0.001106713 0.023550991
0.020085786 0.003882233 -0.01623904 -0.056244407 0.015726883 0.025255147 -0.024196077 0.055661302
-0.021245401 -0.02567992 -0.008772381 0.023328926 0.05213544 -0.036521856 -0.045074366 -0.011244513
-0.053790204 0.0564744 -0.013091974 0.049887333 0.032390665 0.04028775 -0.02463067 0.052507784
-0.053547423 0.018979546 -0.022370115 0.03136385 0.027061414 -0.035256088 -0.042345192 0.0015141261
-0.036665685 0.054842953 0.02779777 0.03415828 0.013721798 -0.0011579463 -0.013606723 0.010284815
0.040362995 -0.021772262 0.0034432784 -0.041612208 -0.053548623 -0.007229019 0.020201754 -0.053777374
0.02213094 -0.00017822906 0.003881611 0.018324513 -0.025767483 -0.0028053373 -0.04946582 -0.01107813
-0.0025318488 0.025482234 0.004993413 -0.018222809 0.05122057 0.049422797 -0.009052128 -0.0150809735
0.03528012 0.055731516 0.050179046 -0.019267354 -0.0014173202 -0.01993348 0.027784456 -0.031743087
-0.024882428 -0.041333582 -0.02803216 -0.037649505 -0.043395396 -0.04099291 -0.018536024 -0.05213089
0.001978837 0.023296636 -0.04087337 0.025863219 -0.01980495 -0.017370928 -0.051476583 -0.026310917
-0.0402157 0.038511377 0.010850463 0.03517435 0.014473755 0.02634037 -0.042876862 -0.029009018
-0.03380765 0.009650219 -0.013745673 0.0036804415 -0.016657181 -0.0016299598 -0.031059533 -0.03218194
0.0016391389 0.038783345 -0.035040587 0.00042257877 0.034830388 0.0029423088 0.021717828 0.052143548
0.051196013 0.054468673 0.0072631286 0.015023675 -0.04053154 -0.0518104 0.040428136 0.047532182
-0.03403347 -0.0055669732 0.004950147 -0.03896339 -0.0044114403 -0.021639075 -0.0040421486 0.026694106
0.053956058 0.043300483 0.02210806 0.027026597 0.01972859 0.04908624 -0.03928052 0.0040503033
-0.004218567 0.026583578 0.023643445 0.056641553 0.008765068 0.035756137 0.014313396 -0.010614298
0.0055201687 -0.051578924 -0.0005428493 0.030146744 0.038815517 0.027623456 -0.029047927 -0.00096803904
0.038372535 -0.021667838 -0.016457418 0.0484468 -0.047387652 0.03319663 -0.034695312 0.03423817
0.01646911 0.030365694 -0.03583264 0.009521458 0.013280664 -0.04484894 0.012369756 0.007879455
0.030240472 -0.004082337 -0.0061490573 0.023765724 0.05379693 -0.032026872 0.051513936 -0.032968704
0.0061793216 0.030732993 0.011136208 0.043003816 0.04407047 -0.024374487 -0.032498166 0.03669243
-0.02519146 -0.042092897 -0.018428113 0.00388268 -0.05031872 0.054268826 0.033602055 0.04536208
0.013267156 -0.04122538 0.04883564 -0.049732078 -0.036784366 -0.032697752 -0.046766803 -0.031308755
-0.043808524 -0.04198881 -0.0006903969 0.01188897 -0.03617033 0.0076966323 0.055608835 0.046565887
0.036111023 -0.009746462 -0.018932037 0.00070292875 -0.043614928 -0.017679691 -0.008359995 0.037782613
-0.03337668 0.017917637 0.0053370483 -0.030852143 -0.05209805 -0.027108332 0.0071346946 -0.03846141
0.006934572 0.009238508 -0.031805158 0.020795066 0.032474015 0.025300164 0.051461544 -0.050358716
0.009571514 -0.0053793937 -0.051641576 -0.057363473 -0.024050444 -0.045944523 0.015057307 -0.045151506
0.047950525 0.05412596 -0.0073631518 -0.054406345 0.0098549165 0.012393158 0.057051133 0.039883528

layers.0.bias f4 [50]
00000000: bfb9 2d3d ac09 0d3d 02fc 433a dd82 26bd
00000010: 4442 e6bc 5c40 58bd 1c72 3bbd 09a5 073d
00000020: 7cd1 fbbc 772c c1bc 56cb 673d d19a 47bd
00000030: dca4 4dbd defa dbbc 4f15 bf3c 6179 8b3c
00000040: 037e c439 4430 0abd 8fb1 053d 3dd6 3e3d
00000050: 330f 4d3c 449c d4ba 87c3 acbc a5d5 a9bc
00000060: b531 193c f40a dd3c 1f87 573d 9a01 31bd
00000070: 1750 55bb f94c a13c 03c2 b4bc 468d 833c
00000080: 5d3c db3c 742c 873c 060e 9ebc 3484 55bd
00000090: cdd4 bdbc 7a8b 203d 5684 253d 59af 923c
000000a0: b758 c13c ecf0 9cbc ba09 d0bc 1389 24bd
000000b0: 6fb1 97bc 85f2 523d 280e 213d ac17 39bd
000000c0: e690 41bc 6a8a ffbb
0.04241347 0.034433052 0.0007476212 -0.040652145 -0.02810777 -0.052795753 -0.04576312 0.033116374
-0.030739538 -0.023580773 0.0565904 -0.04873163 -0.05020605 -0.026853021 0.02332559 0.017025651
0.0003747792 -0.033737436 0.032640036 0.046591032 0.012515831 -0.0016220887 -0.021089328 -0.020731756
0.00935023 0.026982762 0.052619096 -0.043214418 -0.0032548958 0.019690024 -0.022065168 0.016058575
0.026762182 0.01650069 -0.019293796 -0.05212803 -0.02317276 0.039195515 0.04040941 0.017905878
0.023601873 -0.01915785 -0.025395263 -0.040169787 -0.018517224 0.051500816 0.03932014 -0.04518859
-0.011814332 -0.0077984827

layers.2.weight f4 [20, 50]
00000000: 443e ccbc d2e9 313d c162 9bbd fa3c 79bd
00000010: 234c 04be 9219 15bd 30b5 263d 0028 4a39
00000020: c401 cebd 54c2 febd 600e 0bbe a87c 2f3d
00000030: 34be e53d 610a 813c 1c48 29bd 4a2f 873d
00000040: 8b81 423d 28a2 92bd 880e 853d 8e58 8a3d
00000050: 668d 02be 6e3f 3fbd b0ea c3bd 04ed d43d
00000060: 83cf 93bd 0e80 093d e49d 1c3c 0334 133e
00000070: b4e9 9cbd 78f9 82bd c4d9 e2bd c38d 62bd
00000080: 9f7b d53c 021b 163c dbb1 3dbd 7ea0 093e
00000090: e969 95bd 3363 3cbd 8e1d e93d 0497 e93d
000000a0: ab81 563d 6ee4 1abd 18ab 813d f81b 89bc
000000b0: d607 49bd d70d 00be 23df 053e 9ef0 a3bd
000000c0: fdd9 afbd 18bb a63d c6cc 9e3d 89a4 f6bd
000000d0: 97db 63bd 956b dabd 9321 0b3e 0b38 613c
000000e0: 6183 65bb 83dc 8bbd f67e bb3d e87e 053e
000000f0: 23d8 ab3d 5f2a fabd dcf2 edbd 45e3 0d3e
00000100: 7e35 b93d 1f63 db3d 2646 4c3c c8da 0fbe
00000110: 164c a13d 65cf 013e 400e 953d a969 fdbc
00000120: faa9 9aba 3074 0cbe 8e25 bbbd ba43 e13d
00000130: 069a 653b 48ea c8bd 1cc3 053e 914e 0f3e
00000140: 9512 6dbd fff2 c03d 229e b4bc bf99 6fbd
00000150: 5b0e ed3d b537 be3d c139 a53b e547 a03d
00000160: b0d8 903c 1f9e febd 6da6 873b 7b5a 0c3e
00000170: beec 95bd 42e7 513d 3e94 c7bd 2ee0 7fbc
00000180: fb2c 733d 27c9 9fbc ec69 cb3d 7c51 e1bc
00000190: a457 48bd e5a9 3fbd 8088 24bc 8bba f63d
000001a0: b1c6 bfbd b12d 143d 4887 8d3d c849 dcbc
000001b0: 8253 0abe 7405 0f3d 7957 91bd 5efd b9bd
000001c0: 39d1 e7bd b61a 8fbd ecc0 d23d 7e8a 9bbd
000001d0: f419 003e c83c d3bd dd10 cdbc 3968 8e3d
000001e0: 4c2d cf3d 4e80 0abe 6c41 bbbc 6bf4 0c3e
000001f0: ee4a 843d fa0a 013e 45e6 0ebe 7b7e 86bc
00000200: 74dd 00bd 20ad 7f3c a4f9 753d 548f af3d
00000210: b6d1 56bc 7e33 953d fe62 29bd a413 833d
00000220: 3748 963d 1a3b febd 90c0 633c a80b 413c
00000230: 23a9 8b3d e6bc 91bd 17ef 03be 8c1f 1b3d
00000240: 5432 bf3d 7868 abbd 5bc3 80bd 72b2 2f3d
00000250: e007 31bc 02c6 63bd 82d8 10bd b75b 90bd
00000260: eb8f 78bd 1600 c53d f500 fe3d 7fd1 c13d
00000270: eb31 efbd c0f2 8ebb 30ac a93d 7010 0cba
00000280: 664a 05be 4aa5 d53d eed1 213d eb18 fa3c
00000290: 4327 833d 989f 413d 1026 393d adea 553d
000002a0: 2a04 6b3d 26a0 6d3d 78cc d53d 84e1 d53d
000002b0: eadd f43d 1919 c33d e470 bd3c 20aa b73c
000002c0: f7a2 de3d ad5d 0a3d 60c0 e1bd a9d4 4d3d
000002d0: 3a9c f3bd 4253 693b c7e2 bbbd e891 113e
000002e0: 5dc1 f03d 57d4 f3bc 8a46 cb3d 46ff 8e3c
000002f0: 9692 35bc ce70 a0bd 1a1d 33bd c0d0 51bb
00000300: d0cd 4fbc 59e1 ffbd a826 02bd 1049 013e
00000310: 1bf9 dbbd eef6 15bd 4c43 4abc 6e41 313d
00000320: 8ab3 f73d eb26 b8bd 59be 043e bd69 fbbd
00000330: 5085 0d3d dc65 c43d d6f0 bbbd 60f3 e5bd
00000340: 0c28 45bd 6ac8 e9bd bfb6 eabd e8b8 573d
00000350: c8d3 9fbd e0a3 e8bb 0664 973d c4a5 623d
00000360: 847e b03d 68c4 a53c d4b0 b7bd 5342 0cbe
00000370: 8015 f13c d251 d9bd 731e 083e 44a4 2d3d
00000380: b6af d1bd 70da e9bd 80cd 5e3d 7c31 35bd
00000390: a855 2bbd 5045 12bc d48f 2cbd d4cb 07be
000003a0: 7faa debd bc42 b93d 4094 9abc b4c0 72bd
000003b0: e81b 823c deda fc3d 6c0e 1abd 703a 213c
000003c0: d808 683d 59c4 82bd 31eb 0e3e 7496 0ebe
000003d0: b099 1dbc 1093 4cbc d4a9 a5bd fe4f e73d
000003e0: 4052 713d 8253 4dbd acd8 3dbd c6b3 673c
000003f0: 3039 133c d2f2 893c 0047 37ba 2afa 4c3c
-0.024932034 0.04343588 -0.07587195 -0.060849167 -0.12919669 -0.03640134 0.040700138 0.00019279122
-0.100589305 -0.12439409 -0.13579702 0.04284349 0.11217919 0.01575202 -0.041328534 0.066008165
0.047486823 -0.07159835 0.06496912 0.06755172 -0.12749252 -0.04669135 -0.095662475 0.1039677
-0.07217314 0.033569388 0.009559128 0.1437531 -0.07661763 -0.06395239 -0.11076692 -0.055310976
0.026059924 0.009161713 -0.046312194 0.13440129 -0.072955914 -0.04599304 0.1138259 0.11405757
0.052369755 -0.037815504 0.06331462 -0.01673697 -0.04907974 -0.1250528 0.13073401 -0.080048785
-0.085865 0.08141154 0.07753901 -0.12043101 -0.05562934 -0.10665051 0.13587026 0.013746272
-0.0035020935 -0.06829169 0.09155075 0.13036692 0.08390834 -0.12215113 -0.116185874 0.13856228
0.09043406 0.10712265 0.012467897 -0.14048302 0.0787584 0.12676771 0.072781086 -0.030934172
-0.0011799925 -0.13716197 -0.09138022 0.10999246 0.0035034432 -0.098103106 0.1306271 0.13994814
-0.05787905 0.09421348 -0.02204806 -0.058496233 0.11575004 0.09287969 0.005042285 0.07826213
0.01768145 -0.12432503 0.0041397125 0.1370639 -0.073205456 0.051245935 -0.09745072 -0.015617413
0.05936907 -0.019505097 0.09932312 -0.027504675 -0.048911706 -0.046792883 -0.01004231 0.12047299
-0.09364069 0.036176387 0.069105685 -0.02689065 -0.13508418 0.03491731 -0.07096762 -0.09081529
-0.11319203 -0.069875166 0.10290703 -0.07594775 0.125099 -0.103143275 -0.025032455 0.06953473
0.101160616 -0.13525507 -0.022858344 0.13765113 0.06459604 0.12601843 -0.13955028 -0.016417732
-0.031461194 0.015605241 0.06005253 0.085722595 -0.013111522 0.07285212 -0.041354172 0.064002305
0.07337993 -0.124136165 0.013900891 0.011782564 0.0681937 -0.07116108 -0.12884174 0.037871882
0.09335771 -0.08369535 -0.06287261 0.042894788 -0.0108051 -0.055608757 -0.035362728 -0.07048743
-0.060684126 0.09619157 0.12402526 0.09463786 -0.11679443 -0.004362434 0.08284795 -0.00053430256
-0.13016662 0.10431917 0.039506845 0.03052946 0.06403973 0.04727134 0.045202315 0.052225757
0.057377018 0.058014058 0.1043939 0.10443404 0.11956389 0.095262714 0.02312512 0.02241999
0.10870927 0.033780742 -0.11023021 0.050251637 -0.11895032 0.0035602604 -0.09174114 0.14215815
0.11755631 -0.029764337 0.09925564 0.017455708 -0.011082312 -0.07834016 -0.043728925 -0.0032015294
-0.012683347 -0.124941535 -0.031775147 0.12625527 -0.107408725 -0.036612444 -0.012345146 0.04327529
0.12094791 -0.08991798 0.12963237 -0.12276027 0.034550965 0.09589741 -0.09176795 -0.11228061
-0.048133895 -0.11415179 -0.11460637 0.052666575 -0.07804066 -0.0070996135 0.07392125 0.055333868
0.08617881 0.020235255 -0.08969274 -0.13697176 0.029429197 -0.10611309 0.13292865 0.042392984
-0.10238592 -0.11418617 0.0543952 -0.044236645 -0.041829735 -0.008927658 -0.042129353 -0.13261348
-0.10872363 0.09045932 -0.01886952 -0.059265807 0.015882447 0.12346433 -0.03761141 0.009840593
0.05664906 -0.063851066 0.13956906 -0.13924581 -0.0096191615 -0.012486234 -0.08089033 0.11294554
0.05891633 -0.050128467 -0.046349213 0.014141982 0.0089858025 0.016839419 -0.0006991476 0.012510816

layers.2.bias f4 [20]
00000000: ac8f 88bd 180a c73c b4e8 02be e22c 67bc
00000010: e043 b9bd c096 ecbd 88ff e43d b91b debc
00000020: 8fb1 9fbd 934e a6bd f8f7 92bc 0641 143d
00000030: 4164 023e 5a0b 5c3d 6f23 cf3c 8744 e13d
00000040: f897 ebbd 3088 193d c8bf a8bd 7c4e 6c3d
-0.06668028 0.024296805 -0.12784082 -0.014109822 -0.09046149 -0.11552191 0.11181551 -0.027112829
-0.077975385 -0.081204556 -0.017940506 0.036194824 0.12733556 0.053721763 0.02528545 0.10999399
-0.11503595 0.037483394 -0.08239704 0.057692036

layers.4.weight f4 [10, 20]
00000000: ed3c 033e 2f85 a2bd 586b 1ebe f657 25be
00000010: b83d d43d 3f17 1f3d aa74 293e 4250 24be
00000020: 73d4 8e3d e5fb 783d ba5b 0a3e 02af 9cbc
00000030: d457 5b3e b730 1ebd 15b0 283e 66ef e93d
00000040: c6c9 1d3d 4fa7 3dbc 8a99 a73d 062f 8dbd
00000050: a793 36bc de81 9fbd 105c eb3d 2b8d 183e
00000060: f243 49be 3786 f8bd b657 723c 3376 903c
00000070: eee6 c83d 21c5 8f3c 7042 4dbd 6bee 463e
00000080: b5fd 43be d865 623e dc9e bebd 2617 e6bd
00000090: 3819 19bd b64c 003e aad6 7fbd d9d8 2bbe
000000a0: 019c 133c b362 d23d 6835 2d3e 5634 51bd
000000b0: d024 413e 702b e83d c8d8 19bd 58fe c9bc
000000c0: 98a9 9ebd 7d9e 253e beca 323e 79bb 033e
000000d0: 5802 333d 4637 043e a684 14bd de05 553e
000000e0: cc13 5c3e 6404 81bc 8b75 32be 0067 f53d
000000f0: 7377 debd 92a4 3abe 149f b6bd 4869 11be
00000100: eda6 5fbe e01e 153e 1a5c 94bd e4a5 0cbd
00000110: 50e9 073e 9074 80bd 1839 18be 7c66 7dbd
00000120: bc8a 283e 3cc3 2bbe aaa9 3e3e 43a2 02be
00000130: b0bd 5b3d 2067 dabb 8023 cdbc 941e 8d3d
00000140: 64a2 9fbd 0c99 5d3e b189 b13d d5db e73d
00000150: d6f4 84bd 2e2b b13d 533e a43d f660 bf3d
00000160: 58f3 45be b1cd 2abd 8be7 49bd e68c ffbd
00000170: 3c4d 533e 44ab 093e 59e5 be3d 37d5 43be
00000180: 3569 82bb 1e80 07be 8297 333e 5be5 05be
00000190: e484 943d f088 263e 4cee 3fbd d095 21be
000001a0: 28cf 11bd 909e e13c 0cf9 a03d 4466 2c3e
000001b0: e085 c23b 19f6 0cbe 8855 3d3d 9a8d 363e
000001c0: 1b42 d6bd 16b2 a7bd c52b 55be 2875 683d
000001d0: ac13 0abd da1d 01be b4dd 50be c414 cebd
000001e0: 78d1 1abe c546 e2bd 37a6 123e 08a1 cf3d
000001f0: 165e 1ebe a7bb 7cbd 6a37 993d 288d c43d
00000200: 3c45 533d 1f3a 1a3e 516a 243d 2e4f 64bc
00000210: 78aa aabd dbc2 aa3d bf35 cdbd 7fcb 5a3e
00000220: 859d 23bd 22a6 d7bd 8525 513e 4eb3 01be
00000230: 0c61 9c3d b7f0 943b 1922 5c3d a413 3cbe
00000240: 003a 19bb 80b9 2ebe c013 92bc 7e3f de3d
00000250: 984a 58be 2bf0 fabc 2eae 56be 55ca de3d
00000260: 5fc2 8b3d 1c0a 23bd c0e4 0d3e db02 913c
00000270: 92f9 4fbd 14dd 2d3e 28d2 e73d 240b ad3d
00000280: c3a3 8dbc 6725 3b3d f329 38be 3ab6 3e3e
00000290: 5c47 28bd 652f babb 54c5 243d 5f29 49be
000002a0: a478 9f3c 5025 37bd c5f6 11be fc3c 07bc
000002b0: 90bb 05bd 0cbf 94bd ca5b bebd b361 10be
000002c0: d88b 073e a012 a83d d314 5f3e 1acb 88bd
000002d0: 39ef 073e 72a4 743d be34 f5bc 4f6b 773d
000002e0: ec0a 07bd 8dbf 03be 59f7 943d ca60 dabd
000002f0: e167 ed3d 1d8a ea3d 7dd0 593e 96e7 b6bd
00000300: 0a03 2bbd 68bd 963d 3e3b 62bd 0d81 ddbd
00000310: 76a0 eb3d 9611 f0bc e914 d53c cc5e e43d
0.1281621 -0.07935559 -0.15470636 -0.16146836 0.103633344 0.03884053 0.1654841 -0.16046241
0.06974115 0.0607871 0.13511553 -0.019126419 0.21420223 -0.038620677 0.1647342 0.11422615
0.038522504 -0.011575534 0.08183582 -0.06893735 -0.0111436015 -0.07788442 0.11492169 0.14897601
-0.19654825 -0.121349744 0.01479142 0.017634487 0.09809671 0.017550053 -0.050112188 0.19426887
-0.1913975 0.22109163 -0.09307644 -0.11234884 -0.037377566 0.12529263 -0.06246058 -0.1678194
0.009009362 0.10272732 0.16914904 -0.051075302 0.18861699 0.1133641 -0.037560254 -0.024657413
-0.07747191 0.1617374 0.17460153 0.12864484 0.043703407 0.1291171 -0.036259316 0.2080302
0.21491927 -0.015749164 -0.17427652 0.11982536 -0.10862627 -0.18226841 -0.089170605 -0.14200318
-0.21841021 0.14562559 -0.072441295 -0.034337893 0.13272595 -0.062722325 -0.1486553 -0.061865315
0.16459173 -0.16773695 0.18619409 -0.1275721 0.053647697 -0.0066651255 -0.025041342 0.06890598
-0.077946454 0.21640414 0.08668841 0.113212265 -0.06492011 0.08650814 0.080197 0.09344666
-0.1933111 -0.04170007 -0.049293082 -0.12478046 0.20634931 0.13444239 0.09321088 -0.19124304
-0.003979827 -0.13232467 0.17538264 -0.13075773 0.072519094 0.16263175 -0.046858117 -0.15779805
-0.03559795 0.027541429 0.07860002 0.16835886 0.0059363693 -0.13765754 0.046224147 0.17827454
-0.10461827 -0.08188264 -0.20817478 0.056752354 -0.033710167 -0.12609044 -0.20397073 -0.100625545
-0.15118968 -0.110486545 0.14321218 0.10138136 -0.15465578 -0.061702397 0.074812725 0.09597236
0.0515797 0.15061234 0.040140454 -0.0139348935 -0.083332956 0.08337947 -0.10020017 0.2136669
-0.039945144 -0.10529734 0.20424469 -0.12666056 0.07635698 0.004545297 0.053743456 -0.18366867
-0.0023380518 -0.1706295 -0.017831683 0.10851954 -0.21122205 -0.0306321 -0.20964882 0.108784355
0.06824183 -0.039804563 0.13856792 0.017701557 -0.05077512 0.16978866 0.11319381 0.084493905
-0.017290002 0.045689967 -0.17984752 0.18624201 -0.04108368 -0.0056819194 0.04022725 -0.19644688
0.019466706 -0.04471332 -0.14254291 -0.008254286 -0.032649577 -0.07263002 -0.09294851 -0.1409977
0.1323694 0.082066774 0.21785288 -0.066793635 0.1327485 0.05972714 -0.029932376 0.06040507
-0.0329694 -0.1286604 0.0727374 -0.10662992 0.11592079 0.11452124 0.21270938 -0.0893089
-0.041750945 0.07360345 -0.05523228 -0.1081563 0.11505215 -0.02930526 0.026010947 0.111508936

layers.4.bias f4 [10]
00000000: bc89 913d caf7 95bb 2e48 e1bb e8a9 18be
00000010: 7c87 d63d 162b aebd 1ffe 523e 89be 603e
00000020: f1be 52be f473 953d
0.07106349 -0.004576658 -0.0068750596 -0.14908564 0.1047506 -0.08504312 0.20604752 0.21947683
-0.20580651 0.07297507

layers.6.weight f4 [2, 10]
00000000: dfdc ea3d bcc8 0e3e 869e 123e 2f31 8cbe
00000010: 2d50 7abe 7afe 1ebe c44c 12bd be8f 4fbd
00000020: 752f b43d 9fed 89be ff7e 313e 4e03 b13d
00000030: dac9 853b 6048 723d 7210 51bd 3460 e43d
00000040: 5cb5 473d fb0c 88be 6c2d 363e 04e7 94bc
0.11467909 0.13943762 0.14318284 -0.27381274 -0.24444647 -0.15526763 -0.03571774 -0.050674193
0.08798114 -0.26939103 0.17333601 0.086432084 0.0040829005 0.059151053 -0.051041074 0.11151162
0.048756942 -0.26572403 0.17790765 -0.018176563

layers.6.bias f4 [2]
00000000: e22b 99bd 2531 3fbd
-0.07479073 -0.046677727
