DHH/model/fc/model-fold-4.pth (torch, 70287 bytes, 8 tensors)

layers.0.weight f4 [50, 312]
0	0x3c3c0eee	0.011478169
1	0x3d2ccd68	0.04218808
2	0xbc75c614	-0.015000839
3	0xbcedace5	-0.029013107
4	0xbcb1ad3f	-0.021689055
5	0x3cbefbfa	0.023313511
6	0x3c5fb407	0.013653762
7	0xbd64fe54	-0.05590661
8	0xbcf87560	-0.030329406
9	0xbc903dbe	-0.017607566
10	0xba74886c	-0.000932819
11	0x3b13ea26	0.0022569983
12	0x3c89e254	0.016831554
13	0xbd0fab34	-0.03507538
14	0x3d286e1e	0.04112064
15	0x3cc28689	0.023745792
16	0x3c50645d	0.012719241
17	0x3b3bf05a	0.0028677196
18	0x3d348eab	0.04408137
19	0x3d47e071	0.04879803
20	0xbba4f8df	-0.0050345506
21	0xbd2da0da	-0.042389728
22	0xbd20bf2e	-0.039244823
23	0xbbd5e719	-0.006527793
24	0x3c0d74d1	0.008633808
25	0x3d5e6e82	0.054304607
26	0x3cf10fd9	0.029426502
27	0x3d41af8a	0.047286548
28	0x3d30f478	0.043201894
29	0xbc81e8c2	-0.015858058
30	0x3d02deb9	0.031950686
31	0xbd19b8a3	-0.0375296
32	0xbd00a18d	-0.031404067
33	0xbb05fb50	-0.0020443983
34	0xb980a430	-0.00024536392
35	0x3bb308dd	0.005463703
36	0x3d62995f	0.055322047
37	0x3c355f7e	0.01107013
38	0xbd2db76c	-0.042411253
39	0x3d2a032b	0.041506927
40	0x3ce873a4	0.028375454
41	0xbcb4bba4	-0.02206213
42	0x3d249d4a	0.040189065
43	0xbc2c3643	-0.010510984
44	0x3b51b2ad	0.0031997368
45	0x3ca21661	0.019786062
46	0xbc3eef1f	-0.011653691
47	0x3cfef981	0.031124832
48	0xbd4ef7fe	-0.050529473
49	0xbd387b11	-0.04503924
50	0x3d1b05ef	0.037847456
51	0x3d0a92c9	0.03383139
52	0x3ca3ef74	0.020011641
53	0xbd18d96d	-0.03731673
54	0x3cb5e3e0	0.022203386
55	0xbbe6cb1e	-0.0070432564
56	0xbc9e0774	-0.019290663
57	0xbcaca8e8	-0.021076635
58	0x3cf1ed87	0.029532207
59	0x3d1acf77	0.03779551
60	0x3d67a088	0.05654958
61	0xbc90bec8	-0.017669097
62	0xbd371135	-0.044694144
63	0x3d200db4	0.03907557
64	0xbc83df9f	-0.016097842
65	0xbcbb3bc4	-0.022855647
66	0x3d502cbb	0.05082391
67	0x3cdac7fd	0.02670669
68	0x3d2e0a73	0.042490434
69	0x3b4cb682	0.0031236713
70	0xbca64a4b	-0.020299098
71	0xbc56dbef	-0.01311396
72	0x3c063b28	0.008192815
73	0xbcee3886	-0.029079687
74	0x3d492458	0.049106926
75	0xbd131b9e	-0.03591501
76	0xbca38d9d	-0.019964987
77	0x3bda6c82	0.006665767
78	0x3c1420de	0.009041039
79	0x39fab947	0.00047821758
80	0x3c67ff5f	0.014160006
81	0xbd25f1bc	-0.04051374
82	0x3d124404	0.035709396
83	0x3d623015	0.055221636
84	0xbd0f1544	-0.03493239
85	0xbd4f4c7e	-0.050610058
86	0x3d1eeaa6	0.038797997
87	0xb852d2ef	-5.026435e-05
88	0xbcc94a62	-0.024571601
89	0x3d06a052	0.032867737
90	0xbd11c66d	-0.035589624
91	0x3d500e0c	0.050794646
92	0xbcff665c	-0.031176738
93	0x3c8692dd	0.016427452
94	0xbc4582e1	-0.01205513
95	0x3bbc14d4	0.0057397876
96	0xbaac8358	-0.0013161702
97	0xbd157e77	-0.03649756
98	0xbd456d89	-0.048200164
99	0x3cb8645c	0.022508793
100	0x3d539aef	0.051661428
101	0xbcc65404	-0.024209984
102	0xbc863a48	-0.016385213
103	0xbca20580	-0.019778013
104	0x3aeb9b86	0.0017975427
105	0xbd44a3ae	-0.04800766
106	0xbcf7a242	-0.030228738
107	0xba7a3520	-0.00095446594
108	0xbc13539f	-0.008992105
109	0xbb637f17	-0.0034713203
110	0x3b3f4a10	0.0029188432
111	0xbc5db10a	-0.013530979
112	0xbd326c25	-0.043560166
113	0xbcedc5a1	-0.0290249
114	0xbc59d580	-0.013295531
115	0x3d5ac38c	0.053409144
116	0x3c4faea1	0.012675912
117	0x3d3730fa	0.044724442
118	0xbcb2c40c	-0.021821998
119	0x3d230946	0.039803766
120	0xbb54c660	-0.0032466874
121	0x3c4da82a	0.0125523005
122	0xbd27c722	-0.040961392
123	0x3d68c923	0.056832444
124	0x3b150e47	0.0022744106
125	0x3b915426	0.00443508
126	0x3d1a9ea4	0.037748948
127	0x3d45c35a	0.048282005
128	0x3d5d6c11	0.05405814
129	0x3c258037	0.01010137
130	0x3ca01b19	0.019544171
131	0xbcbfd1d7	-0.02341549
132	0x3d071771	0.03298134
133	0xbd699fab	-0.057037037
134	0xbd01da57	-0.031702366
135	0xbd040939	-0.032235358
136	0xbcddd8f3	-0.027080989
137	0x3b8ab3d2	0.004232862
138	0xbd3ab309	-0.045580897
139	0x3c4aa34c	0.012368035
140	0xbd2987b5	-0.041389186
141	0xbd4e1c15	-0.05031975
142	0x3d0663f5	0.03281017
143	0xbd02ebde	-0.03196322
144	0xbce6b23b	-0.028161159
145	0xbc822511	-0.015886815
146	0x3c9b8312	0.018983398
147	0xbcd3734a	-0.02581181
148	0xbd228b62	-0.039683707
149	0x3d577425	0.052601
150	0x3d34906f	0.044083055
151	0xbd0d3bd4	-0.034480885
152	0x3d2765e3	0.04086865
153	0x3cd3dbce	0.025861647
154	0xbc398790	-0.0113238245
155	0x3d360b80	0.04444456
156	0xbb441298	-0.002991831
157	0x3d162637	0.03665754
158	0xbd56b130	-0.052415073
159	0xbd454290	-0.048159182
160	0xbc3c3707	-0.011487729
161	0xbc457c6d	-0.012053591
162	0x3d126044	0.035736337
163	0xbbcf6b6a	-0.0063299434
164	0x3c6b7fe2	0.014373751
165	0x3cc47423	0.02398116
166	0xbd08be9a	-0.033384897
167	0x3c9cb60d	0.019129777
168	0xbd4f7ae8	-0.050654322
169	0x3cff61d7	0.031174583
170	0xbd4e9e67	-0.050444033
171	0x3cee0cb0	0.029058784
172	0xbacdb9cb	-0.0015695629
173	0xbcc8d7b2	-0.024516914
174	0x3bd56a4a	0.006512915
175	0x3d480de9	0.04884139
176	0x3bcd074e	0.0062569743
177	0x3cce76ff	0.025203226
178	0x3d0488bc	0.032356963
179	0x3c544bfa	0.012957567
180	0x3b824b9c	0.0039762985
181	0x3c7b297e	0.015329717
182	0x3c8bf6de	0.017085489
183	0x3c37e6ac	0.01122443
184	0xbd4f16e0	-0.050558925
185	0x3d501dcb	0.050809663
186	0xbc11eab4	-0.008906055
187	0x3d01f4cb	0.031727593
188	0xbc242bf6	-0.010020247
189	0xbd487051	-0.04893524
190	0x3c89ce81	0.016822102
191	0xbd5dfb25	-0.05419459
192	0xbd48e04b	-0.049042027
193	0xbd38a398	-0.04507789
194	0x3d34e089	0.044159446
195	0xbc9ecef4	-0.019385792
196	0x3c039987	0.008032209
197	0xbcd18586	-0.025576364
198	0xbd4e0034	-0.050293162
199	0x3d35d0e9	0.044388685
200	0x3ce216bc	0.027598731
201	0x3d562acf	0.05228692
202	0x3d602900	0.0547266
203	0x3d0b0687	0.03394177
204	0x3c47816a	0.012176851
205	0x3cc20a33	0.023686504
206	0x3d011a70	0.031519353
207	0x3caf38df	0.021389423
208	0xbcf50b9c	-0.029912762
209	0x3d378d4e	0.044812493
210	0xbbc6b7ca	-0.00606439
211	0x3c9a28da	0.018818308
212	0xbcd1a8db	-0.025593212
213	0xbcd60165	-0.026123712
214	0xbc28ada1	-0.010295303
215	0x3d201d7d	0.039090622
216	0xbd2b57be	-0.041831724
217	0x3bbd11e3	0.0057699545
218	0xbc54790e	-0.012968315
219	0xbd4b6cfe	-0.04966449
220	0x3d5512e2	0.05201996
221	0xbd56e458	-0.05246386
222	0x3cfd8f19	0.030952023
223	0x3d50542b	0.05086152
224	0x3d29ca8a	0.041452922
225	0xbc90081b	-0.01758199
226	0x3d5dcbc2	0.054149397
227	0x3d498bfd	0.04920577
228	0x3d49cf73	0.049270105
229	0xbd1c63de	-0.03818118
230	0x3c6eb1b5	0.014568736
231	0xbc942e95	-0.018088618
232	0x3cdf4e02	0.027258877
233	0x3d62cad1	0.055369202
234	0x3d549c80	0.051907063
235	0xbd4929c6	-0.049112104
236	0x3ccb3b3e	0.024808522
237	0x3c190f0f	0.009341969
238	0xbd0f09a6	-0.03492131
239	0x3c5f0358	0.013611637
240	0xbba32861	-0.004979179
241	0xbc9afda7	-0.018919779
242	0xbcd4e482	-0.025987867
243	0xbd666dec	-0.056257173
244	0x3d06914a	0.032853402
245	0xbcb36e0e	-0.021903064
246	0x3d28885c	0.041145667
247	0xbb724738	-0.003696872
248	0xbd615eca	-0.05502204
249	0xbd1854ee	-0.03719037
250	0x3c2eda66	0.010672187
251	0xbd048755	-0.032355625
252	0x3d2b9d78	0.04189822
253	0x3d292441	0.04129434
254	0xbcd8abd0	-0.026449114
255	0xbd3e8eb1	-0.0465228

layers.0.bias f4 [50]
0	0x3c84d023	0.016212529
1	0x3d5fa561	0.054601077
2	0xbd28347a	-0.04106567
3	0x3cd44256	0.025910538
4	0xbcc54146	-0.024078976
5	0x3d1ee881	0.03879595
6	0x3cd9ca06	0.02658559
7	0x3d399666	0.045309447
8	0xbab90512	-0.0014115891
9	0xbcc4e59c	-0.024035268
10	0xbd57e546	-0.052708887
11	0xbc986a58	-0.018605396
12	0xbd3825a1	-0.04495776
13	0xbcb460c1	-0.022018792
14	0xbd306536	-0.043065272
15	0x3c9eabe9	0.019369083
16	0x3cb41a80	0.021985292
17	0xbccce14e	-0.025009777
18	0xbd3d57d7	-0.04622635
19	0xbc58a8fe	-0.013223885
20	0x3c95c856	0.018284004
21	0xbd3e42b9	-0.04645035
22	0xbc3d8645	-0.011567657
23	0xbd1f6349	-0.038913045
24	0x39e64e34	0.00043927284
25	0x3c582724	0.013192926
26	0xbb696f90	-0.0035619475
27	0x3b1e2882	0.0024133031
28	0x3c053e8d	0.008132589
29	0xbd4b99c8	-0.049707204
30	0x3d110d88	0.035413295
31	0x3c3a8e4b	0.011386464
32	0x3a9a62b1	0.001177868
33	0x3d0f978e	0.035056643
34	0x3d123e29	0.03570381
35	0x3c0d5f1c	0.008628633
36	0x3d67d320	0.05659783
37	0x3d4a628d	0.04941039
38	0xbb90224e	-0.0043986207
39	0xbc3886ea	-0.011262635
40	0x3c1fa88f	0.009744777
41	0xbc6d5b7c	-0.014487144
42	0x3d1988ad	0.03748386
43	0xbacd8c85	-0.0015682137
44	0x3d521166	0.051286124
45	0x3d38c2a0	0.045107484
46	0x3d532f4b	0.051558774
47	0x3d5ed56f	0.054402765
48	0xbd6303a8	-0.05542341
49	0x3cf30a87	0.029668106

layers.3.weight f4 [20, 50]
0	0xbdc4c0b5	-0.096070684
1	0xbe083600	-0.1330185
2	0x3ce2fff8	0.027709946
3	0x3e0575d9	0.13033237
4	0xbddd984a	-0.108200625
5	0x3e05dd92	0.13072804
6	0xbd76d202	-0.060258873
7	0x3c4e4df2	0.012591826
8	0x3d54fa68	0.05199662
9	0x3b3513c0	0.002763018
10	0xbccd2523	-0.025042122
11	0x3dcaa5b1	0.098948844
12	0xbd850c71	-0.06496514
13	0xbd568f65	-0.052382845
14	0x3daa1e4c	0.0830656
15	0xbe01cafb	-0.12675087
16	0x3d233893	0.039848875
17	0x3ce0e546	0.027453076
18	0xbd424678	-0.047430485
19	0xbe042721	-0.12905551
20	0x3d5ec784	0.05438949
21	0x3d0d7bf2	0.03454203
22	0xbc97ca40	-0.018529058
23	0x3cb37414	0.021905936
24	0x3dd7ec1a	0.1054308
25	0xbd64d522	-0.05586732
26	0xbcd91720	-0.026500285
27	0xbd609f96	-0.054839693
28	0xbd7795dc	-0.06044565
29	0xbbcd4943	-0.006264837
30	0xbd7dfb5a	-0.062007286
31	0x3e0fe2ac	0.14051312
32	0xbcdabf61	-0.026702585
33	0x3d254106	0.040345214
34	0xbdef5c47	-0.116875224
35	0xbadae8b5	-0.0016701432
36	0x3cf21eda	0.029555727
37	0x3d1e849c	0.038700685
38	0xbc9b0c78	-0.018926844
39	0x3d7445e1	0.059636954
40	0x3db39456	0.08768527
41	0xbdd36f9d	-0.10324023
42	0xbdf07633	-0.11741295
43	0x3d6574f0	0.056019723
44	0x3daefe29	0.08544571
45	0xbdff1c0d	-0.12456522
46	0x3c97377e	0.018459078
47	0xbdaacf73	-0.08340349
48	0x3dbe2f28	0.09286338
49	0xbddc0240	-0.10742617
50	0x3ddc1d7d	0.10747812
51	0x3d88558e	0.06656943
52	0x3d89183d	0.06694076
53	0x3e0d6229	0.13806976
54	0x3c6a29dd	0.014292208
55	0x3db4eee0	0.08834624
56	0xbd7a3ee9	-0.061095152
57	0xbdc9ddda	-0.09856768
58	0x3e03749b	0.1283745
59	0x3d6150be	0.055008642
60	0xbd97d304	-0.07413295
61	0x3d2a5cb1	0.041592304
62	0x3d101d14	0.03518398
63	0x3d96a3a3	0.0735543
64	0xbd62915c	-0.055314407
65	0xbce5ef96	-0.028068345
66	0xbdd7ad14	-0.10531059
67	0xbe07814e	-0.1323292
68	0xbdbc8e0a	-0.09206779
69	0x3d64923c	0.055803522
70	0xbd9541f7	-0.072879724
71	0x3d701cb8	0.05862114
72	0xbd7eedf1	-0.062238637
73	0xbdba05be	-0.090831265
74	0xbc9ef8dc	-0.019405775
75	0xbdcaeeef	-0.09908854
76	0x3e0699d1	0.13144614
77	0xbcfd1ad8	-0.03089659
78	0x3d84fae9	0.0649317
79	0x3c5d2430	0.013497397
80	0xbdd73a33	-0.105091475
81	0xbdfe352a	-0.12412484
82	0xbdb049c9	-0.086078234
83	0xbd277e07	-0.040891673
84	0x3cbd3d71	0.023100587
85	0xbdf15841	-0.11784411
86	0xbe0ced2c	-0.13762349
87	0xbd2e7c26	-0.042598866
88	0xbddd3631	-0.10801352
89	0xbd3e4109	-0.04644874
90	0x3df4a31a	0.11945172
91	0xbc0cee80	-0.008601785
92	0x3aa60b68	0.0012668194
93	0x3dd1ee80	0.102505684
94	0xbc0d395a	-0.008619631
95	0x3c5849f9	0.01320123
96	0x3cb543b3	0.022127008
97	0xbc811e24	-0.015761442
98	0xbc8c0c14	-0.017095603
99	0xbcc7d7e1	-0.024394931
100	0xbd5059d2	-0.05086691
101	0x3e01e89d	0.12686391
102	0xbde65c4e	-0.112480745
103	0x3cfa96a0	0.030589402
104	0x3d528714	0.05139835
105	0xbda304ef	-0.079599254
106	0x3e04b981	0.12961389
107	0xbd9e399b	-0.07725831
108	0x3dde2ffc	0.10848996
109	0x3d82becb	0.06384047
110	0x3c49b0da	0.012310231
111	0x3de2ced9	0.11074609
112	0x3c03b0bc	0.008037742
113	0xbcf7fce4	-0.030271955
114	0x3d709c44	0.058742777
115	0xbd9f47da	-0.077773765
116	0x3d940d82	0.07229139
117	0x3e04e9dc	0.12979835
118	0x3d039475	0.032124
119	0xbe002aaf	-0.12516282
120	0x3da2577e	0.07926844
121	0x3dee740a	0.116432264
122	0xbc51e7dd	-0.012811628
123	0xbd0d4d6a	-0.034497656
124	0xbddf4690	-0.109021306
125	0xbccfd928	-0.025372103
126	0xbd2e2baa	-0.04252211
127	0x3d6b3e45	0.05743243
128	0xbdf87cb7	-0.121331625
129	0x3cf9eff8	0.030509934
130	0x3ddcd481	0.107827194
131	0x3d71a63e	0.05899643
132	0xbc8a497c	-0.016880743
133	0x3dd679ad	0.104724266
134	0x3d55f2af	0.052233394
135	0x3c96c210	0.018403083
136	0x3dfcee46	0.123501346
137	0x3d3f8978	0.04676196
138	0x3db35bf8	0.08757776
139	0xbd57d48e	-0.052692942
140	0x3d858ef9	0.065214105
141	0xbdde0d6e	-0.10842405
142	0xbc9762d0	-0.018479735
143	0x3dbae9a2	0.09126593
144	0xbbc991c6	-0.0061514108
145	0x3d64ffe6	0.055908106
146	0xbda6c297	-0.08142584
147	0x3c2f127c	0.010685559
148	0x3dbcba68	0.09215242
149	0xbdff50b3	-0.12466564
150	0x3c472c5f	0.012156575
151	0x3c1592d0	0.009129241
152	0x3d28a976	0.041177236
153	0x3ddc03b6	0.10742895
154	0x3c49c5e7	0.01231525
155	0x3cf9e194	0.030503072
156	0x3dc337bd	0.095321156
157	0xbd12ea06	-0.035867713
158	0x3defb89a	0.11705132
159	0xbdfa6ea9	-0.12228138
160	0x3c75c094	0.0149995275
161	0xbc8800ec	-0.016602002
162	0xbdfaa41c	-0.12238333
163	0x3dc0df07	0.09417539
164	0xbcb735ec	-0.02236458
165	0xbcd72172	-0.026261065
166	0xbddce51a	-0.10785885
167	0xbdfccbab	-0.12343534
168	0xbdf98cb5	-0.12185041
169	0x3dcf8aa5	0.10133866
170	0x3d8a70d8	0.067598045
171	0xbe00c22c	-0.1257407
172	0xbd078a84	-0.033091083
173	0xbbebc817	-0.0071954834
174	0x3d86d6c4	0.06583932
175	0xbddfcebc	-0.10928103
176	0x3de9d0b6	0.114167616
177	0x3e0701f0	0.13184333
178	0x3dd3a1f7	0.10333627
179	0xbc8a8fb8	-0.016914234
180	0xbca02260	-0.019547641
181	0xbd51401d	-0.051086534
182	0x3c94fdad	0.018187368
183	0xb874de4f	-5.8381174e-05
184	0x3d7207e5	0.05908956
185	0xbdcb2b17	-0.09920328
186	0xbdd1db78	-0.102469385
187	0xbdbf1a44	-0.09331182
188	0x3daee072	0.08538903
189	0xbda4b657	-0.08042591
190	0x3dbd02a8	0.09229022
191	0x3d6d236c	0.05789511
192	0xbe024734	-0.12722474
193	0xbdc75c0b	-0.09734353
194	0xbd46010f	-0.048340853
195	0x3de5db67	0.11223488
196	0x3de28a83	0.11061575
197	0x3d066fe1	0.03282154
198	0x3cfaf6ae	0.030635204
199	0x3da77234	0.081760794
200	0x3d9018ae	0.07035957
201	0xbdbe74df	-0.09299635
202	0x3cb8b20c	0.022545837
203	0xbdfafa1f	-0.12254738
204	0xbdb0c3e9	-0.08631117
205	0xbd86b9ff	-0.06578445
206	0xbe0ecf4a	-0.13946262
207	0x3d6e0350	0.058108628
208	0x3d6d1cd0	0.057888806
209	0xbc2a043c	-0.010376986
210	0x3d932ac5	0.07185892
211	0x3e10083a	0.14065638
212	0x3cb67f13	0.02227739
213	0x3da553c2	0.08072616
214	0xbcbb53fc	-0.022867195
215	0x3d65eeb5	0.056135852
216	0x3db97f60	0.09057498
217	0xbddd8e7e	-0.10818194
218	0x3be0afcf	0.0068568955
219	0xbdd54c95	-0.104149975
220	0xbe08eae4	-0.13370854
221	0x3d9ec54c	0.07752475
222	0x3dc4197f	0.095751755
223	0x3a67ca07	0.0008842055
224	0xbdbd54f6	-0.09244721
225	0xbe0e1e83	-0.13878827
226	0x3df96476	0.121773645
227	0x3d134d30	0.035962284
228	0x3d2d633f	0.042330977
229	0xbdea44a5	-0.11438874
230	0x3c144e50	0.009051874
231	0xbd734d3c	-0.05939983
232	0x3d5859a8	0.052819878
233	0x3d86b193	0.06576838
234	0xbdae3f14	-0.08508125
235	0xbdb6ebae	-0.08931671
236	0xbdf82e6c	-0.12118229
237	0xbe0339dd	-0.12815042
238	0xbd807ef4	-0.062742144
239	0xbe05d99e	-0.13071296
240	0xbd0e37be	-0.03472113
241	0xbc5a38a0	-0.0133191645
242	0x3d6b03d8	0.057376713
243	0x3d84aa96	0.06477849
244	0x3d9cfeb9	0.07665772
245	0x3dec9687	0.11552148
246	0x3bae0eb2	0.0053118104
247	0x3d8b81d9	0.06811876
248	0x3d951c48	0.07280785
249	0xbdddd705	-0.10832027
250	0xbca01d6d	-0.019545281
251	0x3d2a6790	0.04160267
252	0xbcb1acb2	-0.021688793
253	0xbd9f6c23	-0.07784297
254	0x3df6370c	0.12022218
255	0x3de1cb37	0.11025088

layers.3.bias f4 [20]
0	0x3dee7c92	0.11644854
1	0x3de0bc4f	0.10973417
2	0x3cc9a6ae	0.024615612
3	0x3c0a802c	0.00845341
4	0xbddba9a4	-0.10725716
5	0x3cb334bb	0.02187573
6	0x3dd1a9f0	0.10237491
7	0x3d2a4b57	0.041575756
8	0x3ca17318	0.019708201
9	0xbe0d1d14	-0.13780624
10	0x3d96dc2a	0.07366212
11	0x3df9f72f	0.1220535
12	0xbd559562	-0.052144416
13	0xbdfd0b4a	-0.12355669
14	0x3b4e9576	0.003152219
15	0x3d8a8074	0.06762782
16	0xbdc536cc	-0.09629592
17	0x3d7012ac	0.058611557
18	0x3c334054	0.01094063
19	0x3de2411a	0.110475734

layers.6.weight f4 [10, 20]
0	0x3e282ccf	0.16423343
1	0xbdf35a34	-0.11882439
2	0x3e1920e2	0.1495395
3	0xbd5ef34e	-0.054431252
4	0xbd033bc2	-0.03203941
5	0x3d2b42d5	0.041811783
6	0x3e4e4b36	0.20145878
7	0xbe368fe8	-0.17828333
8	0xbe001f23	-0.12511878
9	0x3e599983	0.21249966
10	0xbe5e9b84	-0.21739012
11	0x3e1325ee	0.14369938
12	0x3e3d3756	0.1847814
13	0x3dbef49c	0.09323999
14	0xbe3ccd9b	-0.18437807
15	0xbe63cbea	-0.22245756
16	0xbe4f5b5d	-0.20249696
17	0xbde3a73a	-0.1111588
18	0xbe5553ec	-0.20832795
19	0xbe2648b7	-0.16238676
20	0xbe5c5bec	-0.2151944
21	0xbe3621c2	-0.17786315
22	0xbdd6c1a9	-0.104861565
23	0x3e1de17d	0.15418048
24	0xbe3af9fb	-0.18259422
25	0x3d92897e	0.07155131
26	0x3d564861	0.05231512
27	0x3e4b2d77	0.19841562
28	0x3d97e1a7	0.07416087
29	0xbe640060	-0.22265768
30	0xbcc1f764	-0.023677535
31	0xbc364b95	-0.011126419
32	0x3be58158	0.0070039444
33	0xbe3ac935	-0.18240817
34	0xbe5d3bd7	-0.21604858
35	0x3e2823c1	0.16419889
36	0xbdb7cc25	-0.08974484
37	0x3e4a4274	0.19751912
38	0x3d3f5680	0.046713352
39	0x3bc5582f	0.006022475
40	0x3d42bf1a	0.04754553
41	0xbe10434e	-0.14088175
42	0x3e4c832c	0.19971913
43	0x3d054b5b	0.032542568
44	0xbdacc35f	-0.084357016
45	0xbdff4969	-0.12465174
46	0x3df35a1d	0.11882422
47	0x3c3e243a	0.011605317
48	0xbe2d2fff	-0.1691284
49	0xbd4b8fc4	-0.049697652
50	0x3cb6b51d	0.022303158
51	0x3e302248	0.17200577
52	0x3df92591	0.12165368
53	0x3e4a00a8	0.19726813
54	0xbd18e788	-0.03733018
55	0xbdbc4328	-0.091924965
56	0x3e209cf8	0.15684879
57	0xbe0cd395	-0.13752587
58	0x3df4ffe1	0.119628675
59	0xbdb866d4	-0.09003988
60	0x3db9d168	0.09073144
61	0xbcc83160	-0.024437606
62	0x3d0a6046	0.03378322
63	0xbe4ef7b9	-0.20211686
64	0x3cd89d76	0.02644227
65	0xbdf13587	-0.11777788
66	0x3e5e4636	0.21706471
67	0xbd0cc603	-0.034368526
68	0x3e2dad2b	0.1696059
69	0xbdcfca96	-0.10146062
70	0x3c1f114f	0.0097087165
71	0xbd89f6fb	-0.06736561
72	0xbcd33640	-0.025782704
73	0xbe2f6067	-0.17126618
74	0x3e189a84	0.14902693
75	0x3e34fe60	0.17675161
76	0xbdb7574b	-0.08952197
77	0xbe34d726	-0.17660198
78	0x3c43e1f6	0.011955729
79	0x3e49ad40	0.19694996
80	0xbdbb048b	-0.09131726
81	0xbe481f12	-0.19543102
82	0x3e30c5d1	0.17262961
83	0xbb116d02	-0.0022190218
84	0x3c4af2df	0.012387007
85	0x3c22b35b	0.009930457
86	0x3e0a715c	0.13519806
87	0x3d7ce8cb	0.061745446
88	0x3dff5fee	0.12469469
89	0xbe0fb615	-0.14034303
90	0x3d7b6b16	0.061381422
91	0x3e280aa1	0.16410305
92	0x3e6509da	0.2236704
93	0xbe5cc28a	-0.21558586
94	0x3d956476	0.07294552
95	0xbc6de947	-0.01452095
96	0x3dbe55eb	0.09293731
97	0x3d42c8da	0.04755483
98	0x3ddffcc5	0.10936884
99	0x3e5e9c33	0.21739273
100	0x3db3c2f2	0.08777417
101	0x3da8912e	0.08230816
102	0xbd2b3a03	-0.04180337
103	0xbe10e481	-0.14149667
104	0xbe6517e1	-0.2237239
105	0x3ae98896	0.0017817195
106	0xbe5cca7e	-0.2156162
107	0xbe07e6d2	-0.13271645
108	0x3b77b0b8	0.0037794542
109	0xbe17456c	-0.14772576
110	0x3d824b82	0.06362058
111	0x3d112d9f	0.0354439
112	0xbddb556d	-0.10709653
113	0x3e33c624	0.17556053
114	0xbe031e7f	-0.12804602
115	0x3d9e7ca4	0.07738617
116	0xbe0477d8	-0.12936342
117	0xbd59378b	-0.053031486
118	0x3de76f3e	0.11300515
119	0xbd26bee3	-0.040709388
120	0xbe0a5568	-0.13509142
121	0xbd14ac16	-0.036296926
122	0xbe421e12	-0.18956783
123	0xbe621c8d	-0.22081204
124	0xbd970b92	-0.07375254
125	0x3e4d5931	0.20053555
126	0x3cf6574c	0.030070923
127	0x3e57fc6a	0.21092382
128	0xbd08ec70	-0.03342861
129	0x3d5d843c	0.054081187
130	0x3de54232	0.111942664
131	0x3cc12b5c	0.023580246
132	0x3e02c860	0.1277175
133	0x3d554716	0.052069746
134	0x3da7f062	0.08200146
135	0x3e5ebd38	0.21751869
136	0xbc978c5d	-0.018499548
137	0xbd8721b0	-0.06598222
138	0xbd87e89e	-0.06636165
139	0x3c9bcf20	0.019019663
140	0x3e020a89	0.12699331
141	0xbdcf563b	-0.10123869
142	0x3e3d7dc7	0.18505011
143	0xbd969400	-0.073524475
144	0x3d8a9f76	0.06768696
145	0x3e0ea322	0.13929418
146	0xbd9ce68e	-0.07661162
147	0xbe2e79a5	-0.17038591
148	0xbd0e7488	-0.0347791
149	0xbd4f4138	-0.050599307
150	0x3e3e4013	0.1857913
151	0x3dd6a2e9	0.104802914
152	0xbd46adab	-0.048505466
153	0xbbb6280d	-0.0055589736
154	0xbe100ad1	-0.14066626
155	0x3cfbbeb6	0.030730586
156	0x3de3a572	0.111155406
157	0x3db1d03b	0.08682295
158	0x3d9f66d6	0.07783286
159	0xbd83f3d0	-0.06442988
160	0xbe0ee966	-0.13956222
161	0xbe529b17	-0.20566975
162	0x3e558cf5	0.20854552
163	0xbe417b06	-0.18894586
164	0xbd957ea0	-0.072995424
165	0xbd8ca4e0	-0.06867385
166	0x3dce00dd	0.100587584
167	0x3c208687	0.009797699
168	0xbdaf429e	-0.08557628
169	0xbe0561c9	-0.13025583
170	0x3e4b64a0	0.19862604
171	0xbe3fc792	-0.18728474
172	0xbcb77d5c	-0.022398643
173	0x3e1e9afe	0.15488812
174	0x3d00293a	0.031289317
175	0xbdfe8e5a	-0.12429495
176	0xbdf0139d	-0.11722491
177	0x3da33fe6	0.07971172
178	0x3da53060	0.080658674
179	0xbdda349d	-0.106545664
180	0x3cf9f3f6	0.030511837
181	0x3e24fd56	0.16112265
182	0x3e2e2738	0.17007148
183	0xbe2a7c7d	-0.16649051
184	0xbddd52b8	-0.10806793
185	0x3ddc0657	0.10743397
186	0x3c289782	0.0102900285
187	0xbdef88a2	-0.116959825
188	0xbe24b0c3	-0.16083054
189	0x3e3ced85	0.18449982
190	0x3e211708	0.15731442
191	0x3d817277	0.063206606
192	0xbdb2990c	-0.087205976
193	0x3e00c541	0.12575246
194	0x3e23e919	0.16006888
195	0xbd8ca619	-0.06867618
196	0xbdb396f1	-0.08769024
197	0xbe426fec	-0.18988007
198	0xbe373ed0	-0.17895055
199	0x3ddd51e8	0.10806638

layers.6.bias f4 [10]
0	0x3d1f068b	0.0388246
1	0x3c7b12ef	0.015324338
2	0x3e14fc34	0.14549333
3	0xbdfb1c85	-0.12261299
4	0x3e31dc90	0.17369294
5	0xbd86eb1f	-0.065878145
6	0x3dc742e6	0.09729557
7	0xbe61e53f	-0.22060107
8	0xbd38ed8b	-0.045148414
9	0xbd95ad49	-0.07308442

layers.9.weight f4 [2, 10]
0	0xbe136efb	-0.14397804
1	0xbea14ccc	-0.31503904
2	0xbd11ed85	-0.035626907
3	0x3e8b255c	0.2717694
4	0xbe66bbce	-0.2253258
5	0xbc7c99bb	-0.015417512
6	0x3e8a02d7	0.26955292
7	0x3e85ae83	0.26109704
8	0x3d829a00	0.063770294
9	0xbe756d0d	-0.23967381
10	0xbe764972	-0.24051455
11	0x3da9412d	0.082643844
12	0x3e86d223	0.26332197
13	0xbad0bc70	-0.0015925299
14	0xbe1affb1	-0.15136601
15	0x3e8d582e	0.27606338
16	0xbe2be682	-0.1678715
17	0xba4b62d8	-0.00077585643
18	0x3e2b33de	0.16719005
19	0x3e2c52e3	0.16828494

layers.9.bias f4 [2]
0	0x3defba55	0.11705462
1	0xbe91472d	-0.28374615
