DHH/model/fc/model-fold-7.pth (torch, 70287 bytes, 8 tensors)

layers.0.weight f4 [50, 312]
00000000: abac 14bd 1a06 bb3b 0594 24bd be01 98bc
00000010: b0e6 073d 73e8 f0bc 55a4 473d 234e f7bc
00000020: be1a 07b9 8a28 52bb f0ec e1bc 5447 3b3d
00000030: b2ee ebbc c6f6 7fba e8a7 083d 96bb 013d
00000040: 2d63 67bd 13de d6bc a7eb a03c aba4 f7bb
00000050: 1dcf 943b dd7b 13bd a52b 91bc 0584 6bbd
00000060: 1f07 003c b2e4 a63c c673 763c 726c 8a3a
00000070: 1778 15bd b255 1a3d fda3 373c cebc 303d
00000080: 8798 083c e62b f13c f02e 26bc ddfb bb3c
00000090: fc2a 0cbd 5cee d4bc 12cf 0d3d e3db 62bd
000000a0: 973e b93c a8b8 053d b804 5b3d ffee 56bd
000000b0: 5724 193d 0dc2 bf3c d3ea 1ebc c7d2 e33c
000000c0: d284 36bd 0292 bb3c 0071 4a3d cfba 26bc
000000d0: be19 15bd b9d6 54bc 4aec 0dbd 6131 7dbc
000000e0: 1473 95bc 42c1 303c b361 d03c 5167 1f3d
000000f0: ca73 543d 503b 90bc a78e 293d b8bf 143a
00000100: 9b5b 1a3d edfd 2e3d 13a1 563b abc5 433d
00000110: 4d6c 343d 42aa c63c c2a1 423d 1c19 43bd
00000120: fb0b 953b 2ade 363d 5c31 a33c 3113 77bc
00000130: dc5d 2d3c 9ee8 21bd 7533 563d f234 abbc
00000140: 9584 213d b31b 4fbc 8297 a3bc 49a8 0fbd
00000150: 6fbb 8c3c 3cb4 3abd cac7 cc3b ce11 4abc
00000160: 7c96 0a3c b520 83bc 2590 29bd 44b9 a5bc
00000170: 0b9a e0ba 8843 55bb ca8e 31bd b62b 0cbd
00000180: 38ff 93bc c63c 4abd 002f 493d 14e5 45bd
00000190: 04d5 5cbd 0b7a 1ebb 8205 e33b 1473 3f3c
000001a0: 5aa5 35bd f26f 4b3d 3a11 243c 89eb 893c
000001b0: a384 30bd d0c9 31bd db1b 103c 419a 4bbd
000001c0: d001 40bb eee8 42bd f946 99bb 8d65 28bc
000001d0: ab64 25bc 6c7c 54bd 1f65 a93b c768 103d
000001e0: a694 8fbc f5ed 403d 9e02 923b 8d56 dc3a
000001f0: 7fd8 443d 5cad dcbc 088d 3fbd 6536 c43c
00000200: 3ef8 093d 9f32 553c 58c4 033d 906c 6ebb
00000210: 0998 b53c d33a 3bbd e97b 413d 14c8 123d
00000220: cfb0 90bc 7d3b ffbc 5932 11bd 7cc1 ab3b
00000230: 6d4d 05bd 0987 883c 3b99 92bc ca56 0e3d
00000240: 8ead 843c 9a92 453d 8950 39bd 8b1c bc3a
00000250: 0abe 6a3c 2064 55bd e4a9 cc3c 8634 48bd
00000260: 368f 34bb 4133 f8bb 0822 183d 11b2 383d
00000270: f3f3 03bd 9828 7e3c 6c31 89bc f725 9ebc
00000280: cead 553d 7e06 68bd cb47 2c3d 9836 5f3c
00000290: 31b2 debc b47a 89bc 57b3 30bc 5036 3fbd
000002a0: 556b 843b a68d 843c c4ef 31bc 60af 6cbc
000002b0: 26f2 623d 1a95 903c 730f 01bd bd0c 3bbd
000002c0: c61b 61bd 7b85 8a3c 7776 883c ee71 3d3d
000002d0: 201e 3fbb b04c 02bc e09a 0e3d 5e1a 05bd
000002e0: 7b1a 55bd 6563 fb3b c4de 06bd 3258 52bd
000002f0: 4693 cabc 2f66 e03c 65ab 213c 4e87 2a3d
00000300: eb18 b8bc cc75 45bd cdd9 c63c b70f 2a3d
00000310: c8a4 90bc ae1b 35bd ff63 333d 506b c6bc
00000320: c4bf efbc 1ff5 fc3c efb6 483d ceab 61bd
00000330: db5d 523c 4cda 47bc 81d6 40bd 16f2 dcbc
00000340: ee74 e93c d436 923b 3cfe 873c b7c8 4b3d
00000350: 18ea edbc c583 cbbc d710 6b3c 2bce 03bd
00000360: cfe2 ff3b 181c 6fbc 2ac1 dc3a 1525 0fbd
00000370: 50a0 82bc 323c 623d c2ad 8cbc 488b 8fbb
00000380: 0b3f bbbb 1b4c 363c 79d4 37bd 7696 c7bc
00000390: 2b22 c13c 1a38 2b3d 5c8d be3b 9c11 3cbd
000003a0: b67e b0bc e7d5 ef3c d1e7 443d 7c09 3abd
000003b0: 98c9 c0bb 4077 cabc 6367 703c 4171 463c
000003c0: 5f1d 693c 096f 153b 861e ee39 b349 40bd
000003d0: 126e 31bd 8906 b7bc 7864 19bd 5efb 2fbb
000003e0: 3d9b d83c 8234 663c f878 903c e67f f8bb
000003f0: 2072 59bd d238 3bbb 1f63 033c bb74 20bd
-0.03629748 0.0057075145 -0.040180225 -0.018555518 0.033178985 -0.029407715 0.048740704 -0.030188626
-0.00012884566 -0.003206762 -0.0275788 0.04572232 -0.028800342 -0.000976425 0.033363253 0.031673037
-0.056491066 -0.02622894 0.019643618 -0.0075574717 0.0045412914 -0.036006797 -0.017721007 -0.05749895
0.007814198 0.020372722 0.015042251 0.0010560884 -0.03649148 0.03767938 0.011208531 0.04314881
0.008337147 0.029439878 -0.010143027 0.022947246 -0.03422068 -0.025992565 0.034621306 -0.05538548
0.022612853 0.032646805 0.053471297 -0.05247402 0.037388172 0.02340796 -0.009699541 0.027810467
-0.04456026 0.02289677 0.04942417 -0.010176375 -0.036401503 -0.012990647 -0.03464917 -0.015453667
-0.01824335 0.010788264 0.025437212 0.03891689 0.051868238 -0.017606407 0.04139581 0.000567432
0.037685018 0.04272263 0.0032749816 0.047795933 0.044048596 0.024251107 0.047517546 -0.047631368
0.0045485473 0.044645466 0.019920997 -0.015080259 0.01058146 -0.03952848 0.052295167 -0.02089927
0.03943308 -0.012640881 -0.019969705 -0.0350726 0.017179219 -0.04558204 0.0062494026 -0.0123333465
0.00845873 -0.016006807 -0.041397233 -0.020229943 -0.0017135752 -0.0032541472 -0.043349065 -0.034221373
-0.018066034 -0.049374364 0.04911709 -0.04831417 -0.053914085 -0.002418163 0.006928147 0.011685152
-0.044347145 0.049667306 0.010013873 0.016835945 -0.043095242 -0.043405354 0.008795704 -0.049707655
-0.0029297955 -0.04758542 -0.00467765 -0.010278118 -0.010094802 -0.05187647 0.0051695253 0.035256173
-0.017526936 0.047101934 0.0044558784 0.0016810462 0.04805803 -0.026938133 -0.046765357 0.023951719
0.033684008 0.013012557 0.03216967 -0.0036380626 0.022167223 -0.045710396 0.04723731 0.03583534
-0.017662434 -0.031156296 -0.035448406 0.005241571 -0.032544542 0.016665952 -0.017895332 0.034750737
0.016196039 0.048235513 -0.04524282 0.0014351768 0.014327535 -0.05209744 0.024983354 -0.048878215
-0.002755118 -0.0075744693 0.03714183 0.045091692 -0.03221507 0.015512608 -0.016747199 -0.019305212
0.052167706 -0.056646816 0.042060655 0.013623856 -0.027184578 -0.016782142 -0.010784945 -0.046682656
0.0040411153 0.016180824 -0.010860387 -0.0144461095 0.055406712 0.017649222 -0.031508874 -0.045666445
-0.054958127 0.016909352 0.016658051 0.04625123 -0.0029162243 -0.007952854 0.03481567 -0.03249585
-0.052027207 0.007671761 -0.03292729 -0.05135364 -0.024728429 0.027392475 0.009867524 0.041632943
-0.02247282 -0.048208043 0.024273777 0.041518893 -0.017656699 -0.04421585 0.043796536 -0.024221092
-0.029266246 0.030878602 0.049002584 -0.055095486 0.01283976 -0.012198042 -0.047079567 -0.026970904
0.02849814 0.0044621024 0.01660072 0.049751963 -0.029042289 -0.024843106 0.014347277 -0.03217904
0.00780902 -0.0145941 0.0016842235 -0.034947474 -0.015945584 0.055233188 -0.017172698 -0.0043806173
-0.0057143024 0.011126543 -0.044880364 -0.024363738 0.023575863 0.04180155 0.005815191 -0.04591523
-0.021544795 0.029276801 0.04807264 -0.0454192 -0.005883407 -0.024715066 0.014673087 0.012111963
0.014228194 0.0022801778 0.0004541764 -0.046945285 -0.04331786 -0.022341983 -0.03744933 -0.0026852707
0.02644121 0.014050605 0.017635807 -0.007583606 -0.053087354 -0.0028567803 0.008019238 -0.039173823

layers.0.bias f4 [50]
00000000: 40d5 a0bc b468 233d 3ef2 3ebd 9a67 24bd
00000010: ef59 8e3c 8d85 d93c 566c 223d 3c26 4cbd
00000020: efde e4bc 91e6 173c cdbd 62bd d8e4 4fbd
00000030: 12b4 563a 9403 b1bc c2be 3c3c 8cf5 23bd
00000040: 980c f93b 9515 a03b e63f 25bd 6d20 fbbc
00000050: d9b7 60bd 3934 9bbc d86e 523d 1467 413d
00000060: 2324 633d 65a8 563d b419 06bd bf17 643d
00000070: b036 893c 63d4 223d 4105 013d b628 28b9
00000080: 7c9e 573c c9bf 36bd e4ac 27bd 027c b4ba
00000090: a626 213d ba4e 3abc 52fd 5dbd c420 45bb
000000a0: ef32 463d d863 53bd 6d06 2ebd 55d2 fa3c
000000b0: e935 e7bc 0a08 be3c 9126 4dbc 1ceb 2e3c
000000c0: 65f9 3c3d ec29 1b3d
-0.019632936 0.039894775 -0.04661774 -0.040137865 0.017376868 0.02655294 0.0396541 -0.04984115
-0.027938334 0.00927128 -0.05535679 -0.05075535 0.0008190285 -0.021608151 0.01152009 -0.040029094
0.0076003782 0.0048853853 -0.04034414 -0.03065511 -0.05486283 -0.0189458 0.05137524 0.047217444
0.055454385 0.052406687 -0.032739356 0.05568671 0.01674971 0.03975333 0.03149915 -0.00016036895
0.013160344 -0.044616494 -0.040936366 -0.0013769867 0.0393435 -0.011371309 -0.054196663 -0.0030079344
0.048388418 -0.05160889 -0.042486597 0.030617872 -0.028223949 0.023197193 -0.012521402 0.010676172
0.04613628 0.037881777

layers.3.weight f4 [20, 50]
00000000: 1ac9 00be 624b c43d b237 0dbe 93e5 003e
00000010: 4d57 0dbc d0f3 e6bd 3d9e 0ebe 9e8f f9bd
00000020: 4b4b dc3d e2c0 323d 9621 a93d c3d4 c03d
00000030: 2c73 af3d 9588 9c3d 80b3 653d ca2c d5bd
00000040: 10d3 493d 77de f7bc 67d7 b73d 09ed 053e
00000050: bc62 a8bd e98f 5cbd f64b 97bd 219a 613d
00000060: 3c68 d0bc 1f21 073e e8be 1e3d 8f26 e6bd
00000070: a793 1fbd 0f5c cc3d e26b 20bd 884d 493d
00000080: 685b 3bbd a937 e33d 688c 9cbd 1ce0 13bd
00000090: 1672 1ebc fe5d 803d bfad a43d c96f f53d
000000a0: d301 febd 206a 9f3b cd27 21bd f00b aabd
000000b0: e53d bbbd a879 683d 357d b93d 42a1 a23d
000000c0: 4b38 a6bd 7d02 8c3d 2869 bb3d de38 79bd
000000d0: 0dd4 cb3d 36d8 a33b e62c 9bbc 9e22 863d
000000e0: 4914 0d3e 98dc bf3d efaa f6bd 17eb 8b3d
000000f0: 1af7 aa3d e615 29bd ba91 f5bd 93ab febd
00000100: ba13 31bd f475 4b3d e009 cdbc 29fd 953c
00000110: 193c bd3d 218b 923d 023f ce3d 5304 26bd
00000120: 6c22 c13d d669 35bd 5caf fabd e004 fa3c
00000130: 1807 a63c 5dcd fa3d 94c6 c63d 8eb6 ed3c
00000140: cc40 c03d cbac 913d a46c e5bd 80bb 0bbd
00000150: e658 743d 9cd2 5f3d c85b 553d 9af0 0e3e
00000160: 11be 35bc 1749 01be 6b0a 0cbe 5633 ec3d
00000170: b7d6 04bb 264b 3bbd 5bb6 04be d607 f3bd
00000180: 4504 ca3d d073 0dbe 4ddd 3c3b 3d14 6c3c
00000190: d364 22bd f4de bdbd 6075 2c3d aa82 db3d
000001a0: 6bde 39bc c492 97bc 8cb9 a13d 05a0 febd
000001b0: 85cd aebd 2c85 a3bd fc6c b5bd 28fd f33c
000001c0: 9ce8 4e3c 60eb e13d 5833 aebd 1c87 573d
000001d0: 63c8 01be be65 6f3d 331c 0d3e cb2c a0bc
000001e0: 6869 bfbd c138 723d e248 87bd 1378 013e
000001f0: 7e75 3cbd 2861 473d 3c9b 763d 3d74 9dbd
00000200: 99fc e83c da58 ee3d 45f9 09be d8a6 d8bd
00000210: 2002 eebb 8b08 d03d 88c9 083e 004d dbbd
00000220: 15f4 003b de74 edbd eb28 d83d 21f9 0abe
00000230: 48c0 af3d 7ad0 f33d 79b7 263d 4015 d83c
00000240: 3c30 a7bc 00e8 0e3b f416 29bd 7817 1cbd
00000250: 852a 08bd 8ac4 93bd 1797 09be eef8 ac3c
00000260: 233e ba3c 567e 2d3d 514e 1d3d fd4b cdbd
00000270: 361d f9bd 7f59 103e bb60 3dbd 14cb be3d
00000280: 456f c5bd 7714 54bd eb46 ff3d c124 09be
00000290: e011 d6bd fd20 b5bd f6b8 7dbd 3b21 cf3d
000002a0: c6a2 b13d 0713 dfbc f05f fd3c 9ba8 9ebd
000002b0: 55a6 dcbb 18f7 5c3d 908c aa3c d2b9 fd3d
000002c0: 8afc c5bd 26e8 b33d d20f fd3d 4b2f e5bc
000002d0: b0dc 72bd 307f 8a3c f926 a0bc 0c03 08bc
000002e0: e585 b63d 6d91 033e 52ff a53d 6aa0 c23d
000002f0: 7255 cabd 43ab ad3d c7d5 b6bd 98a4 cb3d
00000300: 8a63 1bbc 7066 103c cc63 af3c 1ce0 c5bd
00000310: 554c fd3d 3049 283c 80a4 f63d e319 8d3c
00000320: 56fc f2bd 9ac1 163d 8642 ed3d 86ea 9d3d
00000330: 7e20 1dbd 6de4 aa3d 37e5 6c3d d895 973d
00000340: 6ff2 943c 8810 6ebd 034d a73d 2a0c a3bd
00000350: 075e 063e dd46 153d c48f 373d b828 fabd
00000360: 64d5 033d 20ca fb3d 48e7 ec3d beeb 44bd
00000370: af1f e7bd 31b6 663d ec2a d33a 30ee b53d
00000380: 048f d93d 9bfa 0dbe 5a17 f53d fad7 ebbd
00000390: 13ad 093e 638b 8b3c 0d46 083e 803f 01bc
000003a0: c1fe 3dbd 1e1d 58bd ea86 dabb e29a f73d
000003b0: d185 ac3d 0908 b1bd 5bf3 5fbd 2778 efbd
000003c0: 767f 56bd 68fa 2ebd a2f6 1c3d 4175 313d
000003d0: 6b4b cfbd 395c 02be cadd 9f3d bd5b e2bd
000003e0: 7b90 35bd 2713 5a3d a906 b33d 2017 e5bc
000003f0: 5227 173c d52f 97bd 5f13 c2bc c461 b03d
-0.12576714 0.09584691 -0.13790777 0.12587576 -0.008626771 -0.11276972 -0.1392755 -0.12185596
0.107565485 0.04364098 0.08258359 0.09415581 0.08566889 0.076432385 0.056079388 -0.104089335
0.04927355 -0.030257447 0.089766316 0.13078703 -0.08221957 -0.05384818 -0.07387535 0.05507863
-0.025440328 0.13196228 0.03875628 -0.11237823 -0.03895917 0.09978496 -0.039165385 0.049146205
-0.04574147 0.11094601 -0.07643968 -0.0361024 -0.009670755 0.062679276 0.08040952 0.11984212
-0.12402692 0.004864946 -0.039344598 -0.08303058 -0.09142665 0.056756645 0.090570845 0.07940914
-0.08116206 0.06836412 0.09150916 -0.06084525 0.09952555 0.0050001396 -0.018942308 0.065495715
0.1377727 0.09368247 -0.12044322 0.06831949 0.08347912 -0.04128065 -0.11990686 -0.12435069
-0.043231703 0.049673036 -0.025029123 0.018309193 0.09239978 0.07155443 0.100706115 -0.040531468
0.094303936 -0.044290386 -0.122404784 0.030519903 0.020267054 0.12246201 0.097058445 0.029017713
0.09387359 0.07113036 -0.11202362 -0.03411436 0.059655093 0.054644212 0.052089483 0.1395897
-0.011092679 -0.12625538 -0.13675849 0.11533229 -0.0020269582 -0.045725964 -0.12960188 -0.11866729
0.098640956 -0.1381371 0.002881843 0.014409122 -0.039646935 -0.092710406 0.042104125 0.107182816
-0.0113445325 -0.0185026 0.078967184 -0.12432865 -0.085352935 -0.07984385 -0.08858678 0.0297838
0.012628701 0.11031222 -0.08505887 0.052619085 -0.12674098 0.05844664 0.13780288 -0.019552609
-0.093462765 0.059136156 -0.06605698 0.12643461 -0.046010487 0.04867664 0.060206637 -0.07688186
0.02844076 0.11638041 -0.13473995 -0.10578698 -0.007263437 0.101578794 0.13358128 -0.10708046
0.0019676734 -0.11594556 0.105546795 -0.13571598 0.085815966 0.11904998 0.040702317 0.02637732
-0.020408742 0.0021805763 -0.041281655 -0.03810832 -0.033243675 -0.07215221 -0.13436542 0.021114793
0.022734707 0.04235681 0.038404766 -0.10024259 -0.12163775 0.1409664 -0.046234827 0.09316078
-0.096403636 -0.05177733 0.124646984 -0.13392927 -0.10452628 -0.08844183 -0.06194397 0.1011376
0.08673625 -0.027230753 0.030929536 -0.07747003 -0.0067336955 0.053946584 0.020818979 0.12388958
-0.09667309 0.08784513 0.12356533 -0.027976653 -0.059292495 0.01690635 -0.019549834 -0.008301508
0.08912257 0.12848444 0.08105339 0.09503253 -0.09879579 0.08479931 -0.089274935 0.09943503
-0.009484181 0.0088134855 0.021409892 -0.09661886 0.12368075 0.0102713555 0.12043095 0.017224258
-0.118645355 0.036805727 0.11584954 0.077107474 -0.038361065 0.0834435 0.057835784 0.07401627
0.018182008 -0.058121234 0.08168986 -0.079613045 0.13121806 0.036444534 0.04481484 -0.12214798
0.032185927 0.12294412 0.11567551 -0.048076384 -0.1128534 0.056326095 0.0016110814 0.08883321
0.10622981 -0.1386513 0.119673446 -0.11515804 0.13444929 0.017034238 0.13307972 -0.007888675
-0.04638553 -0.052762143 -0.006668915 0.120900884 0.08423961 -0.08644111 -0.05467544 -0.11692839
-0.05236765 -0.042719275 0.038321145 0.043324713 -0.10121807 -0.12730493 0.07805975 -0.11052654
-0.04432724 0.05324092 0.08741505 -0.027965128 0.009225683 -0.0738217 -0.023690877 0.08612397

layers.3.bias f4 [20]
00000000: f698 043e 1c1f 49bd cae1 07be 337e edbc
00000010: d7fc a63d 44d5 843d db5d 06be 8844 3e3d
00000020: 29e9 2abb 1fba ba3d d6e8 76bd ad6f d43d
00000030: 6077 e23d 0ce4 edbd 64d4 08be 6298 a23c
00000040: 0904 aabd 8bb6 ecbd 3c30 b7bc 8a47 67bd
0.12948975 -0.049101934 -0.13269725 -0.02899084 0.08153694 0.0648599 -0.1312174 0.046452075
-0.0026078916 0.09117531 -0.060280643 0.10372863 0.11057925 -0.11615762 -0.1336227 0.019848052
-0.08301551 -0.11558255 -0.022361867 -0.05646471

layers.6.weight f4 [10, 20]
00000000: c985 f13d 8ce9 4ebc cf78 d13b 5394 09bd
00000010: 4548 243e 75c7 563c 12dc 7abd e371 b4bd
00000020: ee6a 57bc d3c1 00be 6f9f 603e 961c c9bd
00000030: 334f 05be e629 3f3e 74c5 973d 777d eabd
00000040: ddd7 113e 27a4 56be 8ef0 d0bd e901 1cbc
00000050: 1b5b bfbd 33f4 2dbe f321 eabd 1dbb 3bbc
00000060: 80a9 df3c b912 e73d d8c9 c1bb ba25 b13d
00000070: 4dde 303e e3f4 323e 2e50 43be 8456 a63d
00000080: 2994 87bd b55f 24bc fcfc d33d 259a 2e3e
00000090: 0e65 d43d 6028 a7bd 28a9 a93d 48c1 4cbe
000000a0: 58db 2ebe 6326 253e 66e2 273e 700e 0cbe
000000b0: 6c49 3fbe 33a7 a03d 58f0 3abe 750e 123e
000000c0: 86e3 423e a96f 9c3d 1731 efbd d07d 1fbd
000000d0: 1504 e43d 70bc a0bd b7b4 51be 851b 4dbe
000000e0: 891f ecbd ccc5 113e b4d7 72bd 20aa bfbd
000000f0: 91f1 22be 113d 293e 669e 32be f5eb babd
00000100: 7d28 4bbe 7840 08bd 7254 a0bd a4c4 42bd
00000110: 3ee8 0ebe 5ddc 883c 7024 da3d c0c7 4dbd
00000120: 505c 293e 3fd7 18be 3896 a53d 752d 26be
00000130: 72bf 603e da54 293d e42d 283b ad10 2dbe
00000140: 37de 473e 97ab 6bbd 94c3 de3d 0697 b53d
00000150: 6697 29be b8e0 0fbd a8f2 183d de2b be3d
00000160: 495c f93c da89 963d 2b67 5c3d 9105 9fbd
00000170: c245 723c c92c ab3c 98e6 a6bc b078 3fbe
00000180: abe2 183e bbfd 113d e552 d8bd 118b 333d
00000190: f907 be3d 6a6e ed3c 12c8 64be 7170 9a3c
000001a0: a9c6 133e 0060 5e3e e702 493c 2dc0 0ebe
000001b0: 40d6 92bd 1400 a5bd 15c7 273e 702c 43bd
000001c0: f64d 163e de62 133e 00c6 42be 3131 3b3e
000001d0: 00fa bfbc 2f41 093e 1f28 d73d 99bf 063d
000001e0: 225b ae3c fcc3 a53b f84e 713d 2b89 163c
000001f0: d63b 593d bb53 c93d 5a6c 913c 70c1 b83d
00000200: 3c18 24be a4e6 45bd c1ed 4fbe c738 f1bd
00000210: 99cc 11be 96d0 47be 703a 24be 34ee b33d
00000220: 3c8f b5bd c0e8 25be 03bd 92bd a96f 093e
00000230: 039d 81bd 1c2b a03d a35d f1bd 9fd2 15be
00000240: 4b0a 003e a94a 103e 0c38 22bc 819d ccbd
00000250: b6c1 cf3b 2a62 a43d 3caa 08be 9d4d 163e
00000260: 9e6a 293d 2e7d 34be 7313 09be 35d4 50be
00000270: 58e3 303e aa4c 5e3e 7dc3 15bd 77fb 4d3e
00000280: 93cf 803d 8970 a63d fdd8 053b fe14 153e
00000290: 755f 473e 296e e4bc 915f 153e 4194 3a3e
000002a0: 2e00 5cbd c36b 433e 213e 293c a7e8 003e
000002b0: 2f7a 28be 5e4a d5bd 575a d3bc 2ef4 373d
000002c0: ffb1 ee3d 19c7 34ba f6d0 4dbe 1c18 ecbd
000002d0: 663c e5bd 4810 5bbc 2d5c ed3d 88f6 983c
000002e0: 7fe8 d03c 4b94 8e3d 55d7 32be a654 b13b
000002f0: 5f38 0c3e 707f 283e 10c5 fb3d 4c32 b0bd
00000300: 4031 463c d6d9 993d 10c0 cf3d d4ec 2f3e
00000310: 028b 163e 4178 333d 2e60 8a3d 3edd 1fbe
0.117930956 -0.012628924 0.0063925753 -0.03358872 0.16043194 0.013109078 -0.06124503 -0.08810785
-0.013148053 -0.12573938 0.21935819 -0.098199055 -0.13018493 0.18668327 0.07410708 -0.11449712
0.14242502 -0.20961057 -0.10202132 -0.00952194 -0.09343549 -0.16987686 -0.114322565 -0.0114581855
0.027302504 0.11282868 -0.005913954 0.08649774 0.17272301 0.1747623 -0.19073555 0.0812197
-0.06620056 -0.010032584 0.10350987 0.17050989 0.10370837 -0.08161998 0.08284217 -0.19995606
-0.1707586 0.16127925 0.16394958 -0.13677382 -0.18680352 0.07844391 -0.18255746 0.14263327
0.19032106 0.07638485 -0.11679285 -0.038938344 0.11133591 -0.078484416 -0.20479093 -0.20030029
-0.11529452 0.1423561 -0.05928774 -0.09358621 -0.15912463 0.16527201 -0.17443237 -0.091270365
-0.19839664 -0.033264607 -0.07828607 -0.047550812 -0.13955781 0.01670664 0.10651481 -0.050239325
0.1653912 -0.1492586 0.080852926 -0.16228278 0.2194803 0.041340686 0.0025662119 -0.16900893
0.19518362 -0.057536688 0.10877147 0.08866696 -0.1656166 -0.035126418 0.03734079 0.09285711
0.030439513 0.07350512 0.053809326 -0.077647336 0.014787139 0.020895379 -0.020373628 -0.18698382
0.14930217 0.035642367 -0.10562686 0.043833796 0.092788644 0.028983314 -0.22341946 0.018852444
0.14431252 0.21716309 0.012268758 -0.13940497 -0.07169771 -0.080566555 0.16384538 -0.0476498
0.14678177 0.14393184 -0.19020844 0.18280484 -0.023434639 0.13403772 0.10505699 0.032897566
0.02128369 0.0050587635 0.0589132 0.009187977 0.05303558 0.098304234 0.017751861 0.0902127
-0.1602487 -0.04831566 -0.2030554 -0.117784075 -0.14238204 -0.19513163 -0.16037917 0.08785668
-0.088652104 -0.16202068 -0.071649574 0.13421501 -0.06328776 0.078207225 -0.11785438 -0.14631127
0.12503926 0.1409098 -0.009901058 -0.09990979 0.006340231 0.08026536 -0.1334619 0.14678045
0.041361444 -0.17625877 -0.13386326 -0.2039345 0.17274225 0.21708933 -0.036563385 0.20115457
0.06289592 0.08126933 0.0020423525 0.14558789 0.19470008 -0.02788456 0.14587237 0.18220617
-0.05371111 0.19084077 0.010329754 0.1258875 -0.1645286 -0.10414575 -0.025799913 0.044910602
0.11655044 -0.0006896123 -0.20099244 -0.11528036 -0.11193161 -0.013370581 0.11589847 0.018672243
0.025501488 0.069618784 -0.17464955 0.005411702 0.13693379 0.16454864 0.12293446 -0.08603343
0.012096703 0.07512252 0.10144055 0.17180187 0.14701465 0.043815855 0.06756626 -0.15611741

layers.6.bias f4 [10]
00000000: 8518 38be c92b 5bbd 02fb f13b f420 30be
00000010: 4ec3 d2bc b504 15be b395 7d3d aacb 5e3e
00000020: cbd4 4dbe 3bb3 073e
-0.17978103 -0.053508554 0.007384659 -0.1720007 -0.025727894 -0.14552577 0.061910342 0.21757379
-0.20100705 0.13251965

layers.9.weight f4 [2, 10]
00000000: 088d 26bd f7d6 bfbd 4b1d 573e 6325 14be
00000010: 6284 37be f0e0 9ebe af4b 6a3d 81a0 6ebd
00000020: 0a03 ef3c 072f 853b dc31 92be ea4c fabc
00000030: 682b 3abe 2aa5 9ebe 3140 9a3e a646 e73d
00000040: c50d 573e b495 e4bd 85bf 643d c89e 71be
-0.04066184 -0.09367173 0.21007268 -0.14467387 -0.17921594 -0.3103099 0.057201084 -0.058258537
0.029176254 0.004064444 -0.28553665 -0.030554254 -0.1818062 -0.30985385 0.301271 0.11292772
0.21001346 -0.11161366 0.05584671 -0.23595726

layers.9.bias f4 [2]
00000000: 88ef f53c caeb 0e3b
0.030021444 0.0021808022
