DHH/model/fc/model-fold-1.pth (torch, 68239 bytes, 8 tensors)

layers.0.weight f4 [50, 302]
000000 59 b7 46 bd c2 8a 16 bc 98 4b d9 3b 70 41 f8 bc
       -0.048514698 -0.009188356 0.006631326 -0.03030464
000010 29 60 d7 bc 17 22 cd 3c bc 6c 38 bd f9 4c 00 3d
       -0.02629097 0.02504067 -0.045025572 0.031323407
000020 d0 9c 81 bc 80 ee 39 bd 60 0a 08 bb 98 38 37 bc
       -0.015821844 -0.045393467 -0.0020758137 -0.011182927
000030 20 ce ce 3a a2 ca 88 bc fc 64 0d 3c 5e 6c a5 3c
       0.0015777983 -0.016698185 0.008630034 0.020193275
000040 bb 36 1b 3d 5d 3e e5 bc f2 cb 8c 3c 91 c2 3a 3d
       0.037893992 -0.027983839 0.017187092 0.04559571
000050 40 48 79 ba 90 08 68 bb 51 f1 05 3d 69 e3 56 bd
       -0.0009509362 -0.0035405494 0.03270084 -0.05246297
000060 ce 85 26 bd 93 67 65 3d 4c 75 0e 3c 80 1d 5c ba
       -0.04065495 0.05600698 0.008694958 -0.000839673
000070 47 60 65 bd 6c 0d 2a bd e0 75 05 3b 38 e6 5f bc
       -0.05600002 -0.041516706 0.0020364448 -0.013665728
000080 46 9b c9 3c 29 29 33 bd fa b5 b6 3c 01 4f 00 bd
       0.024610173 -0.043740425 0.02230357 -0.031325344
000090 2a 66 ac bc dd de 2c 3d 82 b2 a0 3c 09 b1 19 bd
       -0.02104481 0.042204726 0.01961637 -0.03752235
0000a0 22 8c e4 3c 52 30 8c 3c b0 29 91 bc 06 97 68 bd
       0.027898852 0.017112885 -0.017720073 -0.056784652
0000b0 ee cc e2 3c b0 87 08 3d 02 de f9 3c 7e 9a b3 3c
       0.027685609 0.033332527 0.03050137 0.021924254
0000c0 b8 57 ea 3b c4 8f 3c bd 28 36 22 bd a8 82 10 bc
       0.00715157 -0.046035543 -0.03960243 -0.008820213
0000d0 c2 17 8b 3c 20 ec 43 bb 3f cd e9 bc 2e 01 c5 3c
       0.016979102 -0.002989538 -0.028540252 0.024048414
0000e0 04 18 2e 3c 60 e8 29 bd dd 9f 3a 3d fa e1 f9 3c
       0.010625843 -0.041481376 0.045562614 0.030503262
0000f0 a9 bc 3b 3d 50 58 83 bc fa 3e e3 3c 9c e3 2b 3c
       0.045834217 -0.016033322 0.02773999 0.010491278
000100 ee 40 41 3d 37 79 2c 3d b2 aa 57 3b 1e 8c fd 3c
       0.047181062 0.042107787 0.0032908139 0.030950602
000110 82 2c 83 bc a0 b0 d1 bc b2 23 80 3c 16 8e fa 3c
       -0.016012434 -0.025596917 0.01564202 0.03058533
000120 9b 88 0a 3d 8f b4 fb 3c b3 25 57 3d 65 b8 0b 3d
       0.033821683 0.030725745 0.052526187 0.0341114
000130 7a 39 f2 3c e0 36 4a bd ce 63 2f bd ca 71 9a 3c
       0.029568423 -0.04936874 -0.04281979 0.018853087
000140 9f 8d 24 3d 3c cb 35 3c 76 0e 70 3c 16 cf c2 3c
       0.040174123 0.011095818 0.014651885 0.023780387
000150 c0 18 f5 bc 78 83 d2 bb ea 82 11 bd b7 ac d8 bc
       -0.029919028 -0.0064243637 -0.03552524 -0.026449544
000160 59 0f 8d bc 95 10 e7 bc 60 f1 8d bb f9 8e 56 bd
       -0.017219232 -0.02820615 -0.0043317527 -0.052382443
000170 53 db 17 3d c7 27 3d bd 36 38 b2 bc 84 cc 22 bc
       0.0370744 -0.046180513 -0.02175532 -0.009936456
000180 48 dc 47 bd 64 e9 92 bc ff 5c 40 3d da ce 4e bd
       -0.04879406 -0.017933555 0.046963688 -0.050490238
000190 03 4d 2d 3d bc eb 06 bd 24 b0 46 bd 5a e8 bd 3c
       0.042309772 -0.032939658 -0.048507825 0.023182083
0001a0 ea b0 84 3c eb 4b 18 3d be 24 d6 3c fb d6 0a 3d
       0.01619764 0.037181776 0.026140567 0.033896428
0001b0 66 a6 a5 3c c8 bc 80 bb e1 45 2c 3d 37 f2 34 bd
       0.020220947 -0.0039287545 0.04205883 -0.044176307
0001c0 d2 a9 67 bd 87 9f c1 bc c0 c5 28 bd f0 07 41 3d
       -0.056558438 -0.023635639 -0.041204214 0.04712671
0001d0 e6 93 de 3c 0b 89 6a 3d 0e 92 fd bc 83 cc 4e 3d
       0.027170133 0.0572596 -0.030953433 0.050488006
0001e0 25 18 50 bd 24 a9 24 bd 48 23 5e 3d 80 96 cc b9
       -0.050804276 -0.040200368 0.054232866 -0.00039022043
0001f0 f4 43 0c 3c 06 de cc bc 26 95 90 3c de 1e 45 bc
       0.008561123 -0.025008213 0.017649245 -0.012031285
000200 cf e1 3b 3d 4a 1f f4 3c 20 5d 83 bb bc 4d b6 bc
       0.045869645 0.029800076 -0.004008904 -0.022253864
000210 fe c4 1c bd ca 6d c3 3c 4c c1 1d 3c 83 23 33 bd
       -0.038273804 0.023856062 0.009628605 -0.04373504
000220 1e 68 a9 bc e0 cf e0 ba b5 e8 2c 3d 7a 2c 04 bd
       -0.02067953 -0.0017151795 0.042214114 -0.03226898
000230 40 3d 03 3b 25 33 08 bd ae a1 4e 3d 86 f4 d1 bc
       0.0020025522 -0.0332519 0.05044716 -0.025629293
000240 78 74 83 bc f3 d7 1f 3d 8f db 2e 3d 0a 8d f5 3c
       -0.016046748 0.039024305 0.042689856 0.02997448
000250 5b 50 63 3d ef 29 22 bd 3c 6a da bc 6f 5c 67 3d
       0.055496555 -0.039590772 -0.026661985 0.056484636
000260 bd 77 5c 3d 9d 50 59 3d 52 c5 33 bd 42 69 b6 3c
       0.05382513 0.053055394 -0.04388935 0.022266988
000270 49 69 5f 3d 16 f0 ef 3c 78 91 de 3b 93 a8 42 3d
       0.054543767 0.029289287 0.0067922436 0.047524046
000280 03 d1 50 3d e5 d3 0f 3d 53 87 ad 3c db 33 53 bd
       0.05098058 0.035114188 0.021182692 -0.051563125
000290 69 d4 62 bd 43 64 8a 3c 6a 22 45 bd 00 f8 cc 38
       -0.05537835 0.016893512 -0.048128523 9.7736716e-05
0002a0 70 79 a5 bc 20 ac 8c 3a 85 2b e4 bc 79 eb 0f 3d
       -0.020199507 0.001073245 -0.027852783 0.035136674
0002b0 95 42 49 3d 92 d0 4b bd eb 93 4d 3d 6c 3f 3a bd
       0.049135763 -0.049759455 0.050189894 -0.04547064
0002c0 64 f6 18 bd ee 2e c4 3c 90 f9 7e bc 4d 52 39 bd
       -0.03734435 0.02394816 -0.01556243 -0.045244504
0002d0 82 1e fd bc 43 44 68 3d 31 72 1e bd 16 89 aa bc
       -0.030898336 0.056705724 -0.03868312 -0.02081732
0002e0 3c fc 0c bd fa 6c c4 3c af d5 0b 3d b5 e5 ce bc
       -0.034420237 0.023977745 0.03413933 -0.025256017
0002f0 80 07 49 3b 4e 3e 5d bb be 17 29 bd d8 7c ef 3b
       0.0030674636 -0.003375906 -0.041282408 0.0073085837
000300 36 6c 83 3c db c8 2f 3d 4b 3f 62 3d 67 6b 01 bd
       0.01604281 0.04291616 0.055236142 -0.031596567
000310 c8 bc 89 bc 90 9d 89 bc 7a a7 1d bd ea 2c f9 3c
       -0.01681365 -0.016798764 -0.038489796 0.030416925
000320 c2 9a 9d 3c a4 4c 2e bc 43 8e 1a 3d c0 5e 83 bb
       0.019238833 -0.01063839 0.037733328 -0.004009098
000330 8a 54 e5 3c ba ad ec 3c 42 bb 5b bd 68 6d 8b bb
       0.027994413 0.028891433 -0.05364538 -0.0042549856
000340 0e 5e fb 3c 04 87 7e bc f8 a4 19 bc 62 84 f4 3c
       0.030684497 -0.01553512 -0.0093777105 0.029848281
000350 80 71 35 ba a7 9c fb bc 3b 97 2a 3d 8e dc f4 3c
       -0.0006921515 -0.030714346 0.04164813 0.029890325
000360 0c b6 1a 3c 40 dc 21 bd da 17 2b bd 68 96 f5 bb
       0.009442817 -0.039516687 -0.041770793 -0.0074947365
000370 40 fc 4f 3b 87 13 3c 3d d8 eb d4 3b 40 71 01 ba
       0.0031736046 0.04591706 0.0064978413 -0.0004937835
000380 e6 e6 84 3c 76 8f 50 bd 70 94 31 bb 8a ae aa 3c
       0.016223382 -0.050918065 -0.0027096532 0.02083518
000390 52 ca ac bc 2c 07 69 3c 96 79 87 bc 5a 10 69 bd
       -0.021092568 0.014222901 -0.016537469 -0.05690036
0003a0 8a 90 3b bd e0 b8 02 bb 6c d0 4f bd 71 b6 42 3d
       -0.04579214 -0.001994662 -0.050735876 0.04753727
0003b0 52 15 d0 3c f9 8d 6a 3d 1b 63 82 bc d1 0a 20 3d
       0.025400791 0.057264302 -0.015916398 0.039072815
0003c0 d8 03 52 bd 92 55 a3 3c 83 be d7 3c b8 9f e2 3b
       -0.051273197 0.019938264 0.02633596 0.0069160126
0003d0 1d b7 d9 bc aa 98 cf bc 78 07 a5 bc 69 0c 40 3d
       -0.026576573 -0.02534135 -0.020145163 0.046886835
0003e0 56 eb 86 3c ba da af bc 84 31 94 bc 80 7a f8 3a
       0.016469639 -0.021466602 -0.018090017 0.0018957406
0003f0 1a f0 aa 3c e9 a1 57 3d 3d d4 19 3d 93 d5 47 3d
       0.020866442 0.052644644 0.03755592 0.048787665

layers.0.bias f4 [50]
000000 fb 86 a9 3b f6 b2 93 3c b4 46 8f bc 32 22 11 bd
       0.0051735616 0.018029671 -0.017489769 -0.035433
000010 ba bc 61 bc cf 3d 07 3d 36 4f 3b 3d 52 07 a8 3b
       -0.013777906 0.03301793 0.04572984 0.005127826
000020 08 69 63 3d ff d3 ce 3c 23 18 37 3b 73 eb 0a bd
       0.055520087 0.025247572 0.002793797 -0.033915948
000030 ea e5 47 bd fb ab 14 bd 02 10 2d bd d9 3f ec bc
       -0.048803248 -0.036296826 -0.042251594 -0.028839039
000040 72 2a f8 3c 20 c1 91 3b 95 3c cb bc e8 68 5f 3d
       0.030293677 0.004448071 -0.024809161 0.054543406
000050 1e 1e 03 3d d0 49 18 bc ed 76 52 3d dd 7e 9e 3c
       0.032011144 -0.009294942 0.051382948 0.019347603
000060 82 f7 1b bd 8e 49 38 3d 76 63 6e 3d a2 71 39 3d
       -0.03807784 0.044992022 0.058200322 0.045274384
000070 61 89 68 bd d3 c1 3d 3c b3 a7 6a bd 87 87 da bc
       -0.05677164 0.011581856 -0.057288837 -0.026675953
000080 6e 6b 3b 3d 23 76 6d 3d 56 e7 d1 bc 48 75 b8 3c
       0.04575675 0.057973992 -0.025623005 0.022516862
000090 9c d1 82 ba 49 3d 90 bc fb 86 82 bc 27 67 f8 3c
       -0.0009980681 -0.017607348 -0.015933504 0.030322624
0000a0 94 ea d9 bc 16 ad 55 bd df e6 f1 3c 88 85 5f 3d
       -0.026601113 -0.05216702 0.029529033 0.054570705
0000b0 23 44 68 3d ae 51 17 bc 33 54 f2 bc e7 71 8d bc
       0.056705605 -0.009235783 -0.029581165 -0.017266227
0000c0 13 77 f3 3c 58 96 68 bd
       0.029719865 -0.056784004

layers.2.weight f4 [20, 50]
000000 e2 38 01 be e1 fb 81 3d a5 22 1b 3d a9 9a cf bc
       -0.12619355 0.0634687 0.037874836 -0.025342302
000010 65 24 50 3d 68 64 89 3b eb f5 bf bd c1 5d ab 3d
       0.05081596 0.0041928776 -0.09373077 0.083674915
000020 52 1a ce 3d 50 ec 6f bd 29 87 b2 bd 8e 83 8c 3d
       0.10063614 -0.058574975 -0.08717186 0.068610296
000030 48 dc c9 3d f0 1f db 3c b6 ee d9 bc e9 80 6b bd
       0.098564684 0.026748627 -0.026603084 -0.057495985
000040 cb 11 6c 3c 1e 11 ca bc 70 e9 0b be b4 33 df bd
       0.014408539 -0.024666365 -0.13663268 -0.108985335
000050 93 6c 9d bd e3 89 9b 3d 6a 93 0d 3e e7 27 e4 3d
       -0.076867245 0.07594659 0.13825765 0.11140423
000060 13 a5 07 be 7f 68 0e 3d 51 af d5 bd 30 74 fe bd
       -0.13246565 0.034767624 -0.104338296 -0.12424505
000070 71 15 d5 3d dd f0 64 bd 3a a1 e0 3c 8a e4 87 bc
       0.1040448 -0.055893768 0.027420629 -0.016588468
000080 07 00 4c bd 4b fe 08 bc 9f 8e c6 bd 93 eb 54 3d
       -0.049804714 -0.008361409 -0.096951716 0.051982474
000090 cb 8c 79 3d 82 bd 44 bd 65 02 e4 3c 31 df eb 3d
       0.060925286 -0.04803229 0.027833173 0.1151718
0000a0 6c fd bd 3d 3c 84 94 bc f1 bb 00 be df aa 2c bd
       0.09276852 -0.01812946 -0.12571694 -0.042155143
0000b0 d4 0f 5e 3d 24 58 b0 bb 8d 58 0f 3c 94 23 15 3c
       0.054214314 -0.005381601 0.0087491395 0.009102721
0000c0 6c c0 f5 3d ac f2 02 3d c3 79 0e 3d 41 0e 15 3d
       0.11999592 0.03196971 0.03478409 0.036390547
0000d0 50 b2 e3 bd ec 53 0e 3d 8c ff 33 bc dd 8f f0 3d
       -0.11117995 0.034748003 -0.01098622 0.1174619
0000e0 2e 43 b2 bd 42 d2 03 3e e0 dc 46 3d 48 0f 86 3d
       -0.0870422 0.12873176 0.048550487 0.065458834
0000f0 4f ae bd bd e7 9a a7 3d f7 11 9b 3b 87 6c 4e 3d
       -0.09261762 0.08183842 0.004732366 0.05039647
000100 94 01 44 3d e8 4a a5 bd e6 6d 0d be 8b dd 07 3e
       0.047853068 -0.08070928 -0.13811454 0.13268106
000110 18 39 d7 bd 37 b1 4a bd cb dd c5 bd c0 d2 95 bc
       -0.10508937 -0.04948541 -0.09661444 -0.01828897
000120 e7 b1 cc bd fa ea 67 bd e8 5a 72 bc ee f6 a7 3d
       -0.0999487 -0.056620575 -0.014792182 0.08201395
000130 35 b0 f7 bd d2 e8 86 bd 3e 5f 1b bd 02 bd 08 3e
       -0.12094156 -0.06587376 -0.037932627 0.13353351
000140 4b 30 94 bd 34 83 90 bd a2 f1 a9 3d 48 33 02 3e
       -0.07235774 -0.07056275 0.08298041 0.12714875
000150 ca 84 0f bd 79 6d 0f be 9d 2a 80 bd 12 d4 63 bd
       -0.035038747 -0.14006604 -0.06258128 -0.055622168
000160 6d f5 24 3d f8 dc f5 bc fa 28 bb bc d9 2d 02 3e
       0.04027312 -0.030012593 -0.022846688 0.12712802
000170 31 a4 93 bd 61 85 a1 bd a0 ec 5d 3d 55 b4 bf bd
       -0.072090514 -0.07886768 0.05418074 -0.093605675
000180 d5 f8 ad bd 8f 02 d8 3d f3 e1 c9 3d ab 2b b3 bd
       -0.084947266 0.10547363 0.098575495 -0.087485634
000190 39 00 ff bd 74 9a 9b bd aa 92 75 3c e9 71 1f bb
       -0.12451214 -0.07597819 0.014988581 -0.002432937
0001a0 42 a5 94 3c 5b 16 ab bd 95 c6 2d 3d 26 83 b0 3d
       0.018145207 -0.08353873 0.04242571 0.086187646
0001b0 15 1c 01 3e 5a 62 6f 3d fc d3 ca 3c 1a 8a a6 3d
       0.12608369 0.058443405 0.024759285 0.081318095
0001c0 12 d9 c0 bc 2c 6e 0c 3e aa 2b 21 bc 13 bf 88 ba
       -0.023541007 0.13713902 -0.0098370705 -0.0010432921
0001d0 76 55 46 bd e9 ed 66 bd 57 e7 85 3d 3f 66 60 3d
       -0.048421346 -0.056379233 0.06538265 0.05478501
0001e0 35 09 b8 3d 2a 57 97 3b af b8 01 be e8 57 07 3e
       0.08986131 0.004618545 -0.12668107 0.13217127
0001f0 a9 4f 8a 3d 12 8f 4f 3d d6 a1 01 3e a8 99 f0 3d
       0.06753475 0.05067355 0.12659392 0.117480576
000200 af cd e8 bc e4 06 4a 3d a2 f2 ea bc 62 3d c6 3d
       -0.02841839 0.049322978 -0.02868015 0.096796766
000210 50 1d c5 bd 29 ec eb bd 43 ed 0c 3d 26 af 88 bc
       -0.096247315 -0.11519653 0.034405958 -0.01668508
000220 37 14 07 3c b0 1a af bd be ce e0 bd a7 bf 12 bc
       0.008244566 -0.08550012 -0.10976933 -0.008956826
000230 37 71 c9 bd 2d f6 43 3c 49 a0 05 bd 26 04 6d bc
       -0.09836047 0.011960548 -0.032623563 -0.014466321
000240 d8 6b 33 3d fd da 14 bd a8 dd f1 3c 05 08 cd 3d
       0.04380402 -0.036341656 0.02952464 0.10011295
000250 d5 40 67 3d ba 8a c2 3d 9f c9 a5 bd ae 21 09 3e
       0.056458313 0.09499116 -0.08095097 0.13391754
000260 7f 01 f2 bd 5a 4c 2e 3d 97 c8 87 3c f8 e9 06 3e
       -0.118166916 0.042553283 0.01657514 0.1317519
000270 58 b8 ba 3d 9a 2a e5 bd 2d ad 4e 3b 32 d1 e7 bd
       0.09117192 -0.11189766 0.0031536326 -0.11319198
000280 f6 d0 a9 bd 46 6a ca 3d c9 29 46 3d ce f1 2c bd
       -0.08291809 0.09883551 0.048379693 -0.04222279
000290 f5 5e 04 be 34 17 b2 bc 15 40 83 bd 46 25 a0 bc
       -0.12926848 -0.02173958 -0.06408707 -0.019549023
0002a0 1b 5d ea bd 5a 98 df 3d 8b eb 61 3d 62 13 8d 3d
       -0.1144354 0.10917731 0.055156272 0.068884626
0002b0 07 d6 c1 3d b1 a2 34 bc 4e 16 49 3d 56 ed 01 bd
       0.094646506 -0.011025117 0.049093537 -0.03172048
0002c0 57 9e 4e 3d 93 ae 2b bd 66 0e 8e 3d 6b c2 e6 3d
       0.050443973 -0.041914534 0.0693634 0.11267551
0002d0 89 95 fc 3d 9f 7f 15 3d 5f 34 cb bd 17 88 9c 3b
       0.12333209 0.036498662 -0.09922098 0.0047769654
0002e0 d0 85 5e 3d 15 1a f1 bd 78 46 ca bd 32 03 05 3e
       0.054326832 -0.11772553 -0.09876722 0.129895
0002f0 20 4c 47 3c 5c 6e ca 3c 71 7c a1 3c 31 0d 22 3d
       0.012164146 0.024710827 0.019712659 0.03956336
000300 2e 7f 6f bc 82 e2 a5 bd 14 c9 f8 bc f5 20 51 3c
       -0.014617724 -0.080998436 -0.030369319 0.012764205
000310 21 6b bc 3c 0d c2 6b 3d 90 08 cc 3c 0c 21 3e bd
       0.023000302 0.057558108 0.024906427 -0.046418235
000320 cd be ab 3d 7e ff c2 bc d5 18 b9 3d 93 d2 c5 bd
       0.08386002 -0.023803469 0.090379395 -0.096593045
000330 03 c7 b8 bd 9a 27 f7 bd 4d b3 b4 3a 02 89 fd bd
       -0.090223335 -0.120681 0.0013786346 -0.12379648
000340 5b d1 e5 3d 81 89 87 3d 4e 62 36 bd bf b3 96 3d
       0.11221572 0.06618024 -0.044527344 0.073585026
000350 46 ae ef 3d 09 9b 04 be fe 22 84 3d 92 69 ff bd
       0.11703162 -0.12949766 0.06451987 -0.12471308
000360 69 9a bc 3d 99 be b4 3d 46 5c ba 3d 3f 52 d2 bc
       0.09209139 0.08825416 0.09099631 -0.025673984
000370 c9 fd 7e 3c 3f f8 df bd c9 93 9a 3d d3 8f 07 be
       0.015563437 -0.10936021 0.07547719 -0.13238458
000380 b3 54 7b bd 5e 16 1c bd 27 dd 3d 3d 4c e1 92 3c
       -0.061360072 -0.03810727 0.046353485 0.017929696
000390 9e 73 36 bd 98 8a 32 bd 49 94 3f 3d 97 27 93 3d
       -0.044543855 -0.043589205 0.046772275 0.071852855
0003a0 51 07 39 3d 69 f8 ef bd e9 44 af bd 23 a5 0a 3e
       0.045172993 -0.11717302 -0.085580654 0.13539557
0003b0 db 24 ac bd d9 52 70 bd fb f4 c5 3d 80 73 51 3d
       -0.08405467 -0.05867276 0.09665867 0.05113554
0003c0 e5 4a ac bd e0 b7 af 3d 09 40 10 3d 3b 0c ce bc
       -0.084127225 0.08579993 0.03521732 -0.025152316
0003d0 a8 00 1b bd 5b c1 25 bb 6c bc e1 bc 14 31 be bd
       -0.037842423 -0.002529225 -0.027555667 -0.09286705
0003e0 88 64 03 be 40 1f c6 bd 94 e9 0f 3e 6f 54 ee 3d
       -0.12831318 -0.09673929 0.14053947 0.11637198
0003f0 04 b7 59 3d dd 7b 29 3d 3e 66 e1 3d 66 c6 e4 3d
       0.053153053 0.04137789 0.11005829 0.11170654

layers.2.bias f4 [20]
000000 99 84 e0 3d 32 53 b7 3d 57 10 02 bd 15 c0 ab 3d
       0.10962791 0.08951415 -0.031753864 0.08386246
000010 4b 0f 50 3d 15 7d 9b 3d 58 f8 48 bd b3 2d 01 be
       0.050795835 0.07592217 -0.049064964 -0.12615089
000020 b7 5c ce bd 11 c7 02 be 6b f8 15 3d e2 34 bd 3c
       -0.10076278 -0.1277125 0.036613863 0.023096506
000030 22 e1 7c bd ce 94 fc bd 8f 52 01 bc b2 ae 28 3d
       -0.06173814 -0.1233307 -0.007893219 0.041182227
000040 04 b1 0c be a8 8d d1 bd bc de 50 3c 52 86 e3 3d
       -0.13739401 -0.10232097 0.0127484165 0.11109604

layers.4.weight f4 [10, 20]
000000 f6 ef 60 3d 8e c5 60 be fb b6 d6 3d 0b 7c 31 3d
       0.054916345 -0.21950361 0.104841195 0.043331187
000010 dd c1 06 be e9 02 d5 bd 67 01 fa 3d aa b4 5a 3e
       -0.1315989 -0.10400946 0.12207299 0.2135798
000020 5f c0 82 ba 82 df 48 be 5f eb 1e be a0 a6 61 be
       -0.0009975544 -0.19616511 -0.15519474 -0.22036219
000030 c0 2b 2d be 22 83 0c 3e 82 f5 0a 3e e4 46 fa 3d
       -0.1691122 0.13721898 0.13570216 0.122205526
000040 49 ee 54 bd 11 41 2b be d7 d4 d0 bd 58 c1 76 bd
       -0.05198506 -0.1672404 -0.10196846 -0.06024298
000050 3e 9f 4e 3e f4 27 56 3e e9 3a 80 3d 46 a5 03 3c
       0.20177934 0.20913678 0.06261236 0.00803501
000060 4e e3 4b 3e 4d 1a 41 3d 0e 36 83 bd 30 5d 0b 3d
       0.19910929 0.047144223 -0.064067945 0.034024417
000070 48 5f 13 3e c1 33 09 3e d0 a0 97 3d ec ed 1a be
       0.14391816 0.13398649 0.074037194 -0.15129822
000080 58 38 d2 3d 86 9d 3f 3c 31 37 1e 3c d2 69 ad bd
       0.10264653 0.011695271 0.009656713 -0.08467449
000090 8a a0 18 3e 9b 10 c0 bd a9 d1 58 be 7e b0 0f be
       0.14904991 -0.09378167 -0.21173729 -0.1403217
0000a0 63 49 1c 3e ab c2 05 3e c4 66 37 be d5 ed fd bd
       0.1526237 0.13062541 -0.17910296 -0.123988785
0000b0 c8 f0 b0 3d 0f 28 bf 3d 8e 7e 7b bd 40 69 71 3d
       0.086396754 0.093338124 -0.06139999 0.058938265
0000c0 d8 33 2f 3e 8d 88 9d 3c 07 40 29 be 57 83 dc bd
       0.1710962 0.019230152 -0.1652833 -0.107672386
0000d0 ea cb 3c 3e ea 49 c7 bd 87 21 1a 3d 63 ee f5 bc
       0.18437162 -0.09730895 0.03762963 -0.030020898
0000e0 17 47 67 3e 90 3c cb bd 96 42 04 3e fb 6f 1a be
       0.22585712 -0.09923661 0.12916026 -0.1508178
0000f0 62 3e 47 3e f1 32 44 be 63 33 88 3d 17 19 1d 3e
       0.19457391 -0.19160058 0.06650426 0.15341602
000100 f1 f5 84 bd 3f 58 c6 3d 7a 97 d8 bd b6 59 4a 3e
       -0.06492222 0.096848 -0.10575767 0.19760785
000110 6a b8 15 3d 5b 9c 2d 3e b2 f8 44 be a9 45 27 be
       0.036552824 0.16954176 -0.19235495 -0.16335167
000120 26 24 59 3e 7c 81 1b 3e f4 c5 e2 3b d3 d8 13 3e
       0.21205196 0.15186113 0.0069205705 0.1443818
000130 d7 e4 cc 3d 55 a6 5d 3e 8c d5 f2 bd c2 23 07 3e
       0.10004585 0.21645482 -0.11857137 0.13197234
000140 9e 2b 52 3e 80 0d 5d 3d 47 31 11 be f0 ec 51 3e
       0.20524451 0.053967953 -0.14178954 0.2050054
000150 be e6 3b 3e 5a e1 2b 3e 64 8c de 3d f4 73 ba 3d
       0.1834974 0.16785184 0.10866621 0.091041476
000160 8c c7 9b 3d 31 44 55 be 14 54 b2 bd 00 d1 23 3d
       0.0760642 -0.20826794 -0.08707443 0.03999424
000170 c1 fa 09 be a2 b8 61 3e c2 01 91 bd 7e e5 15 be
       -0.13474561 0.22043088 -0.070804134 -0.14638326
000180 30 a3 87 3d 41 99 ec bd f7 61 60 be 70 86 40 be
       0.066229224 -0.11552668 -0.2191237 -0.18801284
000190 e4 45 54 be ca d7 21 be 00 75 0a 3e 55 91 60 3e
       -0.20729786 -0.15804973 0.13521194 0.2193044
0001a0 d3 88 4b 3b cb d4 0c 3e 81 e6 c5 bc 20 9f 2b 3d
       0.0031056895 0.13753049 -0.024157764 0.0418998
0001b0 8f 78 36 3e a0 a4 eb 3c e5 4f 47 3d fa 5f 5f 3e
       0.17819427 0.028765023 0.048660178 0.21813956
0001c0 90 72 2c 3d 62 fa 30 be e2 17 07 3e 19 38 38 3e
       0.042101443 -0.17283013 0.13192704 0.1799015
0001d0 6d 5a 0d be e1 1b 14 3e 90 4f 14 bd d8 9c 92 bd
       -0.13804026 0.1446376 -0.03620869 -0.07158822
0001e0 1c 15 9a bd 02 ff 64 bd e1 60 63 3e fb 4d 3c 3e
       -0.075235575 -0.055907257 0.22204925 0.18389122
0001f0 66 e8 ca 3d d8 09 61 3e 66 c3 8f 3d d0 bb 15 3d
       0.09907608 0.21976411 0.07019691 0.036556065
000200 8a c3 cb bd 90 c3 6e 3c 10 c1 18 bd f2 88 5a bd
       -0.099494055 0.014572993 -0.037293494 -0.053353257
000210 80 aa 2c bb 60 c7 ac 3b de 1b 46 be 82 d5 3c be
       -0.0026346743 0.005272791 -0.19346568 -0.18440822
000220 c0 07 30 3e ac 44 63 be 08 4e c3 ba 51 4c d2 3c
       0.17190456 -0.22194165 -0.0014900574 0.025671156
000230 cd 74 aa bd 63 6e e1 bd 16 ba 00 3e 90 16 29 3e
       -0.08323059 -0.11007383 0.12570986 0.16512513
000240 d5 10 60 be e3 97 48 3d f8 02 4c be 89 d5 f6 bd
       -0.21881421 0.048972975 -0.19923007 -0.12052447
000250 ee 93 90 3d 70 ad 36 3d e7 48 60 3e cb 90 da 3d
       0.07059465 0.044598997 0.2190281 0.10672148
000260 bc 8d 58 3e a4 28 23 be 5a 1d 29 3d 58 2d 02 be
       0.21147817 -0.15933472 0.041287757 -0.1271261
000270 bd 8f ac bd 50 d9 5a be b9 21 38 3e 57 06 44 3e
       -0.084258534 -0.2137196 0.17981614 0.19143043
000280 00 26 57 3e 16 fb e0 bd ae 75 41 3e 56 9c 27 be
       0.2101059 -0.10985391 0.18892547 -0.16368231
000290 16 7d f7 bd 9c 39 a6 3d 6f 25 59 be 18 a9 94 bc
       -0.12084405 0.08116457 -0.21205686 -0.018147036
0002a0 78 2c 83 3d a0 35 ee 3c 60 4d 0c 3e c8 22 47 3d
       0.06404966 0.029078305 0.13701391 0.048617154
0002b0 fc eb 0b bd d2 f1 2e 3e f8 74 1d 3d 28 d6 f6 bc
       -0.0341606 0.17084435 0.03844163 -0.030131415
0002c0 50 74 ee 3c d9 72 e4 bd 70 f5 77 3d da 0c 2e 3e
       0.029108196 -0.11154718 0.0605368 0.1699709
0002d0 b9 22 e0 bc f5 57 45 be e6 ea 56 3e d0 c6 21 be
       -0.027360307 -0.19271834 0.20988044 -0.15798497
0002e0 40 fa c4 bc 30 63 0f 3e 24 94 a7 bb 80 71 08 3b
       -0.02404511 0.14002681 -0.0051140953 0.0020819604
0002f0 57 a7 48 3e 45 21 f8 bb 8e 98 00 3e b6 96 33 be
       0.19595085 -0.0075723254 0.12558195 -0.1753796
000300 ae 1c 17 be 84 21 4c be e7 05 5a 3d 4b e1 05 3e
       -0.14757034 -0.1993466 0.053228285 0.13074224
000310 96 a9 c9 3d d1 83 da 3d 26 95 0f 3d 84 5c e9 3d
       0.09846799 0.10669673 0.03505435 0.11394599

layers.4.bias f4 [10]
000000 8c b1 9b 3c af 4f c6 bd 24 ad e6 bc e1 4d 65 bd
       0.01900556 -0.09683167 -0.028158732 -0.055982474
000010 76 b9 51 be c1 ca 01 3e 35 0e 52 bd 1a 0f 74 3d
       -0.20480904 0.12675 -0.05128308 0.059584714
000020 9d b2 02 be 33 31 12 be
       -0.12763448 -0.1427658

layers.6.weight f4 [2, 10]
000000 82 5d 32 3e 47 63 cd 3d 3e 47 0f 3c ed 73 5b 3d
       0.17418483 0.10028701 0.008745013 0.053577352
000010 e9 83 08 be 0f 82 1b bd a8 d4 26 3e e4 f2 a0 be
       -0.1333157 -0.03796583 0.1629206 -0.3143531
000020 20 0f 5a bd 25 78 83 3e 5d 9b 9b bc 33 a2 79 be
       -0.05323708 0.256776 -0.018994981 -0.2437828
000030 08 9c 9a 3e 48 cb 88 3e cb 03 61 be ac 93 84 bb
       0.30197167 0.2671759 -0.21974103 -0.004045924
000040 b6 db 7f be 9d c6 4f 3e 78 50 93 3d 27 15 93 3e
       -0.24986157 0.20290609 0.071930826 0.28727075

layers.6.bias f4 [2]
000000 c7 49 06 3e 5c b9 e6 3c
       0.13114081 0.028164558
