DHH/model/fc/model-fold-0.pth (torch, 70287 bytes, 8 tensors)

layers.0.weight f4 [50, 312]
0	0xbbca47ae	-0.0061730957
1	0x3d26cac9	0.040720735
2	0x3d29e9ae	0.04148262
3	0xbd4f6e6f	-0.050642427
4	0xbd57993a	-0.052636363
5	0xbd69e1b0	-0.057099998
6	0x3d4623bb	0.04837392
7	0xbbdb0dec	-0.006685009
8	0xbce34643	-0.027743464
9	0xbd15c519	-0.03656492
10	0x3bc40ee1	0.005983219
11	0x3c8665cd	0.016405964
12	0x3d09a052	0.03360016
13	0x3d3b2c69	0.04569665
14	0x3d4e10d3	0.050309014
15	0xbd1445b8	-0.0361993
16	0xbb8e0133	-0.004333639
17	0xbd127c7b	-0.035763245
18	0xbc9b0dd0	-0.018927485
19	0x3a7465e7	0.0009323046
20	0x3cfb6ec5	0.030692467
21	0xbcd19bcf	-0.02558699
22	0xbcfec598	-0.03110008
23	0xbc6a0dbd	-0.014285502
24	0x3cb58695	0.0221589
25	0x3b03a7a3	0.0020088933
26	0x3d29c18b	0.041444343
27	0xbd5248d1	-0.051338974
28	0x3cb0cd8a	0.021582384
29	0x3d337cb9	0.043820117
30	0x3d0d48b0	0.03449315
31	0xbd41d635	-0.047323424
32	0xbd1765e3	-0.0369624
33	0x3aab6980	0.0013077706
34	0x3aff7b8e	0.0019491778
35	0x3d05a5e5	0.032628912
36	0x3d45271e	0.04813301
37	0xbba12921	-0.004918233
38	0xbc7d1bc7	-0.015448517
39	0x3cfbac13	0.0307217
40	0xbd10730f	-0.03526598
41	0xbcddedde	-0.027090963
42	0x3bd627ee	0.0065355217
43	0xbbfd98f1	-0.0077391793
44	0x3d0b70a9	0.034042988
45	0xbc4cae0d	-0.012492669
46	0x3bb7fde0	0.005614981
47	0x3c81580d	0.015789056
48	0xbbab6d64	-0.0052315462
49	0xbca2040b	-0.019777318
50	0x3d0e67a7	0.03476682
51	0x3cfff3d5	0.031244198
52	0xbc16b611	-0.009198681
53	0xbd120c36	-0.035656177
54	0xbc8a39a3	-0.016873186
55	0x3d1fed6e	0.03904479
56	0x3d05405c	0.03253208
57	0xbc949d8c	-0.01814153
58	0x3cfaa294	0.030595101
59	0xbbe63c1a	-0.0070262076
60	0xbb660155	-0.0035096009
61	0xbcdb20fe	-0.02674913
62	0xb9db15b2	-0.000417871
63	0xbc435d9d	-0.011924175
64	0x3c64999f	0.013952642
65	0xbd6156c3	-0.055014383
66	0xbb92b615	-0.0044772723
67	0xbd33ab83	-0.04386474
68	0xbd571862	-0.052513488
69	0xbd647135	-0.055772025
70	0xbc0ac717	-0.008470318
71	0x3c26189a	0.010137701
72	0x3be282ec	0.0069125798
73	0x3c536d15	0.012904425
74	0xbcd1dbac	-0.025617443
75	0xbd188678	-0.037237614
76	0xbc558f0c	-0.013034593
77	0xbd2d5fde	-0.042327754
78	0xbc0a9653	-0.008458692
79	0x3c53f540	0.01293689
80	0x3bfaef3b	0.007657913
81	0xbd4fc5fa	-0.050725915
82	0x3d5c7932	0.05382652
83	0x3d42fe4a	0.04760579
84	0xbcdd5164	-0.02701635
85	0xbd48239e	-0.048862092
86	0x3c056bb4	0.008143354
87	0x3c53d867	0.012930012
88	0xbc8a2c17	-0.016866727
89	0xbccd9b46	-0.025098454
90	0x3b790b42	0.0038001095
91	0xbd0fb5e0	-0.03508556
92	0xbcf0e814	-0.029407538
93	0x3c9938e3	0.018703884
94	0x3bbf21d3	0.0058328896
95	0x3cc8b7e4	0.024501748
96	0x3d4274c5	0.04747464
97	0xba246979	-0.000627182
98	0x3ca7a55f	0.020464597
99	0x3d23cbd3	0.039989304
100	0xbd131a14	-0.035913542
101	0x3d17492e	0.036935024
102	0x3d208346	0.039187692
103	0xbcb011da	-0.021492887
104	0x3d2ef863	0.04271735
105	0xbce565bc	-0.028002612
106	0xbcedd031	-0.029029937
107	0x3d24e4ab	0.040257137
108	0x3ccffc44	0.025388844
109	0xbba87d7e	-0.005141913
110	0xbd3954e0	-0.04524696
111	0x3d084f38	0.033278674
112	0x3c5f13ea	0.013615588
113	0xbd10a00f	-0.035308894
114	0xbaf7c595	-0.0018903489
115	0x3d243200	0.040086746
116	0x3cc8902e	0.024482813
117	0xbccfde2e	-0.025374498
118	0xba97d9e9	-0.0011585328
119	0xbcaa80f3	-0.02081344
120	0x3d1bd970	0.03804916
121	0x3cd54c18	0.02603726
122	0xbc04f2fc	-0.008114573
123	0xbba37f94	-0.0049895737
124	0xbd28c5a0	-0.041204095
125	0xbc6395d9	-0.013890707
126	0x3ce37681	0.027766468
127	0xbd5afbe3	-0.053462874
128	0x3bf060b2	0.0073357457
129	0x3d599d3c	0.053128466
130	0x3cced6d0	0.025248915
131	0x3ce457f1	0.027873965
132	0xbc7113a6	-0.014714157
133	0xbb32681b	-0.0027222696
134	0xbd47ca17	-0.048776712
135	0xbcd25e48	-0.025679722
136	0x3c648e1d	0.013949898
137	0x3ca4228a	0.020036
138	0x3d0243a4	0.03180279
139	0xbd04e6d3	-0.032446694
140	0x3c7043c2	0.014664592
141	0xbcfef2a3	-0.031121558
142	0xbd2f7079	-0.04283187
143	0xbcbec676	-0.023287993
144	0xbd217924	-0.03942217
145	0x3c16b727	0.00919894
146	0x3c1ccbb8	0.009570055
147	0x3d160d7f	0.036633965
148	0x3cf1f9f2	0.029538129
149	0x3c278d44	0.010226551
150	0x3caf13f6	0.021371823
151	0x3c8da291	0.017289432
152	0xbd65b201	-0.05607796
153	0xbcd45f4e	-0.025924351
154	0xbd3ec243	-0.04657198
155	0xbd071ec5	-0.03298833
156	0x3c3a5eed	0.011375171
157	0x3d5d14eb	0.053975027
158	0x3d25f221	0.040514115
159	0xbcc339a6	-0.0238312
160	0x3c518830	0.012788817
161	0x3d1f7309	0.038928065
162	0x3c49b7fd	0.012311933
163	0xbd42075c	-0.0473703
164	0x3c037806	0.008024221
165	0x3cc26dd7	0.023734016
166	0x3c1f9672	0.009740459
167	0x3d52f511	0.051503245
168	0x3d3dfc93	0.04638345
169	0xbcfa97cb	-0.030589959
170	0x3d324e0a	0.043531455
171	0xbd52d708	-0.0514746
172	0xbd021604	-0.031759277
173	0x3cb83d5b	0.022490194
174	0x3ab6ff8d	0.0013961658
175	0x3d4196a2	0.047262795
176	0x3d025064	0.031814948
177	0xbc4f802c	-0.012664836
178	0x3d575258	0.052568763
179	0xbd280756	-0.04102262
180	0x3c2dce7a	0.01060831
181	0x3c9d38e5	0.019192168
182	0x3d3441fd	0.044008244
183	0x3d641255	0.055681545
184	0x3ce0cd71	0.027441712
185	0xbcc62ac1	-0.024190309
186	0x3d40cf90	0.047072947
187	0x3d230c10	0.039806426
188	0xb98639ac	-0.0002560144
189	0x3d24d691	0.04024369
190	0x3c12b5bc	0.008954462
191	0xbb8d6b5f	-0.004315778
192	0x3c94028c	0.01806762
193	0xba5a5c87	-0.00083298277
194	0xbc8b198b	-0.016979953
195	0x3c18bccf	0.009322359
196	0xba1de487	-0.0006023128
197	0xbd1f27c9	-0.0388563
198	0xbd2f8544	-0.0428517
199	0x3c9fa9cc	0.019490145
200	0xbcaefb21	-0.021359982
201	0x3a8a98e7	0.0010574133
202	0x3d4a46a0	0.04938376
203	0x3d2f5ad9	0.04281125
204	0x3d068974	0.03284593
205	0x3cf5fe7d	0.030028576
206	0x3d1d518b	0.038407844
207	0xbd1d8adf	-0.038462516
208	0x3d56e09b	0.052460294
209	0xbd23cd68	-0.039990813
210	0xbd16e72e	-0.036841564
211	0xbcb64937	-0.022251708
212	0x3d6619e5	0.05617704
213	0x3d040316	0.032229505
214	0x3c82a08c	0.015945695
215	0x3d023be2	0.03179539
216	0xbd5dbcc2	-0.05413509
217	0xbd5da59b	-0.05411301
218	0x3c8f90d4	0.017525114
219	0xbc786e06	-0.01516295
220	0x3cd50de3	0.026007598
221	0xbd239fd1	-0.039947335
222	0x3d62790a	0.055291213
223	0xbd4a2a1c	-0.049356565
224	0x3cea3e2a	0.028594095
225	0x3cffab07	0.031209482
226	0xbcfdea01	-0.03099537
227	0x3d4e416c	0.05035536
228	0x3cf87c5a	0.030332733
229	0xbcd0dbf9	-0.025495516
230	0xbcd3c50e	-0.025850799
231	0x3d2ed598	0.042684168
232	0xbc59a28e	-0.013283385
233	0x3b585c9c	0.0033014184
234	0x3cd28dd4	0.025702395
235	0x3cd5e88e	0.026111867
236	0xbcf28bcd	-0.029607678
237	0x3d29fdda	0.041501857
238	0x3c8a7c77	0.016905053
239	0x3c8f3994	0.01748351
240	0xbcceda44	-0.025250562
241	0x3cd069e9	0.025441127
242	0xbbf0098a	-0.007325356
243	0x3d24a525	0.040196557
244	0x3cf1ad75	0.029501656
245	0x3d1f91e7	0.038957503
246	0xbc090964	-0.008364055
247	0x3d17e8bb	0.037087183
248	0x3d33d013	0.043899607
249	0x3c4cb3ab	0.012494008
250	0xbb69ee9a	-0.0035695196
251	0xbd16100b	-0.036636394
252	0xbcf985e2	-0.030459348
253	0x3d0a274c	0.033728883
254	0xbd153e2d	-0.03643625
255	0xbce9c515	-0.028536359

layers.0.bias f4 [50]
0	0xbc2be678	-0.01049196
1	0x3d67ca66	0.056589507
2	0x3d10879e	0.035285585
3	0x3a89b541	0.0010506288
4	0xbc5854c9	-0.013203808
5	0x3b80c6e1	0.003929958
6	0xbcfd738a	-0.030938882
7	0xbc0a8b0f	-0.008456006
8	0xbd566029	-0.0523378
9	0x3c9fd55c	0.019510917
10	0x3ba5bfd2	0.005058267
11	0xbd381c0d	-0.044948626
12	0xbc6ba1cd	-0.014381838
13	0x3ca8fbc3	0.020627862
14	0xbd0daae4	-0.034586802
15	0x3cb7cd1b	0.02243667
16	0xbd2d31d4	-0.042283848
17	0x3b462a70	0.0030237697
18	0xbbdefa66	-0.006804752
19	0xbd30863a	-0.04309676
20	0xbc07a855	-0.00827988
21	0xbcdc87cd	-0.026920224
22	0xbc2f959c	-0.010716822
23	0x3bba60cd	0.005687809
24	0xbc142bdf	-0.009043663
25	0xbbcd1ff3	-0.006259912
26	0x3d396627	0.045263436
27	0x3d31387f	0.04326677
28	0xbcf8f0ae	-0.030388203
29	0x3bfbf4b6	0.007689084
30	0x3cbdd469	0.023172574
31	0x3b4aa6fa	0.003092228
32	0x3b8ef5c9	0.004362796
33	0xbcbb5d01	-0.022871496
34	0x3c411a1a	0.011786008
35	0xbd068d6c	-0.032849714
36	0xbc4587b0	-0.012056276
37	0xbcd16cf3	-0.025564646
38	0x3ca23d11	0.01980451
39	0x3ca811d0	0.020516306
40	0xbd4af2bf	-0.049547907
41	0xbd39fb71	-0.04540581
42	0x3a8b8480	0.0010644346
43	0x3c8c5406	0.01712991
44	0xbd609c65	-0.05483665
45	0x3b91c381	0.0044483547
46	0xbd048286	-0.03235104
47	0xbd448671	-0.047979776
48	0x3d49f7ac	0.049308464
49	0xbd1ab3e5	-0.037769217

layers.3.weight f4 [20, 50]
0	0xbd8b28c2	-0.06794883
1	0x3e0a7319	0.13520469
2	0xbdabc5fc	-0.08387372
3	0xbd6fec30	-0.058574855
4	0xbdab2d0d	-0.08358202
5	0xbd99731e	-0.0749266
6	0x3c8e14c5	0.017343888
7	0x3d948c6d	0.072533466
8	0x3d3ab0fc	0.04557894
9	0xbd2c3db9	-0.04205105
10	0x3d1c4951	0.038155857
11	0xbdd4fb4a	-0.10399492
12	0x3dd758bc	0.105149716
13	0xbdcf0180	-0.10107708
14	0x3d80b911	0.062852986
15	0xbddec318	-0.10877055
16	0xbd70ba85	-0.05877163
17	0xbe0502e9	-0.12989391
18	0x3cac5cc0	0.02104032
19	0x3d919624	0.07108715
20	0xbdc8ba71	-0.09801186
21	0x3d54c920	0.05194962
22	0xbd073c80	-0.03301668
23	0x3cef54a0	0.029215157
24	0xbdc6e4ed	-0.09711633
25	0xbdd2d025	-0.10293607
26	0xbca88bf0	-0.02057454
27	0x3d6d4e25	0.057935853
28	0xbe0ddfc8	-0.13854897
29	0xbdbe5aeb	-0.09294685
30	0xbddee27d	-0.10883043
31	0xbccc3b18	-0.024930522
32	0xbdcfe480	-0.10151005
33	0xbd9b6bab	-0.075888954
34	0xbd8479b2	-0.06468524
35	0xbdc48b5c	-0.09596893
36	0xbdaa1198	-0.08304137
37	0xbd7fb5a8	-0.0624291
38	0xbd1b72f7	-0.037951436
39	0x3dea0a0a	0.11427696
40	0xbbd723b9	-0.006565538
41	0x3df600ea	0.12011893
42	0x3c54d9d0	0.012991384
43	0x3d8985ec	0.06714997
44	0x3d51b409	0.051197086
45	0xbc15abfe	-0.009135244
46	0x3e08efe0	0.13372755
47	0xbda977cc	-0.082748026
48	0xbd1e3cfc	-0.038632378
49	0x3cc3f150	0.023918778
50	0x3c31e414	0.010857601
51	0xbd5f0f57	-0.05445799
52	0x3d9fff53	0.07812371
53	0xbe03e049	-0.12878527
54	0x3e0370ce	0.12836
55	0x3d14b55e	0.036305778
56	0xbca961a8	-0.020676449
57	0x3e011364	0.12605053
58	0xbd5bf810	-0.053703368
59	0xbe0dfaab	-0.13865153
60	0xbdced268	-0.100987256
61	0x3deaa0fe	0.11456488
62	0xbd9ca8a4	-0.07649353
63	0x3d261474	0.04054685
64	0xbd2bfbf1	-0.041988317
65	0x3db8d115	0.09024254
66	0xbd7210dc	-0.05909811
67	0x3df5ef2a	0.120085075
68	0x3e005c7b	0.12535278
69	0x3c175a74	0.009237874
70	0xbdde178b	-0.10844334
71	0x3ca98090	0.020691186
72	0xbd891b1d	-0.066946246
73	0xbdd61e32	-0.10454978
74	0xbd15ab5e	-0.03654038
75	0xbcb9eb1c	-0.022695117
76	0x3cd38108	0.025818363
77	0xbc8f13f5	-0.017465571
78	0x3cbf89c3	0.02338112
79	0xbca5d86f	-0.020244805
80	0xbe115e7a	-0.14196196
81	0x3bc3cd65	0.0059754127
82	0x3d179baf	0.037013706
83	0x3de16074	0.11004725
84	0xbdffc244	-0.12488225
85	0xbd7d24f6	-0.061802827
86	0xbdb2a7cb	-0.0872341
87	0xbd1be3a8	-0.038058907
88	0xbd87c852	-0.06630005
89	0x3e02a09b	0.12756579
90	0xbdd611a4	-0.104525834
91	0xbdc8222f	-0.09772145
92	0xbc6cfeb0	-0.014465019
93	0x3d0da32a	0.034579434
94	0x3e0370a3	0.12835936
95	0x3cf94928	0.030430391
96	0x3dfa1be7	0.12212353
97	0x3d11955c	0.03554283
98	0xbe060f68	-0.13091815
99	0x3d1ba868	0.0380024
100	0x3cb14c29	0.021642761
101	0xbd07f83d	-0.033195723
102	0x3d3604dd	0.04443823
103	0xbda6ffbc	-0.08154246
104	0x3e020c95	0.12700112
105	0xbdc0e5ad	-0.09418807
106	0x3e0e6209	0.13904585
107	0x3dd4fbdb	0.103996
108	0x3dcdffc9	0.10058553
109	0xbd1a6523	-0.037694108
110	0xbdfd2895	-0.12361256
111	0x3dc6e340	0.09711313
112	0xbdebd455	-0.115151085
113	0xbde8f09c	-0.113740176
114	0xbc0b9587	-0.008519537
115	0xbddfcbfd	-0.109275796
116	0x3cd1223e	0.025529023
117	0x3de6759a	0.112528995
118	0xbcf90f0c	-0.030402683
119	0xbd28e49d	-0.041233648
120	0xbd98bce5	-0.07457904
121	0x3d428794	0.04749258
122	0x3cb91ff3	0.022598242
123	0x3ddc8b76	0.107687876
124	0xbe0d53c0	-0.1380148
125	0x3d23f2f5	0.040026624
126	0xbdbb66bb	-0.09150454
127	0x3da0ea4c	0.078571886
128	0xbd22f9ee	-0.039789133
129	0x3e00aed5	0.12566693
130	0xbd460c09	-0.04835132
131	0xbe0de999	-0.13858642
132	0xbc9038a6	-0.017605137
133	0x3e07db8f	0.13267349
134	0xbd9f0222	-0.07764079
135	0x3cb3f318	0.021966502
136	0xbd4a67b6	-0.049415313
137	0xbd76d0fe	-0.060257904
138	0x3d7411ff	0.059587475
139	0xbd454bca	-0.04816798
140	0xbdcc6a34	-0.09981194
141	0x3e041f11	0.12902476
142	0xbde49fa1	-0.11163259
143	0xbcc56366	-0.024095248
144	0x3e0c5f39	0.137082
145	0xbc6ffd11	-0.014647738
146	0x3d5d1769	0.053977404
147	0x3de48d3d	0.111597516
148	0xbb60703a	-0.003424658
149	0xbccf7e0d	-0.02532866
150	0xbce950af	-0.028480856
151	0x3d5501b3	0.052003574
152	0xbc9e1152	-0.019295368
153	0x3e0258b1	0.12729146
154	0x3b1e3195	0.002413844
155	0xbded259a	-0.115794376
156	0x3dead156	0.11465709
157	0x3d04c26f	0.03241199
158	0x3d27fe1b	0.04101382
159	0xba1917f5	-0.00058400567
160	0x3dc3f657	0.0956847
161	0xbdcfbbba	-0.10143228
162	0xbd0f9237	-0.03505155
163	0xbe082b56	-0.13297781
164	0xbcb4ba43	-0.022061473
165	0xbe10101c	-0.14068645
166	0x3dfa451f	0.12220215
167	0xbdf44d53	-0.11928811
168	0xbbfa10a0	-0.0076313764
169	0xbda1cdfc	-0.079006165
170	0x3d561ea4	0.052275315
171	0x3be097e0	0.0068540424
172	0x3c13554b	0.008992503
173	0x3db577a6	0.08860712
174	0x3dea9d87	0.11455827
175	0x3e07367a	0.13204375
176	0xbd5ce5a6	-0.053929947
177	0xbd848688	-0.06470972
178	0x3dea95b8	0.11454338
179	0x3d78b420	0.060718656
180	0x3c6d820e	0.0144963395
181	0xbd93aef3	-0.07211103
182	0xbddf49d1	-0.10902751
183	0x3da6c226	0.081424996
184	0x3cc9ea11	0.024647744
185	0x3e0283cb	0.12745588
186	0x3bb0ce00	0.005395651
187	0x3dd7749c	0.10520288
188	0x3c4e3069	0.012584784
189	0x3bf423a0	0.007450536
190	0x3cf4f567	0.029902173
191	0x3de1b02a	0.11019929
192	0x3db26bee	0.08711992
193	0x3e02ce01	0.12773897
194	0x3ccb715c	0.024834327
195	0x3d902351	0.07037986
196	0x3cd5af9f	0.02608472
197	0x3dc83002	0.09774782
198	0x3d64120c	0.055681273
199	0xbca0c515	-0.019625226
200	0x3cd80a89	0.026372211
201	0xbc2d897e	-0.010591863
202	0xbd56bae4	-0.052424327
203	0xbd81d200	-0.063388824
204	0xbb83fac1	-0.004027695
205	0x3dda4fa6	0.10659723
206	0x3df9cf93	0.12197795
207	0x3db99bad	0.09062896
208	0x3d8d84f6	0.06910126
209	0xbd8a0b32	-0.067404166
210	0x3c89ebfa	0.016836155
211	0x3e024bd5	0.1272424
212	0x3da198b9	0.07890458
213	0xbdd42bfa	-0.1035995
214	0xbdc957cf	-0.09831201
215	0x3e092ff1	0.13397194
216	0x3bbdfbf5	0.005797858
217	0xbdfed1f9	-0.12442393
218	0x3d088774	0.033332303
219	0x3d3470cc	0.044052884
220	0xbc8fc0d8	-0.01754801
221	0x3d9fffac	0.078124374
222	0xbde6d52c	-0.11271128
223	0x3ca64cb8	0.020300254
224	0xbd2022b7	-0.039095607
225	0xbc02214c	-0.007942509
226	0x3a5fd800	0.00085389614
227	0x3e0ac52a	0.13551775
228	0xbd2ba8d4	-0.041909054
229	0xbe0cf8a3	-0.13766722
230	0xbdb5cc7d	-0.08876894
231	0xbd63d3de	-0.055621974
232	0x3deccfd5	0.11563078
233	0x3d276f50	0.04087764
234	0xbdb83a0c	-0.089954466
235	0x3c9a22b0	0.018815368
236	0x3d8c21b0	0.06842363
237	0xbc911019	-0.017707871
238	0x3aa28ed0	0.0012402181
239	0xbdb8a30f	-0.09015476
240	0x3c906d46	0.01763023
241	0xbdf75a02	-0.120777145
242	0xbd464c42	-0.04841257
243	0x3cdff169	0.027336793
244	0x3d2e0d49	0.04249314
245	0xbde4eca5	-0.11177949
246	0xbc8997cc	-0.016796015
247	0x3da947e0	0.08265662
248	0x3e09d7d5	0.1346124
249	0xbc8e93b2	-0.017404411
250	0x3d7682d4	0.06018336
251	0x3c0c728a	0.00857223
252	0xbdb91153	-0.090365075
253	0x3c7e85df	0.015534847
254	0xbdb74a55	-0.089497246
255	0xbbb5e4a3	-0.0055509373

layers.3.bias f4 [20]
0	0x3df13e26	0.11779432
1	0x3cf8d979	0.030377137
2	0x3bce6761	0.006298945
3	0x3d30e830	0.04319018
4	0x3d3eef74	0.04661508
5	0x3d6b64e4	0.057469264
6	0xbb708eb9	-0.0036706163
7	0xbbe300e1	-0.006927595
8	0xbc837f2a	-0.016051847
9	0xbdd6baec	-0.10484871
10	0xbc4c7315	-0.01247861
11	0xbddf5e13	-0.10906615
12	0x3dbcc0bc	0.09216449
13	0x3d93367b	0.07188126
14	0x3ce0b8ba	0.027431834
15	0xbe0d3633	-0.13790207
16	0x3c3f43ab	0.011673848
17	0x3cab5073	0.020912385
18	0x3d1dad0f	0.03849512
19	0x3e0fbc91	0.14036776

layers.6.weight f4 [10, 20]
0	0x3e2d69a5	0.16934831
1	0x3d986ae6	0.07442264
2	0x3e51160d	0.20418568
3	0xbc8a25dc	-0.016863756
4	0x3e12799d	0.14304204
5	0x3c4f423a	0.012650067
6	0x3d32bce5	0.043637175
7	0x3d6184b3	0.055058192
8	0xbd2b675f	-0.04184663
9	0x3e58c8ad	0.21170302
10	0x3e36fa0d	0.17868824
11	0xbddbd9b1	-0.10734881
12	0xbe2c1828	-0.1680609
13	0x3e499b95	0.19688256
14	0x3db2cbc4	0.087302715
15	0xbdc0838c	-0.094000906
16	0xbe641053	-0.22271852
17	0xbc926c5a	-0.017873932
18	0x3d9d34d0	0.07676089
19	0x3e4f94eb	0.20271651
20	0x3dc3028a	0.09521969
21	0x3c8d8e39	0.017279731
22	0x3e4a8d32	0.19780424
23	0x3d8719e2	0.06596734
24	0x3d971c73	0.07378473
25	0xbd11a686	-0.0355592
26	0x3e4d79f1	0.20066048
27	0x3dbc6225	0.09198407
28	0xbce1cb49	-0.027562754
29	0x3d9d42e4	0.07678774
30	0xbe0f6115	-0.14001878
31	0xbe45545b	-0.1927046
32	0x3e6249fa	0.22098532
33	0x3dfa39b6	0.12218039
34	0x3d6fe42c	0.05856721
35	0xbe207f06	-0.15673456
36	0x3e4c7e83	0.19970135
37	0xbcc103ff	-0.023561476
38	0x3d5b3418	0.053516477
39	0xbe0b56a7	-0.13607274
40	0xbd350338	-0.044192523
41	0x3d49f335	0.049304206
42	0xbdc608a6	-0.09669618
43	0x3cc74698	0.024325654
44	0xbe1aea99	-0.15128554
45	0xbdd91beb	-0.10601028
46	0xbe3ada00	-0.18247223
47	0x3e43514d	0.19073983
48	0x3c8bdff3	0.01707456
49	0x3d0aa5ba	0.033849455
50	0x3e0943f7	0.13404833
51	0x3e561cc5	0.20909412
52	0x3e36e6f2	0.17861536
53	0x3e09f21f	0.13471268
54	0xbc553065	-0.013012026
55	0x3daec3cc	0.08533439
56	0x3dda4c68	0.106591046
57	0x3dfb5aa2	0.12273146
58	0xbe2d58f3	-0.16928463
59	0xbe321507	-0.17390834
60	0xbe5f96ab	-0.21834819
61	0x3e1d3deb	0.15355651
62	0x3e484a4a	0.19559589
63	0x3e2801d2	0.16406944
64	0x3d31438c	0.04327731
65	0x3c5fe94f	0.013666465
66	0xbdd55b23	-0.104177736
67	0x3e50ef66	0.20403823
68	0x3e2089ec	0.15677613
69	0x3c96c546	0.018404614
70	0xbe5ae954	-0.2137807
71	0x3e3ba4a6	0.18324527
72	0xbdfd038d	-0.12354193
73	0xbd9e78e8	-0.07737905
74	0x3e378595	0.17922051
75	0xbdf23651	-0.11826766
76	0x3e10652f	0.14101098
77	0x3de2ab73	0.110678576
78	0xbddb6b03	-0.1071377
79	0xbe5b73f8	-0.21430957
80	0xbd7fc85a	-0.06244693
81	0xbe25cf60	-0.16192389
82	0xbe5a7c22	-0.21336415
83	0x3e5563be	0.2083883
84	0xbda4b2f6	-0.080419466
85	0xbd8be61a	-0.06830998
86	0x3e09163f	0.13387392
87	0xbd2f8882	-0.042854793
88	0xbd36a18c	-0.044587657
89	0xbe346d5c	-0.17619842
90	0xbd0d71c5	-0.034532327
91	0xbe2f3d9a	-0.17113343
92	0x3e01e908	0.1268655
93	0xbe5cafad	-0.2155139
94	0x3d8e99df	0.06962942
95	0xbe599224	-0.21247154
96	0x3e3cf59b	0.18453066
97	0x3e064514	0.13112289
98	0x3d1b1d56	0.037869774
99	0xb7a9f2fc	-2.0259518e-05
100	0x3d9e02a4	0.077153474
101	0x3e53564f	0.20638393
102	0xbe38f547	-0.18062316
103	0x3e00c06b	0.12573402
104	0x3c63c08a	0.013900885
105	0xbd987fd4	-0.07446256
106	0x3e571500	0.21004105
107	0x3d868b93	0.065695904
108	0xbe62278f	-0.22085403
109	0xbd9f36c4	-0.077741176
110	0x3dc5f9c5	0.096667804
111	0xbe098989	-0.13431372
112	0xbe336f65	-0.17522962
113	0xbe2ba282	-0.1676121
114	0x3dbeab19	0.09309978
115	0xbd588858	-0.052864403
116	0xbe1cd522	-0.15315679
117	0x3dee32df	0.11630797
118	0x3dd15ee1	0.10223175
119	0x3e24212b	0.16028278
120	0xbceccd42	-0.028906468
121	0xbe13cf5e	-0.14434573
122	0x3d3b6317	0.045748796
123	0x39cefd66	0.00039480178
124	0x3e353ae4	0.17698246
125	0x3dda8a34	0.106708914
126	0xbde84386	-0.11341004
127	0x3e0ea3fd	0.13929744
128	0x3d88369e	0.066510424
129	0xbd966cbd	-0.07344959
130	0xbd50a96f	-0.050942834
131	0xbdaf9a2b	-0.08574327
132	0x3e35c961	0.17752601
133	0x3dd1b14e	0.10238896
134	0xbd07fcc9	-0.03320006
135	0x3e58b4a3	0.21162657
136	0x3e06982a	0.13143983
137	0x3e27c90b	0.16385286
138	0xbcd41f59	-0.025893854
139	0xbc8df201	-0.01732731
140	0xbe5e0c2d	-0.21684332
141	0xbe05e080	-0.13073921
142	0x3e08c63c	0.1335687
143	0xbd0995d3	-0.03359015
144	0x3dc40b17	0.09572428
145	0xbe2598fd	-0.16171642
146	0x3e28b789	0.16476263
147	0x3e4b5985	0.19858368
148	0xbe0daa86	-0.13834581
149	0x3e5f2df2	0.2179487
150	0x3e3566c2	0.1771498
151	0xbd94e6d3	-0.07270589
152	0x3de53a5e	0.11192773
153	0xbe5df5e0	-0.21675825
154	0xbce00814	-0.027347602
155	0x3cd01895	0.025402347
156	0x3e52c778	0.20583904
157	0x3e410f0b	0.18853395
158	0xbe265dd0	-0.16246724
159	0xbc6e6a34	-0.014551688
160	0xbe19e460	-0.15028524
161	0x3ccf8da0	0.025336087
162	0xbe4d2593	-0.20033865
163	0x3d46d68d	0.048544455
164	0x3dc112aa	0.09427388
165	0x3d992242	0.07477237
166	0x3dcd4358	0.100226104
167	0x3e52c954	0.20584613
168	0x3d3a99e6	0.045556925
169	0x3def0e15	0.11672608
170	0x3daa2bcb	0.08309134
171	0xbe35d23d	-0.17755981
172	0xbe3ea3fb	-0.18617241
173	0x3d7352c8	0.05940512
174	0xbd63a032	-0.055572696
175	0x3d1e4f87	0.038650062
176	0xbd65e425	-0.05612578
177	0x3d97d25d	0.074131705
178	0xbe4b7a43	-0.19870858
179	0xbcc060f6	-0.023483735
180	0xbd46b787	-0.04851487
181	0x3e651daf	0.22374605
182	0x3de32d7f	0.11092662
183	0x3d05491a	0.03254042
184	0xbe0defda	-0.13861027
185	0xbe28c717	-0.16482197
186	0xbe3f4961	-0.18680336
187	0xbdf50429	-0.11963684
188	0xbe4fc62a	-0.20290437
189	0x3e21fc01	0.15818788
190	0x3e5e0460	0.21681356
191	0xbd66453c	-0.05621837
192	0xbd29a441	-0.04141641
193	0x3e2f1697	0.17098461
194	0xbdbcd4e6	-0.09220295
195	0x3daf4d75	0.08559696
196	0xbe3a83b9	-0.1821431
197	0x3e4e19b4	0.20126992
198	0xbd46abfc	-0.04850386
199	0x3d3b2a29	0.045694504

layers.6.bias f4 [10]
0	0xbe61763b	-0.22017758
1	0x3bb213da	0.0054344954
2	0xbd26fbe1	-0.040767554
3	0xbe0e12be	-0.13874337
4	0xbe5de980	-0.21671104
5	0xbdd1139d	-0.10208819
6	0x3e38dc08	0.18052685
7	0xbd5808c9	-0.052742753
8	0x3b22eb29	0.0024859405
9	0x3e3fdb76	0.18736061

layers.9.weight f4 [2, 10]
0	0x3e5ba200	0.21448517
1	0x3e9e25a6	0.30888098
2	0x3e9850a6	0.2974903
3	0x3c948667	0.018130494
4	0xbb9017c0	-0.0043973625
5	0x3e9c048a	0.30472213
6	0xbe1f30b4	-0.15545923
7	0xbc1a0ded	-0.009402734
8	0xbd42131f	-0.047381517
9	0x3d989c57	0.074516945
10	0x3d91ccca	0.071191385
11	0xbe1257fe	-0.14291379
12	0x3df1a57c	0.11799142
13	0x3cb1b319	0.021691846
14	0xbcc73b6c	-0.024320327
15	0x3e61c597	0.22048031
16	0x3e51d0ce	0.20489809
17	0x3cdbb709	0.026820676
18	0xbe80cfe8	-0.2515862
19	0xbe98ba74	-0.29829752

layers.9.bias f4 [2]
0	0xbe3e6c59	-0.18596019
1	0xbe9c3a37	-0.30513164
