DHH/model/fc/model-fold-9.pth (torch, 70287 bytes, 8 tensors)

layers.0.weight f4 [50, 312]
00000000: aa46 ea3c f4b9 113c 481c e63b 5ce5 2a3c
00000010: 86ec b2bc 4481 1abc 7ccf 85bc 3c1d 693c
00000020: 168d 8dbc fab4 dd3c 9226 a3bc a6e8 51bd
00000030: e491 033c 1ae7 0ebd 651a 2a3d dfd3 5e3d
00000040: 5804 45bd 840b 143c ad9c 083d 1c11 53bc
00000050: 2f47 103d 3014 173b 6cd3 543c 5285 a23c
00000060: 7532 573d 8e54 1ebd e018 613b 9ba2 273d
00000070: 9996 37bd 1474 1ebd e03e fbbb 715b 1e3d
00000080: e77c 183d e05b b3ba 2d46 373d c0b7 613a
00000090: c030 1dbd 257a 3a3d 4e27 c1bc 78ed 2bbc
000000a0: 380a 9dbc 30ea b1bb 29f6 4b3d 5560 35bd
000000b0: 78b3 07bc 664c c3bc ffbb 643d ac9f 0dbd
000000c0: c738 2e3d 24e0 1c3c 9020 37bb b5da 4d3d
000000d0: 978b 373d 8008 5c3a 89fd 493d b8e4 ed3b
000000e0: 6033 0abc 8271 c23c 39a7 333d 441d 5e3c
000000f0: bf91 403d c498 a7bc 3a87 ad3c f08e 0ebd
00000100: 80d3 9db9 6363 413d c57c 093d 122b bcbc
00000110: b0f5 3dbc 9cce bdbc 2698 cd3c 1a25 19bd
00000120: bdcd 343d 1a48 30bd 31b2 15bd de1e c8bc
00000130: 6bb1 623d a52f 283d 643b 0abc 46c1 ee3c
00000140: 7ece b0bc 429b 24bd b734 5b3d 645b 6b3c
00000150: 81f3 0f3d 8973 093d 2a27 a1bc fe86 e23c
00000160: a2e3 ac3c 74a6 093c 6652 90bc a1dd 363d
00000170: 1825 843b 4884 bcbc f6c7 b23c d8fe 78bc
00000180: f2cb aebc d5e9 06bd 1aa6 3fbd f459 1a3c
00000190: 9ea0 913c d80f 8ebb c0d3 14bb e58f 273d
000001a0: ac6d 5bbd 5253 b53c e9b4 5a3d aa56 b5bc
000001b0: 04e4 14bc 2d67 413d f8be 03bc 68af 62bc
000001c0: c785 60bd f8f6 c5bb d4a4 47bd 9556 2dbd
000001d0: 0beb 4e3d 5187 0f3d d811 bdbc 64c2 1f3c
000001e0: de5d ef3c 8b77 3e3d b4a0 253c 4e75 4dbd
000001f0: d0b9 b53b 3a47 13bd acfb 08bd 5eee f53c
00000200: c298 9dbc fe5a fd3c dc1c 33bd 46d1 8e3c
00000210: 451c 2a3d 49fb 52bd f82d debb d039 563b
00000220: eae4 c3bc 208d b2ba 1032 58bb fd37 4d3d
00000230: c439 79bc c62d db3c f680 2bbd a80b d7bb
00000240: 0029 103b 398c 1f3d 30c9 673b 9e7c c83c
00000250: 805f 0ebd 460e 0bbd 92ca f03c 0075 21bd
00000260: b6dd ff3c cd38 443d 16aa 66bd 0008 6dbc
00000270: e8a6 8abc 56ef cc3c c4b7 5bbc fcd8 6fbc
00000280: 49d3 2e3d 00a6 a0bb 30ce 2ebc 0244 b43c
00000290: 8cec 73bc 575a 313d 2640 64bd 41a8 39bd
000002a0: ccef 40bc 0bcb 3fbd c2cc c03c ea89 2cbd
000002b0: e0b4 d53a 0d9d 2b3d c409 743c 2434 633c
000002c0: 001e 753a e2a8 f73c 5900 20bd d030 5abd
000002d0: 5c19 0ebd e25f 67bd 3370 123d 8968 55bd
000002e0: 06a6 84bc a9a9 0b3d af4d 0f3d 0449 18bd
000002f0: a6d6 bfbc 412c 5cbd f4d8 413c 40f2 9bbc
00000300: 08bb febc c614 58bd f75a 32bd d363 4dbd
00000310: 580e 27bd 48fd dfbc 4c42 033c fa26 c83c
00000320: a865 bb3b 350d 523d 684a 07bc 005c ddba
00000330: 8c4e 6e3c e308 5c3d 8083 daba 6083 1fbd
00000340: 7d2e 56bd 005b 5cba f2b3 c43c 5c25 033c
00000350: 917c 5f3d 5f63 f2bc a673 e73c e8bc 20bc
00000360: 1e3b fbbc d82b 2dbc 4e86 21bd 68da acbb
00000370: 91fc 483d 7b44 383d 4e35 dc3c 24ce 36bd
00000380: 38ca 14bc 6210 14bd 28cb d5bc c476 533c
00000390: 0e3e b43c 9a63 dc3c 770c 10bd 5352 0cbd
000003a0: dc50 4e3c b485 1a3c e40c 20bd 95e8 5e3d
000003b0: c03e 1bbc 72d7 47bd 342a f0bc 2857 29bd
000003c0: 0033 193a b7c3 43bd 601f 00bb c6c0 973c
000003d0: 98bf 15bc 22e5 cd3c b402 25bd 74d1 003c
000003e0: 48b5 eb3b 2aaf a03c 082c bb3b 7d26 4abd
000003f0: 9e70 833c 825b f83c 9fb2 003d 5cde bdbc
0.028598148 0.008894432 0.0070224144 0.01043066 -0.021841299 -0.009430233 -0.016334288 0.014228161
-0.01727919 0.027063835 -0.019915853 -0.05124726 0.0080303885 -0.034888364 0.041529078 0.054401275
-0.048099846 0.009035949 0.033352543 -0.012882497 0.035224136 0.0023052804 0.01298986 0.019838963
0.052538354 -0.038654856 0.0034347102 0.040926557 -0.044821355 -0.03868492 -0.0076674074 0.038661424
0.03722849 -0.0013683997 0.04474466 0.000861045 -0.03837657 0.045526642 -0.023578312 -0.010493629
-0.019169912 -0.0054295287 0.049795303 -0.044281323 -0.008282535 -0.02384014 0.05584335 -0.034576103
0.042534616 0.009574924 -0.0027942993 0.050257403 0.044810858 0.00083936006 0.049314056 0.0072599314
-0.0084351 0.023735765 0.043860648 0.013556782 0.047013994 -0.020458587 0.021182645 -0.034804285
-0.00030102953 0.047213923 0.033566255 -0.022969756 -0.011594221 -0.023169808 0.025096964 -0.0373889
0.04414152 -0.04303751 -0.03654689 -0.024428781 0.05534498 0.041061062 -0.008437011 0.029144894
-0.021582838 -0.040187128 0.05351707 0.014365051 0.035144333 0.03355745 -0.019671995 0.02765226
0.021104638 0.008401502 -0.017617416 0.044644956 0.004032742 -0.023012295 0.021823864 -0.015197478
-0.021337483 -0.032937843 -0.046789266 0.009420861 0.017776784 -0.004335385 -0.002270922 0.040908713
-0.053571388 0.022134457 0.053395186 -0.022136051 -0.009087566 0.047217537 -0.008041136 -0.013835765
-0.05481508 -0.006041404 -0.048741177 -0.0423189 0.050517123 0.035041157 -0.023079798 0.009750936
0.029219564 0.046500724 0.010109115 -0.0501607 0.005545832 -0.0359566 -0.033443138 0.030020889
-0.01923788 0.030927178 -0.043728694 0.017433774 0.041530866 -0.051509175 -0.0067803822 0.0032688268
-0.023912866 -0.0013622381 -0.0032988824 0.050102223 -0.015211526 0.026755225 -0.041871034 -0.006562669
0.0021997094 0.038952086 0.003536772 0.024473485 -0.034759045 -0.03394916 0.029393468 -0.03941822
0.03123365 0.047905732 -0.05631455 -0.014467239 -0.01692529 0.025016468 -0.013410512 -0.014639135
0.042681966 -0.0049026012 -0.010669276 0.022005085 -0.01488794 0.043299045 -0.05572524 -0.045326475
-0.011775922 -0.046824496 0.023535136 -0.042123713 0.0016304515 0.041897822 0.014894906 0.013867412
0.00093504786 0.030231897 -0.03906283 -0.053269207 -0.034692153 -0.056487925 0.035751533 -0.052101646
-0.016192447 0.034097347 0.034986194 -0.037179008 -0.023417782 -0.05375314 0.011831511 -0.019036412
-0.031095043 -0.052754186 -0.043543782 -0.050144028 -0.040785164 -0.027342454 0.008011412 0.024432648
0.0057189055 0.051282126 -0.008257486 -0.001688838 0.014545094 0.053719413 -0.001667127 -0.03894365
-0.05229043 -0.0008405894 0.024011586 0.008004513 0.054562155 -0.0295884 0.028253388 -0.009810664
-0.030667838 -0.010569535 -0.039434724 -0.0052750595 0.04906899 0.044987183 0.026880886 -0.044630185
-0.009081416 -0.036148436 -0.026097849 0.012906734 0.022002246 0.026902962 -0.035168137 -0.034258198
0.012592521 0.009431291 -0.039074793 0.054421026 -0.00947541 -0.04878945 -0.029316999 -0.041342884
0.00058440864 -0.04779407 -0.001954995 0.018524539 -0.009139918 0.025133673 -0.04028578 0.0078624375
0.0071932413 0.019614775 0.005712036 -0.04935311 0.016044911 0.030317072 0.031420346 -0.023177318

layers.0.bias f4 [50]
00000000: 30a6 51bd 9212 35bd 9ca1 32bd ce09 873c
00000010: b5c2 153d f221 23bd 1cc8 d1bc b7d9 afbc
00000020: aa6f 96bc d0ae 4fbd 7f22 4d3d a153 313c
00000030: 407f 5ebd 684c 11bd bd21 50bd a31c 1a3d
00000040: c34a 0dbc f7d4 e83c c22a 61bc 4834 e3bb
00000050: f3a1 5f3c d678 ddbc 4bf6 6cbc b01d fc3c
00000060: e392 5cbd d15e bc3c a195 403d 26e7 c4bc
00000070: 0593 903c bb1c 1abd 3355 28bd 24b4 08bd
00000080: 67dc e03b d456 45bc ae19 8f3c 6c0c 383d
00000090: 398b d039 343b 19bb 7b20 53bb 27fa 253d
000000a0: 6fa1 043d 8d11 1f3d 0c56 683c 87a5 0f3d
000000b0: 9e3c 39bd 9442 c43c b932 9bbc 4f81 923b
000000c0: 7dde cfbc 7f1a c6bc
-0.05118388 -0.044207163 -0.043611154 0.016484167 0.03656264 -0.039827295 -0.025608115 -0.02146612
-0.018363792 -0.050703824 0.050081726 0.010823161 -0.054320574 -0.035473257 -0.050813425 0.037624966
-0.008623782 0.028421862 -0.013743104 -0.0069337226 0.013649452 -0.027035158 -0.014463018 0.030775875
-0.05385102 0.02299443 0.047017697 -0.024036001 0.01764823 -0.037625056 -0.041096877 -0.03337492
0.0068622115 -0.012044627 0.0174683 0.04493372 0.0003977658 -0.0023381235 -0.0032215405 0.040521767
0.032380518 0.038835097 0.014180671 0.03506997 -0.045223825 0.023957528 -0.018945085 0.004470981
-0.025374645 -0.024182556

layers.3.weight f4 [20, 50]
00000000: 6a7b da3d b4fd 3fbd c305 05be 3906 bb3d
00000010: c54a d7bc ef57 8ebd 82c5 bbbd 2cd8 9c3d
00000020: 7192 e03c e433 ac3d 06de e2bd 0feb 0fbe
00000030: 96de 03be 1e97 f93d 43fa a03d 0c56 073d
00000040: 607c c7bd 3e6f 74bd 39e6 9e3c fcf8 97bc
00000050: 1ed3 ccbd 0d59 9a3d f0b5 d7bd 13fa 093e
00000060: fc1b eb3d be81 fe3d 8083 a83a c6b7 b13d
00000070: 73d4 88bd e482 aabd 78eb 8f3d 107f 9b3c
00000080: 6a59 f83d 1237 42bd f727 0ebe 4fbd 78bd
00000090: da4f 11be cc67 953d b886 2a3d a57e 86bc
000000a0: b2e4 df3d 8417 0f3d dde1 95bc f90e fabd
000000b0: 4eec 6b3d 522f 06be 18d9 93bc 7f45 e7bc
000000c0: 7b99 ba3d db87 05be e645 ae3d c85e 823c
000000d0: 5653 453c b0cd 04be 43f3 9b3b 8186 a43d
000000e0: 2e10 4a3d 6220 3bbd 8ea2 853d 9a91 c2bd
000000f0: d930 923d 97f2 023e b5d8 e93d f304 d8bd
00000100: 27dc fcbd d1e6 003e 2d1a ff3c 1488 a2bc
00000110: a3a2 cabd 1e40 8cbd 5627 91bd c77e a0bd
00000120: 3403 023e 1116 80bd c6bc e23d f4e1 0b3d
00000130: f83c 833d 2618 823d 7cae 703d f60f d0bd
00000140: d327 0ebe ae09 e2bd 3cee 243d 9ccb 53bd
00000150: e27a d5bd 468f 063e d63f 5dbb 20be 80bb
00000160: 10ca c7bd 6c4f 8abd 7de4 0f3e 408d 213d
00000170: 13fd ab3d a12b 103e 8289 663d ea58 f53d
00000180: 8501 efbd 3dde 28bd ae02 37bd 6c6b 6f3d
00000190: 6e45 cfbd d069 633c 29f7 06be 79c1 c4bd
000001a0: e18b 0d3e 3bce b0bc cf8b 563d 245b 3b3b
000001b0: 4b2b e63d 66e6 f73d 8be7 17bd 78e4 c63c
000001c0: cbe9 7e3d 2477 8dbc 195e ab3d faea 93bd
000001d0: e153 0a3e 2524 853b a56b b5bd c0be 503c
000001e0: e636 d5bd 202a 1c3d 1fc5 70bc e044 f33c
000001f0: 70e3 3ebd 0e59 0bbe 75d2 b3bd 1056 bfbc
00000200: 6c5a 98bd f82a bfbd ed1a de3d a654 04be
00000210: ee5e 2ebd f25f e03d e0ea 823b e946 7dbd
00000220: c0f8 253d f0ef e3bd 04f1 2c3d e756 a3bd
00000230: 9185 70bd 0f71 0dbe a3db c13d acd2 8ebd
00000240: 517c b13d 1a2c 0f3e efd9 0e3e 18f5 92bd
00000250: f35a 04be 32c6 d63a 66f1 0ebd b485 c5bc
00000260: ff48 0b3e 2d7f 0bbe 6885 0d3d f88d 893c
00000270: a6df 96bc 75fb f53d 79b0 e13c 1df7 033e
00000280: a68b 9c3d 3e54 a83d 6738 c6bd d227 8bbd
00000290: 0b88 0c3e 68d0 94bd 17f3 98bc ae7d fc3d
000002a0: b15b 9f3d cafc cc3d e90b 8dbd eeac f6bd
000002b0: 238d 0dbe dae3 f2bd dec9 e83c ec62 613d
000002c0: 220a f4bd 3a47 08be e219 933d 7256 54bd
000002d0: 4ae4 8abd a833 193d 447a 01bd 162b 943d
000002e0: 80db af3a c4aa 01be c8ff be3c 4abb e33d
000002f0: 66b8 043e 4882 be3d 9a6e a8bc 14d8 523d
00000300: 29a5 2bbd 0243 a63d 0b33 e5bd bcf9 903d
00000310: c6bf 973d 9f82 3dbd 96ee 81bd b191 cfbd
00000320: d8c2 f7bd ccc8 b93d 0059 063d e204 8f3d
00000330: 340c 3e3d 3465 38bc e602 c13c 1c68 963d
00000340: f6f2 ca3d faa5 40bd baaf 3abd d01f 7abd
00000350: 4ab9 393d b0b4 dbbc 6a0a c9bd 70fa 613c
00000360: 3c0c d73d 900c 58bc 9775 62bd 0ab2 b93d
00000370: b20b 2fbd 2858 e0bb c2c2 483d 9e22 40bd
00000380: 44a5 07bd 1105 54bc e4ed fabc 76f9 88bd
00000390: c4fa 693d 7b58 15bd 26dc babd 8a95 a7bd
000003a0: 5ace a1bd 58f6 edbc 21fe 89bd 7c80 463d
000003b0: 3964 a83d 5e68 7dbd 368c fcbd 18ae 80bd
000003c0: 69b5 9ebd d8b1 ddbc f744 9fbd 4060 30bd
000003d0: 62b4 eb3d 1c8c 84bc 5dd8 0d3e d351 643d
000003e0: bdbe e5bc 0657 f3bc 603e a93b 065a 933d
000003f0: 11f2 e13a 227f 09be 1343 00be d876 e2bd
0.106680706 -0.04687281 -0.12990479 0.09132046 -0.02628077 -0.06950366 -0.09168531 0.07658419
0.027413579 0.08408335 -0.11077504 -0.14054511 -0.12877879 0.121870264 0.07860234 0.033041045
-0.097405195 -0.0596764 0.019396888 -0.018551342 -0.10001205 0.07536516 -0.10532749 0.13474302
0.11479947 0.1242709 0.0012856573 0.0867763 -0.066811465 -0.08325747 0.07027334 0.018981487
0.121264294 -0.0474158 -0.13882433 -0.060727414 -0.14190617 0.07295188 0.041632384 -0.01641781
0.10932292 0.034934536 -0.018296177 -0.12209887 0.057598405 -0.13103989 -0.018047854 -0.02823138
0.09111305 -0.13040106 0.08509426 0.015914336 0.012043795 -0.12969089 0.0047592237 0.08033467
0.049331836 -0.04568518 0.065251455 -0.095004275 0.07138223 0.12787853 0.11418287 -0.10547819
-0.12346678 0.1258805 0.031140411 -0.019840278 -0.09894302 -0.06848167 -0.07087581 -0.07836681
0.12696534 -0.06254209 0.11071162 0.034151033 0.06408113 0.06352262 0.05876015 -0.10159294
-0.13882379 -0.110370025 0.04026626 -0.05170785 -0.10423829 0.13140592 -0.0033759973 -0.0039289147
-0.09755337 -0.0675343 0.14052005 0.039441347 0.083978795 0.14079143 0.05628348 0.1197985
-0.11670212 -0.041227568 -0.04468029 0.058452055 -0.101206645 0.013880208 -0.13180222 -0.096072145
0.13822891 -0.021582713 0.052379426 0.002858826 0.11238726 0.12104492 -0.03708605 0.024278864
0.06223468 -0.017268725 0.08367557 -0.072225526 0.1350856 0.0040631467 -0.08858422 0.012740791
-0.10410862 0.03812611 -0.014695435 0.029695928 -0.04660362 -0.1360819 -0.08780376 -0.023356467
-0.074391216 -0.093343675 0.108449794 -0.12922916 -0.042571 0.109558 0.0039952844 -0.061835203
0.04052043 -0.11129749 0.042222038 -0.0797556 -0.05872113 -0.1381266 0.094657205 -0.06973776
0.086662896 0.13981667 0.13950323 -0.07175654 -0.1292532 0.0016385971 -0.034898184 -0.024111606
0.13602065 -0.13622732 0.034551054 0.016791329 -0.01841719 0.12010852 0.027549969 0.12887235
0.07643823 0.08219193 -0.09678727 -0.067947045 0.13723771 -0.07266313 -0.018670602 0.12328659
0.077811606 0.10009153 -0.06887037 -0.120447025 -0.1382337 -0.118598655 0.02841657 0.05502598
-0.11915995 -0.13308421 0.07182671 -0.051840253 -0.06781824 0.03740278 -0.031610742 0.072347805
0.0013416857 -0.12662798 0.023315325 0.11119707 0.12960967 0.09302193 -0.020560551 0.0514756
-0.041905556 0.081182495 -0.11191376 0.07078883 0.07409625 -0.046267148 -0.06344335 -0.1013521
-0.1209771 0.09071502 0.03279972 0.06983353 0.046398357 -0.011254597 0.023560952 0.07344076
0.09909622 -0.047033288 -0.045577742 -0.061065495 0.04534272 -0.026819557 -0.098164394 0.013792619
0.105003804 -0.013186589 -0.055287924 0.090671614 -0.042735763 -0.0068464465 0.04901386 -0.046908014
-0.033116594 -0.012940661 -0.030631013 -0.06688206 0.057123914 -0.036461335 -0.09124021 -0.08182819
-0.079006866 -0.02904813 -0.06737924 0.048462376 0.08222241 -0.06186711 -0.123314306 -0.06283206
-0.07749445 -0.027062342 -0.07776826 -0.04306054 0.11509015 -0.01618009 0.13852067 0.055742096
-0.028045053 -0.029704582 0.0051649064 0.07194905 0.0017238279 -0.13427404 -0.12525587 -0.11057824

layers.3.bias f4 [20]
00000000: 60a1 f1bd 37f5 023e a88d 05be 5065 d6bd
00000010: da4c 93bd 03d2 46bd 3102 053e a1ce 973b
00000020: e741 a63d 2036 023e ba78 a43d 62d0 06be
00000030: 8816 f03d 6496 08be 0ca7 f53c 7c42 e3bd
00000040: 98b7 043d 8e8d b5bc 2a03 9f3d d996 073e
-0.11798358 0.12788855 -0.13042319 -0.104685426 -0.07192393 -0.048540127 0.12989117 0.0046327864
0.081180386 0.1271596 0.08030839 -0.13165429 0.117230475 -0.1333862 0.02998688 -0.11096665
0.03240165 -0.022162225 0.07764275 0.13241138

layers.6.weight f4 [10, 20]
00000000: c2ae 963d 7344 14bc d14a 06be d31f 5e3d
00000010: f73d 45be 32ba 2e3d b115 46be 98b9 c0bd
00000020: ac91 033c 4eca d2bd 121f 57bc 67db 543e
00000030: ea87 0f3e 4ca8 4ebd 05a3 663c ceea a7bd
00000040: fc94 61be 9c7f 9e3c 585b 1b3e 5912 033e
00000050: f123 9c3d 1f24 663d 48eb 55be dde4 06be
00000060: c980 49be c4d1 593a 3937 db3d 8fae 97bd
00000070: bf3a 0d3e 8abb 183e 6257 4b3e 2a37 bd3d
00000080: cd4d ff3d 167f ecbd cd5a dcbd f364 15be
00000090: 8a77 b3bc 98ec 2bbe 1b8f a5bd 0522 19be
000000a0: 0cf3 2f3d 8d06 50be 0766 62bd b6eb 4dbe
000000b0: ec4f 3fbe c488 07be cddd cd3d cf17 10be
000000c0: 3f5e 903d 33c5 01bd 5dc4 663d 6a08 2fbd
000000d0: ee90 c8bd 3287 483d b63a d4bd 9619 2e3e
000000e0: 701b 1b3e 5995 073e d302 2dbd b15e 313e
000000f0: 2d83 32be fbb8 3a3e 3ef4 69bd 7e7d 8bbc
00000100: 96ac e4bb 8fbc 723d 6c8a b63d 4339 1a3e
00000110: d44c 28be 552a a13d d4e5 c73d eb64 213e
00000120: 4033 19be 2cf2 f53d 00f2 dabd c6b1 f33d
00000130: 626e 9a3d ce38 8c3c 9606 cbbd 0c66 10bc
00000140: 7508 253c dc42 09be 1801 9fbd 6f89 303e
00000150: 53fd 463e 0288 15be 5f57 3bbd c827 2a3d
00000160: d73b 303e 2800 9e3c 8387 57bc ff7f 193e
00000170: f317 1e3e cfc7 603e e0cb 30be 231e 4b3e
00000180: 0376 9b3d 5a84 9ebd 9d7e b33d aaad 23be
00000190: 343d 3abe ddd0 3e3d 8b10 11be 6b5d d43d
000001a0: 9a2f 4c3d fbfe 28bd baa2 3c3e 3dff c4bd
000001b0: f195 0ebe 7520 a23d 8a9f c2bc 9111 2e3e
000001c0: 32cf 133d 23eb adbc 28a2 17be dd6a 4abe
000001d0: db65 4dbe 1921 3a3e 29d4 aa3d c195 a33d
000001e0: 5fd4 26be 8669 9e3d df2f 88bd 9ec7 173d
000001f0: 438d fdbd 650e a63d 17c3 2ebd 96d9 4abc
00000200: 46e3 57be 59e4 513e 6231 3cbe cb65 223e
00000210: 296d 01be 8ce5 4d3e e471 633e f72f d8bc
00000220: 25f0 8e3d 986c c0bd 0c32 36be 2114 313d
00000230: 8d37 1abe cb44 f13d ecca 5bbe 0393 32be
00000240: 32c8 053e bbb3 06be d0dd 99bc 87c1 a13c
00000250: 6a48 623c f557 20be aee8 393e b9e0 7dbd
00000260: 0555 553e 56e8 0ebe 7016 15be 64e9 8a3d
00000270: 74c6 b83c 5204 fc3c c8ef 433e 876e 62be
00000280: 7ffa 1bbe 4191 1abe 48f8 ecbc 4422 993d
00000290: 80a2 04be cb5c 4ebe 155c 11bb a5cf c83d
000002a0: 0650 38be a4fc 283e a934 b1bd a9bc de3d
000002b0: bc28 d33d 1983 133d 6c32 22be 9757 64be
000002c0: aa20 13be a2f4 d5bc 46fe fbbc 0942 243d
000002d0: 5c2b e23c 54b8 f43b 681b ecbc 1ad1 25be
000002e0: d6e7 61be d94c f53d 50fe 16bc 9b97 82bd
000002f0: 4574 4bbd e5dc 993d 8395 823d 10a6 dabd
00000300: 530b b9bd ec76 fbbd 8cd6 63be 9dd5 913d
00000310: 5d67 3bbe 0865 2bbe 20c8 ab3b d8ff 2fbe
0.07357551 -0.009049523 -0.13114478 0.05422957 -0.19261919 0.04265804 -0.19344212 -0.09410399
0.008030336 -0.10292493 -0.013129966 0.2078682 0.14016691 -0.05045347 0.014076953 -0.08199082
-0.2202949 0.019347958 0.15171564 0.12799968 0.07624043 0.05618679 -0.20890534 -0.13173242
-0.19678034 0.00083091506 0.10703892 -0.07406341 0.13791941 0.1491529 0.19857553 0.09239037
0.12466011 -0.11547677 -0.107595064 -0.1458929 -0.021907587 -0.16789472 -0.08083936 -0.14954384
0.042956397 -0.20314999 -0.055273082 -0.20109448 -0.18682832 -0.13235766 0.10052071 -0.14071582
0.07049226 -0.031682204 0.05633961 -0.042732634 -0.09793268 0.048957057 -0.10362761 0.17001948
0.15147185 0.13240565 -0.04223902 0.17321278 -0.17432852 0.18234627 -0.057117693 -0.017027613
-0.0069785817 0.059261855 0.089131206 0.15060906 -0.16435558 0.07869402 0.09760633 0.15761153
-0.14960957 0.12009081 -0.10690689 0.11899142 0.07540585 0.01711693 -0.099133655 -0.008813392
0.010072817 -0.13404411 -0.077638805 0.17239927 0.19432573 -0.14602664 -0.04573762 0.041541845
0.17210327 0.019287184 -0.013154867 0.14990233 0.15438823 0.21951221 -0.17265272 0.19835715
0.07590868 -0.07740088 0.08764384 -0.15984216 -0.1818741 0.046585906 -0.14166467 0.103693806
0.049850084 -0.041258793 0.1842145 -0.09618995 -0.13924386 0.07916347 -0.023757715 0.16998889
0.03608627 -0.021230286 -0.14807951 -0.19767328 -0.20058386 0.18176688 0.083412476 0.07987548
-0.1629195 0.07734971 -0.06649756 0.037055604 -0.12380459 0.08108214 -0.04266652 -0.012380978
-0.21082792 0.20497264 -0.18378213 0.15859143 -0.12639298 0.20107096 0.22211415 -0.026390059
0.06979398 -0.093957126 -0.17792529 0.043232087 -0.15060253 0.11780699 -0.21464127 -0.17438893
0.1306465 -0.13154499 -0.018782526 0.019745601 0.01381121 -0.15658553 0.18155167 -0.06198189
0.20833214 -0.13955817 -0.1455934 0.06782797 0.022555567 0.030763779 0.19134438 -0.22112475
-0.15232275 -0.15094472 -0.028926983 0.07477239 -0.12952614 -0.20152585 -0.002218013 0.0980523
-0.17999277 0.16502625 -0.08652622 0.10875828 0.10310504 0.036013696 -0.15839547 -0.22299038
-0.14367929 -0.026117627 -0.030760895 0.04010204 0.027608566 0.0074682627 -0.028821662 -0.16193047
-0.22061095 0.11977548 -0.009215906 -0.06376573 -0.04967143 0.075128354 0.06376173 -0.10676205
-0.09035363 -0.12278542 -0.22249812 0.071208216 -0.18301149 -0.16737759 0.0052423626 -0.1718744

layers.6.bias f4 [10]
00000000: 235b 293d c9e0 583e 1749 4ebe f44d b3bd
00000010: 1e03 18be 10a0 a63c 81db bfbd 0a87 3f3e
00000020: b064 6bbd a95c e83b
0.04134668 0.21179499 -0.20145069 -0.08755103 -0.14844939 0.020339996 -0.09368039 0.18703857
-0.05746907 0.007091124

layers.9.weight f4 [2, 10]
00000000: 345f 18be 113c 8e3e 41b5 733d d32a 413e
00000010: 1d65 7cbe e83b af3d de28 16be bf9f 203d
00000020: 7eb2 28be 57f5 62bd 97d7 69bd 98f5 1bbe
00000030: e386 96be 2d0a 94be ca65 d6bd 5c53 9ebd
00000040: 09b8 9abe 9580 03be 754a e23d cbf3 3bbe
-0.14880067 0.27780202 0.05949903 0.18863992 -0.24647947 0.08556348 -0.14664027 0.039214846
-0.1647434 -0.055409756 -0.057090368 -0.15230405 -0.29399785 -0.28914014 -0.104686335 -0.07730743
-0.30218533 -0.12842019 0.11049358 -0.18354718

layers.9.bias f4 [2]
00000000: bbea 53be ce40 333d
-0.20695011 0.043762974
