DHH/model/fc/model-fold-5.pth (torch, 68239 bytes, 8 tensors)

layers.0.weight f4 [50, 302]
00000000: 055e 0c3d c5d1 0dbd 5caa f43c e01b 093d
00000010: 7635 4ebd eb55 483c 4c8a d53c 0695 803c
00000020: bf99 5ebd 97b6 923c 0921 cd3c ce2c 273c
00000030: b749 b43c c056 163b 3710 19bd 4355 c73b
00000040: 8740 983c 4a92 133d 1c94 11bc 93d7 02bd
00000050: d95d 073d 228f 3cbd 2351 923c deb3 8bbc
00000060: cd73 1c3c 81cd d43b f627 763b 0741 4b3d
00000070: 3347 6ebb b497 633d bfcb 093c 9e63 53bd
00000080: a612 653d 2d04 3cbd fe13 45bb a28e da3c
00000090: 6e17 43bb 3f4f c6bc d2a4 043d 15f7 3bbd
000000a0: 5ae3 ef3c 6b43 5a3d 0879 4cbd 3237 2abd
000000b0: b988 633d 9bb4 e5bb caae ed3c 2339 45bd
000000c0: e13a 9a3c 6e1f 063d 76a0 80bc 3b26 d23b
000000d0: ed42 033d 9ef5 efbc ac64 f1bc a746 18bc
000000e0: cdad 4bbd 2c45 f8bc 907b 42bd e4a3 973c
000000f0: be22 3b3d d99b 58bd 8a60 40b9 3ad4 e33c
00000100: b39d 34bd 39c9 cbbc 2a45 293d 00ab ebbc
00000110: 2e3c 3c3d cc0e 06bd afe7 3abd 04a3 543d
00000120: bc87 d43c ff49 393d 8e58 763c 5b65 8dbc
00000130: 008f 643d 81f4 5bbd d643 a6bc 7501 b83b
00000140: b082 49bc 69b7 943c cace 68bd c6f5 3abd
00000150: 5f27 31bd 92f5 093d 5d51 4a3d 2808 63bd
00000160: 9caa 223c 2356 0e3d 550c 3e3b bed8 99bb
00000170: 30bc 7cbc 3103 3abc ba92 08bd 904b 0cbc
00000180: 029f b63c 7fd6 9ebc 1736 c33c 1c61 38bd
00000190: fe1d 3f3b b55b fb3c f90b f83b ec3a a1bc
000001a0: 9356 d9bc 7aa8 083d 32b8 eabc 0ae3 263d
000001b0: 0e2c 2bbd 11c5 153d d7cf 18bd 460c cc3c
000001c0: 2257 5abd 4cc7 23bd bcf3 60bd 7219 d93c
000001d0: 271b 09bd bbfb 293d 143e 5b3d 9a67 19bd
000001e0: 95d6 593c af79 30bd 1a16 d43c e919 433d
000001f0: 196d b2ba 1bcd 43bc 4d8c a4bc 0ac2 c3bc
00000200: 32e0 03bd 1043 fd3c 5881 073d 2ef0 8e3c
00000210: bf22 193d 822f 2dbd 402b 403d ade9 953c
00000220: 21ef 9f3c d0ac 21bd 481f 0c3c 6b8b 26bc
00000230: 6f7f 433d 0924 533d 1d58 2c3d 53da 23bd
00000240: 35ab ee3c f290 d7bb 243d 163a 60aa 04bc
00000250: c9d5 623d 6567 e2bb 84e6 413d 5a61 8dbc
00000260: a362 483d d676 293d 7fd7 babc a681 0abc
00000270: eee5 fbbc ab58 02bd 0018 4b3d c6ae 95bc
00000280: 3557 edbc bc00 383d 2855 233c 89af a9bb
00000290: 2c60 9b3c 6969 033d f0e5 823c b906 51bd
000002a0: 1631 13bd af95 25bb 767a 7b3c f69e 153d
000002b0: 35bb 253b 511e 363d 373e 053d fbf5 d43c
000002c0: 9c42 47bd 9f59 32bc 0df7 86bc ceae 073c
000002d0: ab7f 4bbd 7393 1cbc 8c81 b7bc 46e2 de3c
000002e0: 536f 03bd 2c24 2cbc bb83 e03b 0d48 9b3b
000002f0: 988e 1cbd 9260 bebc a667 92bc 81d1 2bbc
00000300: 88ca 86bb 5352 c7bc 75c8 efbc 2168 163d
00000310: eb65 c6bb 286d 283d 263a 643c b64d 5bbd
00000320: 5f3f 5abd e4d3 12bc b781 223d d836 d1ba
00000330: 322e 15bd 37f7 4e3d 86b7 3ebd 1b0c 8939
00000340: 4508 e93a d678 24bd b42a e8bc 4a9a da3c
00000350: 0918 3f3d fbfb 3dbd 3c5e 2f3d 2042 4cbd
00000360: da63 4bbd 4f8e 173d 1612 21bd d5d0 223d
00000370: d48b 1b3c 7b5e 54bd 959c 473d 4440 3dbd
00000380: abe2 3e3d 1e5b 9bbb 7540 cb3a 22bb 683d
00000390: 3aa9 46bd 00f6 5ebb 0e18 203d 38db e7bb
000003a0: 02b9 0aba 0619 933b 8b61 f7bc bb49 233d
000003b0: 94f2 483d 41a6 633b 57e1 3cbb c4f6 3ebd
000003c0: 176e e33c 300d 273d 9f7d 143c 0dda a5bc
000003d0: 3786 c0bc 5b91 1ebd f5f0 623c 8e11 37bd
000003e0: 2446 19bd 40b2 36bd f986 33bc ac8f 45bd
000003f0: 8546 fb3c bfda 023c 8dc7 abbb 6dcc fa3c
0.03426935 -0.03462388 0.02986639 0.03347385 -0.050343953 0.012227516 0.026066922 0.01569606
-0.054345842 0.017909331 0.025040166 0.010203553 0.022007806 0.002293989 -0.03736898 0.006083162
0.018585457 0.036028184 -0.00888541 -0.03194387 0.033048484 -0.04603494 0.017860955 -0.01705354
0.009549093 0.0064942245 0.003756044 0.04962256 -0.0036358356 0.055564597 0.008410393 -0.051608674
0.055925988 -0.04590242 -0.003007173 0.02667934 -0.0029768604 -0.02420771 0.032383747 -0.045889933
0.029283214 0.05328695 -0.049920112 -0.041556545 0.05555031 -0.0070100552 0.02901401 -0.048150193
0.018826904 0.032744817 -0.015701514 0.006413249 0.032046247 -0.029291924 -0.02946695 -0.009294189
-0.049726296 -0.030306421 -0.04748112 0.018510766 0.04568743 -0.052883003 -0.0001834651 0.027811158
-0.044095706 -0.024876224 0.041325726 -0.028768063 0.04595583 -0.032728955 -0.045631107 0.051913276
0.02594363 0.045236584 0.0150357615 -0.017260244 0.055800438 -0.053699974 -0.020296019 0.005615408
-0.012299225 0.018153863 -0.056837834 -0.045644544 -0.043250438 0.03368146 0.049394 -0.0554277
0.009928372 0.034750115 0.002899905 -0.004695027 -0.015425727 -0.0113533 -0.033343054 -0.008562937
0.022292618 -0.01938939 0.023829503 -0.045014486 0.0029162164 0.030683378 0.0075697866 -0.019681416
-0.02653054 0.033363797 -0.028652284 0.040743865 -0.04179006 0.03656489 -0.037307587 0.024908196
-0.053305753 -0.039984986 -0.054919943 0.026501391 -0.03347316 0.041499835 0.053526 -0.037452318
0.013295789 -0.043084797 0.025889445 0.04763213 -0.0013612836 -0.011950756 -0.020086432 -0.023896236
-0.03219623 0.030915767 0.033082336 0.017448511 0.037386652 -0.042281635 0.046916246 0.018299902
0.019523205 -0.039471447 0.00855238 -0.010165076 0.047728952 0.051548038 0.04207622 -0.040003132
0.029134372 -0.006578558 0.00057311566 -0.008097261 0.055379663 -0.0069092982 0.047338977 -0.017258335
0.048922192 0.041373096 -0.022807835 -0.008453762 -0.030749287 -0.03182284 0.049583435 -0.018271815
-0.028972248 0.044922575 0.009969033 -0.005178396 0.018966757 0.03208295 0.015978783 -0.0510318
-0.035935484 -0.002526622 0.015349021 0.03652855 0.0025288586 0.044462506 0.032530036 0.025996199
-0.048647508 -0.010885625 -0.016475225 0.008281423 -0.0496823 -0.009556639 -0.02240064 0.027207505
-0.03208859 -0.010506671 0.006851641 0.0047388137 -0.038221925 -0.023239408 -0.017871689 -0.010486961
-0.004113499 -0.024331247 -0.02927039 0.0367204 -0.00605463 0.041119725 0.013929879 -0.053540908
-0.05328309 -0.0089616515 0.039674487 -0.0015961779 -0.03642101 0.05052873 -0.04656174 0.00026139696
0.0017778954 -0.0401543 -0.028340675 0.026684899 0.04665378 -0.046382885 0.04281448 -0.04986775
-0.049655773 0.03700095 -0.03932389 0.03974994 0.009493787 -0.051847916 0.048733313 -0.046203867
0.046602886 -0.0047410866 0.0015506881 0.05681909 -0.04850123 -0.003402114 0.03908544 -0.0070756935
-0.00052918505 0.004489067 -0.03019788 0.039865237 0.049059466 0.0034736546 -0.0028820836 -0.046622053
0.027762456 0.04078406 0.0090631535 -0.020245576 -0.023501499 -0.03871284 0.013851394 -0.044694476
-0.037420407 -0.044603586 -0.010957473 -0.04823272 0.030673275 0.007986723 -0.005242294 0.030615056

layers.0.bias f4 [50]
00000000: 8cce bbbb 6cd1 ba3c 43ff 06bd 198c f5bc
00000010: 1fca 7f3c f59e 613b cc99 cc3c 3adc 0fbc
00000020: fef9 90bc 6fb3 bc3c 32bb 3bbd d6ba e73b
00000030: e80f 303d 0235 c4bb eadf abbc c48b 57bc
00000040: e0fc 6fbc ff3d 5a3d d428 483d 5552 f7bc
00000050: 53d0 543d c003 5dbd df8c 2abd e0df 2c3b
00000060: 1d71 60bd f980 34bd 858b 43bd 2edf 853c
00000070: 507c 343d c823 683d 5c30 d43b 7e51 0f3d
00000080: b180 f43c 6152 b13c 3cfa 32bd bfcf 8a3c
00000090: f6b8 0dbd 1b98 38bd d551 69bd 0ad6 b33c
000000a0: e455 a13c b2ae 3abd 0f73 43bc 9283 a53b
000000b0: 1b28 2ebd 1776 613d d3aa 65bd 7852 373d
000000c0: 867a 6d3c 97ac 503d
-0.0057314094 0.022804938 -0.03295828 -0.02997403 0.015612154 0.0034427021 0.02497568 -0.008780533
-0.01769733 0.02303478 -0.04583282 0.007071833 0.04298392 -0.0059877643 -0.020980794 -0.013155881
-0.014647692 0.05328178 0.04886706 -0.030190626 0.051956486 -0.053958654 -0.04163825 0.0026378557
-0.054795373 -0.04406831 -0.047740478 0.016341772 0.044063866 0.05667475 0.0064754914 0.034989826
0.029846521 0.021645727 -0.043695673 0.016944764 -0.03460022 -0.045066934 -0.056962807 0.021952648
0.019694276 -0.04557676 -0.011929288 0.005051085 -0.042518716 0.05504426 -0.056071114 0.044756383
0.014494544 0.050945845

layers.2.weight f4 [20, 50]
00000000: 5cf2 d73d a176 fe3d 2fe1 56bc 60b2 b0bd
00000010: 8a9a 023e 6f2d 7a3d 833f e9bd 99cb a93d
00000020: 7ac6 e0bd a5fd 95bd 30e7 953a 6249 e2bd
00000030: fc11 c93d 454b fabd a482 7c3d b153 dbbd
00000040: 1081 f43d 1940 e83d d49f d8bd 620c 94bd
00000050: 917c 01bd e29a 3d3d 2403 ea3d cd52 033e
00000060: bc74 a03d 5d98 983c aa88 cf3d 9492 0bbe
00000070: c3b7 e5bd c7a1 94bd 3c77 6d3d aa47 853d
00000080: 673d 023d 1309 c03c 241c f3bd 1f4d edbc
00000090: 1b25 003e 02bc a4bd bd7d acbd 294f 563d
000000a0: 5d4a a2bd 95fa aa3d 28cd 8d3b 14eb 0a3e
000000b0: 7600 b2bd c954 923d deed 10be 88c3 11be
000000c0: 7a37 133d 79a0 04be 3a7d 7abd 586f 0f3e
000000d0: 7349 0a3e 8e36 dd3d 2189 023e d966 083e
000000e0: fc44 ecbc 83b2 09be df28 eb3d 9c76 033e
000000f0: eac0 b6bd a65d 423d 0d8a d03c a4f3 33bd
00000100: e060 813d 3edc 873c 6dc1 0ebe 0f92 b53c
00000110: 1b9b 213d 6335 61bd 9a7b 863c c748 7fbd
00000120: 7aa0 163d a30b b63b 003d 4cbd 120e 433c
00000130: 531c 0a3e 1e8e bf3d 9bb1 dcbd 6483 fe3d
00000140: 6397 9cbd d2e2 f43d 32d9 bb3d 2bc3 1ebd
00000150: c9ca 0b3e b0f0 be3c e42b adbd 2f19 dfbd
00000160: 5797 9cbd b7e5 183d 106d 493d 8a5e 7e3d
00000170: 0f5a a43d 2976 83bd d2a7 05bc 6c00 c63d
00000180: c23c c4bd dc66 65bd c816 0fbe 8b96 543d
00000190: 8e68 f93a ba1e e13d de95 f4bc e051 d33d
000001a0: 69b4 963d 6cfd fb3d 4d03 e03d c2f8 e9bc
000001b0: 9198 05be 57ac f0bd 6510 85bd 9aa1 b63d
000001c0: 12b5 10bc 00f1 6b3b feea b63d e147 edbd
000001d0: 30d8 ffbd 771f 053e dd1d 183c 5d6d d0bd
000001e0: 9cc0 68bd 8bd6 eebd d1cd a73d 83ec 1dbd
000001f0: 6912 c73d 0d03 9b3c 4c00 d1bd d5d1 85bd
00000200: 4fa4 b0bd dc46 0bbe 2c45 09bd 8645 cf3d
00000210: cc16 01be b5d1 76bc 4701 423d 57be 7f3d
00000220: 65b6 003e e442 cabd 8252 693b 762e c23c
00000230: d701 083e 4b94 9cbd d051 e23d 050c fc3d
00000240: 9fc7 683d 4c95 a43d c444 69bd b1c0 583d
00000250: 1b55 013d 6655 f93d 9c17 8abc c658 353c
00000260: 819b bd3d 7096 89bc b0a6 babd a36c 9c3d
00000270: 5511 07be 713c f93d c578 aabd e06e 083e
00000280: 3c3e eabd 17f7 a93d fc6a 873d 42de e33d
00000290: 9072 823d ff11 f53d f150 343d 20f4 b1bd
000002a0: 6dcf 0b3e e41f f53d be5b f9bd 1107 933c
000002b0: e178 47bb cf6b f43d fcc5 ce3d f28d cf3d
000002c0: 7a55 5bbd f355 f93d 07a8 093a 1cb2 b83d
000002d0: 9cdb 7b3d 89bf 01be aeb7 613d d010 133d
000002e0: 1822 25bd 2bc3 f0bd 98a6 92bc 2368 5c3c
000002f0: 0df9 95bd 2a5f 873b 3241 ad3c d10b 4dbc
00000300: d1cd f63c c520 bcbd 277c f93d ea2f de3d
00000310: bbca c9bd 405a 523c 3921 d23c 1eec 2ebd
00000320: abe6 c1bd 86ae babd e1b8 efbd 689f e23c
00000330: d4be f13c c6d9 e73d 1662 ecbd ecc8 753d
00000340: 16a8 9bbd 4cb4 09be c757 603d e8e9 9b3d
00000350: b47a cf3d e9ad 99bd 6090 603d 3426 97bd
00000360: 8045 813d 1cca b0bd 055e 10be dfba 0d3e
00000370: f232 a6bd 523a 2e3c 1237 f03d d9b0 b9bd
00000380: 353c c9bd 5dc6 993d caac 24bd af8f a4bd
00000390: 6cbd 3ebd a6d0 f1bd ba24 01bd 54cb 91bc
000003a0: dae4 f3bd 08c9 54bd 1a3f af3d 7add babd
000003b0: 14ba 86bd 0553 663d c2d2 8cbd 05f0 07be
000003c0: 5cd7 86bd cf77 12bc ffee b13d c445 733d
000003d0: fdb1 103e 00c3 85bd 2c61 1ebd 1b8a f33d
000003e0: d6b1 86bd dcfc b43d 48b0 c43d 5198 0dbe
000003f0: a0f5 19bc 4432 ee3d bf84 013e 2647 dbbd
0.10544273 0.124249704 -0.013115211 -0.08627772 0.12754264 0.061078485 -0.11389067 0.08290786
-0.109753564 -0.073237695 0.0011436697 -0.11049153 0.09817883 -0.12221388 0.061648026 -0.10709322
0.11938679 0.11340351 -0.1057736 -0.07228924 -0.031612936 0.046290286 0.1142638 0.12824555
0.07834765 0.01862734 0.101334885 -0.13630134 -0.112166904 -0.07257419 0.05797504 0.065078095
0.03179684 0.023441827 -0.11870602 -0.028967438 0.12514155 -0.08043672 -0.0842242 0.052321587
-0.0792434 0.08348576 0.004327435 0.13566238 -0.08691494 0.07145078 -0.14153239 -0.14234746
0.03594158 -0.1295184 -0.06115458 0.14007318 0.13504581 0.10801421 0.12747623 0.13320483
-0.028841488 -0.13447003 0.11482405 0.12838215 -0.08923514 0.04745259 0.025456453 -0.043933526
0.063173056 0.016584512 -0.13940974 0.022164373 0.03945456 -0.054982554 0.01641636 -0.062325265
0.036774136 0.0055555864 -0.04986286 0.01190521 0.13487367 0.093532786 -0.10776063 0.124274045
-0.07646062 0.11957325 0.09172286 -0.038760345 0.13651575 0.023308128 -0.08455637 -0.10893475
-0.07646053 0.03732845 0.049176276 0.06210188 0.0802499 -0.06419022 -0.008157687 0.09668049
-0.09581901 -0.056006297 -0.13973534 0.05190138 0.0019028352 0.10992189 -0.029856618 0.10318351
0.07358629 0.12304196 0.109381296 -0.028561 -0.1304648 -0.11751621 -0.06497268 0.08917542
-0.008832233 0.0036001801 0.0893154 -0.115859754 -0.12492406 0.13000284 0.009284464 -0.101771094
-0.05682431 -0.116620146 0.08193553 -0.038555633 0.09720308 0.018922353 -0.10205135 -0.06534163
-0.086250894 -0.1360125 -0.033513233 0.101206824 -0.12606353 -0.0150646465 0.0473645 0.06243738
0.12569578 -0.098760396 0.0035602157 0.023703795 0.13281952 -0.07645472 0.11050761 0.1230698
0.056831 0.080362886 -0.056950346 0.05291814 0.031575304 0.121744916 -0.016856961 0.0110685285
0.09258176 -0.016795367 -0.09113824 0.07637908 -0.13190205 0.121697314 -0.08323816 0.13323545
-0.114376515 0.08299082 0.066122025 0.11126377 0.06369507 0.11966323 0.044022504 -0.08689141
0.13653345 0.11968973 -0.121757016 0.017947705 -0.003043704 0.11934625 0.10096356 0.10134496
-0.053548314 0.12174597 0.0005251173 0.09018347 0.061488733 -0.12670721 0.05510681 0.035904706
-0.040315717 -0.11755975 -0.017901704 0.0134525625 -0.07322893 0.0041312175 0.021149252 -0.012515024
0.030127438 -0.09185938 0.12181883 0.10848983 -0.09853121 0.0128389 0.025650607 -0.042705648
-0.094678245 -0.09115319 -0.11705185 0.027663901 0.02950994 0.11320834 -0.11542146 0.060006067
-0.07600419 -0.13447684 0.05477121 0.076129735 0.10130826 -0.07503874 0.054825187 -0.073803335
0.06312084 -0.08632299 -0.14098366 0.13840817 -0.08115186 0.010634022 0.11729254 -0.09066934
-0.09825937 0.07508538 -0.040203847 -0.08035218 -0.046567366 -0.11807375 -0.031529166 -0.01779715
-0.11908884 -0.05194953 0.085569575 -0.091242746 -0.0657846 0.056231517 -0.06876136 -0.13275154
-0.06584045 -0.008939697 0.08688163 0.059392706 0.14130397 -0.06531334 -0.03866689 0.11891576
-0.06576888 0.088372916 0.096039355 -0.13827635 -0.0093969405 0.11630681 0.12648295 -0.1070693

layers.2.bias f4 [20]
00000000: 8e34 0c3d 60a9 3abb 0c57 10be af33 cfbd
00000010: c6bc 753b 09c0 b7bc c3a1 3dbd 9b37 04bd
00000020: 610a 59bc 007c c8bd 77b0 2fbd 9f64 db3d
00000030: 76ce eabd b4d5 313d 26bc c2bb f3c2 f73d
00000040: 09ba 023e 3fac 73bd 39fc ca3d 9034 8c3d
0.034229808 -0.0028482303 -0.14095706 -0.1011728 0.003749655 -0.022430437 -0.046296846 -0.032279592
-0.013247103 -0.09789276 -0.0428929 0.10712551 -0.114651605 0.043416694 -0.005942839 0.120977305
0.1276628 -0.05949044 0.09911389 0.06845963

layers.4.weight f4 [10, 20]
00000000: eede 78bd 4afd e23d 4ee8 e83c a7a0 3a3e
00000010: fcc9 a93c a144 4a3e 8ac2 2fbc fecc ccbd
00000020: 14a6 8b3d e4f0 e4bd c411 a83d 2b0e c63d
00000030: 54b5 25bc 80b7 39be 2bf5 2ebd 364e c0bd
00000040: c607 f03c 1ae7 16be 4073 a3bd 9345 303e
00000050: 1e22 11be 4ab1 c33d beab 493d 5b7e 093e
00000060: 8457 0e3e b610 0dbc 544c 533d 35ec 163e
00000070: df56 5a3a 0e39 18be 6528 52be fcce 34be
00000080: 423a 493e c90f 2d3e 89be af3d 4082 3fbd
00000090: 7446 2f3e 84a4 c23d 62c5 083e b6ce 30be
000000a0: 8cb1 1abd c8f6 17bd a4a7 22bd e07b 91bd
000000b0: 08f2 ef3d 28b9 eabd 00ed c3bd 1547 d7bd
000000c0: 8204 153e c277 a1bd 4897 45be b44d 27be
000000d0: 9f8a fbbd 588d 0a3d 9446 9cbd 42eb 583e
000000e0: 00e1 243e 580e 1fbd e0c4 25be 6c1a df3d
000000f0: edaf 41be 5bf4 2ebe c471 c03d e2f0 433e
00000100: 63f5 24be 33f5 0e3c 8d36 0b3e 676a 59be
00000110: d04a 423e 7406 08be e8c5 36be 9d71 3dbe
00000120: 284f 0e3e 784a d4bd 536b cabd e9f0 00be
00000130: a84c 1bbe a877 103e fe73 0a3e 86dc 6cbd
00000140: 5520 aabc 4cda 833d a7fa fe3d 00a8 8f3c
00000150: 5814 583e 28eb 1a3e ca15 5ebe 6266 5a3e
00000160: 641b 62be 60cc 4e3e da9f 41bd 4813 2b3d
00000170: 4380 0c3e 6044 bb3d b125 cc3d 1450 45be
00000180: 9959 4bbe 677a 023d d9f5 333e 834a 143e
00000190: 4eb6 f1bd 12c0 f9bd ba8e 2cbe f391 e7bd
000001a0: 2a00 dcbd f173 5a3e 116a 0b3c ce0b 8ebd
000001b0: 2790 d4bd 6e8d 33be 8015 5d3b 8288 23be
000001c0: 046a 41be 5857 2c3e a893 2c3d 262f 013e
000001d0: a0a7 533e 8c7a 143e ade5 56bd 701d 033e
000001e0: ac05 35be 70b3 bcbd f813 b3bc 7e60 4bbe
000001f0: 389c 57be 024d 4dbe 616a 56be ac95 9dbd
00000200: 40c5 0e3e 5e74 203e 5672 5cbe 30a7 82bd
00000210: 34d5 40be debe 453e 6c5d 1f3e 1bde 263e
00000220: 6c89 b63d e069 dcbd 37cd 363e 9ed3 44be
00000230: 9acc 30be 14da 3abe a0dd 01bc 18b0 c1bd
00000240: 18ec 08bd 654f 27bd b26c adbd b2d7 3a3e
00000250: 3ca0 853d 9c69 a53d daeb 423e 2d83 4cbe
00000260: 6053 33be c3a8 63be 38b7 f23d 684e 2abe
00000270: c042 f2bc 1429 1f3e 2ec5 5f3e ac46 37be
00000280: e155 323e a81d 183e f080 e43d 5bf0 57be
00000290: e86a 15be ce27 123e 2f99 5cbe 1260 8ebc
000002a0: 58f2 643d 0fd2 8d3d a87b d73d da79 83bc
000002b0: eb22 2e3e 4dec 353e d88f 20bd 082d b9bd
000002c0: f07e 27be 5afa dcbd cd52 d3bd f9d8 1ebe
000002d0: 2001 4f3c 7e1a 623e 94af 24be c48e f8bd
000002e0: b808 b4bc 67c5 e4bd 4467 90bd c8bd bf3d
000002f0: 30ba 23be 4098 5e3d c66f 3e3e d0e3 33bc
00000300: e00d a6bd f83f 39be 4835 2e3d ca26 a6bd
00000310: 20ae 0c3d 2879 773d 583a 4cbe d6c6 643e
-0.060759477 0.11083467 0.028431084 0.18225347 0.020726196 0.19752742 -0.010727534 -0.10000037
0.06818786 -0.11178759 0.082065135 0.09670671 -0.010114033 -0.18136406 -0.04271428 -0.093899176
0.029300582 -0.14736596 -0.079809666 0.1721404 -0.14173171 0.095552996 0.04923605 0.13427107
0.13900572 -0.008609941 0.051586464 0.14738543 0.0008328985 -0.14865515 -0.20523222 -0.17657083
0.1965113 0.16900553 0.085812636 -0.046755075 0.1711672 0.09504035 0.13356546 -0.17266354
-0.03776698 -0.037100583 -0.039710656 -0.071037054 0.11716086 -0.11461097 -0.095666885 -0.10511605
0.14552501 -0.0788417 -0.1929599 -0.16338235 -0.12282299 0.033826202 -0.07630649 0.21183494
0.16101456 -0.03883204 -0.16188383 0.108937114 -0.18914767 -0.17085402 0.09396699 0.19134858
-0.16109233 0.008725452 0.13595028 -0.21231996 0.18973851 -0.13283712 -0.17848933 -0.18500371
0.13897383 -0.10365766 -0.09883752 -0.125919 -0.15165961 0.14108145 0.1352081 -0.057827495
-0.02076737 0.06438121 0.12450152 0.017536163 0.2110151 0.15128767 -0.21688 0.21328118
-0.22080761 0.2019515 -0.047271587 0.041766435 0.13720803 0.09143901 0.099681266 -0.19268829
-0.19858398 0.031855013 0.17574252 0.14481549 -0.1180235 -0.12194838 -0.16851321 -0.113071345
-0.10742219 0.2133329 0.008509175 -0.06935845 -0.103790574 -0.1753442 0.0033734739 -0.15970042
-0.18888098 0.16830194 0.042133003 0.12615642 0.20669413 0.14499873 -0.05246513 0.12804198
-0.17677945 -0.092139125 -0.021860108 -0.19861028 -0.21055686 -0.20048907 -0.20939018 -0.07694563
0.13942432 0.1566939 -0.2152799 -0.06379545 -0.1883133 0.19311091 0.15562981 0.16295664
0.0891293 -0.107623816 0.17851721 -0.1922135 -0.1726555 -0.18247253 -0.007926375 -0.09457415
-0.03342828 -0.0408472 -0.084679976 0.18246344 0.06524703 0.08076784 0.19035283 -0.19971915
-0.17512274 -0.22232346 0.118513525 -0.16631472 -0.029572845 0.15543014 0.21852562 -0.17898053
0.17415573 0.14855063 0.111574054 -0.21087782 -0.14591563 0.14272997 -0.2154281 -0.017379794
0.05589518 0.06924831 0.105216324 -0.016049314 0.17005508 0.17765923 -0.03919968 -0.09041792
-0.16357017 -0.10789938 -0.10318527 -0.15512456 0.012634546 0.22080418 -0.16082603 -0.121366054
-0.021976814 -0.11170464 -0.07050946 0.0936237 -0.15988994 0.054344416 0.18597326 -0.010979608
-0.08108115 -0.18090808 0.04253128 -0.08112867 0.034345746 0.060418278 -0.19944131 0.22341475

layers.4.bias f4 [10]
00000000: 066e c23d 5f88 b03c b727 36be 04b8 223e
00000010: b8d2 b63d fc3a 6ebc 7018 f5bc 263d 263d
00000020: dff4 18be deca 20be
0.094936416 0.021549402 -0.17788588 0.15890509 0.0892691 -0.01454043 -0.02991888 0.04058566
-0.14937161 -0.15702388

layers.6.weight f4 [2, 10]
00000000: 8bc4 8f3e 3741 99be 20e0 d43d dc78 83be
00000010: 3d35 aebd 0bb9 783e 569d 02be db2e 3e3e
00000020: cb06 59bd 2cb8 cb3d 414a 8c3d 6da3 f7bd
00000030: 5c12 ce3d f171 8cbc f5f3 83bd cb43 c1bc
00000040: 4447 803d b941 473e 4c03 46be d6c8 8bbe
0.28079638 -0.29932567 0.10394311 -0.25678146 -0.08506248 0.24289338 -0.12755331 0.18572561
-0.052984994 0.09947237 0.068501 -0.12091718 0.100620955 -0.017144175 -0.064430155 -0.023591897
0.06263593 0.19458665 -0.19337195 -0.27301663

layers.6.bias f4 [2]
00000000: 509d 063e 28bb 0c3e
0.13145947 0.1374327
